results/HideAndSeek5/Seek/Seek-1204041.pt (torch, 972639 bytes, 36 tensors)

network_body._body_endoder.seq_layers.0.weight f4 [128, 179]
000000 8e 7c a0 bd f4 d8 a8 3d 82 0e 15 be 7e 88 da 3d
       -0.07836257 0.082445055 -0.14556316 0.10670565
000010 ec 80 c8 bd 0f 6b ba bd 86 c1 e1 3d 1e 30 b5 3d
       -0.09790215 -0.09102451 0.1102324 0.08847068
000020 20 75 b0 bd 08 1a ba bc 5f da 33 bd c0 0a 91 bc
       -0.0861609 -0.02271749 -0.043909427 -0.017705321
000030 30 b2 4d bc 27 d2 92 bd 6d 1c ed bd e7 8a bd 3c
       -0.01255469 -0.0716899 -0.115776874 0.023137523
000040 77 cf 2b be 45 67 62 bc 5f 96 35 3d 67 25 02 be
       -0.1677836 -0.013818567 0.04433286 -0.1270958
000050 68 04 9c bc 64 60 67 bd 95 bd 4e bd 64 75 13 be
       -0.01904507 -0.05648841 -0.05047377 -0.1440025
000060 d4 d9 92 bd d7 29 64 bd 5e b0 30 be 60 4a f4 bd
       -0.07170454 -0.055703964 -0.17254779 -0.119282484
000070 68 1d ca bc 77 a6 da 3c 2e 25 95 bd 6a 2e eb bc
       -0.024672225 0.026690705 -0.07282482 -0.028708655
000080 6c 60 3c bd ca aa 0d be 33 be 2d be 83 f2 8c 3d
       -0.045990393 -0.13834682 -0.16967086 0.06882193
000090 37 f3 92 bc 5b 0a c4 3d d1 fa 9a bd b1 5a 05 3e
       -0.01793824 0.09572288 -0.07567371 0.13022877
0000a0 61 85 9e bd 29 5d aa 3c 3e e9 2c bd bb be 1c 3d
       -0.07740284 0.020796375 -0.042214625 0.038267832
0000b0 5f 5e 4b bd d3 15 79 3c ae 40 26 3c 36 96 32 bd
       -0.049650546 0.015202957 0.010147257 -0.043600284
0000c0 63 8e 8b bd 6f 44 b0 3d 1b 7d 8e 3c 2e 82 aa 3d
       -0.068142675 0.08606803 0.01739364 0.08325611
0000d0 92 6b 05 bd 06 6b 78 bc 96 05 2d bd 83 59 a7 bd
       -0.03257329 -0.015162235 -0.042241655 -0.0817137
0000e0 db a4 65 bc 2f f7 9f bb 44 3e b4 bd aa ac b1 bd
       -0.014016355 -0.0048817615 -0.08800939 -0.08675511
0000f0 e1 56 5a 3e 39 ba 7f bc 92 45 70 bd 36 ed 92 bd
       0.21322204 -0.015608364 -0.058660097 -0.07174151
000100 15 7e e9 3d b3 fe 2d be 8c 31 aa 3d c4 a3 0f 3d
       0.11401001 -0.16991691 0.083102316 0.03506829
000110 92 7c 7f 3c e5 3d 09 be d5 ba d6 bd ac 89 ad 3c
       0.015593665 -0.13402517 -0.10484854 0.021183811
000120 83 48 3d 3e 1a ab b3 3d 8d eb 6a bd 9f cb 49 bd
       0.18484692 0.087728694 -0.057353545 -0.049266454
000130 6c ea 28 be 69 36 f5 ba 92 68 b7 bd 0c 1d 0b 3e
       -0.16495675 -0.0018708232 -0.08955492 0.13585299
000140 f3 ea 75 3d 7d c6 fc 3d 41 30 89 3d 06 38 0e 3d
       0.06003852 0.12342546 0.06698657 0.034721397
000150 44 9a 24 bc b5 05 1b 3e 86 5f 44 bd ce 20 d8 bd
       -0.010046545 0.15138896 -0.04794266 -0.10553132
000160 95 e7 4a 3e 3a 56 c9 bc 44 64 83 bd 9e dc d1 bd
       0.19814904 -0.024577249 -0.064156085 -0.102471575
000170 99 87 a4 3d 74 59 81 bd 39 7f 78 3d e6 81 af 3b
       0.08033676 -0.0631589 0.060668204 0.0053560613
000180 8b 5e 81 3d de a0 6d 39 0d a3 db bd c3 1c d3 3c
       0.06316861 0.00022662009 -0.10724459 0.02577055
000190 9b ef e0 bc c7 ba 62 bc 02 36 e5 bc 95 45 94 3c
       -0.027458003 -0.0138384765 -0.027979854 0.018099586
0001a0 22 df b5 bd 16 09 e9 3d 36 99 5e bd 19 54 4e 3d
       -0.0888045 0.11378686 -0.054345332 0.05037317
0001b0 0b 6c ff 3d bd ed 01 be 13 ee ed bc 54 89 b0 3c
       0.124717794 -0.12688346 -0.029044187 0.021549858
0001c0 cd 94 04 be 7e dc 8d 3d c7 5e 2a 3e e2 e6 54 3d
       -0.12947388 0.06926821 0.16637717 0.051978
0001d0 b4 ec 91 bc 59 47 bd 3c f7 99 01 be 3f 1d 76 3c
       -0.017813064 0.02310531 -0.12656389 0.015021621
0001e0 e1 5f 6c bd 76 09 9e 3d 36 f4 81 3d a2 c4 9f 3d
       -0.057708625 0.07716648 0.06345408 0.078011766
0001f0 8b c5 d6 bd 08 d5 b6 3c fd c8 b4 bd be d7 ed 3d
       -0.10486897 0.022318378 -0.08827398 0.11613415
000200 f3 ba 60 be 8b 5a e3 3c 32 f1 50 bd 57 7f 5f 3d
       -0.21946315 0.027753135 -0.05101127 0.0545648
000210 e5 65 db 3d 52 5f 3d bd c4 5e fc bd c3 78 1d be
       0.10712794 -0.046233483 -0.123227626 -0.15378098
000220 11 fa 60 bd 17 c0 28 3d bb c3 7c b8 96 36 b4 3d
       -0.054925982 0.041198816 -6.026377e-05 0.08799474
000230 b3 d3 cb 3d 2c b9 0a bd b2 ac c7 3d 32 f3 98 3d
       0.09952488 -0.033868 0.09749736 0.07468261
000240 85 65 c5 3c 12 87 78 bd 32 d3 25 bc d0 b7 5c 3d
       0.02409626 -0.060675688 -0.010121154 0.053886235
000250 db 27 93 3d 49 a0 5e 3d e3 a1 03 3d 1c 5e ac 3c
       0.07185336 0.05435208 0.03213681 0.021040969
000260 8f c3 fa 3d 8b f6 d1 bd e4 d3 11 bd 0f d3 7c 3d
       0.12244331 -0.102521025 -0.035602465 0.06172472
000270 ea b8 2b bc 42 70 8a bd a3 78 60 3e 3d c7 87 bd
       -0.010481099 -0.06759693 0.2192102 -0.066297986
000280 b3 0d 53 3d ee e7 90 3d b7 1f bb bd 03 77 80 3e
       0.051526736 0.07075487 -0.091369085 0.250908
000290 f5 14 a5 3d b5 05 32 bd 04 33 a2 3d 53 bd 81 bc
       0.08060638 -0.043462474 0.07919887 -0.015837347
0002a0 36 24 dc bd 18 7d de 3d 2a d9 3c bd 64 e8 f1 3b
       -0.10749094 0.108637035 -0.04610554 0.0073824394
0002b0 52 2f a4 3c 63 6f 39 bd 36 f0 b2 3d cc 9e 7f bc
       0.020042095 -0.045272242 0.08737223 -0.015601825
0002c0 0d a4 5a be 6a 64 2c bd c3 53 f1 bc c6 14 79 bd
       -0.21351643 -0.04208795 -0.029458886 -0.060810827
0002d0 58 c0 ce 3c 6b c9 6f bd f5 87 c9 3d 82 ab e7 3b
       0.025238201 -0.058541697 0.09840385 0.007070006
0002e0 2b d9 95 3d 99 eb d5 3d 10 be d8 bb c0 fe 46 bd
       0.07316812 0.10445327 -0.006614454 -0.048582792
0002f0 90 2c b1 bd 9c cc 92 3d c8 d4 46 bd 32 b9 0b be
       -0.08651078 0.071679324 -0.048542768 -0.13644865
000300 4c fe 86 bb fd f7 d5 3d 6f 52 c2 3d 7d 90 7e 3d
       -0.00411967 0.10447691 0.09488379 0.062149514
000310 36 49 fa 3c 9a 93 94 3c 1c 77 0c be 8b 55 bf bd
       0.030552488 0.018136788 -0.13717312 -0.09342488
000320 74 78 2c bc 54 03 d5 bd 4a 3b b9 3d 09 48 2e 3d
       -0.010526765 -0.104010254 0.090445116 0.042549167
000330 d5 79 29 3c dc 78 54 3e 41 9a c9 3c a6 b2 ba bd
       0.010343988 0.20749229 0.024609687 -0.09116106
000340 5b 5d 49 bd 11 1f 71 3c 80 6d ca bd 96 3c 69 bd
       -0.049161296 0.014716879 -0.09884167 -0.056942545
000350 d0 3b 0c 3b b1 4a 95 3d 93 02 49 bd b1 99 9e bc
       0.0021397956 0.07289637 -0.04907472 -0.019360395
000360 b2 fb 64 bd 92 f5 58 bd ff 86 96 3d 8f 8f 13 3e
       -0.055904098 -0.05296857 0.07349967 0.14410232
000370 0c 35 a0 bc 59 e1 d2 bd 64 53 14 bd 84 ed 06 be
       -0.019556545 -0.10296888 -0.03621234 -0.13176543
000380 46 7c 4b bd a0 af 10 3e c4 e9 22 3c f7 56 c5 bd
       -0.049679063 0.14129496 0.009943429 -0.09635728
000390 b0 5b d7 3d a0 b0 27 3e 7c c7 e7 3c fb 39 fb 3d
       0.10515535 0.16375971 0.028293364 0.12266918
0003a0 35 89 a5 bd 5a d9 3c 3d f6 db cb 3c c5 3b b5 3d
       -0.08082811 0.04610572 0.024885159 0.08849291
0003b0 48 20 4a 3d 59 d0 11 3d 50 c2 4d 3d 0d 0f 65 3d
       0.049347192 0.035599086 0.05023414 0.055922557
0003c0 3c ce 38 bd 5d 70 c4 3d a7 a9 8e bd 9b b8 29 be
       -0.045118555 0.09591744 -0.06965952 -0.16574328
0003d0 ed a8 ef 3d 03 5b 06 3e 49 fb b7 bd 2f 73 d7 3c
       0.11702142 0.13120656 -0.08983476 0.026300041
0003e0 f9 24 eb bc e5 f8 58 3d 9d 7e 8e 3d 9d 08 3a be
       -0.028704153 0.05297174 0.06957743 -0.18167348
0003f0 66 b4 58 3c a5 30 2f 3d 40 68 9e 3d 5a 34 b3 3d
       0.013226604 0.042771 0.07734728 0.0875022

network_body._body_endoder.seq_layers.0.bias f4 [128]
000000 67 57 13 3c fa 2a d0 bb 7a 51 f2 3c b5 82 02 bb
       0.008993006 -0.0063527795 0.029579867 -0.0019914333
000010 d0 5c d0 3a 75 e8 d6 3c 04 bc 77 bc 1f b4 d4 3c
       0.0015896801 0.026233891 -0.01512051 0.025964795
000020 f1 23 7e 3c be a7 2c bc a1 c5 13 3b 86 0b b2 bc
       0.015511499 -0.01053804 0.0022548216 -0.02173401
000030 c8 b5 32 3c 00 4a 18 3c 24 ec 4c 3d 89 b5 23 3c
       0.010907598 0.009294987 0.05002989 0.009992012
000040 23 3f 08 bd 86 dc 67 3c 3e 79 87 3c 0b 4e dd bb
       -0.033263337 0.014151698 0.016537305 -0.006753688
000050 0a c2 36 bd ab 2a 5c 3b 83 6e 28 3b a8 ef 89 3c
       -0.044618644 0.0033594768 0.0025700636 0.01683791
000060 63 a8 93 3c b1 ac 34 3c da 3d 82 3c 4a ca a2 bc
       0.018024629 0.011027501 0.015898634 -0.01987185
000070 ee 45 2b 3d e7 5c 7f bc ae fd 6b 3b 09 b6 38 bc
       0.041814737 -0.0155861145 0.003600936 -0.011273869
000080 44 ab 9f bb cc fe ef 3b 07 53 5b 3c 3e 94 ec 3b
       -0.0048727114 0.0073240753 0.0133864945 0.0072198203
000090 12 88 e6 3c 63 9f 9d 3c 56 c8 85 3c ff d7 03 3c
       0.028141055 0.01924104 0.01633088 0.008047103
0000a0 31 6a ad 3c f6 d9 c8 bb 2d 2f e0 3c fa b4 a7 3c
       0.0211688 -0.0061294986 0.027366245 0.020472039
0000b0 f0 fd 43 bb 4a de 83 39 5d 6e e8 3c ba 9d 98 3c
       -0.0029905997 0.00025151885 0.028372938 0.018629897
0000c0 9f d3 f7 bb 98 5f cb bb a3 70 17 3d 54 18 0a bc
       -0.007563069 -0.006206464 0.036972653 -0.008428652
0000d0 b5 b2 85 bb a0 21 84 3c f7 92 6f 3a 6d e6 63 3c
       -0.0040801414 0.016129315 0.0009139026 0.013909918
0000e0 af 4b a2 3c 87 95 cc bc 2d 96 e7 3b 60 03 14 3c
       0.01981148 -0.024973644 0.007067463 0.009034008
0000f0 64 ff 59 3a 0f d3 47 bc 47 56 9e 3c 36 b0 a8 ba
       0.0008315949 -0.012196316 0.01932825 -0.0012869898
000100 4f fc a8 bb 5f 86 7e 3c d8 60 ea 3b 3b c8 ae 3c
       -0.0051570307 0.015534966 0.007152658 0.021335712
000110 56 e2 f4 3c 03 71 0f 3c aa a0 05 3c 0f 81 41 3c
       0.029893082 0.008754971 0.008155981 0.011810555
000120 a0 b0 63 3a 27 30 a8 bc e1 0b 45 bb 5f a3 97 3b
       0.0008685682 -0.020530773 -0.0030066895 0.0046276296
000130 d4 a7 c6 3c 28 b4 18 3c 0d 29 df bc f3 50 5b 3c
       0.024249949 0.009320296 -0.027241254 0.013385999
000140 c2 90 cd ba e8 c5 1f bc d4 cf e3 bb 15 48 b4 3b
       -0.00156834 -0.009751774 -0.0069522653 0.005501757
000150 e4 0f d9 3c 97 41 74 bc 57 e1 61 3c f9 30 d4 3c
       0.026496835 -0.014908216 0.013786635 0.025902258
000160 72 1f d6 3c 80 df a6 3c 8a d9 ba 3c 2f 70 04 3d
       0.026138041 0.020370245 0.022808809 0.03233355
000170 4d 36 38 3a 5d 6c 50 3c d2 ab 83 3c 8a a1 36 bc
       0.00070271344 0.012721148 0.016073141 -0.011146912
000180 53 8a 0a 3c cb 62 32 3c 88 d8 fc 3c 5e 73 c7 3c
       0.008455831 0.010887812 0.030864969 0.024347004
000190 18 35 df 3b b0 3c 9c 3c 26 97 09 3c 2c b9 07 3d
       0.006811749 0.019071907 0.008397853 0.033135578
0001a0 4c 9f ec bc df 50 a7 ba 91 05 2d bc 5b 4b d5 3b
       -0.028884552 -0.001276519 -0.010560409 0.006509227
0001b0 90 a8 08 bc 72 c7 18 3d cc f3 f1 3c eb 3b c4 3c
       -0.00834097 0.03729958 0.029535197 0.023954352
0001c0 1c b8 81 bc a8 a0 30 bc a6 00 80 3b 5b e7 b3 3c
       -0.01583486 -0.010780491 0.0039063273 0.021960905
0001d0 0f b9 e8 3a 63 c3 09 3c 7b 7c 31 3b 74 ca 0f bd
       0.0017755347 0.0084084 0.0027082253 -0.035105184
0001e0 1c a7 87 3b 52 c7 9b 3c 95 f8 1d bc ff 26 8b bc
       0.004139794 0.019015942 -0.009641786 -0.016986368
0001f0 28 f2 82 3b fd 14 bf ba 6a 24 81 3c 3d 31 36 3c
       0.0039961524 -0.0014578399 0.015764434 0.011120138

network_body._body_endoder.seq_layers.2.weight f4 [128, 128]
000000 bf cb 07 be db 0d 15 3d fe dd 0b bd 04 79 02 3e
       -0.13261317 0.036390167 -0.034147255 0.12741476
000010 15 67 b2 bd 67 1f 35 3e 04 e8 fa 3a 0d 8b 25 3e
       -0.087110676 0.1768776 0.0019142632 0.16166325
000020 f4 d0 30 3d d3 eb 06 3e 76 92 fe bc 87 81 15 3d
       0.043168023 0.13175897 -0.031075697 0.03650048
000030 39 79 43 bd fe 47 12 3e 24 24 2b bd 10 df 04 3e
       -0.04772303 0.14285275 -0.041782513 0.12975717
000040 61 00 97 bd 58 a6 83 3c 5a cf 13 be 79 20 5c 3d
       -0.07373119 0.01607053 -0.14434567 0.053741906
000050 23 01 ef 3a 7e d8 7e 3d f5 40 50 3d c6 8a 9d 3d
       0.0018234592 0.06221818 0.050843198 0.076924846
000060 6f 7b d1 bd 83 fa 8c bd 3c 97 fc 39 9e 90 21 3d
       -0.10228621 -0.06883719 0.00048177864 0.03944456
000070 e4 aa 7c be 02 37 95 3b 01 ac 17 3c df 63 13 3d
       -0.24674565 0.0045536766 0.0092573175 0.035983916
000080 86 42 3c 3e d4 e8 f0 3d b1 3a 7f 3e fc 9f b4 bd
       0.18384752 0.117631584 0.24924733 -0.08819577
000090 5d 6e 23 3e 20 7c 90 3d 91 46 97 3d 7f 8b 7c 3d
       0.15960069 0.07054925 0.07386506 0.06165647
0000a0 d0 1d 26 bd e7 ad ce bd f3 72 e9 bd 96 02 d7 3c
       -0.040555775 -0.10091763 -0.11398878 0.02624635
0000b0 0b b9 4d bd ee 6a 91 bb c9 00 f2 3c b1 a4 49 be
       -0.0502253 -0.004437796 0.02954139 -0.19691731
0000c0 a9 c9 ad bc 58 78 82 3c 7a f0 c5 bd c6 87 83 bd
       -0.021214323 0.015926525 -0.09665008 -0.06422381
0000d0 ba 42 03 3b 1f 22 6a 3a 8d db 28 bd 02 ed 0a 3e
       0.0020028786 0.0008931476 -0.041225005 0.13566974
0000e0 0f b7 6f 3d e4 a2 9f bd 02 ce 25 bd 19 5d c9 bd
       0.058524188 -0.07794741 -0.040479667 -0.0983221
0000f0 ab b5 bf 3d 0d c0 66 bc 94 fa 56 bc 99 aa 22 3c
       0.09360822 -0.014083874 -0.013121266 0.009928369
000100 03 11 f3 3d 81 bd a8 3d 21 48 f2 bb 15 39 56 3d
       0.11868479 0.0823927 -0.0073938523 0.05230053
000110 a9 11 12 3e 86 d6 b8 bd 91 de 57 bc 66 27 07 3e
       0.1426455 -0.09025292 -0.013175623 0.13198623
000120 d1 25 e2 bd 0c 9f 34 be 76 a2 82 3c ca 2d c4 bc
       -0.11042369 -0.17638797 0.015946608 -0.023947615
000130 58 a1 d2 bd 18 ca d6 3d c4 38 33 bc 82 7e 12 3c
       -0.1028468 0.10487765 -0.010938827 0.008941295
000140 01 36 61 be 54 db b5 3d fb f8 73 3c 75 26 62 3d
       -0.21993257 0.08879724 0.014890905 0.055212457
000150 0f cb cd 3d a2 ec e7 3d 77 47 e9 bd a6 66 39 bd
       0.10048496 0.11324431 -0.11390584 -0.04526391
000160 17 22 d7 3c ed 8f 14 be 8f 80 20 3d 97 fd 16 be
       0.026261372 -0.14508028 0.039185103 -0.14745174
000170 89 c7 37 3d 3e 27 2d 3e 43 fd da 3c b7 42 fa 3d
       0.044868026 0.16909501 0.026732093 0.12219756
000180 e8 e0 02 3e 19 99 43 3e 5e 7d 8f 3d da b8 6f be
       0.12781107 0.19101371 0.07006334 -0.23410359
000190 5c 1d 07 3d 68 d9 4a bd 59 2e b3 3d 48 94 9b bd
       0.032986984 -0.04952374 0.087490745 -0.07596642
0001a0 2c 6d ac 3d 88 c2 35 3d 51 89 c4 bc e3 3d 33 bd
       0.084192604 0.044374973 -0.023991259 -0.04376019
0001b0 aa 68 9a bc 9d 27 b2 3c fa 9c 30 3d ca 02 dc 3d
       -0.018848736 0.021747405 0.043118455 0.107427195
0001c0 c3 6f 99 3c 82 4d ef 3b 99 70 11 3d d2 69 53 be
       0.01873005 0.007302941 0.035507772 -0.20645836
0001d0 fe 86 48 3e cb fd 15 bd b9 5e 20 3d 44 97 aa bd
       0.19582745 -0.03661899 0.039152835 -0.08329633
0001e0 3e d8 0b 3d d1 1f 1e be 6d ec 37 bd a4 4b c1 bd
       0.03414177 -0.15441824 -0.044903208 -0.094382554
0001f0 da 96 9a bd fb bd 2a bc db 47 9a bc 44 55 3b 3d
       -0.07548304 -0.010421271 -0.018833091 0.045735613
000200 91 ae 1e 3d 67 d9 d3 3c 67 86 39 bd e5 b9 d3 bd
       0.0387407 0.025860501 -0.04529419 -0.10338191
000210 49 50 3d bd 77 c4 33 3c 44 58 2a 3e ce 08 39 3a
       -0.046219144 0.010972134 0.16635233 0.0007058502
000220 a3 5c 77 bd f9 05 7c bd 00 f2 62 3d 2c 0f fa 3d
       -0.06039108 -0.061529133 0.05540657 0.12209925
000230 8f 63 11 bd 24 0d 05 3e 8d c9 a6 3c 93 55 3c be
       -0.035495337 0.12993294 0.020359779 -0.18392019
000240 8c 87 2c 3e 42 12 ca 3c 65 d3 04 bd 6c d5 f4 bc
       0.16848582 0.02466691 -0.032428164 -0.029886924
000250 9a 82 5d be 2b 51 0d be 8e 93 49 3c 50 d1 e3 bd
       -0.21631852 -0.13800494 0.012303246 -0.111239076
000260 c9 2c 28 bd d5 f3 52 bc 07 ae 80 3c 6b 36 26 3d
       -0.041058335 -0.012875517 0.015707983 0.04057924
000270 d5 db 7a bc 6c ca 42 be 5a 49 77 bd 00 c4 47 3d
       -0.015311201 -0.1902253 -0.060372688 0.048770905
000280 28 65 39 be 64 91 b1 3d 59 86 f8 3c a1 40 d9 bd
       -0.18104994 0.08670309 0.0303375 -0.1060803
000290 56 f7 1f 3e 72 c4 10 3c 1f 39 5f bb 4a c4 83 be
       0.15621695 0.008835899 -0.0034061146 -0.25735694
0002a0 cf 99 e1 bd 5d f8 25 bd 56 d5 ab 3d bd 82 64 bd
       -0.11015665 -0.04052006 0.083903 -0.055788744
0002b0 29 d9 bf bd 8c 8a ba 3c e1 92 1a be 9b f4 e7 3d
       -0.09367592 0.022771142 -0.15095092 0.11325952
0002c0 3a 89 fd 3c f1 e0 2c 3c 18 78 7b bd 2b e8 03 be
       0.030949224 0.010551677 -0.061393827 -0.12881534
0002d0 31 d1 d0 bd 50 b2 c9 bc 14 ec c4 bd a4 85 b0 3c
       -0.1019615 -0.024621159 -0.09615341 0.0215481
0002e0 72 75 47 3d 83 be b5 3d 6a 32 cf 3d 6f f9 cd 3d
       0.04869599 0.08874228 0.101170376 0.10057341
0002f0 f9 42 b8 bd 13 7d e5 3d f7 9d 9a bc 1a 11 d1 bc
       -0.08997149 0.11205497 -0.018874152 -0.02552085
000300 c1 cf 56 bc 07 ed 54 bc 13 b8 0e be e4 3f 1c bd
       -0.013111056 -0.012995965 -0.13937406 -0.03814687
000310 3b 2f 5c 3c c7 08 74 bd 62 6d bb bd 56 c2 3b bd
       0.013438995 -0.059578683 -0.091517225 -0.04583963
000320 03 b3 a1 bd 1a 7c 58 3d c7 50 8c 3d 86 97 e1 3d
       -0.07895472 0.052852727 0.068513446 0.11015229
000330 c4 2f 81 3e e1 d1 75 3d d9 ba d8 3d 39 00 8d 3d
       0.25231755 0.06001461 0.10582513 0.06884808
000340 dc 3a 89 3c 18 a8 4a 3d 14 07 23 be d6 3a c4 bd
       0.0167517 0.049476713 -0.15920669 -0.095815346
000350 d2 c7 e2 3d e7 db 2d bd cc fe eb 3c ca e4 34 be
       0.11073269 -0.042446043 0.02880802 -0.17665401
000360 3d ae df 3b 17 14 2d be 21 4d ad 3d 63 52 82 3d
       0.0068261907 -0.16902195 0.08461977 0.0636337
000370 99 9c ad bd 5b 46 7e bc 03 4d 52 3c ec 19 5c be
       -0.08477134 -0.015519704 0.012835744 -0.21494263
000380 75 b2 25 be 1d cc 90 bd 9e 45 f6 bc 68 a4 fa bd
       -0.16181357 -0.070701815 -0.030062493 -0.12238389
000390 b2 c6 14 be 00 fb a4 bd fe 8b 1a 3e 62 bf 9b 3b
       -0.14528921 -0.08055687 0.15092465 0.004753039
0003a0 87 88 4a be 62 18 d4 ba fd 0c a8 3c f2 dc 01 3d
       -0.19778644 -0.0016181583 0.020514006 0.03170485
0003b0 99 1e e5 bd b2 8c c1 3d 11 18 34 bd 41 a3 3a bb
       -0.11187477 0.094506636 -0.043968264 -0.0028478655
0003c0 29 b5 49 be ea 15 16 bc cd 44 ca bc 93 32 51 3e
       -0.19698013 -0.009160498 -0.02469101 0.20429449
0003d0 44 00 07 bd ef 94 76 bd b4 17 a5 bd d2 c5 eb bc
       -0.032959238 -0.060200628 -0.08061162 -0.028780852
0003e0 15 89 86 bc 1d 64 a7 bd f0 95 40 bd da 67 26 3e
       -0.016422788 -0.08173392 -0.04701799 0.16250554
0003f0 79 dc c9 bd 52 74 84 3c b6 a1 90 bc 5f db 77 3d
       -0.09856505 0.016168747 -0.017655235 0.060511943

network_body._body_endoder.seq_layers.2.bias f4 [128]
000000 8f 15 22 bc 6e 12 4a bb af bc d5 3c 03 be ff 3b
       -0.009892835 -0.003083374 0.026090948 0.0078046336
000010 05 85 d9 b9 19 26 70 3c dd 87 aa bc 8f 17 d0 bc
       -0.00041488573 0.014657521 -0.020816738 -0.025401859
000020 10 00 32 3c 26 51 c2 3b 80 8c 5c bc 9e 19 16 bc
       0.010864273 0.005930084 -0.013461232 -0.009161381
000030 66 01 00 3d 96 f0 e3 3c 19 b3 df bc 9f c0 17 3b
       0.031251334 0.027824681 -0.02730708 0.0023155583
000040 db 4e c3 3c e0 1d 80 3c c6 6a 68 3d ac d1 0c 3c
       0.023841312 0.015639246 0.056742452 0.008594912
000050 3e 18 77 3c ae 7f 91 3c a5 fd 3b bb 66 9f e7 bb
       0.015081463 0.017761078 -0.002868512 -0.0070685623
000060 4d d3 d3 3b 13 b5 c7 3a 96 e3 f5 3c 69 13 e5 3b
       0.006464398 0.001523646 0.030015748 0.0069908393
000070 40 31 f2 3b f0 ff 43 3c bd 0a 10 38 87 79 72 3c
       0.007391125 0.011962876 3.4342276e-05 0.014799482
000080 d9 8f 10 3c b7 47 fb 3c 0d cf a5 bc 46 b9 fb 3b
       0.008823358 0.030673845 -0.020240331 0.0076819984
000090 35 62 cb bb 06 a4 73 3c a4 17 15 3d 69 35 d0 3b
       -0.0062067755 0.014870649 0.0363995 0.0063540232
0000a0 d3 eb 26 bc 8b 46 3d 3b 4a ef 76 3c dd bc 2e 3d
       -0.010188061 0.0028881158 0.015071699 0.042660583
0000b0 72 08 f9 3b 30 63 65 bc 3f 4e b3 bb 13 e1 e3 3b
       0.0075998837 -0.014000699 -0.005471974 0.006954321
0000c0 ab 30 63 ba 77 f3 d8 3c 1f 4c 32 bb df 52 89 3b
       -0.0008666615 0.02648328 -0.0027206016 0.004190787
0000d0 73 d7 d3 3b 7a 2a 3e 3c 97 15 f9 3a 8e d0 d3 bb
       0.0064648925 0.011606807 0.0019003627 -0.0064640706
0000e0 b9 16 0b bc 97 86 53 bc 2d 21 8c 3c 31 cc f3 3c
       -0.008489304 -0.012910507 0.017105663 0.029760452
0000f0 67 c1 f0 3b a7 18 8d 3c fb 7b 7b 3c 4b 8d bb ba
       0.007347274 0.01722367 0.0153493835 -0.0014309076
000100 d3 23 ac 3c 85 7a 04 3d ad fb b8 ba 5f b7 2f 3c
       0.021013176 0.032343406 -0.0014113091 0.010724871
000110 ed cf b4 3c d6 3c 9c 3c d5 b8 55 bc e0 e0 a9 3c
       0.022071803 0.019071978 -0.013044556 0.020737112
000120 5d 2f 1e bc c5 39 6c 3b fb 7e 9a 3c be bb cc 3c
       -0.009654847 0.0036045176 0.018859377 0.024991866
000130 81 04 81 3c 70 1d 8a 3c 56 eb 25 3c 84 71 95 bb
       0.015749218 0.01685974 0.010126909 -0.0045606513
000140 49 fb 8c 3a 22 2d 81 bb 24 28 05 ba 8d f7 52 ba
       0.0010756041 -0.003942148 -0.0005079529 -0.0008047752
000150 15 30 c2 3c f4 1e 2d bd f8 34 22 bc ea 2c 8c bc
       0.023704568 -0.042265847 -0.009900324 -0.01711126
000160 ff 34 10 3c b3 64 49 bc 36 af 1c 3d ed bd 76 3b
       0.008801698 -0.012292075 0.03825303 0.0037649826
000170 44 2a 9d bb d7 12 1f 3c 98 43 11 bd c3 5e a8 3c
       -0.004796298 0.009709082 -0.035464853 0.020552998
000180 67 69 15 3c d7 db 31 bb 90 a4 98 bc 68 6e df 3c
       0.009119368 -0.0027139091 -0.018633157 0.027274325
000190 aa 39 dc 3b 22 d6 81 3c fd 1a 8e 3c 73 20 dc bc
       0.0067207413 0.015849177 0.017346853 -0.026870942
0001a0 d8 c5 b9 3b 07 d2 33 3c 1a 37 0c 3d 0a 29 18 3b
       0.0056693368 0.010975367 0.034232236 0.002321782
0001b0 98 a5 bc 3a 53 2b 8c bc 78 77 8d 3c 87 39 fc 3c
       0.0014392613 -0.017110502 0.017268881 0.03078915
0001c0 7a 8b 73 3c 6e 70 cf 3c f1 4c 9e 3c 7c 28 06 3d
       0.014864797 0.025322165 0.019323798 0.032753453
0001d0 5f eb ed 3c d9 25 92 3a 27 e4 1a bc 17 fb 49 3c
       0.029042898 0.0011150195 -0.00945381 0.012327931
0001e0 3a c0 71 3b c8 f7 c4 3a 81 cd 9e 3a 53 f4 88 3b
       0.0036888258 0.0015027458 0.0012115688 0.0041795163
0001f0 af 0e 58 3b 61 30 26 3b 52 3e 09 3c 7c 2d 3b 3c
       0.0032967736 0.0025358426 0.008376675 0.011424419

action_model._continuous_distribution.log_sigma f4 [1, 3]
000000 7e 47 89 be 41 a8 70 be dd f9 f6 be
       -0.26812357 -0.23501684 -0.48237506

action_model._continuous_distribution.mu.weight f4 [3, 128]
000000 c2 4e b7 bc 33 51 6e 3d 56 65 82 3d 45 86 82 3d
       -0.022376422 0.058182906 0.063669845 0.06373266
000010 60 53 50 3c b1 07 5b bd 1a c5 12 bd 71 e9 b5 bc
       0.012715191 -0.053474132 -0.035832502 -0.02220604
000020 14 a4 3e bd ee 01 5f bd d9 7d 52 bb 96 c2 c0 b8
       -0.046543196 -0.0544452 -0.0032118468 -9.191518e-05
000030 65 99 7a 3d 80 f0 9f 3d f5 ea 47 bc a2 dc 13 3c
       0.061181445 0.078095436 -0.012202014 0.009024771
000040 9c 27 8c 3c f7 ff 84 3c 6a 98 50 3c 27 32 44 3d
       0.017108731 0.016235335 0.012731651 0.04789939
000050 71 70 39 ba 8c c9 04 3d 4f be 17 3d 4e f9 ae bd
       -0.0007073945 0.032418773 0.037046727 -0.08543645
000060 db 63 97 3c 98 48 37 bb 4e 42 34 bb 48 0a 8c 3a
       0.018480232 -0.0027966853 -0.002750534 0.0010684216
000070 0c 7f 1b bc 75 bc 3a 3d fd 34 e4 3c 12 da 46 3d
       -0.00949074 0.045589883 0.027857298 0.04854781
000080 ee c9 b9 3c df 37 2f 3d f6 73 14 bd ef 00 37 3d
       0.022679295 0.042777892 -0.0362434 0.044678625
000090 d8 10 ee 3a c3 d6 90 bd 79 0e b4 3d d8 62 92 bc
       0.0018162979 -0.070722125 0.08791823 -0.017869398
0000a0 7b 74 4f bd 46 4e 31 bd e8 15 fb 3c b0 0c b0 3c
       -0.050648194 -0.043287538 0.030650094 0.021490425
0000b0 65 40 81 bc f2 75 ae bc f4 62 d1 bc 93 3a 09 3d
       -0.015777776 -0.021296475 -0.02555988 0.033503126
0000c0 dc 74 c7 bb 65 c9 11 bc c6 9e 39 bd 4e 33 97 3c
       -0.006086929 -0.008898114 -0.045317434 0.018457081
0000d0 32 ed 91 bc d7 d2 7b bc a1 3a 28 3d 6c 26 0d bd
       -0.017813299 -0.015370092 0.041071538 -0.03446047
0000e0 d9 2b 4e 3c 0f ff a9 3b db 13 a3 3b 13 8c 11 3c
       0.012583696 0.005187876 0.004976732 0.008883494
0000f0 11 95 69 bd 9a c2 f3 3b fb f8 e5 bc 84 96 cd bd
       -0.057026926 0.00743897 -0.028072825 -0.10038474
000100 7d b1 01 3c 9b 55 d8 3b 75 49 56 bd bc 77 b2 bc
       0.007915852 0.006602002 -0.052316148 -0.02178561
000110 5e 34 3e 3d 6a 48 06 3b dc 23 04 bd 1f ac 74 bc
       0.04643666 0.002048994 -0.03226076 -0.014933615
000120 32 7f 9f bb b6 fc 73 bd cc 09 27 3c 9a 9a 1f 3d
       -0.004867458 -0.059567176 0.010195207 0.0389658
000130 6a 5a 23 3d 3e df 29 3c 13 b6 0e ba a7 b6 31 3c
       0.039881147 0.0103681665 -0.0005444001 0.01084677
000140 c3 ad 99 3b 6d 2e 11 3c 01 fa 78 bc 83 12 09 be
       0.0046899035 0.008861166 -0.015196324 -0.13385968
000150 19 5d ea bc 3e ba 13 bd 1d f8 c9 3c 17 9f 71 bd
       -0.028608846 -0.036066286 0.024654442 -0.05898961
000160 d7 8b 8e 3c ce 22 d8 bc 28 49 96 3c ee 13 54 bb
       0.017400665 -0.026383784 0.01834543 -0.0032360512
000170 26 1f 12 bc 1c 6a 2a 3d 98 64 36 bb 46 5d 8d bd
       -0.008918559 0.0416051 -0.0027830955 -0.06902556
000180 36 fe fe 3b dd 86 9c bd 75 40 59 3c a5 25 30 3d
       0.007781769 -0.07642911 0.013259997 0.04300465
000190 ae 0e 2a 3d 67 5d 8f bc 01 91 b2 bc 96 54 28 3b
       0.041517906 -0.017500592 -0.021797659 0.0025685183
0001a0 9f f3 81 3d 08 e6 ff bb 1e 7c 11 3d a3 a7 e0 3b
       0.06345295 -0.0078094043 0.035518758 0.0068559214
0001b0 7a 02 2e 3d 1d 57 a2 3b ad 5d 07 3d 32 73 77 bb
       0.04248283 0.0049542324 0.03304832 -0.003775787
0001c0 ac 8e 5b 3c af 58 de 3b f4 34 0b 3d 84 bd 27 3d
       0.013400715 0.0067854743 0.033986047 0.04095222
0001d0 d6 31 3b 3d b9 a9 5b bb da 15 62 3c 39 3c 86 bb
       0.045701824 -0.003351791 0.013799155 -0.0040965346
0001e0 ad 41 8b bd 3d c5 a8 bc 56 c4 bf 3b ce 54 fa 3c
       -0.06799636 -0.020601863 0.0058522625 0.030558016
0001f0 61 a8 ab bd 32 52 8e bd c0 33 66 bd 74 d8 8c bc
       -0.08381725 -0.06949271 -0.056201696 -0.017193057
000200 95 42 35 bd 8a 54 b1 bb 97 57 28 3d 1a cb 9b bd
       -0.04425295 -0.005411689 0.041099157 -0.07607098
000210 13 90 20 3d 32 60 f3 3c e2 54 fd 3b 3b 53 b3 b8
       0.0391999 0.029708955 0.007731066 -8.550888e-05
000220 e9 7a eb 3c d8 af 55 3d 80 d8 5e 3c 0b c7 4a bd
       0.028745132 0.05216965 0.013601422 -0.04950623
000230 05 6b d2 3c 3b 9f 5d bd 40 bb aa bc da 47 10 3d
       0.025685797 -0.054106932 -0.02084124 0.035224773
000240 24 af a0 3d f5 95 f3 bb 0e 37 69 bd 8a 18 92 3c
       0.078459054 -0.0074336478 -0.05693727 0.017833967
000250 3d 71 8c bd b8 45 8b 3d e4 76 16 bd 1c 5e 8c bc
       -0.06857536 0.06800407 -0.036734477 -0.017134719
000260 93 d2 34 bd 57 be 5d 3d 81 ca a3 3d f9 e7 dd bd
       -0.04414613 0.0541366 0.07997609 -0.10835261
000270 18 ea a5 3c 1a 9a 41 3d 81 3f 02 bd 7a 5c 93 bd
       0.020253226 0.047266103 -0.031798843 -0.07195373
000280 c1 c5 32 bd 58 9a e4 3b ac 9a 21 bc ef 6f f7 3b
       -0.043645624 0.006976407 -0.009863537 0.0075511853
000290 87 69 90 3d 0d 7e 65 3d 2c 5c 98 bd df 2e 1e 3d
       0.07051378 0.056028415 -0.074394554 0.03861892
0002a0 c1 fb 80 bc 33 59 61 bd de cf 57 3d c0 6e 8c 3d
       -0.015745046 -0.055016708 0.052688472 0.068570614
0002b0 69 e5 62 bd 45 0d 6a bd ab a7 c5 3b e1 9f dd 3c
       -0.055394564 -0.05714156 0.0060319505 0.027053775
0002c0 32 06 2a bd 4b bd 60 3d 7e 02 c3 bc 17 cc 49 bb
       -0.041509815 0.054868024 -0.0238049 -0.0030791813
0002d0 5e 8f aa 3c 4e 91 94 3d 62 eb 07 bd b2 43 7e bc
       0.020820316 0.07254277 -0.033183463 -0.0155190695
0002e0 4e df 1d bb 87 ee 86 bd 04 68 0d 3d a8 f2 b0 bc
       -0.0024089399 -0.06588464 0.034523025 -0.021600083
0002f0 63 26 f0 ba 88 16 91 3d f7 b2 b7 bc a3 1d d2 bc
       -0.0018321987 0.070843756 -0.022424204 -0.025648898
000300 5b 63 a6 bd 09 6c 86 3d bb f2 07 be b2 e8 29 3d
       -0.08124419 0.06563575 -0.13276188 0.04148168
000310 f6 13 16 3c cb 67 0a 3b 6c d6 da 3c c3 86 79 3c
       0.0091600325 0.0021118994 0.026713572 0.015229884
000320 fc cb 62 bd eb bb cd bb 7c 31 9e 39 33 01 5e bc
       -0.055370316 -0.006278505 0.00030172977 -0.013550091
000330 ca b8 b1 3d 6f 77 0d 3d b3 ea 90 3d cd b7 64 bd
       0.08677824 0.03453773 0.07076015 -0.05583935
000340 96 16 3f 3c 80 ab 1f 3c 2e 5e 0f 3d 11 ac 13 bd
       0.0116631 0.009745479 0.035001926 -0.036052767
000350 83 99 b1 3d c5 7e ff bc ec ad 15 bd c2 bc 46 bd
       0.08671858 -0.031188378 -0.036542818 -0.048519857
000360 5b 4b 25 3b 19 95 56 bc c0 29 07 3e 5b c2 b2 bc
       0.0025221917 -0.013097071 0.1319952 -0.021821192
000370 bd d5 31 bd bb fa e4 bc 88 af 8c bc e6 94 ac 3d
       -0.043416727 -0.027951589 -0.017173544 0.084268376
000380 3f 4c dc bc de e9 3e bd 22 2c e5 3b 77 7c 84 bc
       -0.026891826 -0.046609752 0.0069937864 -0.01617263
000390 45 49 2c bd 0a 63 2b 3d c9 5f 66 3d 5d d6 34 bc
       -0.042062063 0.041842498 0.05624369 -0.011037436
0003a0 79 7c c8 bc 3b 9b 23 3d ee 6e 2d bd 7b 6a 7d 3c
       -0.024473416 0.03994296 -0.04234212 0.015467281
0003b0 ee d7 05 bd cb a6 0d 3c d3 44 3c 3b 8d 63 05 3d
       -0.03267663 0.008645724 0.0028727546 0.032565642
0003c0 c0 cc d2 3c 95 1c 19 3d 72 36 99 bc 99 2e 72 3d
       0.025732398 0.037380774 -0.01870272 0.05912647
0003d0 7d 24 3f 3d 12 cf a3 3c a7 81 35 3c cb 8f 2f 3d
       0.046665657 0.0199962 0.011078275 0.04286174
0003e0 bc 09 3a bd ce f6 57 bd 64 01 9b bc ed 81 06 bd
       -0.04541944 -0.052725606 -0.018921562 -0.03283875
0003f0 39 cd eb 3c 9e ca 0c 3d 7b 85 81 bd 6f a5 fd 3b
       0.028784381 0.03437292 -0.063242875 0.0077406685

action_model._continuous_distribution.mu.bias f4 [3]
000000 e0 6c 55 3c af 0e 7b 3c 6f 50 a5 39
       0.013026446 0.015323325 0.0003153118

exp_avg f4 [128, 179]
000000 c9 d5 af 37 00 00 00 00 e3 d8 a1 38 05 ed 66 38
       2.0961177e-05 0.0 7.7174765e-05 5.5057015e-05
000010 27 41 3e 38 00 00 00 00 0a 1a 0e b7 f7 db 66 38
       4.5360208e-05 0.0 -8.469922e-06 5.504113e-05
000020 65 40 e4 b7 00 00 00 00 f4 09 9f 38 69 11 50 38
       -2.7209704e-05 0.0 7.583565e-05 4.960728e-05
000030 77 24 7f b7 00 00 00 00 09 ed ba 37 76 45 e6 38
       -1.5207675e-05 0.0 2.2283306e-05 0.00010980193
000040 e4 3c ac 37 00 00 00 00 0c d8 d1 38 9e ec 8e 38
       2.0532352e-05 0.0 0.000100061385 6.815161e-05
000050 88 15 aa b7 00 00 00 00 4c a1 c7 b6 75 a1 2e 39
       -2.0275605e-05 0.0 -5.9494396e-06 0.0001665408
000060 41 76 ce b6 00 00 00 00 d4 ae ef b7 c8 24 8c 38
       -6.153045e-06 0.0 -2.857243e-05 6.682571e-05
000070 8a bf a4 b5 00 00 00 00 16 3a 6f b8 d7 ec 28 39
       -1.2274697e-06 0.0 -5.7036137e-05 0.00016109958
000080 61 cf 11 37 00 00 00 00 f1 af 3c 39 91 d4 eb 38
       8.690958e-06 0.0 0.0001799462 0.00011245267
000090 9a dd d6 b3 00 00 00 00 8b 20 ad 38 ec a9 41 39
       -1.00054606e-07 0.0 8.2553444e-05 0.00018469215
0000a0 49 52 e7 b6 00 00 00 00 64 ca 70 b7 85 58 10 38
       -6.8939157e-06 0.0 -1.43522375e-05 3.4414716e-05
0000b0 ce db a9 37 00 00 00 00 04 05 36 38 91 49 96 38
       2.0248724e-05 0.0 4.3396853e-05 7.16626e-05
0000c0 db 76 33 b8 00 00 00 00 4a 40 ca b6 d4 a1 8d 38
       -4.278762e-05 0.0 -6.0275534e-06 6.753547e-05
0000d0 e8 9b 89 b7 00 00 00 00 ff 4a 33 b8 24 af 72 37
       -1.6404272e-05 0.0 -4.274677e-05 1.4465102e-05
0000e0 e1 ed 79 36 00 00 00 00 a6 71 72 b8 00 f7 13 39
       3.7242355e-06 0.0 -5.780314e-05 0.00014111027
0000f0 20 51 ce b7 00 00 00 00 4e a2 f8 37 dd ea 85 b7
       -2.459489e-05 0.0 2.9639483e-05 -1.5964202e-05
000100 3e 82 8e b7 00 00 00 00 56 7c 06 37 90 70 48 39
       -1.6988368e-05 0.0 8.015972e-06 0.00019115419
000110 24 06 34 b7 00 00 00 00 ca c1 d9 38 71 74 55 38
       -1.0730266e-05 0.0 0.00010383462 5.0891602e-05
000120 c4 86 cf b7 00 00 00 00 9e ef 15 b7 5f 0f 4e 39
       -2.4739078e-05 0.0 -8.936882e-06 0.00019651417
000130 bf f0 e2 b5 00 00 00 00 b2 e4 83 b7 70 ba 3a 38
       -1.6908378e-06 0.0 -1.5722911e-05 4.451949e-05
000140 6e cd c6 b7 00 00 00 00 cf 5f c0 b7 e7 de 3e 39
       -2.36991e-05 0.0 -2.2932798e-05 0.0001820285
000150 f4 41 02 b7 00 00 00 00 f1 7d da b6 98 40 6f 38
       -7.76396e-06 0.0 -6.511568e-06 5.7042198e-05
000160 d1 b8 56 b8 00 00 00 00 8a 10 e3 b7 55 32 e6 38
       -5.11937e-05 0.0 -2.706821e-05 0.0001097663
000170 b0 a2 ae b7 00 00 00 00 d7 34 f4 b8 b5 bd 08 39
       -2.0818174e-05 0.0 -0.00011644669 0.00013040642
000180 23 11 b5 36 00 00 00 00 77 f6 b0 b8 84 1d 19 38
       5.3962153e-06 0.0 -8.438242e-05 3.650553e-05
000190 50 2e 3d b7 00 00 00 00 54 89 af b7 a3 78 3c 39
       -1.1276061e-05 0.0 -2.0925574e-05 0.00017974018
0001a0 78 ef 23 b6 00 00 00 00 3e 64 1a b8 14 fd 39 37
       -2.4428282e-06 0.0 -3.680982e-05 1.1085784e-05
0001b0 36 5b 22 34 00 00 00 00 7b 7f e8 37 2f 54 20 39
       1.5120608e-07 0.0 2.7715918e-05 0.0001529015
0001c0 69 cb bf b4 00 00 00 00 3c fc 52 38 06 74 8a 37
       -3.5724523e-07 0.0 5.0302813e-05 1.650491e-05
0001d0 60 0a fb 37 00 00 00 00 fd f7 8d b8 05 0e 18 39
       2.9926363e-05 0.0 -6.769595e-05 0.00014501072
0001e0 73 fc d2 b5 00 00 00 00 a2 bc cf 38 3b 8f 31 38
       -1.5719692e-06 0.0 9.905665e-05 4.2333482e-05
0001f0 df e0 2c 37 00 00 00 00 53 79 ef 36 f4 2e 43 39
       1.0304356e-05 0.0 7.136879e-06 0.0001861414
000200 12 6c 13 b8 00 00 00 00 a2 df 31 38 9a 9e f5 38
       -3.514818e-05 0.0 4.2408363e-05 0.00011712052
000210 56 1e c2 b6 00 00 00 00 f8 2f af 39 ed 85 a9 39
       -5.785182e-06 0.0 0.0003341434 0.00032333974
000220 37 70 81 b3 00 00 00 00 8b d9 b4 38 36 00 31 39
       -6.0274424e-08 0.0 8.6235894e-05 0.00016880114
000230 62 7f 0b 37 00 00 00 00 24 8e 4f 38 26 ef 3d 39
       8.314704e-06 0.0 4.9485025e-05 0.00018113534
000240 8d da 97 36 00 00 00 00 eb 86 8f 39 b5 9a 8c 39
       4.5255933e-06 0.0 0.00027375607 0.00026818147
000250 a8 b5 a2 34 00 00 00 00 3f 0a 49 38 c5 c1 04 39
       3.0307024e-07 0.0 4.7931677e-05 0.00012660686
000260 e7 a0 52 37 00 00 00 00 0c 1e 2b 39 bf 3b 3f 39
       1.2554438e-05 0.0 0.00016319024 0.00018237437
000270 6a 4a 44 b6 00 00 00 00 3a 93 e9 38 ae ca 20 39
       -2.924959e-06 0.0 0.00011137729 0.00015334293
000280 65 63 7f b5 00 00 00 00 1c 44 83 38 62 30 dc 38
       -9.513954e-07 0.0 6.259253e-05 0.000104994295
000290 7e 15 1b b6 00 00 00 00 1f c7 89 38 d0 67 35 39
       -2.310931e-06 0.0 6.569758e-05 0.00017300178
0002a0 fb f9 c3 39 db 9b 0a 39 8b 0a 2b bb 00 00 00 00
       0.00037379548 0.00013218766 -0.0026098813 0.0
0002b0 a9 aa b9 38 00 00 00 00 fd 83 1c 39 c5 e9 a0 39
       8.853275e-05 0.0 0.00014926489 0.0003069175
0002c0 39 14 0b 39 18 d1 1e bb e5 35 3c 38 fd 94 03 b7
       0.00013263607 -0.0024233516 4.4872886e-05 -7.8428975e-06
0002d0 00 00 00 00 6a 0c 18 b9 cb 33 e9 b8 c5 12 ed b7
       0.0 -0.00014500474 -0.00011119953 -2.8261342e-05
0002e0 00 00 00 00 88 97 bf b8 5f 26 bb b8 b1 cc d1 b7
       0.0 -9.1358146e-05 -8.924002e-05 -2.5010058e-05
0002f0 00 00 00 00 33 21 34 38 a4 9e 8a b7 3e 9c 38 b8
       0.0 4.2946263e-05 -1.6524755e-05 -4.401453e-05
000300 00 00 00 00 9a ec 7f b8 ab 99 d5 b8 25 62 87 b7
       0.0 -6.101709e-05 -0.00010185254 -1.6138956e-05
000310 00 00 00 00 2c e2 f2 b8 ac 41 66 35 f0 77 88 b8
       0.0 -0.00011581587 8.577724e-07 -6.5073255e-05
000320 00 00 00 00 11 a2 ab b8 a8 91 d9 b8 5d 99 07 b8
       0.0 -8.1841026e-05 -0.00010374497 -3.232934e-05
000330 00 00 00 00 15 9b d6 36 a5 df 19 38 b1 30 ab b6
       0.0 6.395751e-06 3.6686328e-05 -5.1018656e-06
000340 00 00 00 00 31 e6 0d 38 c7 74 45 b8 f2 05 3d b8
       0.0 3.3831402e-05 -4.7077217e-05 -4.506665e-05
000350 00 00 00 00 ea 0e 02 b9 68 b8 20 37 47 14 b3 b6
       0.0 -0.00012403322 9.579679e-06 -5.3369763e-06
000360 00 00 00 00 37 7c 07 b9 70 d6 39 b8 6f 2e b1 b7
       0.0 -0.00012920877 -4.4307148e-05 -2.1121667e-05
000370 00 00 00 00 fe 9d 02 39 51 bb 8f 38 4b e6 0c b8
       0.0 0.00012456623 6.853662e-05 -3.3593078e-05
000380 00 00 00 00 cb 52 fa b8 12 90 94 b8 b4 01 65 b8
       0.0 -0.0001193635 -7.084025e-05 -5.459944e-05
000390 00 00 00 00 92 8e 8e b6 17 c0 1d b8 ec 37 c2 37
       0.0 -4.248527e-06 -3.7610615e-05 2.3152643e-05
0003a0 00 00 00 00 a2 99 6d 36 f1 c8 36 36 29 37 c6 b8
       0.0 3.5405178e-06 2.7237077e-06 -9.45165e-05
0003b0 00 00 00 00 6d f2 15 37 64 40 b4 b8 e1 de 1c 38
       0.0 8.937536e-06 -8.5950625e-05 3.740087e-05
0003c0 00 00 00 00 65 92 a1 b7 da 2d 76 38 6d 41 23 b7
       0.0 -1.9260866e-05 5.8693673e-05 -9.73079e-06
0003d0 00 00 00 00 fe 47 40 b8 3d cb 9b b8 12 7c b7 36
       0.0 -4.5843415e-05 -7.428832e-05 5.4682687e-06
0003e0 00 00 00 00 af 3d e7 37 97 be 08 38 3a ad 9f b6
       0.0 2.756607e-05 3.2602427e-05 -4.7587355e-06
0003f0 00 00 00 00 5f 5b 90 b8 4d aa 2d b6 18 c8 a1 b7
       0.0 -6.883474e-05 -2.5878137e-06 -1.9285872e-05

exp_avg_sq f4 [128, 179]
000000 a6 b7 b5 32 00 00 00 00 7f 34 ec 33 cb be ea 34
       2.1154687e-08 0.0 1.09991554e-07 4.3724717e-07
000010 e9 b5 90 32 00 00 00 00 f2 6d f3 33 81 c3 f8 34
       1.684653e-08 0.0 1.1335568e-07 4.6335848e-07
000020 b8 ad 93 32 00 00 00 00 87 ff 08 34 42 ec ea 34
       1.719205e-08 0.0 1.2758947e-07 4.3757797e-07
000030 3c 81 4d 32 00 00 00 00 c3 4f ef 33 f2 ca 03 35
       1.1961955e-08 0.0 1.1143813e-07 4.909663e-07
000040 59 a1 61 32 00 00 00 00 0e 65 25 34 82 85 f2 34
       1.313341e-08 0.0 1.5403586e-07 4.5173152e-07
000050 bb 6e 33 32 00 00 00 00 eb ed 10 34 50 62 0f 35
       1.04443485e-08 0.0 1.3497599e-07 5.3414715e-07
000060 c4 05 12 32 00 00 00 00 91 04 29 34 ab 81 f3 34
       8.4996294e-09 0.0 1.5741013e-07 4.5356623e-07
000070 a4 9d d8 31 00 00 00 00 8d 49 2d 34 c0 0d 19 35
       6.304349e-09 0.0 1.6138638e-07 5.701695e-07
000080 a6 8a 98 31 00 00 00 00 1e c2 42 34 53 a5 f8 34
       4.4395447e-09 0.0 1.8138277e-07 4.631389e-07
000090 cd ee ae 31 00 00 00 00 57 bf 58 34 79 db 1d 35
       5.091215e-09 0.0 2.0186177e-07 5.880643e-07
0000a0 61 01 87 31 00 00 00 00 e7 00 28 34 85 42 f0 34
       3.929174e-09 0.0 1.5646548e-07 4.4751883e-07
0000b0 1d fc b8 32 00 00 00 00 e1 77 d8 33 4d 31 e2 34
       2.1535067e-08 0.0 1.008009e-07 4.213165e-07
0000c0 31 8e 96 32 00 00 00 00 1c 78 dc 33 c0 b3 f4 34
       1.752696e-08 0.0 1.0266396e-07 4.5579327e-07
0000d0 36 8d 9f 32 00 00 00 00 8d 9e f7 33 f1 98 dd 34
       1.8574251e-08 0.0 1.1530674e-07 4.1275737e-07
0000e0 e1 d7 77 32 00 00 00 00 fd cc e8 33 42 76 03 35
       1.4426377e-08 0.0 1.0840629e-07 4.897339e-07
0000f0 ef 43 93 32 00 00 00 00 b2 d3 1f 34 3c 01 e7 34
       1.7143945e-08 0.0 1.4885043e-07 4.3028e-07
000100 fe f7 2f 32 00 00 00 00 bb 47 15 34 67 5b 10 35
       1.02427276e-08 0.0 1.3902802e-07 5.377719e-07
000110 f0 85 1f 32 00 00 00 00 ab 65 30 34 7c 29 f5 34
       9.285472e-09 0.0 1.6428264e-07 4.566499e-07
000120 47 63 f0 31 00 00 00 00 41 b8 2f 34 4a 16 17 35
       6.996206e-09 0.0 1.6365176e-07 5.628432e-07
000130 21 54 a2 31 00 00 00 00 27 f3 47 34 0f 44 f9 34
       4.724385e-09 0.0 1.8621778e-07 4.6429383e-07
000140 bd 1a e6 31 00 00 00 00 90 b4 61 34 b6 83 1f 35
       6.696921e-09 0.0 2.1020446e-07 5.942378e-07
000150 30 3b a3 31 00 00 00 00 1f eb 2a 34 0c 1a ee 34
       4.750653e-09 0.0 1.591802e-07 4.4349906e-07
000160 af 3d eb 32 00 00 00 00 69 c1 cf 33 c2 5f da 34
       2.7385651e-08 0.0 9.67437e-08 4.0675337e-07
000170 59 3e b2 32 00 00 00 00 c8 b0 d2 33 89 24 e8 34
       2.075028e-08 0.0 9.8110434e-08 4.323995e-07
000180 66 22 ba 32 00 00 00 00 a1 e6 fb 33 ac 5f dc 34
       2.1668892e-08 0.0 1.17300495e-07 4.1047804e-07
000190 6b 16 6d 32 00 00 00 00 7e b5 e2 33 42 92 fe 34
       1.3800313e-08 0.0 1.0556958e-07 4.7417603e-07
0001a0 f6 c5 7d 32 00 00 00 00 18 cb 22 34 d5 3f e5 34
       1.4771549e-08 0.0 1.5161311e-07 4.2701018e-07
0001b0 a3 9d 38 32 00 00 00 00 ac b4 12 34 15 b2 0c 35
       1.0746052e-08 0.0 1.3663038e-07 5.241321e-07
0001c0 1e e4 0e 32 00 00 00 00 29 ec 3a 34 35 60 ee 34
       8.317356e-09 0.0 1.7408514e-07 4.4400954e-07
0001d0 81 db ff 31 00 00 00 00 6f 4b 39 34 ab 92 1b 35
       7.4464315e-09 0.0 1.725691e-07 5.795543e-07
0001e0 1f 55 d6 31 00 00 00 00 ae dd 3c 34 e8 e6 f1 34
       6.237897e-09 0.0 1.7589511e-07 4.5057755e-07
0001f0 d4 ba d5 31 00 00 00 00 50 f2 5a 34 b9 ee 20 35
       6.220356e-09 0.0 2.0390985e-07 5.995203e-07
000200 d9 c1 98 31 00 00 00 00 05 f6 0e 34 04 63 e3 34
       4.44582e-09 0.0 1.3314282e-07 4.2354088e-07
000210 61 f8 ae 30 00 00 00 00 d9 3f c4 34 b1 c4 25 35
       1.273076e-09 0.0 3.65543e-07 6.1753514e-07
000220 df 20 b8 30 00 00 00 00 47 a7 4b 34 29 1d f3 34
       1.3397105e-09 0.0 1.8966703e-07 4.5283494e-07
000230 42 0c 12 31 00 00 00 00 2b e9 ed 34 93 25 44 35
       2.1252764e-09 0.0 4.4314342e-07 7.307037e-07
000240 8c 0b 7d 30 00 00 00 00 58 58 ca 34 0d ad 27 35
       9.2057273e-10 0.0 3.768971e-07 6.246417e-07
000250 8d c5 f6 30 00 00 00 00 e4 f6 44 34 cf a8 f1 34
       1.7955003e-09 0.0 1.8343741e-07 4.5012573e-07
000260 a3 d0 0d 31 00 00 00 00 38 af dc 34 8d fb 3c 35
       2.0636797e-09 0.0 4.1105682e-07 7.040151e-07
000270 1e 89 86 30 00 00 00 00 2c a6 d9 34 4d 22 2b 35
       9.788754e-10 0.0 4.0540306e-07 6.375238e-07
000280 e1 1d c1 30 00 00 00 00 79 bf 3f 34 ae c5 ef 34
       1.405109e-09 0.0 1.7857919e-07 4.466105e-07
000290 b2 8b 1a 31 00 00 00 00 00 0b dd 34 ec 95 3b 35
       2.2489357e-09 0.0 4.117246e-07 6.9881094e-07
0002a0 e5 7c 5c 37 f1 8e 00 35 80 29 85 38 00 00 00 00
       1.3142101e-05 4.7891723e-07 6.349664e-05 0.0
0002b0 6a 3b dc 34 00 00 00 00 9e b0 49 34 df a1 82 38
       4.1021423e-07 0.0 1.8783837e-07 6.229034e-05
0002c0 8b 97 00 35 1e 43 3e 39 c5 97 0a 34 f1 35 e7 32
       4.790424e-07 0.00018144815 1.2907465e-07 2.6916469e-08
0002d0 00 00 00 00 0e 70 72 34 9d 17 f9 34 c0 11 b7 32
       0.0 2.2578772e-07 4.6397045e-07 2.1312076e-08
0002e0 00 00 00 00 f6 d8 73 34 b2 49 00 35 d2 d1 b8 32
       0.0 2.2710068e-07 4.7790957e-07 2.1515834e-08
0002f0 00 00 00 00 05 00 5f 34 37 f6 f3 34 13 af 54 32
       0.0 2.07685e-07 4.5441422e-07 1.2379831e-08
000300 00 00 00 00 ae c2 62 34 18 f4 01 35 c3 5b 87 32
       0.0 2.1118714e-07 4.841145e-07 1.5757797e-08
000310 00 00 00 00 f8 00 6c 34 d0 2a fb 34 52 ab 46 32
       0.0 2.1979565e-07 4.6783543e-07 1.1564071e-08
000320 00 00 00 00 94 35 44 34 98 6b 03 35 6e 3a 2b 32
       0.0 1.8273414e-07 4.895787e-07 9.966795e-09
000330 00 00 00 00 f3 39 6e 34 37 b5 fa 34 9d 81 ad 31
       0.0 2.2186559e-07 4.669798e-07 5.049698e-09
000340 00 00 00 00 b6 e2 46 34 3f 94 07 35 8c 0f b0 31
       0.0 1.8522664e-07 5.0507145e-07 5.1240416e-09
000350 00 00 00 00 05 e2 6a 34 73 77 f2 34 9a 06 91 31
       0.0 2.1875174e-07 4.5162923e-07 4.220806e-09
000360 00 00 00 00 96 04 4d 34 34 ef 07 35 bd 82 b2 31
       0.0 1.9093781e-07 5.0639505e-07 5.195345e-09
000370 00 00 00 00 50 08 2f 34 34 e1 df 34 78 21 e8 32
       0.0 1.6301169e-07 4.1700844e-07 2.7023574e-08
000380 00 00 00 00 12 22 6f 34 49 22 f9 34 cc 0e a1 32
       0.0 2.2271004e-07 4.640481e-07 1.8749596e-08
000390 00 00 00 00 00 61 75 34 d1 22 ff 34 25 be de 32
       0.0 2.2852691e-07 4.7522784e-07 2.593067e-08
0003a0 00 00 00 00 a1 9f 63 34 90 16 f9 34 24 f0 7c 32
       0.0 2.1199095e-07 4.639628e-07 1.4722932e-08
0003b0 00 00 00 00 23 b5 5e 34 13 9e 01 35 03 02 a4 32
       0.0 2.0741258e-07 4.8286273e-07 1.9093028e-08
0003c0 00 00 00 00 27 ae 66 34 e9 df f7 34 02 19 13 32
       0.0 2.1483775e-07 4.617025e-07 8.562212e-09
0003d0 00 00 00 00 8b 65 45 34 a1 76 02 35 f6 e2 48 32
       0.0 1.8383996e-07 4.86014e-07 1.1693137e-08
0003e0 00 00 00 00 b6 21 57 34 d0 bd f6 34 86 8d 89 31
       0.0 2.00357e-07 4.5959177e-07 4.003314e-09
0003f0 00 00 00 00 4d 13 4c 34 f0 4e 04 35 58 da e3 31
       0.0 1.9006002e-07 4.92887e-07 6.6313923e-09

exp_avg f4 [128]
000000 25 c1 79 39 79 98 8e b8 00 56 b2 39 09 ce 28 b9
       0.00023818442 -6.799488e-05 0.0003401488 -0.00016098483
000010 fb 05 53 39 dd df 8e b9 5e f0 d8 b7 be f2 bf b8
       0.00020124756 -0.00027251142 -2.5861136e-05 -9.152804e-05
000020 00 27 12 3a 36 81 28 b9 8d 98 01 39 6f 02 0d b9
       0.00055752695 -0.00016069863 0.00012359228 -0.00013447714
000030 74 c6 3d 3a 61 7b fb b9 aa 97 3f b8 cf 0e 6d ba
       0.00072393497 -0.00047966375 -4.5679197e-05 -0.0009043039
000040 f3 07 a1 b8 c7 cf 98 39 bc ad 4d 3a 67 7d f8 b9
       -7.678559e-05 0.00029146505 0.0007846018 -0.00047395678
000050 df e5 60 b7 61 4a 37 b9 f5 2c 13 b9 72 30 7e 39
       -1.34049615e-05 -0.00017479948 -0.0001403576 0.00024241375
000060 84 1b 72 b8 6c 10 a1 37 c7 f8 5b b8 06 61 46 b7
       -5.7722922e-05 1.9200343e-05 -5.244536e-05 -1.182431e-05
000070 f2 51 88 3a 3f f2 3c b9 e8 d0 5e b9 7b db 84 37
       0.0010400398 -0.00018019321 -0.00021249393 1.583783e-05
000080 e0 24 dc b9 71 71 3d b5 a8 29 94 b9 62 33 8a 38
       -0.00041989144 -7.0573066e-07 -0.00028259796 6.5899236e-05
000090 51 a5 1d ba fb 12 c8 b8 0f 90 0e ba 14 04 5e 38
       -0.0006013709 -9.5402786e-05 -0.00054383365 5.2932723e-05
0000a0 06 de 2a 3a 39 6b b9 37 74 a5 4c ba 8e 38 f2 b9
       0.00065180694 2.2103648e-05 -0.0007806637 -0.00046199973
0000b0 07 fb 9b 39 76 ea 19 39 8c b9 3a b9 d4 91 98 39
       0.00029750934 0.0001467856 -0.00017807464 0.0002910035
0000c0 0b e1 06 3a 69 42 ac 37 4d 14 31 38 cd f9 80 b6
       0.00051452284 2.0534922e-05 4.2218995e-05 -3.843778e-06
0000d0 ee a7 5c b9 9e 42 4c 3a 5c b0 14 3a f5 75 c2 b9
       -0.00021043394 0.0007791909 0.00056720315 -0.00037090448
0000e0 3b 05 18 3a be d6 11 36 46 ad af 38 b3 d2 7c 39
       0.0005799119 2.173168e-06 8.376925e-05 0.00024111084
0000f0 64 a5 d6 b9 c1 6a 10 38 65 23 a0 b9 6f 96 01 b9
       -0.00040940486 3.4431698e-05 -0.0003054395 -0.0001235844
000100 2f 24 28 38 41 06 98 39 5a 82 84 39 e6 18 57 3a
       4.008802e-05 0.0002899636 0.0002527412 0.0008205309
000110 49 4a 1a b9 e7 d9 9e 39 57 4a 49 3a 2f a0 e4 39
       -0.00014714258 0.00030298458 0.0007678619 0.00043606895
000120 b4 f0 ac b8 07 6d 08 b8 f3 f8 7a b8 e4 b0 40 39
       -8.2464336e-05 -3.2526466e-05 -5.9836497e-05 0.00018376444
000130 15 9c 5d 3a 63 31 6d 39 41 37 65 39 80 1b 2a 39
       0.0008453739 0.0002262048 0.00021859726 0.00016222708
000140 ed d2 dd 39 4e 46 04 ba 07 5a 33 b7 6b 6b b9 b9
       0.00042309557 -0.00050458766 -1.06901925e-05 -0.00035365982
000150 36 c5 c5 b7 38 bf c3 b8 05 e8 18 38 c8 31 ae b9
       -2.3576064e-05 -9.333942e-05 3.645571e-05 -0.00033224956
000160 10 53 d6 39 cd be 52 3a c7 71 31 39 87 e0 b4 39
       0.00040879147 0.0008039296 0.00016922421 0.0003449956
000170 ac a3 80 ba c9 e9 07 b5 b0 88 96 38 09 11 e1 b9
       -0.0009814403 -5.063162e-07 7.1780174e-05 -0.00042928036
000180 52 d0 de b9 66 ac 19 b8 0b 74 db 36 62 1b ad 3a
       -0.0004249835 -3.66386e-05 6.540218e-06 0.0013207013
000190 5f 89 fa 38 1f a8 ed b8 5a 57 0d 39 d9 e7 47 b9
       0.00011946516 -0.00011332356 0.00013479349 -0.00019064489
0001a0 75 4a c8 b9 2d 16 46 39 25 ca af 38 4e e0 49 b8
       -0.00038202447 0.00018891013 8.3823026e-05 -4.8131034e-05
0001b0 66 2e 22 b6 86 e4 17 ba 74 39 0a ba 57 16 87 b9
       -2.4166889e-06 -0.00057942455 -0.00052728434 -0.0002576585
0001c0 30 b1 df b9 8d 1c 41 b8 6d 6e 39 3a 20 2c 06 ba
       -0.0004266589 -4.6041376e-05 0.00070736447 -0.00051182695
0001d0 0d f7 df 38 dc 45 49 ba d1 70 55 ba 37 59 e7 b7
       0.000106794854 -0.00076779514 -0.0008142116 -2.757889e-05
0001e0 e6 70 44 39 f4 5b 7e b9 0b 40 e6 b8 23 21 3a b9
       0.00018734075 -0.00024257583 -0.000109791836 -0.00017750687
0001f0 63 fc 44 39 7e 8b 35 3a 1d 2e c8 b9 39 c3 a2 b9
       0.00018786038 0.0006925388 -0.0003818133 -0.000310445

exp_avg_sq f4 [128]
000000 5a 70 93 35 68 61 84 35 87 0a c7 36 ad 3b 7b 34
       1.0985052e-06 9.863115e-07 5.9318877e-06 2.3397907e-07
000010 33 89 97 36 54 44 79 36 14 84 91 33 ba 50 4f 36
       4.5161228e-06 3.7143664e-06 6.7761135e-08 3.0892393e-06
000020 b6 bc 18 37 38 b2 5c 35 12 a0 23 35 72 b4 a1 35
       9.103844e-06 8.221573e-07 6.0955165e-07 1.2047951e-06
000030 cb 71 4e 37 d5 d5 32 36 a9 c6 92 35 d1 df ce 37
       1.2305051e-05 2.6648534e-06 1.0935665e-06 2.4661336e-05
000040 c4 7c a2 34 6d 54 97 36 9c 49 3b 37 eb ce 04 36
       3.026563e-07 4.509979e-06 1.1163207e-05 1.9789975e-06
000050 e7 eb dd 32 a0 af dd 34 23 60 40 36 0a 2b 21 36
       2.5835062e-08 4.1292242e-07 2.8666188e-06 2.4015922e-06
000060 a8 d8 8b 34 56 22 39 35 46 cc 5b 35 b9 90 85 32
       2.6048406e-07 6.8967836e-07 8.1881115e-07 1.554905e-08
000070 81 85 79 37 50 d3 3e 36 0e d0 19 35 5b c2 1d 34
       1.487264e-05 2.8435206e-06 5.72997e-07 1.469247e-07
000080 d1 8c 19 36 47 46 43 36 87 22 8d 36 69 b9 ad 35
       2.2880743e-06 2.909817e-06 4.206147e-06 1.2943466e-06
000090 20 fc a1 37 c3 00 2c 36 12 30 8f 36 c8 42 28 36
       1.93101e-05 2.563044e-06 4.267328e-06 2.5072823e-06
0000a0 0c 60 25 37 6a 81 ac 34 85 81 a0 36 11 95 0a 37
       9.857129e-06 3.2131658e-07 4.7834496e-06 8.260148e-06
0000b0 bb b4 c7 35 b5 f6 31 35 03 49 47 36 7c 99 c3 35
       1.4879255e-06 6.6296644e-07 2.969581e-06 1.4573302e-06
0000c0 32 95 89 36 d1 79 80 33 f7 81 e3 33 72 5e 04 34
       4.100287e-06 5.982623e-08 1.0594152e-07 1.2327817e-07
0000d0 72 91 b7 35 ce 6f 90 36 0e d8 b4 36 70 4e 39 36
       1.3676893e-06 4.30455e-06 5.38957e-06 2.7612805e-06
0000e0 2a 5a b2 36 eb c5 e2 34 41 a3 7d 34 a8 2f 1e 35
       5.31531e-06 4.2239785e-07 2.3621853e-07 5.8928936e-07
0000f0 9b 1a 12 37 e5 10 d1 33 b6 36 70 36 9a 2c 43 35
       8.708473e-06 9.735394e-08 3.5794633e-06 7.2708065e-07
000100 a6 09 d5 32 92 dc 53 36 45 2a 99 35 4e b4 1d 37
       2.4800851e-08 3.156984e-06 1.141169e-06 9.39991e-06
000110 c0 6c 57 36 37 43 b4 36 d9 96 b6 36 d8 55 bd 35
       3.2100797e-06 5.372243e-06 5.4415837e-06 1.4106581e-06
000120 10 80 6e 34 05 3a 4a 35 10 20 76 33 62 59 03 36
       2.2212066e-07 7.5335294e-07 5.73055e-08 1.9572549e-06
000130 59 fc 81 37 74 56 c1 35 ea 02 38 36 df 84 07 36
       1.5495507e-05 1.4404782e-06 2.7419833e-06 2.0193909e-06
000140 df 09 8a 36 26 4e aa 36 ce cc 2f 34 d9 4d 01 36
       4.1138696e-06 5.0754925e-06 1.6372653e-07 1.9267811e-06
000150 ab 95 9f 36 6a 31 3f 34 a1 1d 25 35 ed b8 fa 35
       4.755993e-06 1.7806238e-07 6.1510406e-07 1.8680272e-06
000160 5d 70 44 36 95 f9 e1 36 e0 44 c0 35 06 8b ef 35
       2.927168e-06 6.7345777e-06 1.432516e-06 1.7847349e-06
000170 77 1d 49 37 ec 2b f4 35 1b 91 93 36 f5 4a 41 36
       1.1987394e-05 1.81922e-06 4.397834e-06 2.8802872e-06
000180 48 21 9d 35 57 56 2e 35 81 24 36 37 c6 43 e0 37
       1.1707098e-06 6.494569e-07 1.0856545e-05 2.673444e-05
000190 df f3 af 35 b4 25 80 36 ed ac 5c 36 2f f4 b4 34
       1.3109492e-06 3.8190865e-06 3.288321e-06 3.370528e-07
0001a0 51 62 93 35 d3 cb 10 35 0f 51 b1 34 d8 e4 73 35
       1.0980967e-06 5.3940784e-07 3.3027797e-07 9.0857566e-07
0001b0 de 7d a9 32 0e e1 c5 37 9a 95 f9 36 9e bf b5 36
       1.9731427e-08 2.358903e-05 7.438194e-06 5.4165275e-06
0001c0 98 62 ec 35 04 7f df 34 17 4f da 36 89 40 bd 35
       1.7612065e-06 4.1629403e-07 6.5061136e-06 1.410038e-06
0001d0 c8 40 9e 35 7d c8 fb 36 6f 4b 04 37 dd a1 92 34
       1.1790771e-06 7.503723e-06 7.885376e-06 2.731239e-07
0001e0 88 20 c4 34 3f a8 c8 36 3f 90 f7 34 5e e3 e5 35
       3.6531515e-07 5.980051e-06 4.6112288e-07 1.7128002e-06
0001f0 28 26 46 36 bb 0f 40 37 c4 96 1c 37 1f d2 ae 36
       2.952651e-06 1.1447754e-05 9.333427e-06 5.2100654e-06
