results/HideAndSeek5/Seek/Seek-499937.pt (torch, 972639 bytes, 36 tensors)

network_body._body_endoder.seq_layers.0.weight f4 [128, 179]
-0.123176895 0.082445055 -0.12993562 0.11660877 -0.122558326 -0.09102451 0.09724491 0.101387694
-0.077325635 -0.02271749 -0.023808353 -0.013454315 -0.009315492 -0.0716899 -0.12836821 0.03684174
-0.1610726 -0.013818567 0.07365214 -0.12001964 -0.01574673 -0.05648841 -0.042267714 -0.13384394
-0.097238444 -0.055703964 -0.14596336 -0.114647314 -0.03655337 0.026690705 -0.058446046 -0.017268836
-0.04563609 -0.13834682 -0.15457644 0.07213823 0.0065937215 0.09572288 -0.075658865 0.1395884
-0.09025763 0.020796375 -0.040341876 0.0382703 -0.058520928 0.015202957 0.0134605225 -0.0404036
-0.07329305 0.08606803 0.0133682545 0.08749049 -0.041313954 -0.015162235 -0.030447084 -0.08366028
-0.04918496 -0.0048817615 -0.06826599 -0.078974925 0.18208118 -0.015608364 -0.04328838 -0.07131837
0.09972539 -0.16991691 0.07646987 0.048874997 -0.016846703 -0.13402517 -0.100846335 0.023405457
0.19543615 0.087728694 -0.036674287 -0.02997687 -0.15290295 -0.0018708232 -0.082137935 0.1380368
0.062295113 0.12342546 0.08745444 0.05208044 -0.019915005 0.15138896 -0.022320192 -0.09356365
0.13376042 -0.024577249 -0.07591642 -0.10320362 0.04037586 -0.0631589 0.038467295 0.00885688
0.019762773 0.00022662009 -0.11136215 0.023015985 -0.05122143 -0.0138384765 -0.025218839 0.031414952
-0.09481865 0.11378686 -0.061441533 0.045732357 0.12677374 -0.12688346 -0.04130618 0.026724648
-0.11119964 0.06926821 0.15717262 0.05020463 -0.012410874 0.02310531 -0.1063039 0.027641324
-0.05340523 0.07716648 0.08255526 0.08741187 -0.08855251 0.022318378 -0.06483828 0.13282321
-0.23365478 0.027753135 -0.024997521 0.07101981 0.115936115 -0.046233483 -0.116512686 -0.14828108
-0.06739904 0.041198816 0.0077841845 0.08728835 0.09880058 -0.033868 0.10867719 0.090275936
-0.0044010216 -0.060675688 -0.0043905606 0.062054414 0.07194498 0.05435208 0.030578213 0.020129174
0.11747271 -0.102521025 -0.01123908 0.0821466 0.0016460926 -0.06759693 0.22885287 -0.049712356
0.06822369 0.07075487 -0.107445665 0.23893465 0.117478564 -0.043462474 0.10684178 0.0069560823
-0.11017499 0.1159799 -0.04839764 0.0073824394 0.025602825 -0.045272242 0.094872445 -0.009654141
-0.20615542 -0.040668022 -0.020554785 -0.04502688 0.025238201 -0.06663105 0.09578191 0.047615863
0.07316812 0.10263457 -0.0069836816 -0.03061086 -0.08651078 0.070926175 -0.045548443 -0.14446029
-0.00411967 0.09080731 0.09755105 0.079492606 0.030552488 0.0039404444 -0.13887309 -0.07209377
-0.010526765 -0.10689313 0.09676471 0.047324557 0.010343988 0.20913096 0.027029118 -0.07588223
-0.049161296 0.016259782 -0.101826556 -0.04810704 0.0021397956 0.08248765 -0.047715478 -0.034635868
-0.055904098 -0.064700276 0.06573071 0.13942255 -0.019556545 -0.09238676 -0.034258805 -0.11305837
-0.049679063 0.14055984 0.007407819 -0.063058354 0.10515535 0.16788185 0.029143067 0.13919589
-0.08082811 0.03940744 0.02736902 0.105659224 0.049347192 0.028550468 0.052024614 0.05407265
-0.045118555 0.09171254 -0.06816263 -0.13428384 0.11702142 0.1120955 -0.09346663 0.055445995
-0.028704153 0.06273413 0.068034984 -0.18571587 0.013226604 0.030054556 0.071948744 0.08824736
00000000: 2b44 fcbd f4d8 a83d d80d 05be 94d0 ee3d
00000010: dcff fabd 0f6b babd 5728 c73d 5aa4 cf3d
00000020: e75c 9ebd 081a babc bc09 c3bc 7d6f 5cbc
00000030: 01a0 18bc 27d2 92bd f572 03be 5de7 163d
00000040: 37f0 24be 4567 62bc efd6 963d dbcc f5bd
00000050: 49ff 80bc 6460 67bd e920 2dbd 630e 09be
00000060: f324 c7bd d729 64bd 6b77 15be 36cc eabd
00000070: fdb8 15bd 77a6 da3c 1f65 6fbd 6077 8dbc
00000080: e9ec 3abd caaa 0dbe 4949 1ebe 35bd 933d
00000090: 2510 d83b 5b0a c43d 09f3 9abd 43f0 0e3e
000000a0: fed8 b8bd 295d aa3c 863d 25bd 51c1 1c3d
000000b0: a4b3 6fbd d315 793c 8689 5c3c 3f7e 25bd
000000c0: ab1a 96bd 6f44 b03d 8606 5b3c 372e b33d
000000d0: d238 29bd 066b 78bc 2a6c f9bc 1556 abbd
000000e0: 2b76 49bd 2ff7 9fbb 0acf 8bbd 9bbd a1bd
000000f0: 7d73 3a3e 39ba 7fbc 284f 31bd 5e0f 92bd
00000100: d33c cc3d b3fe 2dbe 3c9c 9c3d 2631 483d
00000110: 1902 8abc e53d 09be 8688 cebd cdbc bf3c
00000120: 6a20 483e 1aab b33d c737 16bd 0e92 f5bc
00000130: 9792 1cbe 6936 f5ba ef37 a8bd 8559 0d3e
00000140: 2929 7f3d 7dc6 fc3d 501b b33d 4d52 553d
00000150: cb24 a3bc b505 1b3e d6d8 b6bc 4d9e bfbd
00000160: 7ef8 083e 3a56 c9bc 117a 9bbd 6b5c d3bd
00000170: 2861 253d 7459 81bd e28f 1d3d 721c 113c
00000180: 8ae5 a13c dea0 6d39 d711 e4bd 058c bc3c
00000190: 90cd 51bd c7ba 62bc bd97 cebc f7ac 003d
000001a0: 4830 c2bd 1609 e93d 1eaa 7bbd da51 3b3d
000001b0: fad0 013e bded 01be ab30 29bd a6ed da3c
000001c0: a3bc e3bd 7edc 8d3d dcf1 203e 5fa3 4d3d
000001d0: fa56 4bbc 5947 bd3c dcb5 d9bd 0f70 e23c
000001e0: 71bf 5abd 7609 9e3d bb12 a93d ff04 b33d
000001f0: 055b b5bd 08d5 b63c efc9 84bd cf02 083e
00000200: 3343 6fbe 8b5a e33c 9ac7 ccbc d672 913d
00000210: ea6f ed3d 525f 3dbd 349e eebd ffd6 17be
00000220: 8208 8abd 17c0 283d 7912 ff3b 3cc4 b23d
00000230: f557 ca3d 2cb9 0abd 2692 de3d 97e2 b83d
00000240: 7236 90bb 1287 78bd b1de 8fbb c52c 7e3d
00000250: e457 933d 49a0 5e3d 297f fa3c f0e5 a43c
00000260: 8895 f03d 8bf6 d1bd 1e24 38bc 7a3c a83d
00000270: b4c1 d73a 4270 8abd 6858 6a3e 2f9f 4bbd
00000280: ddb8 8b3d eee7 903d 790c dcbd 49ab 743e
00000290: 9a98 f03d b505 32bd ddcf da3d d9ef e33b
000002a0: 6da3 e1bd df86 ed3d 9b3c 46bd 64e8 f13b
000002b0: 04bd d13c 636f 39bd 7c4c c23d 672c 1ebc
000002c0: 681a 53be 8393 26bd 8262 a8bc 1b6e 38bd
000002d0: 58c0 ce3c dc75 88bd 4e29 c43d da08 433d
000002e0: 2bd9 953d 1332 d23d 5ed7 e4bb a0c3 fabc
000002f0: 902c b1bd be41 913d 0191 3abd 66ed 13be
00000300: 4cfe 86bb 2ff9 b93d d8c8 c73d 05cd a23d
00000310: 3649 fa3c d81e 813b bf34 0ebe e6a5 93bd
00000320: 7478 2cbc c9ea dabd 942c c63d 65d7 413d
00000330: d579 293c 6d26 563e 2b6c dd3c 2568 9bbd
00000340: 5b5d 49bd 3c33 853c 718a d0bd e30b 45bd
00000350: d03b 0c3b 49ef a83d 4e71 43bd 57de 0dbd
00000360: b2fb 64bd 9481 84bd d39d 863d c9c4 0e3e
00000370: 0c35 a0bc 4535 bdbd f652 0cbd 268b e7bd
00000380: 467c 4bbd ebee 0f3e 4abd f23b bd24 81bd
00000390: b05b d73d 38e9 2b3e 71bd ee3c 5e89 0e3e
000003a0: 3589 a5bd b269 213d ff34 e03c dd63 d83d
000003b0: 4820 4a3d ace2 e93c c317 553d 487b 5d3d
000003c0: 3cce 38bd c9d3 bb3d d998 8bbd b481 09be
000003d0: eda8 ef3d 5392 e53d 6f6b bfbd 571b 633d
000003e0: f924 ebbc c07a 803d ed55 8b3d 4d2c 3ebe
000003f0: 66b4 583c f934 f63c dd59 933d 08bb b43d

network_body._body_endoder.seq_layers.0.bias f4 [128]
0.017458655 -0.0026810023 0.02812125 0.0010836453 0.006113703 0.020695757 -0.01935676 0.027210597
0.014998904 -0.008324361 0.0064413603 -0.012005645 0.013331459 0.015164222 0.037484594 0.010570068
-0.040452242 0.018871289 0.018437264 -0.0046888087 -0.032336712 -0.00071003556 -0.0008402335 0.0150336055
0.013162466 0.016023334 0.014573934 -0.02333145 0.04152129 -0.00833541 0.00840929 -0.0129877655
-0.004697915 0.008131458 0.012137341 0.0116411 0.023188727 0.018809061 0.013179712 0.011278468
0.022846743 0.0023464204 0.01413595 0.019880127 0.0038741536 0.0014753 0.0230168 0.023874478
5.986731e-05 -0.018173482 0.03979955 0.0008552912 -0.0020103238 0.019072056 0.005364032 0.016310502
0.024204059 -0.019721601 -0.0013289934 -0.012562657 -0.0012148577 -0.0067254007 0.016532894 -0.010254128
-0.011212256 0.012380187 0.017500991 0.026151722 0.022985635 0.008976466 0.01136404 0.007957815
0.00440418 -0.030385016 -0.01019178 0.0074129296 0.02791371 0.01361643 -0.020288868 0.019333644
0.0023228652 -0.005658268 -0.007822206 -0.014572847 0.021477679 -0.0019735713 0.013645906 0.021424692
0.027649686 0.024428302 0.021960609 0.025268942 0.0020670397 0.006494447 0.013731248 -0.009467602
0.006022283 0.0055194697 0.028380318 0.026811268 0.007485143 0.018332414 0.008037706 0.025918515
-0.03509402 -0.00038254837 -0.0077734375 -0.0055865264 -0.017977022 0.031249024 0.024026176 0.02029707
-0.012141827 -0.005257947 0.007999644 0.007273324 -0.0230824 0.008537812 0.004457928 -0.031167649
0.00959204 0.005000094 -0.004982944 -0.027348984 0.00948228 0.0024695632 0.015789071 0.004914662
00000000: 7405 8f3c c1b3 2fbb 895e e63c 1a09 8e3a
00000010: 7555 c83b 268a a93c 1192 9ebc c2e8 de3c
00000020: f7bd 753c e762 08bc 0c12 d33b 53b3 44bc
00000030: 316c 5a3c 5b73 783c 7289 193d 142e 2d3c
00000040: 40b1 25bd f697 9a3c bf09 973c 94a4 99bb
00000050: 8073 04bd ae21 3aba 1e43 5cba 834f 763c
00000060: 62a7 573c 5e43 833c 82c7 6e3c 9921 bfbc
00000070: 3a12 2a3d 3e91 08bc 1ec7 093c a3ca 54bc
00000080: f8f0 99bb cf39 053c b3db 463c 50ba 3e3c
00000090: 49f6 bd3c 7615 9a3c b8ef 573c 53c9 383c
000000a0: 1829 bb3c 67c6 193b 799a 673c a6db a23c
000000b0: 83e5 7d3b db5e c13a ba8d bc3c 6994 c33c
000000c0: 091a 7b38 8ee0 94bc da04 233d 9f35 603a
000000d0: a3bf 03bb 003d 9c3c c3c4 af3b 9a9d 853c
000000e0: 9747 c63c 328f a1bc 9e31 aeba 9ad3 4dbc
000000f0: dc3b 9fba c060 dcbb fe6f 873c ee00 28bc
00000100: 9cb3 37bc 45d6 4a3c 3d5e 8f3c 233c d63c
00000110: 5f4c bc3c 0712 133c 3d30 3a3c 7f61 023c
00000120: f150 903b ffe9 f8bc 6cfb 26bc 29e8 f23b
00000130: 4bab e43c 7217 5f3c d734 a6bc 9761 9e3c
00000140: 363b 183b fe68 b9bb b628 00bc f3c2 6ebc
00000150: f5f1 af3c 0857 01bb 1493 5f3c d682 af3c
00000160: 9881 e23c dd1d c83c bce6 b33c d000 cf3c
00000170: 2c77 073b 5fcf d43b 07f9 603c 001e 1bbc
00000180: 9256 c53b abdc b43b d77d e83c 4ea3 db3c
00000190: ee45 f53b dc2d 963c 95b0 033c 1153 d43c
000001a0: bfbe 0fbd c690 c8b9 52b8 febb 2e0f b7bb
000001b0: 8c44 93bc f4fd ff3c 8bd2 c43c 0a46 a63c
000001c0: 83ee 46bc db4a acbb f010 033c 1055 ee3b
000001d0: 4d17 bdbc 2ee2 0b3c cf13 923b 4c53 ffbc
000001e0: ef27 1d3c d4d7 a33b f747 a3bb fa0a e0bc
000001f0: 915b 1b3c 65d8 213b 1558 813c 2c0b a13b

network_body._body_endoder.seq_layers.2.weight f4 [128, 128]
-0.12715623 0.029303119 -0.03422249 0.115493864 -0.08323641 0.17863539 0.00021398872 0.16535862
0.04340626 0.13229838 -0.024645522 0.037058555 -0.041239314 0.14239259 -0.045873694 0.13066813
-0.057005916 0.024732333 -0.14393115 0.06714501 0.0055410117 0.066887565 0.051406078 0.07613039
-0.07547181 -0.06920943 0.0073350878 0.038769778 -0.24417335 0.002448042 0.013441432 0.043626733
0.18619652 0.12269845 0.24821644 -0.0839946 0.16358215 0.078835905 0.079604864 0.06550409
-0.03224592 -0.097234234 -0.120644234 0.027456108 -0.03804111 0.0027943111 0.035197858 -0.19366975
-0.020625195 0.0053259362 -0.09697979 -0.072163455 0.009799233 0.00394635 -0.035293866 0.14341044
0.06603135 -0.06476048 -0.031295393 -0.081555575 0.09456049 -0.021007985 0.004420113 0.005923552
0.12527947 0.08161925 0.00037942955 0.051640444 0.14137538 -0.09644283 -0.009936838 0.13233869
-0.104836375 -0.1625116 0.020364681 -0.017321553 -0.09963049 0.090979785 -0.0034192845 0.005553575
-0.21306288 0.09104761 0.021111533 0.05222224 0.10471241 0.11620371 -0.110100605 -0.04801024
0.02489208 -0.14048024 0.03292734 -0.12564078 0.043056566 0.17517668 0.025231848 0.12237505
0.12571485 0.18918741 0.06674509 -0.22668658 0.04298792 -0.0458836 0.09140698 -0.06293486
0.0850359 0.064987734 -0.0134483855 -0.05020506 -0.017400388 0.026384218 0.03792682 0.10528682
0.021670915 0.0081961 0.04155347 -0.21618208 0.17152822 -0.034244027 0.039340083 -0.070674874
0.037291404 -0.16731386 -0.03882944 -0.09340839 -0.064954154 -0.009783632 -0.01596665 0.052868925
0.040166758 0.013078368 -0.040759355 -0.09419597 -0.035211258 0.030347705 0.1494116 0.008207256
-0.044818703 -0.055236775 0.055419534 0.13468021 -0.005252419 0.13892129 0.01589712 -0.17304821
0.18075007 0.04058465 -0.013722512 -0.0044268975 -0.20672427 -0.12602802 0.022552675 -0.09957581
-0.022658896 -0.0057439567 0.026664244 0.03258548 0.0020465653 -0.18118688 -0.04412585 0.02702021
-0.15937336 0.0765067 0.022164902 -0.10291735 0.15938272 0.022974687 0.0095357 -0.22639944
-0.09045173 -0.052076317 0.08842171 -0.03777213 -0.08968512 0.019037083 -0.13423039 0.12776423
0.052193254 -0.005028146 -0.05676842 -0.120456934 -0.067503095 -0.0015166723 -0.08603159 0.022698237
0.068766184 0.09979237 0.10103888 0.10140605 -0.08452799 0.11161436 -0.01032587 -0.005323382
-0.014943642 -0.02160071 -0.11799913 -0.016681556 0.012407259 -0.045915455 -0.07325494 -0.019727042
-0.06921667 0.08387769 0.052512124 0.11474348 0.26655695 0.06868903 0.1199842 0.0641939
0.031584214 0.054365702 -0.14651756 -0.08306973 0.10683446 -0.04422123 0.028832044 -0.14872973
0.01911555 -0.13787742 0.0820745 0.065628424 -0.07072046 -0.023067325 0.021308115 -0.20970847
-0.14672 -0.05629319 -0.024204904 -0.09884291 -0.14362924 -0.06302422 0.16008033 -0.0024445558
-0.19886008 -0.003930396 0.017131334 0.037616655 -0.11897043 0.09840189 -0.031304725 -0.0001088729
-0.17701149 -0.013055933 -0.0040550255 0.20339254 -0.02781387 -0.03889308 -0.06636728 -0.01955231
-0.013241019 -0.100190304 -0.054952465 0.1568587 -0.0892463 0.04243403 0.0064381356 0.06806754
00000000: 3e35 02be 180d f03c e22c 0cbd 0c88 ec3d
00000010: da77 aabd 32ec 363e 2962 6039 c553 293e
00000020: c3ca 313d 3a79 073e 68e5 c9bc b6ca 173d
00000030: 8eea 28bd 5dcf 113e 0ee6 3bbd decd 053e
00000040: 097f 69bd 769b ca3c b062 13be 5383 893d
00000050: 6091 b53b 59fc 883d 2e8f 523d 40ea 9b3d
00000060: f790 9abd acbd 8dbd 2d5b f03b 0fcd 1e3d
00000070: 9408 7abe 546f 203b 7439 5c3c f2b1 323d
00000080: 4daa 3e3e 5349 fb3d 732c 7e3e 5c05 acbd
00000090: 1482 273e b874 a13d e007 a33d 0227 863d
000000a0: 4c14 04bd be22 c7bd 5314 f7bd a2eb e03c
000000b0: ffd0 1bbd c320 373b a12b 103d 5d51 46be
000000c0: 2bf6 a8bc 3185 ae3b 579d c6bd 6fca 93bd
000000d0: f68c 203c 6250 813b 4d90 10bd 30da 123e
000000e0: 723b 873d 24a1 84bd 992f 00bd 9c06 a7bd
000000f0: eea8 c13d f018 acbc 98d6 903b 5b1a c23b
00000100: 4349 003e fe27 a73d 2cee c639 ee84 533d
00000110: b5c4 103e d283 c5bd 1fce 22bc cb83 073e
00000120: 74b4 d6bd 7169 26be d5d3 a63c eee5 8dbc
00000130: 120b ccbd 9c53 ba3d 1316 60bb c4fa b53b
00000140: 282d 5abe 2b77 ba3d 18f2 ac3c fde6 553d
00000150: 7673 d63d 36fc ed3d 6d7c e1bd 63a6 44bd
00000160: 7aea cb3c 0dda 0fbe d2de 063d faa7 00be
00000170: 155c 303d 8461 333e 05b3 ce3c c59f fa3d
00000180: 65bb 003e 58ba 413e a6b1 883d 8720 68be
00000190: 1a14 303d 71f0 3bbd 9533 bb3d fee3 80bd
000001a0: 4d27 ae3d 4a18 853d 9e56 5cbc d2a3 4dbd
000001b0: 428b 8ebc b723 d83c 2759 1b3d 9ea0 d73d
000001c0: 3487 b13c ef48 063c f933 2a3d d65e 5dbe
000001d0: 18a5 2f3e 7743 0cbd 1123 213d fdbd 90bd
000001e0: dfbe 183d 5354 2bbe 9e0b 1fbd e64c bfbd
000001f0: af06 85bd 874b 20bc 7ecc 82bc 168d 583d
00000200: e685 243d a746 563c 48f3 26bd d1e9 c0bd
00000210: ae39 10bd c09b f83c 5bff 183e ba77 063c
00000220: d193 37bd f53f 62bd 98ff 623d 9ce9 093e
00000230: 7c1c acbb 6241 0e3e ad3a 823c 8d33 31be
00000240: 8c16 393e 173c 263d 63d4 60bc 820f 91bb
00000250: 87af 53be 7d0d 01be 63c0 b83c 67ee cbbd
00000260: 269f b9bc cd37 bcbb f96e da3c 5a78 053d
00000270: ab1f 063b 0e89 39be 4fbd 34bd 7d59 dd3c
00000280: c532 23be 8baf 9c3d 2b93 b53c 55c6 d2bd
00000290: 3935 233e 6935 bc3c a03b 1c3c 41d5 67be
000002a0: c23e b9bd fa4d 55bd 7116 b53d f3b6 1abd
000002b0: d5ac b7bd a8f3 9b3c b173 09be a0d4 023e
000002c0: 98c8 553d 25c3 a4bb 0186 68bd 20b2 f6bd
000002d0: 103f 8abd 14cb c6ba 5531 b0bd a7f1 b93c
000002e0: 49d5 8c3d f15f cc3d 79ed ce3d faad cf3d
000002f0: 031d adbd 1296 e43d d62d 29bc c46f aebb
00000300: 2dd6 74bc f9f3 b0bc 87a9 f1bd c2a7 88bc
00000310: d147 4b3c d811 3cbd b006 96bd 9b9a a1bc
00000320: 78c1 8dbd 11c8 ab3d f416 573d a1fe ea3d
00000330: 277a 883e d6ac 8c3d 47ba f53d 1778 833d
00000340: 735e 013d 92ae 5e3d b308 16be 7620 aabd
00000350: 06cc da3d 5221 35bd 2e31 ec3c 9b4c 18be
00000360: 3798 9c3c bd2f 0dbe ad16 a83d 3268 863d
00000370: e3d5 90bd b0f7 bcbc 5b8e ae3c d1bd 56be
00000380: c53d 16be b093 66bd 5d49 c6bc 276e cabd
00000390: 8b13 13be d812 81bd 19ec 233e d734 20bb
000003a0: faa1 4bbe 8dca 80bb 0357 8c3c ec13 1a3d
000003b0: c5a6 f3bd ee86 c93d 6239 00bd b152 e4b8
000003c0: 8042 35be 8de8 55bc 05e0 84bb 2246 503e
000003d0: ead9 e3bc 5a4e 1fbd 92eb 87bd 2b2c a0bc
000003e0: dcf0 58bc 9330 cdbd d615 61bd 919f 203e
000003f0: c4c6 b6bd 4ecf 2d3d fff6 d23b ff66 8b3d

network_body._body_endoder.seq_layers.2.bias f4 [128]
-0.008880544 0.012139811 0.030360132 0.006715309 0.0018390861 0.016240075 -0.01850343 -0.022707127
0.00095795235 0.0017110917 -0.008373845 -0.007036282 0.0340167 0.029323112 -0.022860264 0.003905547
0.017120644 0.013869786 0.05265643 0.0073563918 0.012463324 0.006720493 0.00092504517 0.005160844
0.010485612 0.00021058042 0.028398026 0.0038187802 0.010927666 0.008253949 0.00795814 0.014657557
0.003707416 0.02621103 -0.023104992 0.01108273 0.00092100754 0.022835625 0.03216275 0.011068637
-0.0040718187 0.0062441477 0.012995907 0.045253217 0.0053322595 -0.004770946 0.0006349909 0.01287474
-0.012004772 0.035749882 -0.007999429 0.0035125106 0.00063980225 0.008656569 0.0063823704 -0.0069840746
-0.009819099 -0.007851064 0.023298822 0.035372544 0.0036262912 0.014054569 0.0019361235 0.009671735
0.016170079 0.032085612 0.00741162 0.0028299976 0.017460374 0.008339115 -0.009812745 0.02359294
-0.008749549 0.0044463924 0.015653908 0.02752252 0.012180077 0.023671247 0.014224855 -0.0034458886
0.009298043 -1.6826174e-05 0.0011364032 0.009441097 0.02203299 -0.032821015 -0.008141555 -0.038993884
0.014276889 -0.0073611913 0.033049587 0.008161661 -0.0052614924 0.009081168 -0.015805349 0.0248156
0.0068295607 0.0034998138 -0.014025066 0.02614764 0.0025634768 0.018908547 0.012501773 -0.01557346
0.018684652 0.017266367 0.034302946 0.0074465526 -0.0021441604 -0.020554364 0.023635866 0.030826429
0.015045039 0.014815915 0.018060287 0.026803995 0.03259056 0.004835637 -0.0019339705 0.017533962
0.0058963406 -0.02144871 0.010834662 0.00873412 0.006602851 0.0019409858 0.009246801 0.0027534324
00000000: b47f 11bc 0fe6 463c d0b5 f83c 180c dc3b
00000010: 7d0d f13a e809 853c 8194 97bc 4c04 babc
00000020: 181f 7b3a b646 e03a 7432 09bc 9d90 e6bb
00000030: 1855 0b3d 0637 f03c 7345 bbbc 35f4 7f3b
00000040: 9840 8c3c 193e 633c 45ae 573d e30d f13b
00000050: f832 4c3c 9537 dc3b bb7e 723a 4c1c a93b
00000060: d8cb 2b3c 40cf 5c39 faa2 e83c 8044 7a3b
00000070: f409 333c 923b 073c dc62 023c 4026 703c
00000080: 1ef8 723b 84b8 d63c ae46 bdbc 5794 353c
00000090: c56f 713a c711 bb3c 16bd 033d 3a59 353c
000000a0: e46c 85bb b59b cc3b c9ec 543c 705b 393d
000000b0: 3cba ae3b 9955 9cbb 8575 263a 93f0 523c
000000c0: aaaf 44bc 786e 123d 0910 03bc 2632 663b
000000d0: 67b8 273a 48d4 0d3c 3423 d13b aada e4bb
000000e0: 49e0 20bc c0a1 00bc 2cdd be3c cde2 103d
000000f0: 12a7 6d3b 2345 663c 86c5 fd3a 3276 1e3c
00000100: 1d77 843c 346c 033d 2ddd f23b 7b77 393b
00000110: 0f09 8f3c c9a0 083c a3c5 20bc fb45 c13c
00000120: 455a 0fbc 0bb3 913b a03c 803c e876 e13c
00000130: f28e 473c 34ea c13c 5e0f 693c 6bd4 61bb
00000140: d256 183c ef25 8db7 5df3 943a d5ae 1a3c
00000150: 877e b43c 546f 06bd 2864 05bc 0db8 1fbd
00000160: 9de9 693c 2636 f1bb 015f 073d 7db8 053c
00000170: 9968 acbb 2ec9 143c 387a 81bc 164a cb3c
00000180: 82ca df3b 225d 653b 64c9 65bc 9333 d63c
00000190: 0100 283b 19e6 9a3c 3dd4 4c3c d327 7fbc
000001a0: 8e10 993c 3272 8d3c 3f81 0c3d 3602 f43b
000001b0: 0b85 0cbb a061 a8bc 01a0 c13c b587 fc3c
000001c0: 787f 763c 74be 723c 2bf3 933c 0d94 db3c
000001d0: ae7d 053d 4374 9e3b 487d fdba 62a3 8f3c
000001e0: 1736 c13b 34b5 afbc de83 313c 8e19 0f3c
000001f0: bb5c d83b ad68 fe3a e57f 173c ee72 343b

action_model._continuous_distribution.log_sigma f4 [1, 3]
-0.20093925 -0.15907015 -0.34053248
00000000: 05c3 4dbe 49e3 22be 465a aebe

action_model._continuous_distribution.mu.weight f4 [3, 128]
-0.017101232 0.052483775 0.049641818 0.06402047 -0.001973306 -0.061947227 -0.024221038 -0.019891366
-0.047034577 -0.05494428 -0.007314574 0.010475835 0.061033834 0.08531858 -0.006275572 0.011437666
0.0030678243 0.006556098 0.02210349 0.04240414 0.012525266 0.025344443 0.043059032 -0.06974157
0.02053913 -0.005308871 -0.012380843 0.02389448 -0.025004422 0.023242574 0.046762105 0.054057058
0.026746472 0.032904003 -0.023168487 0.0393176 -0.012040862 -0.061939057 0.09165358 -0.025526272
-0.050244763 -0.031632364 0.036841106 0.01754497 -0.013125591 -0.012050536 -0.012614061 0.029807422
-0.006425034 0.016648028 -0.03552311 0.0038780142 -0.030330935 -0.03742141 0.046771485 -0.025535937
-0.0019766695 0.021330768 0.0159688 0.019395284 -0.05529959 -0.003758361 -0.011921107 -0.08970163
0.017064549 0.008396211 -0.050575692 -0.02077468 0.046733174 0.010547052 -0.03996503 -0.006075755
0.0029119095 -0.056794103 0.008855394 0.027396105 0.046111837 0.00868112 -0.018015144 0.018248597
0.007946123 0.005399988 -0.019703915 -0.12413259 -0.038828302 -0.021673163 0.024663763 -0.04270218
0.026110068 -0.008680472 0.0026572014 -0.009851877 -0.018210689 0.04055002 0.019036954 -0.06837265
0.004987081 -0.070926756 0.015107639 0.038974684 0.041998055 -0.00663217 -0.03962354 0.006101019
0.06017072 -0.0029523487 0.034808464 0.015974704 0.033415638 -0.0041144006 0.03532517 -0.001989752
-0.0036531761 -0.007117045 0.030521728 0.028795138 0.03835318 0.0034917123 0.016658453 -0.0077761337
-0.060107313 0.0029287464 0.019579167 0.044309087 -0.08134323 -0.048213687 -0.051980637 -0.016452875
-0.043741535 -0.013531903 0.046472248 -0.072389856 0.040105067 0.024374826 0.0031345712 0.022312732
0.02287102 0.0313675 0.028068986 -0.047375064 0.026514277 -0.05141937 -0.021852452 0.03331776
0.075324625 -0.013964405 -0.04922809 0.02181615 -0.05435154 0.044809792 -0.031264037 -0.0051240874
-0.023908284 0.039826047 0.05605193 -0.10492912 0.018305851 0.043610223 -0.034304738 -0.068665594
-0.02600698 0.008645049 -0.008396532 0.006864909 0.061972678 0.054574773 -0.070009544 0.045090463
-0.0053143417 -0.050095182 0.043059956 0.06252899 -0.051889174 -0.054388966 0.013196865 0.03581616
-0.023070088 0.05915371 -0.01147337 -0.0020411294 0.016928177 0.05887859 -0.017968968 -0.0114355665
-0.002168982 -0.06226079 0.042435374 0.009609888 0.0019105236 0.056516986 -5.9769052e-05 -0.009022233
-0.07111453 0.044054665 -0.11995711 0.032335706 0.00863501 0.0010134277 0.017415315 0.02167785
-0.052440546 -0.0023796784 -0.0063929535 -0.008773168 0.07652221 0.033628345 0.07109043 -0.030090407
0.009309195 0.012282508 0.029181967 -0.023452109 0.07827598 -0.015703477 -0.037169896 -0.039616928
0.00034994993 -0.009431881 0.11221878 -0.0149495825 -0.04632908 -0.024315685 -0.010808584 0.078713104
-0.022897825 -0.029369315 0.012906302 -0.0014380775 -0.038813524 0.035079286 0.03979366 -0.0011371997
-0.022666626 0.03868589 -0.023883466 0.016734526 -0.014864512 0.0034163808 0.012194498 0.038225707
0.021071814 0.023082344 -0.019245975 0.05339864 0.04040568 0.025395941 0.02340562 0.045196127
-0.03487955 -0.0378212 -0.012049572 -0.029869592 0.02679754 0.01676684 -0.061679408 -0.00017163536
00000000: e217 8cbc 3af9 563d 3855 4b3d 2a1d 833d
00000010: 9552 01bb 60bc 7dbd 336b c6bc 38f3 a2bc
00000020: 54a7 40bd 410d 61bd 18af efbb d6a2 2b3c
00000030: 9dfe 793d 82bb ae3d 50a3 cdbb 0c65 3b3c
00000040: 8d0d 493b 89d4 d63b 6112 b53c f7af 2d3d
00000050: c636 4d3c 269f cf3c ab5e 303d abd4 8ebd
00000060: ad41 a83c 0af6 adbb 05d9 4abc 5bbe c33c
00000070: 13d6 ccbc 3667 be3c 9f89 3f3d ef6a 5d3d
00000080: 6b1b db3c 59c6 063d d7cb bdbc 7e0b 213d
00000090: 0947 45bc cfb3 7dbd dfb4 bb3d 791c d1bc
000000a0: 74cd 4dbd f090 01bd b3e6 163d 78ba 8f3c
000000b0: b80c 57bc 9d6f 45bc 35ab 4ebc b22e f43c
000000c0: 1789 d2bb 7261 883c ae80 11bd 4826 7e3b
000000d0: 9578 f8bc 3147 19bd 7593 3f3d be30 d1bc
000000e0: 038b 01bb ddbd ae3c 00d1 823c dce2 9e3c
000000f0: d381 62bd d64e 76bb bf50 43bc 7db5 b7bd
00000100: f4ca 8b3c 4390 093c 7528 4fbd a92f aabc
00000110: 496b 3f3d 8bcd 2c3c 5fb2 23bd 2117 c7bb
00000120: bcd5 3e3b efa0 68bd 3716 113c cc6d e03c
00000130: c4df 3c3d 423b 0e3c 7f94 93bc 157e 953c
00000140: 7530 023c 62f2 b03b 1b6a a1bc 3a39 febd
00000150: 6d0a 1fbd eb8b b1bc a90b ca3c 7be8 2ebd
00000160: c8e4 d53c 8a38 0ebc 7124 2e3b c469 21bc
00000170: 952e 95bc c717 263d 63f3 9b3c f606 8cbd
00000180: ab6a a33b 0c42 91bd 0886 773c eba3 1f3d
00000190: 2706 2c3d ad52 d9bb 4b4c 22bd 0feb c73b
000001a0: 9375 763d 317c 41bb 5293 0e3d 62dd 823c
000001b0: d6de 083d 18d2 86bb 20b1 103d 8066 02bb
000001c0: 206a 6fbb 1a36 e9bb b408 fa3c c8e3 eb3c
000001d0: 3918 1d3d 36d5 643b 4f77 883c f0ce febb
000001e0: 1633 76bd 36f0 3f3b 7d64 a03c 727d 353d
000001f0: 4897 a6bd b77b 45bd a6e9 54bd 2ec8 86bc
00000200: 532a 33bd eab4 5dbc af59 3e3d 2241 94bd
00000210: 3645 243d b7ad c73c 616d 4d3b 31c9 b63c
00000220: 015c bb3c 357b 003d eef0 e53c 5b0c 42bd
00000230: 7834 d93c 1e9d 52bd ea03 b3bc 3478 083d
00000240: cc43 9a3d f6ca 64bc 65a3 49bd c8b7 b23c
00000250: b89f 5ebd 798a 373d b80e 00bd f6e7 a7bb
00000260: 4edb c3bc a320 233d b596 653d 14e5 d6bd
00000270: 27f6 953c a2a0 323d 2083 0cbd 8ca0 8cbd
00000280: 970c d5bc f7a3 0d3c 9c91 09bc 08f3 e03b
00000290: 10d7 7d3d cc89 5f3d 2a61 8fbd c7b0 383d
000002a0: ee23 aebb 9b30 4dbd a35f 303d 330f 803d
000002b0: be89 54bd f7c6 5ebd aa37 583c f7b3 123d
000002c0: 7bfd bcbc 294b 723d cdfa 3bbc 78c4 05bb
000002d0: f6ac 8a3c ad2a 713d a833 93bc 3e5c 3bbc
000002e0: 7b25 0ebb 2c05 7fbd b7d0 2d3d cb72 1d3c
000002f0: 896a fa3a 5b7e 673d 88b0 7ab8 fdd1 13bc
00000300: 7fa4 91bd aa72 343d 13ac f5bd 7272 043d
00000310: db79 0d3c fed4 843a 90aa 8e3c bf95 b13c
00000320: e6cb 56bd 61f4 1bbb fb7b d1bb 55bd 0fbc
00000330: adb7 9c3d e0bd 093d dc97 913d 2880 f6bc
00000340: 9885 183c 933c 493c 050f ef3c a31e c0bc
00000350: 284f a03d 94a4 80bc 763f 18bd 5c45 22bd
00000360: 7c79 b739 2d88 1abc f6d2 e53d 18ef 74bc
00000370: 90c3 3dbd b031 c7bc 7d16 31bc 5634 a13d
00000380: 3894 bbbc eb97 f0bc f474 533c e07d bcba
00000390: eefa 1ebd 4caf 0f3d adfe 223d 170e 95ba
000003a0: 5caf b9bc 1975 1e3d 42a7 c3bc d816 893c
000003b0: 488a 73bc 5ce5 5f3b 6fcb 473c 8f92 1c3d
000003c0: cc9e ac3c 2f17 bd3c bca9 9dbc 88b8 5a3d
000003d0: 6d80 253d 260b d03c 25bd bf3c 931f 393d
000003e0: dcdd 0ebd 67ea 1abd 916b 45bc 13b1 f4bc
000003f0: 8486 db3c 9d5a 893c 8ca3 7cbd 04f9 33b9

action_model._continuous_distribution.mu.bias f4 [3]
0.013817961 0.01316804 -0.004564456
00000000: bb64 623c c3be 573c 6f91 95bb

exp_avg f4 [128, 179]
-9.812644e-06 0.0 -0.00020166817 -0.00010572922 2.100299e-05 0.0 -9.226013e-05 -4.454301e-05
8.275871e-06 0.0 -0.00018420996 -6.612319e-05 3.8539572e-05 0.0 -0.00012425282 -6.360913e-05
-5.0314513e-05 0.0 1.4301309e-05 -3.856927e-05 -4.1233916e-06 0.0 -9.717907e-05 -0.00010072454
-2.156729e-05 0.0 -0.00010784652 -0.000118806856 2.2302488e-06 0.0 -0.00012532376 -0.00014371522
-3.4827008e-05 0.0 -0.00012606558 -0.00016182617 -5.780121e-06 0.0 1.1625615e-05 -8.4784726e-05
-6.761194e-06 0.0 -0.0001504668 -0.00017862898 3.458645e-05 0.0 -7.813302e-05 -1.9041954e-05
1.5348899e-06 0.0 -8.7747096e-05 -3.075728e-05 1.6721604e-05 0.0 -7.530044e-05 -7.27847e-05
4.898742e-05 0.0 -8.23999e-05 -0.00013281367 -8.304807e-06 0.0 -0.00013797062 -0.00016517469
5.1384936e-06 0.0 3.8738813e-06 -8.132842e-05 8.968049e-06 0.0 -0.00013634759 -0.00014984705
-1.890016e-05 0.0 -0.000113131726 -0.000119593635 -2.1784917e-05 0.0 -0.00016932175 -0.00018388411
-2.5322408e-05 0.0 -4.696307e-05 -0.00013786103 -1.6916696e-05 0.0 -0.0001466482 -0.00018090749
1.3277852e-05 0.0 -0.00016703014 -0.00017451064 4.6081397e-05 0.0 -9.720278e-05 -0.00011702509
1.5190861e-05 0.0 -8.451444e-05 -6.8002555e-05 1.5043191e-05 0.0 -1.46998045e-05 -7.082505e-05
-4.1759204e-06 0.0 -8.365648e-05 -3.4625882e-05 1.3854515e-05 0.0 -0.00010296861 -0.00015260557
-2.01044e-05 0.0 -0.00015169255 -9.695142e-05 9.119591e-06 0.0 -0.00011262107 -0.00018795766
9.093032e-06 0.0 -0.00017851012 -0.00015996081 -6.9423413e-06 0.0 -5.932526e-05 -0.00018365397
-1.0183056e-05 0.0 -0.00026120088 -0.00019988477 -1.6953741e-06 0.0 -4.8652626e-05 -0.0001223564
7.364048e-07 0.0 0.00013329224 -0.00011365409 -1.854185e-06 0.0 -0.00015351363 -0.0001545572
-4.175715e-06 0.0 -5.1751256e-05 -0.00014210204 -2.9571082e-08 0.0 8.200946e-05 -8.8035835e-05
-2.700125e-06 0.0 -8.873693e-05 -0.00013253372 -4.4560838e-07 0.0 -0.00024628273 -0.0001645841
9.3184997e-07 0.0 -5.3709748e-05 -0.00017778751 -3.1655613e-06 0.0 -0.00014400057 -0.00013594932
0.00030736285 -8.307745e-05 -0.00085262535 0.0 -0.00014686071 0.0 6.818685e-05 -0.00061681436
-8.338452e-05 0.0024267144 -2.5460686e-05 8.016411e-06 0.0 0.00019988637 0.00018651842 -1.6303723e-07
0.0 0.00012887998 0.0001306633 6.237873e-06 0.0 0.00017418244 0.00020051618 -3.5887606e-07
0.0 5.8382844e-05 0.00011211176 4.0301155e-05 0.0 8.837198e-05 0.00020251125 -1.1862916e-05
0.0 2.0402817e-05 0.0001091049 1.2835495e-06 0.0 0.0002287268 0.00023899079 -2.3773218e-05
0.0 6.546601e-05 0.0001256587 1.2757229e-05 0.0 5.4584525e-05 0.00021334193 -2.8801564e-05
0.0 2.5753763e-05 0.00012957827 7.920028e-06 0.0 0.00015833841 0.00021998168 4.1513176e-05
0.0 0.00014897081 0.00019404083 6.8622617e-06 0.0 0.0001425194 0.00018628502 2.1406324e-05
0.0 0.00019940351 0.0002142791 -1.1292625e-05 0.0 9.928238e-05 0.00017826504 6.118032e-06
0.0 0.000101996295 0.00019139348 -8.435582e-06 0.0 5.501219e-05 0.00012378953 9.642735e-06
0.0 0.00017163639 0.00021561577 -6.6165726e-06 0.0 0.00010855853 0.00012326386 1.1706178e-05
00000000: fca0 24b7 0000 0000 e376 53b9 f1ba ddb8
00000010: 942f b037 0000 0000 c87b c1b8 b1d3 3ab8
00000020: 98d8 0a37 0000 0000 7c28 41b9 9eab 8ab8
00000030: 8da5 2138 0000 0000 dd49 02b9 e465 85b8
00000040: cc08 53b8 0000 0000 a8ef 6f37 70c5 21b8
00000050: aa5b 8ab6 0000 0000 9ecc cbb8 133c d3b8
00000060: 67eb b4b7 0000 0000 a92b e2b8 f227 f9b8
00000070: 62ab 1536 0000 0000 5769 03b9 43b2 16b9
00000080: 3713 12b8 0000 0000 7930 04b9 e2af 29b9
00000090: dcf2 c1b6 0000 0000 a30b 4337 74ce b1b8
000000a0: 37de e2b6 0000 0000 a0c6 1db9 5a4e 3bb9
000000b0: eb10 1138 0000 0000 59db a3b8 49bc 9fb7
000000c0: 6a02 ce35 0000 0000 dd04 b8b8 6101 01b8
000000d0: 5f45 8c37 0000 0000 9eea 9db8 fda3 98b8
000000e0: d777 4d38 0000 0000 1cce acb8 e643 0bb9
000000f0: e054 0bb7 0000 0000 35ac 10b9 be32 2db9
00000100: 536b ac36 0000 0000 63fc 8136 dd8e aab8
00000110: 7a75 1637 0000 0000 87f8 0eb9 4320 1db9
00000120: c98b 9eb7 0000 0000 2241 edb8 58ce fab8
00000130: c1be b6b7 0000 0000 f68b 31b9 04d1 40b9
00000140: 756b d4b7 0000 0000 36fa 44b8 ca8e 10b9
00000150: 54e8 8db7 0000 0000 94c5 19b9 fcb1 3db9
00000160: f1c3 5e37 0000 0000 d024 2fb9 d8fc 36b9
00000170: 8647 4138 0000 0000 58d9 cbb8 5e6b f5b8
00000180: 40dc 7e37 0000 0000 583d b1b8 989c 8eb8
00000190: 0362 7c37 0000 0000 2e9f 76b7 e987 94b8
000001a0: e21e 8cb6 0000 0000 bb70 afb8 423b 11b8
000001b0: b070 6837 0000 0000 daf0 d7b8 bf04 20b9
000001c0: dfa5 a8b7 0000 0000 a90f 1fb9 6652 cbb8
000001d0: 5800 1937 0000 0000 fa2e ecb8 8016 45b9
000001e0: 468e 1837 0000 0000 722e 3bb9 27bb 27b9
000001f0: 42f2 e8b6 0000 0000 03d4 78b8 3d93 40b9
00000200: e4d7 2ab7 0000 0000 caf1 88b9 2998 51b9
00000210: 9c8c e3b5 0000 0000 5c10 4cb8 cc4c 00b9
00000220: 5aad 4535 0000 0000 5dc4 0b39 9359 eeb8
00000230: 50dd f8b5 0000 0000 80f8 20b9 a210 22b9
00000240: 1e1d 8cb6 0000 0000 7d0f 59b8 3a01 15b9
00000250: 7f03 feb2 0000 0000 7efc ab38 e19f b8b8
00000260: cb33 35b6 0000 0000 4718 bab8 c0f8 0ab9
00000270: f33b efb4 0000 0000 821f 81b9 3594 2cb9
00000280: 3e24 7a35 0000 0000 6746 61b8 796c 3ab9
00000290: ee6f 54b6 0000 0000 dcfe 16b9 9e8d 0eb9
000002a0: 8b25 a139 de39 aeb8 b882 5fba 0000 0000
000002b0: 9ffe 19b9 0000 0000 89ff 8e38 b6b1 21ba
000002c0: b9de aeb8 8309 1f3b 6894 d5b7 397e 0637
000002d0: 0000 0000 9798 5139 2894 4339 550f 2fb4
000002e0: 0000 0000 f523 0739 aa02 0939 ec4e d136
000002f0: 0000 0000 bea4 3639 a741 5239 8dab c0b4
00000300: 0000 0000 1ae0 7438 8b1d eb38 0909 2938
00000310: 0000 0000 5854 b938 3359 5439 d606 47b7
00000320: 0000 0000 b726 ab37 3fcf e438 6d46 ac35
00000330: 0000 0000 62d6 6f39 9a99 7a39 996c c7b7
00000340: 0000 0000 cc4a 8938 40c3 0339 e207 5637
00000350: 0000 0000 b0f1 6438 8ab4 5f39 e39a f1b7
00000360: 0000 0000 c909 d837 67df 0739 43e0 0437
00000370: 0000 0000 a507 2639 e2aa 6639 6f1e 2e38
00000380: 0000 0000 0c35 1c39 7077 4b39 6142 e636
00000390: 0000 0000 4371 1539 8155 4339 bb91 b337
000003a0: 0000 0000 f916 5139 1cb0 6039 7475 3db7
000003b0: 0000 0000 d235 d038 a8ec 3a39 7f49 cd36
000003c0: 0000 0000 d8e6 d538 ccb0 4839 8c86 0db7
000003d0: 0000 0000 e4bc 6638 80cd 0139 3bc7 2137
000003e0: 0000 0000 4bf9 3339 eb16 6239 ed03 deb6
000003f0: 0000 0000 eba9 e338 6440 0139 a765 4437

exp_avg_sq f4 [128, 179]
1.9911202e-08 0.0 1.4018296e-07 3.9670456e-07 1.6011372e-08 0.0 1.5297866e-07 4.1916107e-07
1.4566813e-08 0.0 1.4092495e-07 3.832025e-07 1.5211834e-08 0.0 1.5731956e-07 4.4831688e-07
1.1962391e-08 0.0 1.5731536e-07 3.9302702e-07 1.0498622e-08 0.0 1.8475129e-07 4.7265473e-07
1.0111695e-08 0.0 1.5122524e-07 3.9189877e-07 7.653154e-09 0.0 2.0659859e-07 5.0065256e-07
5.944974e-09 0.0 1.713906e-07 4.0305792e-07 5.337906e-09 0.0 2.2072118e-07 5.2124807e-07
4.936831e-09 0.0 1.6771833e-07 4.0971992e-07 2.1004587e-08 0.0 1.3015045e-07 3.813036e-07
1.6433784e-08 0.0 1.3475523e-07 4.0741583e-07 1.729441e-08 0.0 1.2942115e-07 3.6302544e-07
1.5503707e-08 0.0 1.5273676e-07 4.4511287e-07 1.6532907e-08 0.0 1.4236622e-07 3.7615607e-07
1.235878e-08 0.0 1.9166977e-07 4.8997623e-07 9.547043e-09 0.0 1.6073287e-07 3.9618357e-07
7.892746e-09 0.0 2.0404472e-07 5.09441e-07 5.9216143e-09 0.0 1.8059507e-07 4.187095e-07
6.715004e-09 0.0 2.1971798e-07 5.142135e-07 6.1973355e-09 0.0 1.7000696e-07 4.2014804e-07
2.467366e-08 0.0 1.1998863e-07 3.7136084e-07 2.0241078e-08 0.0 1.326178e-07 4.038267e-07
1.9497502e-08 0.0 1.2732582e-07 3.6263822e-07 1.557729e-08 0.0 1.592768e-07 4.4666135e-07
1.5915962e-08 0.0 1.5189588e-07 3.762478e-07 1.1530248e-08 0.0 1.840459e-07 4.788607e-07
1.0860478e-08 0.0 1.6072944e-07 3.8649614e-07 8.227049e-09 0.0 2.0985777e-07 5.1309377e-07
7.97683e-09 0.0 1.7393243e-07 4.09636e-07 5.93422e-09 0.0 2.2860894e-07 5.353041e-07
5.5892184e-09 0.0 1.655597e-07 4.1252147e-07 1.5214343e-09 0.0 3.8488724e-07 6.033949e-07
1.6222005e-09 0.0 2.7674002e-07 5.1884194e-07 2.1557756e-09 0.0 3.5959673e-07 6.259127e-07
1.3302598e-09 0.0 3.8145498e-07 6.097296e-07 2.5300082e-09 0.0 2.932037e-07 5.1679916e-07
2.1056035e-09 0.0 3.3910578e-07 6.1761835e-07 1.2908524e-09 0.0 4.1536524e-07 6.2144693e-07
1.7930706e-09 0.0 2.850149e-07 5.143258e-07 1.935727e-09 0.0 3.519849e-07 6.1783055e-07
1.4219309e-05 4.0354843e-07 4.2827665e-05 0.0 3.615719e-07 0.0 1.9649953e-07 5.8436737e-05
4.0353686e-07 9.6934076e-05 1.4723712e-07 2.2265345e-08 0.0 1.8415636e-07 3.3707713e-07 1.7672154e-08
0.0 1.9028177e-07 3.4591423e-07 1.8441238e-08 0.0 1.7293887e-07 3.2823382e-07 1.2225105e-08
0.0 1.8038897e-07 3.5074743e-07 1.7750471e-08 0.0 1.5890346e-07 3.2367217e-07 8.589301e-09
0.0 1.5497305e-07 3.4617526e-07 1.3461195e-08 0.0 1.4713194e-07 3.2057872e-07 6.319147e-09
0.0 1.4735588e-07 3.4971788e-07 8.880222e-09 0.0 1.4929965e-07 3.159838e-07 4.278496e-09
0.0 1.4238802e-07 3.4928044e-07 9.396967e-09 0.0 1.08528376e-07 2.9592738e-07 2.2300505e-08
0.0 1.83709e-07 3.348313e-07 1.6124531e-08 0.0 1.8355597e-07 3.4098275e-07 2.280166e-08
0.0 1.6486229e-07 3.2393987e-07 1.3904893e-08 0.0 1.7323666e-07 3.446368e-07 2.012804e-08
0.0 1.588436e-07 3.225091e-07 9.514328e-09 0.0 1.6252453e-07 3.487133e-07 1.4044166e-08
0.0 1.4098211e-07 3.1821622e-07 5.8146785e-09 0.0 1.5008443e-07 3.484358e-07 1.1294057e-08
00000000: 3209 ab32 0000 0000 3385 1634 a9fa d434
00000010: 6189 8932 0000 0000 7442 2434 0f09 e134
00000020: 8541 7a32 0000 0000 2851 1734 f3ba cd34
00000030: 2dab 8232 0000 0000 aceb 2834 34b0 f034
00000040: 2783 4d32 0000 0000 84ea 2834 3901 d334
00000050: 6e5d 3432 0000 0000 0c60 4634 2cc1 fd34
00000060: b4b7 2d32 0000 0000 7a60 2234 2866 d234
00000070: ed7a 0332 0000 0000 63d5 5d34 9564 0635
00000080: 8b44 cc31 0000 0000 7d07 3834 dc63 d834
00000090: b868 b731 0000 0000 60ff 6c34 e5eb 0b35
000000a0: d3a0 a931 0000 0000 1016 3434 7af7 db34
000000b0: 936d b432 0000 0000 7cbf 0b34 f8b5 cc34
000000c0: 462a 8d32 0000 0000 3cb1 1034 ceba da34
000000d0: cf8e 9432 0000 0000 04f7 0a34 d6e5 c234
000000e0: 032d 8532 0000 0000 f6ff 2334 d9f7 ee34
000000f0: 3f04 8e32 0000 0000 54dd 1834 7ff2 c934
00000100: 7d52 5432 0000 0000 c9cd 4d34 e986 0335
00000110: 5704 2432 0000 0000 ea95 2c34 0eb3 d434
00000120: aa98 0732 0000 0000 6317 5b34 85c0 0835
00000130: 1277 cb31 0000 0000 98e9 4134 ffca e034
00000140: cdb9 e631 0000 0000 9eeb 6b34 7c08 0a35
00000150: 57f0 d431 0000 0000 288b 3634 b590 e134
00000160: f4f1 d332 0000 0000 39d6 0034 725f c734
00000170: 9ade ad32 0000 0000 b465 0e34 85cd d834
00000180: 767b a732 0000 0000 0eb7 0834 9eb0 c234
00000190: d3ce 8532 0000 0000 ac05 2b34 abcc ef34
000001a0: 92b7 8832 0000 0000 d218 2334 1bff c934
000001b0: 9116 4632 0000 0000 279e 4534 0f8b 0035
000001c0: e394 3a32 0000 0000 f994 2c34 a07f cf34
000001d0: f256 0d32 0000 0000 4455 6134 89bb 0935
000001e0: 780a 0932 0000 0000 2fc2 3a34 f1eb db34
000001f0: f3e5 cb31 0000 0000 8c77 7534 d1b1 0f35
00000200: 490b c031 0000 0000 b4c4 3134 8578 dd34
00000210: b61a d130 0000 0000 80a2 ce34 fbf8 2135
00000220: 1bf4 de30 0000 0000 dc92 9434 8c46 0b35
00000230: ce24 1431 0000 0000 990e c134 6504 2835
00000240: 5bd4 b630 0000 0000 c6ca cc34 4dac 2335
00000250: 60dc 2d31 0000 0000 9c69 9d34 2bba 0a35
00000260: 2bb2 1031 0000 0000 580e b634 69ca 2535
00000270: d569 b130 0000 0000 5dff de34 82d1 2635
00000280: 1070 f630 0000 0000 2604 9934 3310 0a35
00000290: ab05 0531 0000 0000 70f8 bc34 fed8 2535
000002a0: 788f 6e37 46a7 d834 dba1 3338 0000 0000
000002b0: 101e c234 0000 0000 61fd 5234 f819 7538
000002c0: afa5 d834 1649 cb38 3b18 1e34 0342 bf32
000002d0: 0000 0000 84bc 4534 87f7 b434 7acd 9732
000002e0: 0000 0000 4150 4c34 17b6 b934 b668 9e32
000002f0: 0000 0000 13b1 3934 1d38 b034 9506 5232
00000300: 0000 0000 f1b0 4134 5c4e bc34 b379 9832
00000310: 0000 0000 0d9f 2a34 2ac5 ad34 2590 1332
00000320: 0000 0000 ab66 2634 f7d9 b934 f642 6732
00000330: 0000 0000 52fb 1d34 011c ac34 ce1f d931
00000340: 0000 0000 e038 1e34 dcc0 bb34 a18f 1832
00000350: 0000 0000 2d4f 2034 7ca4 a934 0c02 9331
00000360: 0000 0000 52e3 1834 bd84 bb34 4c70 2132
00000370: 0000 0000 1b10 e933 f3df 9e34 548f bf32
00000380: 0000 0000 8c41 4534 ddc2 b334 3882 8a32
00000390: 0000 0000 7b17 4534 5010 b734 61dd c332
000003a0: 0000 0000 0005 3134 f5e9 ad34 5ee2 6e32
000003b0: 0000 0000 ee02 3a34 8506 b934 07e6 ac32
000003c0: 0000 0000 998e 2a34 5025 ad34 7574 2332
000003d0: 0000 0000 6782 2e34 ca36 bb34 e546 7132
000003e0: 0000 0000 de60 1734 4ed7 aa34 74ca c731
000003f0: 0000 0000 e526 2134 a710 bb34 ca07 4232

exp_avg f4 [128]
-0.00016212609 0.00021940196 -0.0006531708 -0.00010157855 -0.00048065127 0.00042847128 -8.180543e-05 0.00050214067
-0.000447653 0.000119982455 -4.751035e-05 -0.00017228398 -0.0006480293 0.0002362965 2.8694996e-05 0.0010176043
-3.523405e-05 -0.00047481028 -0.00067013514 5.1233936e-05 -3.1331405e-05 -4.6651996e-05 0.00017080359 0.00017562199
5.113403e-05 -1.8330216e-05 0.00014110644 -2.6041e-05 -0.0007204004 0.0005219311 0.00020072056 -0.00016184006
0.00035480276 0.0004088973 0.0005257964 -0.00020144395 0.0011181841 0.00047387404 0.000338065 -0.00036410577
-0.00049207086 -0.00014685729 0.0001880168 0.00069976976 -0.00013293647 -0.00015024091 -0.0003068359 0.00010161594
-0.00016732515 4.8069596e-06 -6.88982e-05 -3.2075724e-05 -3.67462e-05 -0.00032366044 -0.000396822 0.00035448498
-0.0006243449 0.00028215718 6.9792563e-06 -0.00014112801 0.00061849674 3.4640947e-05 0.00020444444 -6.936826e-05
2.6395082e-05 -0.00030232157 3.2084234e-05 -0.00070425915 0.00030207555 -0.00084621843 -0.00021238282 -4.3914475e-05
-2.7843036e-05 6.0183706e-06 1.191365e-05 -0.00030799155 -0.00059121905 -0.0002015279 -0.00026559707 -0.0005906527
-0.00047210464 0.000559462 3.288015e-05 -6.191287e-05 0.00048730875 5.9762384e-05 -0.0001578183 -5.176123e-05
0.00028466427 -0.00042505647 -0.00029838723 -0.00029884712 0.0008915877 0.0004763837 0.00047691588 0.00016217883
0.00023554974 1.3579488e-05 0.0006137058 -0.0010408323 -0.0002593191 0.00038526766 0.0004144591 6.990784e-05
0.0002384894 1.2314978e-05 -9.307721e-05 -0.00022258784 3.5383877e-05 0.0013693492 0.00046560384 0.0004627223
0.00026592895 0.00022825874 -0.00027233656 0.00017217691 -2.573667e-05 0.00060718117 0.0005691833 -2.9387845e-06
-3.4389564e-06 0.00019580139 0.0001523182 0.00027727734 -7.3110394e-05 -0.00047089384 0.00076004904 0.0004691374
00000000: 6400 2ab9 440f 6639 8d39 2bba 9206 d5b8
00000010: ecff fbb9 71a4 e039 f58e abb8 17a2 033a
00000020: f8b2 eab9 179f fb38 da45 47b8 21a7 34b9
00000030: 83e0 29ba 5cc6 7739 09b6 f037 2261 853a
00000040: 46c8 13b8 f5ef f8b9 02ac 2fba 05e4 5638
00000050: d769 03b8 33ac 43b8 bd19 3339 2b27 3839
00000060: bf78 5638 d7c3 99b7 f9f5 1339 9f72 dab7
00000070: 41d9 3cba 34d2 083a 8478 5239 9cb3 29b9
00000080: d204 ba39 4461 d639 99d5 093a b33a 53b9
00000090: 0890 923a 4c72 f839 513e b139 73e5 beb9
000000a0: 51fe 00ba b4fd 19b9 6026 4539 c170 373a
000000b0: dd64 0bb9 fd89 1db9 d1de a0b9 a41a d538
000000c0: 0174 2fb9 784b a136 717d 90b8 0c89 06b8
000000d0: ef1f 1ab8 f8b0 a9b9 8c0c d0b9 2bda b939
000000e0: 14ab 23ba 7fee 9339 5b2f ea36 c3fb 13b9
000000f0: 9d22 223a 6f4b 1138 2360 5639 cd79 91b8
00000100: 026b dd37 ea80 9eb9 2f92 0638 089e 38ba
00000110: e55f 9e39 c2d4 5dba 14b3 5eb9 cf30 38b8
00000120: 7790 e9b7 69f1 c936 bde0 4737 ed79 a1b9
00000130: 0afc 1aba 3c51 53b9 d63f 8bb9 08d6 1aba
00000140: d084 f7b9 dca8 123a cbe8 0938 38d7 81b8
00000150: 797d ff39 5fa9 7a38 077c 25b9 331a 59b8
00000160: fe3e 9539 1dda deb9 db70 9cb9 95ae 9cb9
00000170: 70b9 693a 23c3 f939 910a fa39 8c0e 2a39
00000180: e7fd 7639 75d3 6337 19e1 203a 896c 88ba
00000190: 38f5 87b9 c0fd c939 c24b d939 7c9b 9238
000001a0: 0313 7a39 6e9c 4e37 7232 c3b8 7866 69b9
000001b0: 2669 1438 bc7b b33a 4a1c f439 8999 f239
000001c0: 616c 8b39 bd58 6f39 65c8 8eb9 638a 3439
000001d0: 14e5 d7b7 3d2b 1f3a 3f35 153a ef37 45b6
000001e0: d2c8 66b6 0950 4d39 9bb7 1f39 895f 9139
000001f0: d852 99b8 4de2 f6b9 073e 473a 8ef6 f539

exp_avg_sq f4 [128]
9.214e-07 6.9124843e-07 4.8202105e-06 2.3965188e-07 2.8226195e-06 2.8045813e-06 5.5686975e-08 2.5606832e-06
3.905941e-06 3.2928614e-07 8.165681e-07 1.2000836e-06 6.5547233e-06 1.343437e-06 4.0873462e-07 1.215287e-05
8.864091e-08 2.9646476e-06 5.9874055e-06 6.818902e-07 2.754235e-08 4.504448e-07 1.4852768e-06 1.6825636e-06
1.6007554e-07 6.807552e-07 4.346026e-07 8.89676e-09 8.7242015e-06 3.1187647e-06 4.4976682e-07 1.5511647e-07
2.8143675e-06 3.073963e-06 2.2954616e-06 1.1675826e-06 1.1761332e-05 2.6065427e-06 1.678131e-06 2.1163282e-06
3.8115074e-06 6.882948e-07 1.3543365e-06 5.741667e-06 4.947175e-07 2.971283e-07 2.8242316e-06 8.5549533e-07
1.8309116e-06 4.22208e-08 2.0056605e-07 1.705567e-07 1.1028397e-06 2.4505646e-06 2.5940687e-06 1.5795838e-06
4.3436225e-06 9.2390735e-07 2.2034564e-07 4.4207894e-07 5.0597027e-06 2.6741932e-07 2.1797816e-06 6.7169594e-07
6.7318524e-08 1.3954806e-06 7.403855e-07 7.209037e-06 3.8177623e-06 4.378214e-06 3.2616008e-06 8.136779e-07
1.4465913e-07 7.822605e-08 5.9200936e-08 1.6848742e-06 8.533385e-06 1.5219505e-06 1.411765e-06 3.809923e-06
1.9741467e-06 3.978314e-06 3.2626707e-07 4.477951e-07 3.632256e-06 3.9968083e-07 5.0443975e-07 2.2009826e-06
2.121711e-06 3.4903696e-06 1.6014052e-06 1.4534462e-06 5.7503453e-06 2.2234383e-06 3.7010243e-06 1.3933616e-06
6.3064493e-07 3.9054834e-07 6.6284974e-06 1.2753831e-05 1.0952867e-06 3.33225e-06 2.3220089e-06 1.8009129e-07
3.6907878e-07 2.176615e-07 1.409105e-07 2.5782145e-07 2.9003909e-08 1.8702636e-05 3.4678842e-06 2.9539904e-06
1.3182514e-06 2.3315545e-07 2.641071e-06 4.824488e-07 1.8045095e-07 4.3275863e-06 6.2166223e-06 8.3318454e-08
2.076234e-07 5.5614737e-07 7.4402254e-07 7.277628e-07 1.1965074e-06 6.5223203e-06 6.804687e-06 4.118171e-06
00000000: 2056 7735 3b8e 3935 4bbd a136 81a9 8034
00000010: 3c6c 3d36 5736 3c36 7a2c 6f33 34d8 2b36
00000020: c70f 8336 bec8 b034 2232 5b35 8f12 a135
00000030: a5f0 db36 2550 b435 0f70 db34 2ee4 4b37
00000040: db5a be33 42f4 4636 6ce7 c836 230b 3735
00000050: 4596 ec32 a9d4 f134 b959 c735 72d4 e135
00000060: 3be1 2b34 24bd 3635 5453 e934 5dd8 1832
00000070: 295e 1237 f84b 5136 7b77 f134 178e 2634
00000080: 77de 3c36 484a 4e36 bb0b 1a36 d5b5 9c35
00000090: 8952 4537 10ec 2e36 243c e135 3e06 0e36
000000a0: 33c9 7f36 42c3 3835 a6c6 b535 8ba8 c036
000000b0: bacc 0435 0185 9f34 ee87 3d36 31a5 6535
000000c0: a5bd f535 4356 3533 2d5b 5734 4522 3734
000000d0: 4905 9435 6174 2436 c315 2e36 1602 d435
000000e0: 6fbf 9136 6e02 7835 2698 6c34 de56 ed34
000000f0: 84c6 a936 d591 8f34 5d48 1236 984e 3435
00000100: c090 9033 594c bb35 e7be 4635 28e5 f136
00000110: 541a 8036 92e8 9236 e0e1 5a36 856b 5a35
00000120: 9953 1b34 3afd a733 1e44 7e33 d623 e235
00000130: 9c2a 0f37 d245 cc35 e07b bd35 fbad 7f36
00000140: 957b 0436 757d 8536 ce29 af34 7d68 f034
00000150: afc1 7336 b793 d634 d668 0735 98b4 1336
00000160: b862 0e36 183c 6a36 ddef d635 0814 c335
00000170: 17f3 c036 6136 1536 1d5f 7836 8a03 bb35
00000180: 9749 2935 8eac d134 5c6a de36 49f9 5537
00000190: c401 9335 9e9f 5f36 cfd3 1b36 1e5f 4134
000001a0: cd25 c634 56b6 6934 2f4d 1734 b66a 8a34
000001b0: 4524 f932 9be3 9c37 ccb9 6836 2b3d 4636
000001c0: c6ee b035 4859 7a34 413d 3136 a181 0135
000001d0: fbc1 4134 af35 9136 6198 d036 ceec b233
000001e0: 16ef 5e34 284a 1535 d7b8 4735 7b5b 4335
000001f0: ae97 a035 4eda da36 d153 e436 d22e 8a36
