results/HideAndSeek5/Seek/Seek-999990.onnx (onnx, 161813 bytes, 7 tensors)

action_model._continuous_distribution.log_sigma f4 [1, 3]
000000 a9 7b 79 be ec d2 54 be c1 12 df be
       -0.24363579 -0.20783585 -0.43568996

action_model._continuous_distribution.mu.bias f4 [3]
000000 e8 f3 2b 3c 00 c2 80 3c 4d 5b 36 bb
       0.0104951635 0.015717506 -0.0027825416

action_model._continuous_distribution.mu.weight f4 [3, 128]
000000 c8 07 a3 bc a9 12 7c 3d d5 00 6e 3d 27 00 83 3d
       -0.019901171 0.061541233 0.058106262 0.063965134
000010 bf a9 82 3b 25 9d 4b bd ca 6b e4 bc 17 ee c7 bc
       0.0039875205 -0.04971041 -0.02788343 -0.024405522
000020 ad 3d 36 bd 11 13 62 bd 92 c0 ce bb 31 7b 84 3a
       -0.044492412 -0.055193964 -0.0063095773 0.0010107515
000030 f7 cb 7e 3d 19 c2 a2 3d 5c c9 5f bc 78 ea 36 3c
       0.062206235 0.079471774 -0.013658848 0.0111643
000040 9a 08 49 3c ba 66 88 3c 8b fa 89 3c 98 6c 45 3d
       0.012270117 0.016650546 0.016843101 0.048199266
000050 5e 9d 00 3b 9c 0e 64 3c 9d b9 29 3d 9b 9f 9b bd
       0.0019625048 0.013919499 0.04143678 -0.07598802
000060 e0 d0 98 3c a9 51 54 bb 06 a3 84 bc 72 36 2f 3b
       0.018654287 -0.0032397306 -0.016191017 0.0026735333
000070 72 35 3b bc 3a 3f 11 3d 8a a2 0a 3d 90 c4 44 3d
       -0.011426317 0.03546069 0.033846416 0.04803902
000080 9c 78 14 3d c4 c1 38 3d c9 71 f0 bc dc e8 2d 3d
       0.036247835 0.045106664 -0.029351132 0.0424584
000090 3e 7e 2d bc 1d bd 8e bd 36 e1 b9 3d e1 a8 b7 bc
       -0.0105891805 -0.06969664 0.09076159 -0.022419395
0000a0 b3 a9 3b bd 58 4b 35 bd 6f ea e0 3c f6 27 b5 3c
       -0.045816135 -0.044261307 0.027455537 0.022113781
0000b0 24 39 99 bc 24 d5 af bc 55 5a ba bc b5 db 0a 3d
       -0.018704005 -0.021463938 -0.022748152 0.033900935
0000c0 07 f8 2f bc 7d 99 2e bb 60 c1 3a bd 93 88 92 3c
       -0.010740287 -0.002664178 -0.045594573 0.01788739
0000d0 ef 81 df bc 91 e6 cf bc 1e c8 3f 3d 91 dc 0b bd
       -0.027283637 -0.025378497 0.046821706 -0.034145895
0000e0 3e 4d 3e 3c 58 49 e5 3b a6 78 66 3c 5a ce 2d 3c
       0.011615096 0.0069972686 0.014066851 0.01060828
0000f0 fd 28 81 bd 61 c0 5d 3b d9 4f d2 bc 1d bc c3 bd
       -0.06306646 0.003383659 -0.02567284 -0.09557364
000100 e1 e5 19 3c 95 9a 01 3b 1a cf 67 bd e4 b8 a4 bc
       0.009393186 0.0019775976 -0.05659399 -0.020107694
000110 ad 27 10 3d 03 b0 cb 3b c8 29 0f bd 79 59 47 bc
       0.035194088 0.0062160506 -0.034951955 -0.012167328
000120 ab 42 6b bb cc 74 7d bd d1 7f 34 3c 6a cd ef 3c
       -0.0035897892 -0.061878964 0.011016802 0.029272754
000130 23 68 0a 3d db fa 06 3c df d6 62 bb 18 be 6e 3c
       0.03379072 0.00823852 -0.0034612936 0.014571689
000140 8b 79 dc 3b 64 ff 35 3c c6 36 71 bc c4 90 04 be
       0.0067283562 0.011108253 -0.014722532 -0.12945849
000150 10 4c 0f bd a8 14 f4 bc 8e 2b 93 3c 88 a7 6c bd
       -0.03498465 -0.029795006 0.017965104 -0.057776958
000160 3b 57 8e 3c fd b6 05 bd f3 04 6e 3b ba 8e 00 bc
       0.01737558 -0.032645214 0.0036318868 -0.007846529
000170 16 46 ed bb 81 3b 33 3d f4 80 cb 3b 0c bc 9b bd
       -0.007241021 0.04375792 0.006210441 -0.076042265
000180 f0 63 5a 3c a7 da 9a bd 59 0c 94 3c 61 b0 45 3d
       0.013329491 -0.07561236 0.018072294 0.04826391
000190 a2 db 32 3d a9 20 93 bc 8c 0a eb bc 52 90 6c 3c
       0.04366649 -0.01795991 -0.028691553 0.0144387055
0001a0 66 4e 7f 3d 6b 7e a1 bb 79 e6 14 3d c3 5c 41 3c
       0.062330626 -0.0049284003 0.03635261 0.011801901
0001b0 3d 1a 27 3d 24 57 91 ba a5 87 0a 3d 0e 74 d3 b9
       0.040796507 -0.0011088592 0.033820767 -0.00040331524
0001c0 15 8e 63 3c 23 2c 8c ba 6e 40 05 3d f8 7e 1f 3d
       0.013888855 -0.0010694306 0.032532148 0.038939446
0001d0 7d e8 3a 3d 4e c8 1d ba 64 8b c1 3c 42 0f e1 ba
       0.045631874 -0.00060189224 0.023626037 -0.0017170685
0001e0 5b 9e 8b bd 9d 98 4d bc cc e8 70 3b d9 0f 1f 3d
       -0.06817313 -0.012548593 0.0036759852 0.038833473
0001f0 66 bc a0 bd 0d 32 80 bd 4e a1 70 bd f3 a0 e5 bc
       -0.07848434 -0.062595464 -0.058747582 -0.028030848
000200 7c 8f 35 bd b8 28 17 bc 87 8e 26 3d fa 06 93 bd
       -0.04432629 -0.009226017 0.04066327 -0.07179065
000210 67 48 24 3d f7 f7 d3 3c 3c 7d 00 3c ef e3 e5 3b
       0.04010811 0.025875075 0.007842358 0.007015697
000220 fa df b9 3c 76 b4 55 3d 21 08 57 3c 84 d7 42 bd
       0.022689808 0.052174054 0.013124497 -0.047568813
000230 69 59 ef 3c 3a 0e 51 bd ce 44 b2 bc 5d 7e f8 3c
       0.029217439 -0.051038958 -0.021761324 0.030333692
000240 32 98 9a 3d 28 9c 20 bc 1a 40 55 bd 6c 11 9b 3c
       0.0754856 -0.009802856 -0.052063085 0.018929206
000250 ea 1d 82 bd e1 f8 57 3d f8 2f f5 bc 04 31 35 bc
       -0.06353362 0.052727584 -0.0299301 -0.0110590495
000260 86 ac 08 bd 63 f5 33 3d c8 c0 92 3d a5 d4 d9 bd
       -0.033367656 0.04393519 0.07165676 -0.10636262
000270 98 84 f3 3c 0e f4 3f 3d cd 86 fd bc 1b d9 86 bd
       0.029726312 0.046863608 -0.030948067 -0.06584378
000280 78 a1 05 bd 84 6e 47 3c 3f e1 c2 bb 03 8c 33 3c
       -0.03262469 0.012172345 -0.0059472616 0.010958674
000290 d2 e5 8c 3d 57 21 56 3d 01 72 8d bd 9b a5 1c 3d
       0.06879772 0.05227789 -0.0690651 0.03824387
0002a0 41 1c c2 bb 33 7e 6b bd 69 38 39 3d d8 c5 8b 3d
       -0.0059237783 -0.0574934 0.045219813 0.06824845
0002b0 b1 67 59 bd 9a cd 6f bd 2e 4d f3 3b cc 49 e4 3c
       -0.053077403 -0.058545686 0.007424972 0.02786722
0002c0 b3 ed 0f bd 26 c6 5a 3d 3f 95 63 bc 48 26 5a bb
       -0.035138797 0.053411625 -0.0138905635 -0.0033286978
0002d0 c0 81 9a 3c c1 a9 88 3d 0c 1b dd bc 5a e7 61 bc
       0.018860698 0.06673003 -0.026990436 -0.013788069
0002e0 88 ef 01 bc 1f 55 85 bd 9f 9d 0c 3d d6 bf 6b bc
       -0.007930644 -0.06510376 0.034330007 -0.014388999
0002f0 1d 7c 52 ba d5 e6 80 3d 1a a8 48 bc 0c 09 ab bc
       -0.00080293586 0.06294028 -0.01224711 -0.020878337
000300 7b fd 9e bd 33 ee 6f 3d 27 28 03 be 46 59 13 3d
       -0.07763191 0.058576774 -0.12808286 0.03597381
000310 2f 9e 96 3b ae 53 aa bb 25 8a d3 3c 77 12 89 3c
       0.0045964937 -0.0051979637 0.025822708 0.016732438
000320 73 09 60 bd 9b 29 82 ba 54 dc a7 3a 5f 2c fb bb
       -0.05469651 -0.0009930612 0.0012806752 -0.0076652016
000330 91 25 9b 3d cd c0 07 3d 3c b2 94 3d 78 ef 31 bd
       0.075755246 0.033142854 0.07260558 -0.043441266
000340 f6 0a 08 3c f7 61 32 3c bb b0 e3 3c 07 d2 0a bd
       0.008303395 0.010887614 0.027794233 -0.033891704
000350 6d ba aa 3d 58 b0 ed bc 54 45 15 bd f6 47 3c bd
       0.08336339 -0.029014751 -0.03644307 -0.045967065
000360 ed 3e 6a 3a 22 5f 3a bc 63 e2 fb 3d 49 29 61 bc
       0.0008935768 -0.0113752205 0.12299039 -0.013742753
000370 da 74 10 bd aa 72 c7 bc 1b 68 87 bc 43 ed a2 3d
       -0.03526769 -0.024346668 -0.016529134 0.0795541
000380 9d 29 ba bc 96 6c 2c bd dc 66 18 3c 3c 3b a4 bb
       -0.02272492 -0.042095743 0.009301867 -0.005011944
000390 3f 73 2e bd 4b 3b 12 3d f5 d0 4c 3d a1 5d 6f bc
       -0.042590376 0.035701077 0.050003964 -0.014609725
0003a0 00 e8 a6 bc 16 4e 14 3d 7f df 17 bd c6 86 44 3c
       -0.020374298 0.03620728 -0.037078377 0.011995023
0003b0 d6 c4 b4 bc 5a 81 13 3b 16 ab de 3b 1d 84 27 3d
       -0.022066515 0.002250752 0.0067952974 0.040897477
0003c0 cf f8 e3 3c 7f f9 fc 3c 10 89 95 bc bf 73 6f 3d
       0.027828602 0.030880688 -0.018253833 0.058459993
0003d0 2d 01 30 3d 9e 14 58 3c 30 a2 64 3c e6 af 23 3d
       0.04296987 0.013188509 0.013954684 0.03996267
0003e0 3f d6 40 bd ca 9d 3c bd 79 03 71 bc f5 5d d5 bc
       -0.04707932 -0.046048917 -0.014710301 -0.026045779
0003f0 6b 5b d3 3c 0a 42 07 3d b2 d8 86 bd c0 19 8b 3b
       0.025800427 0.033021964 -0.065843 0.004245013

network_body._body_endoder.seq_layers.0.bias f4 [128]
000000 f7 67 35 3c f8 cc f5 bb f3 30 f8 3c 73 82 3b 3b
       0.01107215 -0.007501241 0.030296778 0.002861169
000010 bf 22 8f 3b c8 7d bb 3c a3 0c dc bc cf 14 c9 3c
       0.0043681557 0.022887126 -0.026861494 0.024546055
000020 27 3f 88 3c d7 1d 23 bc 0d 88 c3 3b de e7 9e bc
       0.016631676 -0.009955845 0.0059671463 -0.019397672
000030 e6 2d 52 3c 0d 59 13 3c 3c 87 3a 3d 71 26 1d 3c
       0.012828326 0.008993399 0.045539126 0.009591685
000040 ed a6 17 bd e3 1f 84 3c d9 6f 81 3c 5a 1f da bb
       -0.037024427 0.016128486 0.015800403 -0.0066565694
000050 92 cf 22 bd 57 35 6d bb 47 13 d8 38 94 e4 87 3c
       -0.039748736 -0.0036195123 0.00010303273 0.016588487
000060 a4 cb b2 3c e0 a4 44 3c bd 53 81 3c 87 77 2a bc
       0.021825619 0.0120022 0.015787 -0.010404474
000070 cc 8e 28 3d 4a 54 6a bc d7 4c 4e 3b 71 4f 63 bc
       0.041151807 -0.014302323 0.0031478906 -0.013873921
000080 6c 69 b3 bb 96 f8 09 3c d2 22 3d 3c 68 bc 29 3c
       -0.0054752138 0.008421084 0.011543946 0.010359861
000090 67 10 c8 3c 4f 39 90 3c 56 e9 7e 3c b2 39 1f 3c
       0.024421884 0.017605452 0.015558561 0.0097183455
0000a0 10 c7 bc 3c a3 33 24 3b 2c 18 b1 3c bb 96 99 3c
       0.02304414 0.0025055192 0.021617971 0.018748632
0000b0 74 af 09 3b 2d d7 15 3b 9b 76 d8 3c 76 89 ac 3c
       0.002100912 0.002286385 0.026423743 0.02106164
0000c0 05 88 b4 bb 12 16 3c bc 57 d6 14 3d e4 74 d8 bb
       -0.005509379 -0.011479871 0.036337223 -0.0066057313
0000d0 a2 97 54 bb 88 42 90 3c f4 23 28 3b da a3 80 3c
       -0.0032439013 0.01760985 0.0025656195 0.01570313
0000e0 61 90 ac 3c 6e ef cc bc 89 b5 2b 3b 6e c3 03 3b
       0.021064939 -0.025016513 0.0026200733 0.00201055
0000f0 86 da f9 b9 d2 a2 3a bc dd 8c 9d 3c 0c 82 46 bb
       -0.00047655794 -0.011391358 0.019232208 -0.0030289916
000100 9e ff 57 bc 7d 69 71 3c 9d 3e 2e 3c d6 b6 bb 3c
       -0.0131835025 0.014734623 0.010635045 0.022914331
000110 f6 36 d4 3c 10 f6 eb 3b 7f bf 12 3c 6f e0 24 3c
       0.025905114 0.007200964 0.008956789 0.010063275
000120 92 3e e4 3b dd dd 57 bc 12 c7 b7 bb 56 70 a4 3b
       0.006965467 -0.013175455 -0.005608448 0.0050182743
000130 e0 60 e1 3c ab 22 30 3c 1e eb d9 bc 59 c3 87 3c
       0.027512014 0.010750453 -0.02660137 0.016572641
000140 6a 60 14 3b 97 4c 35 bc 70 15 3b bc 2f 87 5f 3a
       0.0022640475 -0.011065624 -0.011418685 0.0008526919
000150 e6 a4 c4 3c 45 cb 2d bc b8 1e 5e 3c 51 4d c2 3c
       0.024004411 -0.010607545 0.013557129 0.023718508
000160 77 e6 d7 3c 93 51 b2 3c 12 7d aa 3c e3 f3 fc 3c
       0.026355011 0.021767413 0.020811591 0.030878013
000170 56 6a 04 3a 75 97 08 3c 5c 1a 70 3c be 41 38 bc
       0.00050512457 0.008336891 0.014654722 -0.011246143
000180 63 ec 06 3c 1d 8f f8 3b de 3b e8 3c 42 13 d0 3c
       0.00823507 0.00758542 0.02834886 0.025399808
000190 4e 5c 29 3c 0c 84 8a 3c d3 82 f6 3b 74 94 fc 3c
       0.010336949 0.016908668 0.0075229197 0.030832507
0001a0 91 b0 01 bd e4 17 d4 ba f6 d6 30 bc c3 3d 91 3a
       -0.031662527 -0.0016181436 -0.010793438 0.0011081028
0001b0 0a 2e 09 bc fb 49 09 3d 36 fc dc 3c 24 18 b9 3c
       -0.008372793 0.03351782 0.026975732 0.022594519
0001c0 df 37 5e bc 23 52 23 bc 72 80 de 3b 24 d4 7d 3c
       -0.013563125 -0.009968313 0.006790214 0.015492473
0001d0 81 21 14 bc 68 69 dd 3b 6e 3d 0e 3b 04 fc 0e bd
       -0.009041191 0.00675695 0.0021704095 -0.03490831
0001e0 b0 10 22 3c 2c a0 7d 3c ce 7b 24 bc 96 2f b8 bc
       0.009891674 0.0154800825 -0.010039283 -0.022483628
0001f0 c4 3d f4 3b b3 c7 8b 38 80 76 74 3c 9b 81 d4 3b
       0.007453652 6.6652334e-05 0.014920831 0.0064851767

network_body._body_endoder.seq_layers.0.weight f4 [128, 179]
000000 91 89 b9 bd f4 d8 a8 3d 09 20 17 be 4f 20 db 3d
       -0.09059442 0.082445055 -0.14758314 0.10699522
000010 a8 e4 be bd 0f 6b ba bd f7 ab d9 3d 18 db bb 3d
       -0.093209565 -0.09102451 0.10628503 0.09172648
000020 75 82 aa bd 08 1a ba bc c7 44 25 bd 2c 6b 99 bc
       -0.08325664 -0.02271749 -0.040348794 -0.018727861
000030 17 24 16 3c 27 d2 92 bd 68 96 eb bd d0 e9 f0 3c
       0.009163878 -0.0716899 -0.11503297 0.029408365
000040 95 01 24 be 45 67 62 bc 26 22 71 3d df dd 01 be
       -0.16016228 -0.013818567 0.058870457 -0.12682293
000050 7a cd 38 bb 64 60 67 bd 60 fd 41 bd 8e 9b 0e be
       -0.0028198645 -0.05648841 -0.047360778 -0.13926527
000060 bd f8 a7 bd d7 29 64 bd ca 3f 29 be b9 06 f5 bd
       -0.0820174 -0.055703964 -0.1652824 -0.11964173
000070 f3 30 ad bc 77 a6 da 3c 07 1a 95 bd f1 df c7 bc
       -0.021141505 0.026690705 -0.07280355 -0.024398776
000080 13 d0 46 bd ca aa 0d be e8 57 27 be b8 40 8f 3d
       -0.04853828 -0.13834682 -0.16342127 0.06994766
000090 7b 3c 2c bb 5b 0a c4 3d 9e 1d 9b bd 12 18 0b 3e
       -0.0026281166 0.09572288 -0.075740084 0.13583401
0000a0 00 9f 92 bd 29 5d aa 3c 8a 6f 46 bd 0e 87 1b 3d
       -0.07159233 0.020796375 -0.048446216 0.037970595
0000b0 7d 91 28 bd d3 15 79 3c 89 a6 7d 3c 60 e8 2b bd
       -0.041154373 0.015202957 0.0154816 -0.041969657
0000c0 83 c8 79 bd 6f 44 b0 3d f4 b9 76 3c e5 fb ad 3d
       -0.06098224 0.08606803 0.015058983 0.08495311
0000d0 e4 fc 27 bd 06 6b 78 bc 24 2c 2a bd 0c 85 a9 bd
       -0.04101266 -0.015162235 -0.041546002 -0.0827733
0000e0 91 5f 1e bb 2f f7 9f bb 50 8f b6 bd d0 e2 ac bd
       -0.0024165849 -0.0048817615 -0.089140534 -0.084416986
0000f0 61 b9 4e 3e 39 ba 7f bc 2e 1d 80 bd fe 5e 98 bd
       0.20187904 -0.015608364 -0.062555656 -0.07439993
000100 63 3e ff 3d b3 fe 2d be a3 3c a9 3d 0d 25 26 3d
       0.12463071 -0.16991691 0.08263519 0.040562678
000110 08 a6 2f 3c e5 3d 09 be 7a 07 e7 bd 94 77 89 3c
       0.010720737 -0.13402517 -0.11280723 0.016780652
000120 f4 d0 4a 3e 1a ab b3 3d 79 ae 3d bd 36 76 2a bd
       0.19806272 0.087728694 -0.04630897 -0.04161664
000130 61 d1 1f be 69 36 f5 ba 9c 67 c7 bd 66 6b 06 3e
       -0.15607215 -0.0018708232 -0.09736559 0.13126907
000140 01 d5 8e 3d 7d c6 fc 3d 7e bf 88 3d c0 0f 27 3d
       0.06974221 0.12342546 0.06677149 0.040786505
000150 d9 75 ae bb b5 05 1b 3e 6b 51 55 bd 0b bb dc bd
       -0.005324107 0.15138896 -0.0520796 -0.10777863
000160 dc ce 38 3e 3a 56 c9 bc 25 14 89 bd ee be cc bd
       0.1804766 -0.024577249 -0.066932954 -0.099973544
000170 ed 17 9a 3d 74 59 81 bd 34 6f 61 3d 3a 6c 1d 3c
       0.07524095 -0.0631589 0.055037692 0.009608323
000180 19 2a 72 3d de a0 6d 39 da f1 d7 bd c6 97 c6 3c
       0.05912218 0.00022662009 -0.105441764 0.024242293
000190 60 e1 8a bc c7 ba 62 bc a8 ba c1 bc 82 b6 d1 3c
       -0.01695317 -0.0138384765 -0.023648575 0.025599722
0001a0 37 ab bc bd 16 09 e9 3d f3 e5 5b bd f3 42 46 3d
       -0.09212344 0.11378686 -0.053686094 0.04840369
0001b0 e3 ee 08 3e bd ed 01 be 7a ea 15 bd 9f 5b d3 3c
       0.13372378 -0.12688346 -0.036600567 0.025800524
0001c0 a8 65 f3 bd 7e dc 8d 3d 8c 6e 20 3e 7b f8 42 3d
       -0.11884624 0.06926821 0.1566717 0.04760025
0001d0 ca e4 ca 3a 59 47 bd 3c 1e 1c f9 bd 17 c1 ac 3c
       0.0015479561 0.02310531 -0.12163566 0.021088166
0001e0 95 1d 29 bd 76 09 9e 3d 22 0b 82 3d 86 77 9f 3d
       -0.041287977 0.07716648 0.0634978 0.07786469
0001f0 a7 36 bf bd 08 d5 b6 3c 18 ec 9d bd 59 fb fb 3d
       -0.09336596 0.022318378 -0.07711047 0.123038
000200 d4 28 54 be 8b 5a e3 3c f4 35 48 bd 24 13 6d 3d
       -0.207187 0.027753135 -0.04887958 0.057879582
000210 12 82 e5 3d 52 5f 3d bd 2e 46 f4 bd 0a 94 1b be
       0.112064496 -0.046233483 -0.11927448 -0.15193191
000220 ba 0b 89 bd 17 c0 28 3d bf f2 6f bb 8c 64 af 3d
       -0.0669169 0.041198816 -0.0036613194 0.085641
000230 80 ca cb 3d 2c b9 0a bd 8c a9 d2 3d b7 f4 a5 3d
       0.09950733 -0.033868 0.10286245 0.08103316
000240 aa 48 7f 3c 12 87 78 bd 63 bc d4 bb 48 ac 65 3d
       0.015581289 -0.060675688 -0.006492184 0.056072503
000250 13 51 75 3d 49 a0 5e 3d e1 a8 e2 3c 7b 8b 8b 3c
       0.05989177 0.05435208 0.027668418 0.017034283
000260 1c 0d 05 3e 8b f6 d1 bd f4 3c d1 bc 89 bc 8a 3d
       0.12993282 -0.102521025 -0.02554176 0.067742415
000270 e6 dd 93 bc 42 70 8a bd fa ae 62 3e 6a 07 83 bd
       -0.018050145 -0.06759693 0.22137061 -0.063978985
000280 ea 45 5f 3d ee e7 90 3d 2b 5e d8 bd 4a 39 77 3e
       0.054510035 0.07075487 -0.10564836 0.24142948
000290 b1 2e b2 3d b5 05 32 bd 3a 3b b1 3d a0 e0 0a bc
       0.08700312 -0.043462474 0.08653875 -0.008476406
0002a0 fb f4 e5 bd af c2 e0 3d 15 6a 43 bd 64 e8 f1 3b
       -0.11228367 0.10974633 -0.04770859 0.0073824394
0002b0 1c bf 90 3c 63 6f 39 bd 25 52 a2 3d 68 3f 54 bc
       0.017669253 -0.045272242 0.07925824 -0.01295457
0002c0 5f 83 59 be e7 f6 2b bd 35 55 04 bd de ae 60 bd
       -0.2124152 -0.04198351 -0.032307822 -0.054854266
0002d0 58 c0 ce 3c 68 f8 8e bd e4 cf b8 3d 0f 70 33 3c
       0.025238201 -0.069809735 0.09024027 0.01095201
0002e0 2b d9 95 3d 29 72 d6 3d 20 06 22 bc 47 86 47 bd
       0.07316812 0.10470993 -0.009889156 -0.04871204
0002f0 90 2c b1 bd a6 19 87 3d cf 99 58 bd ef ea 21 be
       -0.08651078 0.06596689 -0.05288106 -0.15812276
000300 4c fe 86 bb 50 c8 c7 3d 3e 7b bc 3d 63 eb 72 3d
       -0.00411967 0.097550035 0.09203194 0.059306514
000310 36 49 fa 3c 39 43 57 3a 51 7b 12 be 2d a3 cd bd
       0.030552488 0.0008211616 -0.14304854 -0.10040889
000320 74 78 2c bc f0 90 c7 bd 10 95 bb 3d 2d c9 23 3d
       -0.010526765 -0.097444415 0.09159291 0.039986778
000330 d5 79 29 3c 2c b3 46 3e 51 60 a6 3c 4f de b6 bd
       0.010343988 0.19404286 0.0203096 -0.08929121
000340 5b 5d 49 bd 97 de c3 3c 27 c1 c9 bd 23 6f 72 bd
       -0.049161296 0.02390985 -0.09851294 -0.05918802
000350 d0 3b 0c 3b 0e 8a 8b 3d 6b 8f 58 bd b8 d5 a3 bc
       0.0021397956 0.06813441 -0.05287115 -0.01999937
000360 b2 fb 64 bd 48 57 47 bd 0f 8c 90 3d 76 25 09 3e
       -0.055904098 -0.048667222 0.07057964 0.13393196
000370 0c 35 a0 bc c1 d3 c3 bd 07 58 10 bd e9 e6 05 be
       -0.019556545 -0.09561873 -0.0352402 -0.13076366
000380 46 7c 4b bd 8f 50 0f 3e 15 58 d4 3b 37 0c d6 bd
       -0.049679063 0.13995574 0.0064802268 -0.104515485
000390 b0 5b d7 3d 6b a1 2c 3e c4 88 dd 3c bc e5 08 3e
       0.10515535 0.16858451 0.027042754 0.13368887
0003a0 35 89 a5 bd f2 be 21 3d 23 6b b5 3c d6 4e 8d 3d
       -0.08082811 0.03948874 0.022145813 0.068998024
0003b0 48 20 4a 3d d7 e0 20 3d 65 76 4a 3d 8a 5f 53 3d
       0.049347192 0.039276924 0.049429316 0.051604785
0003c0 3c ce 38 bd 66 da a4 3d 32 fc 97 bd 72 42 22 be
       -0.045118555 0.08049469 -0.07421149 -0.1584566
0003d0 ed a8 ef 3d 3b 5c 06 3e db f3 bb bd 0f a0 0e 3d
       0.11702142 0.1312112 -0.09177371 0.034820613
0003e0 f9 24 eb bc 8b 65 68 3d 08 94 88 3d df c3 36 be
       -0.028704153 0.056737464 0.0666886 -0.17848156
0003f0 66 b4 58 3c 2e 1b 18 3d c7 bd 95 3d c1 8b a2 3d
       0.013226604 0.037135296 0.07311588 0.07936812

network_body._body_endoder.seq_layers.2.bias f4 [128]
000000 9f f5 33 bc 93 04 91 39 81 ab d9 3c e1 40 c8 3b
       -0.010983854 0.00027659963 0.026571037 0.00611125
000010 6a 7c 99 3a 5d 74 95 3c 28 38 9e bc 9d c0 b0 bc
       0.0011710052 0.018243963 -0.019313887 -0.02157622
000020 43 ad ea 3b b7 8b 0d 3c 7a c7 35 bc b1 1b 2d bc
       0.0071617677 0.008639268 -0.011094922 -0.010565684
000030 72 99 01 3d 2d ca de 3c be 24 d1 bc 3b 37 59 3b
       0.031640477 0.027196014 -0.025530215 0.0033144492
000040 1b 4b b0 3c cf f6 60 3c b3 67 62 3d f8 c5 df 3b
       0.021520188 0.013730719 0.055274677 0.0068290196
000050 a3 5e 66 3c b9 b4 23 3c 1b f7 7f bb 7c 9e 45 3b
       0.014060649 0.009991818 -0.0039057198 0.0030154279
000060 d1 62 02 3c 94 ce 8c 3a 11 c0 ff 3c a0 22 88 3b
       0.00795813 0.0010742717 0.031219514 0.0041545182
000070 09 24 09 3c e5 78 26 3c 0b e6 53 3a 4c d0 57 3c
       0.008370408 0.010160659 0.00080832903 0.01317222
000080 99 a1 81 3b 8f 20 e5 3c 30 fd ca bc b6 9b fd 3b
       0.0039560315 0.027969627 -0.024778932 0.0077395095
000090 bf f1 8e bb d2 44 a7 3c 8a db 07 3d 1d da 23 3c
       -0.0043623145 0.020418558 0.033168353 0.010000733
0000a0 81 ab d7 bb 41 81 62 3b 2e 47 50 3c 22 28 3d 3d
       -0.006581724 0.0034561905 0.012712283 0.04618085
0000b0 6b 23 b0 3b ec dc 2d bc 8e e8 cc b9 82 cb 20 3c
       0.005375316 -0.010611754 -0.0003908318 0.009814145
0000c0 87 63 8e bb 2c 88 00 3d 5d 06 57 bb b6 e6 f2 3a
       -0.0043453607 0.031379864 -0.003281019 0.0018531892
0000d0 b0 09 66 3b 85 b4 4f 3c 2a 3c 50 3b 52 89 09 bc
       0.003510099 0.012677317 0.0031774142 -0.008394556
0000e0 3e 41 40 bc 41 53 4f bc 87 e0 a7 3c 48 0f 07 3d
       -0.011734305 -0.012654127 0.020492805 0.032973558
0000f0 b5 7d 04 3c 3c d1 54 3c c3 aa 1a 3c cc 2c e7 3b
       0.0080866115 0.0129893385 0.009440127 0.0070549008
000100 f8 4a 93 3c c4 4e 09 3d 2e e2 47 bb e3 5c b9 3b
       0.017980084 0.033522382 -0.0030499804 0.005656825
000110 1e 47 71 3c 28 cb 37 3c 38 0b 4f bc 1f f5 bb 3c
       0.014726428 0.01121787 -0.012636952 0.022944031
000120 a5 d5 3a bc 94 97 3d 3c 80 68 8b 3c cb 4b ce 3c
       -0.011403476 0.011571784 0.017017603 0.025182625
000130 5f ca ac 3b 9f 56 a7 3c 27 44 57 3c 64 2e ee bb
       0.005273148 0.020427046 0.013138807 -0.007268714
000140 fa aa 31 3b 86 bc 0b bb a3 49 e6 ba 09 de d7 3b
       0.0027109967 -0.0021322086 -0.0017569553 0.006587748
000150 aa b7 b9 3c f3 e4 14 bd e4 c7 34 bc 75 7e c1 bc
       0.022670586 -0.036351155 -0.011033986 -0.02361987
000160 48 8e 3d 3c 0c 53 01 bc 55 3c 1a 3d 59 88 8c 3b
       0.011569567 -0.007893335 0.037655193 0.004288715
000170 08 16 ef bb 9d 4e f4 3b 3a dd 10 bd a1 91 d5 3c
       -0.0072963275 0.0074556605 -0.035367228 0.026070418
000180 8f 9a 02 3c 80 97 c2 3a 77 1a 91 bc e9 94 d5 3c
       0.00797142 0.0014846176 -0.017712815 0.026071982
000190 37 f6 5d 3b 0f e0 92 3c eb e0 6e 3c ac 29 ba bc
       0.003386868 0.017929105 0.014579992 -0.022724949
0001a0 c7 31 16 3c 48 9c 6e 3c 2e 23 04 3d af 54 90 3b
       0.009167141 0.014563628 0.032260112 0.0044046263
0001b0 3d 2f 5c bb 54 c1 b0 bc ee 4a a0 3c b4 ed 08 3d
       -0.0033597492 -0.021576561 0.01956698 0.033429816
0001c0 e8 64 7c 3c 8b 9a a8 3c 03 36 92 3c c3 4d 01 3d
       0.015404917 0.020581504 0.01784802 0.0315683
0001d0 cb d3 fb 3c 1a d3 56 3b 10 0a da bb c2 95 71 3c
       0.03074064 0.0032779635 -0.0066540316 0.014745178
0001e0 26 91 bf 3b e0 bc 14 bc a9 d3 b9 3a b1 5d 45 3b
       0.0058461605 -0.009078234 0.001417746 0.003011566
0001f0 d4 c3 1d 3b 24 39 cb 3b 92 87 d6 3b bf 69 f1 3b
       0.0024073021 0.00620188 0.006546923 0.0073673422

network_body._body_endoder.seq_layers.2.weight f4 [128, 128]
000000 52 5d 05 be 6a 55 06 3d cc 97 14 bd 39 84 f7 3d
       -0.1302388 0.0327963 -0.036277577 0.12085766
000010 f9 1a a8 bd 20 9a 34 3e 29 0c 78 bb 0c b4 24 3e
       -0.082082696 0.17636919 -0.0037849045 0.16084307
000020 49 cd 28 3d df 29 0a 3e de a7 ed bc e5 db 13 3d
       0.0412114 0.13492535 -0.02901071 0.03609838
000030 88 fe 45 bd a9 4e 11 3e c2 6c 3c bd a4 18 05 3e
       -0.048338443 0.14190163 -0.046002157 0.12997681
000040 86 95 93 bd 47 7e af 3c e1 40 11 be ca cb 6e 3d
       -0.07206254 0.021422518 -0.14184906 0.058299817
000050 01 09 cd 3a bb de 6d 3d f7 c4 3f 3d 7c 4c 9b 3d
       0.0015642942 0.05807374 0.0468187 0.075829476
000060 ba 80 cc bd 1a 8f 87 bd 25 60 1b 3b ca b4 33 3d
       -0.0998549 -0.06619091 0.002370843 0.043873586
000070 9b 33 7f be ec 48 d8 3b 13 e3 14 3c 9b 02 1f 3d
       -0.2492203 0.00660049 0.009087342 0.038820844
000080 d8 34 3c 3e d8 63 ec 3d 0e 08 80 3e 76 a1 bb bd
       0.18379533 0.11542481 0.25006145 -0.091616556
000090 17 82 22 3e 09 b7 92 3d e9 58 97 3d 42 ae 81 3d
       0.15869938 0.071638174 0.07390005 0.06332065
0000a0 4d 6d 21 bd af 8c ce bd 2b 9e ef bd f4 ed d7 3c
       -0.039410878 -0.10085427 -0.1170009 0.026358582
0000b0 14 0b 35 bd c2 e9 75 bb f0 19 05 3d a1 de 41 be
       -0.044200018 -0.0037523364 0.03249544 -0.18932582
0000c0 16 b7 a2 bc ea 5b 9c 3c 56 21 cc bd 23 da 88 bd
       -0.019862693 0.019086797 -0.09967296 -0.06682231
0000d0 76 33 aa 3b b2 fd 1d 3a 07 54 1a bd 08 7e 0b 3e
       0.005194123 0.0006026878 -0.03767779 0.13622296
0000e0 37 28 7e 3d 64 df 92 bd 60 eb ea bc 20 67 be bd
       0.06205007 -0.07171515 -0.028676689 -0.09297013
0000f0 38 24 c3 3d 20 19 6c bc 50 c8 f1 bb d5 ff e2 3b
       0.095283926 -0.014410287 -0.0073786154 0.00692747
000100 ff a2 f9 3d fe 0b a2 3d 15 ff ff ba a1 1b 56 3d
       0.12189292 0.079124436 -0.0019530976 0.052272443
000110 81 bc 13 3e 20 b3 be bd 85 19 58 bc 18 f6 05 3e
       0.14427377 -0.09311509 -0.013189678 0.13082159
000120 36 32 ee bd ec 63 37 be de cf a0 3c a5 96 ad bc
       -0.11630671 -0.17909211 0.019630369 -0.021189997
000130 3e cb d3 bd 19 c8 c6 3d b3 45 10 bc 76 a1 f3 3b
       -0.103415 0.09706134 -0.00880568 0.007435019
000140 53 63 65 be 19 f3 b6 3d d2 c9 70 3c 45 69 4a 3d
       -0.2240117 0.08933086 0.014696555 0.0494168
000150 7d 58 cc 3d 56 1a e5 3d 57 5e d5 bd 08 eb 41 bd
       0.09977815 0.11186664 -0.104183845 -0.047343284
000160 65 d5 d8 3c 5b 2f 13 be fa 95 ef 3c ef f1 12 be
       0.026468942 -0.14373533 0.02924632 -0.14350103
000170 db cc 32 3d 17 3b 31 3e 13 10 d6 3c 8e ec fe 3d
       0.043652397 0.17307697 0.026130712 0.12447463
000180 19 d5 02 3e 69 2d 3d 3e f5 25 8a 3d a7 e9 6f be
       0.12776603 0.18474354 0.06745521 -0.23428975
000190 17 8e 05 3d e9 6c 54 bd bd 71 b3 3d 0d a2 80 bd
       0.03260621 -0.051861677 0.08761928 -0.06280909
0001a0 19 dc ab 3d c6 e4 66 3d f7 82 86 bc 18 8a 5b bd
       0.0839159 0.05637052 -0.01641987 -0.053598493
0001b0 b8 7b 81 bc 46 f1 a5 3c d9 5b 2f 3d cb ef c7 3d
       -0.015806064 0.02025665 0.042812202 0.09762534
0001c0 5b 95 a1 3c b3 50 ab 3b 1e d6 17 3d 61 2b 57 be
       0.019724539 0.005228126 0.037069432 -0.21012641
0001d0 27 6e 3e 3e 96 77 1c bd 3d cf 23 3d f7 80 9f bd
       0.18596707 -0.038199984 0.03999256 -0.0778827
0001e0 cb 38 24 3d dd 17 1f be bd 21 19 bd 79 9a ba bd
       0.040093224 -0.15536447 -0.03738569 -0.091114946
0001f0 4c fb 92 bd 09 87 4b bc b9 70 96 bc 57 73 3d 3d
       -0.07176837 -0.012422332 -0.018364297 0.046252575
000200 45 71 28 3d 23 12 b9 3c 8e 48 21 bd ce e5 d4 bd
       0.041123647 0.022591656 -0.039375834 -0.10395394
000210 d9 e3 4b bd 41 54 3c 3c cf 63 29 3e fc a6 3c 3b
       -0.04977784 0.011494697 0.1654198 0.0028786054
000220 89 0c 83 bd 5a ce 7c bd 72 8b 51 3d ca 17 06 3e
       -0.06398875 -0.06172023 0.051158376 0.13095012
000230 d3 bb b8 bc a3 d1 0d 3e 6c 2e a9 3c 42 74 3d be
       -0.022550499 0.13849501 0.020652018 -0.1850138
000240 0c ac 26 3e e9 4b f4 3c 4e fd 7b bc c1 54 dd bc
       0.16276568 0.029821353 -0.015380217 -0.027017953
000250 61 af 62 be b9 76 12 be 76 db 16 3c f9 2a d9 bd
       -0.22137214 -0.14303102 0.009207597 -0.106038995
000260 f0 5f 32 bd f7 31 04 3b c6 73 99 3c 34 28 0d 3d
       -0.043548524 0.0020171383 0.018731963 0.03446217
000270 21 23 6d bc 1f 09 3e be 82 c8 50 bd e4 77 40 3d
       -0.014473707 -0.18558167 -0.05097247 0.046989337
000280 fc 22 33 be b5 b7 b0 3d b8 1d cb 3c d4 6a e1 bd
       -0.17493814 0.08628789 0.024794444 -0.11006704
000290 6a 3c 22 3e 63 88 6b 3c 9c f4 7f 3b 76 2a 7f be
       0.15843359 0.014375779 0.003905571 -0.24918541
0002a0 03 1f cd bd 6c 3c 33 bd 28 19 b1 3d 79 e3 4c bd
       -0.10015681 -0.043758795 0.08647376 -0.050021622
0002b0 fa 94 b9 bd d9 db 7d 3c 1d 7f 13 be 6f 43 df 3d
       -0.09061618 0.01549431 -0.14403959 0.10901534
0002c0 e7 7f 44 3d 48 26 a7 3b 63 a9 58 bd f3 a8 ff bd
       0.04797354 0.005100999 -0.052895915 -0.124833964
0002d0 87 19 cf bd 61 df e5 bc 4a 56 c1 bd 2f 2e d5 3c
       -0.10112291 -0.028060617 -0.094402865 0.026022999
0002e0 c0 6f 73 3d b5 3b c2 3d a0 4d ce 3d 7a cc dc 3d
       0.059432745 0.094840445 0.100733995 0.10781188
0002f0 c9 47 b1 bd d0 58 f1 3d d1 be 82 bc 37 fb 9f bc
       -0.0865627 0.11784518 -0.015960129 -0.019528968
000300 0d b2 09 bc cc 96 dd bb 43 f6 0f be 69 69 e0 bc
       -0.008404267 -0.006762361 -0.14058785 -0.027394013
000310 fc 83 68 3c 2d be 34 bd 20 f7 b3 bd 9e cf 35 bd
       0.014191624 -0.04412668 -0.0878737 -0.044387452
000320 f4 59 a3 bd 55 13 4b 3d 71 bd 85 3d 3a 7b ee 3d
       -0.079761416 0.049578983 0.06530274 0.11644597
000330 dd 84 83 3e 18 42 98 3d 31 29 ee 3d 89 4b 8c 3d
       0.25687304 0.074344814 0.116289504 0.06850345
000340 50 1d 7c 3c df 1f 64 3d a2 02 1e be 8f 57 c2 bd
       0.015387848 0.055694457 -0.15430692 -0.09489357
000350 05 4e e6 3d a3 66 2a bd d7 53 01 3d a4 60 29 be
       0.1124535 -0.04160179 0.031574097 -0.16540772
000360 d0 60 3c 3c e2 95 22 be 65 18 bf 3d 24 47 8c 3d
       0.011497691 -0.15877488 0.09330825 0.068495065
000370 5c 4f 9f bd 0b 4e 4c bc 98 b9 9c 3c 6b 66 4e be
       -0.077788085 -0.012469779 0.019131467 -0.20156257
000380 93 04 18 be f4 41 96 bd 84 d8 b3 bc 4c 5f ec bd
       -0.14845495 -0.07336798 -0.021953829 -0.11541614
000390 7a 57 11 be 8a f7 9d bd 82 b7 1d 3e 35 61 cc bb
       -0.14193526 -0.0771323 0.15402034 -0.006237174
0003a0 1f 19 41 be f8 01 eb bb 56 12 3b 3c 8a 6b f0 3c
       -0.18857239 -0.0071718656 0.011417946 0.029348154
0003b0 9f 79 f2 bd 45 bb c8 3d f2 46 f3 bc 12 04 b4 3b
       -0.11839604 0.09801344 -0.029696915 0.0054936493
0003c0 7f dd 3b be e0 84 04 bc a9 db bf bc dd a8 58 3e
       -0.18346213 -0.0080883205 -0.023420172 0.21158166
0003d0 0a 22 0c bd f9 c3 8e bd d6 a4 a6 bd 12 bb f1 bc
       -0.03421215 -0.069709726 -0.08136909 -0.029508147
0003e0 47 21 3d bc 59 39 95 bd cb a6 41 bd 32 aa 2c 3e
       -0.0115435785 -0.07286329 -0.047278207 0.168618
0003f0 fa 32 bc bd 6c b6 f5 3c 65 cd 45 bc cf ac 80 3d
       -0.091894105 0.029994212 -0.012072896 0.062829606
