results/HideAndSeek5_2/Seek/Seek-8999959.onnx (onnx, 161813 bytes, 7 tensors)

action_model._continuous_distribution.log_sigma f4 [1, 3]
-0.27777806 -0.27950135 -0.5212623
00000000: ed38 8ebe cd1a 8fbe 7271 05bf

action_model._continuous_distribution.mu.bias f4 [3]
-0.020898234 -0.00037546875 0.01172397
00000000: c632 abbc 90da c4b9 e515 403c

action_model._continuous_distribution.mu.weight f4 [3, 128]
-0.0022441612 0.059865933 0.061648864 0.0901553 -0.0027504426 -0.00854513 0.021237688 -0.08908998
-0.023525376 -0.04959882 0.05514043 0.059515882 0.07353261 0.023430357 0.024797173 -0.009556704
0.0024717355 0.090834685 -0.027611727 -0.028275987 -0.09780166 -0.02614384 0.0004451344 0.0701401
-0.028704215 -0.06272266 0.0063900943 0.07510516 0.06406798 0.05877381 -0.12641878 -0.04458395
-0.100515805 0.008223201 -0.065791056 0.034454674 -0.0041663125 0.019392248 0.025362948 0.058639746
-0.01772639 -0.099036545 0.06548089 -0.021174064 0.006041171 0.03736447 0.032703318 0.010353088
0.07279354 -0.003693389 -0.0069390074 0.06635409 -0.0052373703 -0.07113143 -0.116064936 -0.03039597
-0.013561619 -0.0593928 0.0010698243 -0.089004174 -0.010508267 0.020712042 0.02628198 -0.0502878
0.0010077255 -0.016898884 0.100651376 -0.010394651 0.023875931 0.0057052476 -0.047768537 0.020893907
0.027973402 -0.08776731 0.079927 -0.007866448 0.017123424 -0.043774795 -0.013604316 0.011243205
0.0098342495 0.032225054 -0.017336277 -0.0067479215 -0.027725577 0.06412202 -0.041094348 -0.009420969
-0.0044559143 0.035990983 0.06293476 0.01821162 -0.04883274 0.05169783 -0.10963064 -0.008253003
0.025349189 0.081768595 0.0007297875 0.026145596 0.035479743 -0.06694508 0.021420004 -0.017851189
0.04525393 0.05403307 -0.094004616 -0.028215382 0.10470613 -0.074329264 -0.029460039 -0.09434287
0.0019160572 0.0660493 -0.08095081 0.02527291 0.01167568 -0.058705915 0.060920104 -0.04135074
0.0906663 0.09391034 0.07509949 0.050852615 -0.02326305 0.032806464 0.059803817 -0.021135045
0.039984472 0.02509364 -0.08814255 0.010052168 -0.012984177 -0.036102615 -0.026318632 0.013780646
-0.047457445 -0.04367197 -0.026503589 -0.046062395 -0.0044103623 -0.04395094 0.005469564 0.032044966
-0.021965528 0.018056143 -0.03035757 -0.0030636117 0.052923042 0.033761017 -0.015664855 -0.0015577079
-0.01951493 -0.02407365 0.06631604 0.018403009 -0.0017596367 -0.03209795 -0.0010776635 -0.009398885
-0.007923751 -0.04362682 -0.04839297 0.00044837373 -0.033002656 -0.008387756 0.03144526 0.029394906
-0.02702722 -0.011150686 -0.011008529 -0.06910482 -0.016198177 -0.03824249 0.0063026147 -0.02009179
0.003172857 0.0030636792 -0.052565258 -0.04220329 0.006223864 -0.02304045 0.0042828005 -0.027386107
-0.0844761 0.04509857 -0.06053708 0.05316935 0.049837295 -0.07763221 -0.028332312 -0.06855653
0.03240325 -0.024949513 0.01780964 -0.0049437443 -0.070425935 -0.023530722 0.040054325 -0.0047471346
-0.030443655 0.05647342 0.025592078 0.026582103 0.008781474 0.038580664 -0.089954644 -0.0054456294
0.0037342175 0.016537892 -0.060669806 0.0067868377 -0.053611662 0.009401347 0.016638514 -0.051923867
0.011229475 0.07720022 -0.010824083 0.044536985 -0.04134619 -0.01474158 0.0279946 -0.045291405
-0.058247987 -0.012414106 -0.06654375 0.014277287 -0.03135522 -0.05161027 0.036577635 -0.1042223
-0.03186639 -0.00068741164 -0.025382657 -0.049438994 -0.049638253 0.048266456 -0.044891916 0.005200915
0.036193985 -0.025300924 -0.018069515 0.015213438 0.011341508 0.058677204 -0.014231849 0.028100459
0.002856936 -0.030297194 0.00037891304 -0.049358033 0.047199704 -0.03820633 0.017387198 0.056590363
00000000: c712 13bb fb35 753d 8583 7c3d 58a3 b83d
00000010: c540 34bb df00 0cbc a9fa ad3c cf74 b6bd
00000020: 4ab8 c0bc 2228 4bbd eeda 613d edc6 733d
00000030: 4498 963d 05f1 bf3c 7123 cb3c b993 1cbc
00000040: d7fc 213b 8907 ba3d fd31 e2bc 0ba3 e7bc
00000050: 3d4c c8bd 9b2b d6bc ee60 e939 9da5 8f3d
00000060: 1a25 ebbc bd74 80bd ff63 d13b bcd0 993d
00000070: 1336 833d cebc 703d ed73 01be a99d 36bd
00000080: 3bdb cdbd 9bba 063c 76bd 86bd 5820 0d3d
00000090: 9085 88bb 7edc 9e3c f5c5 cf3c 3b30 703d
000000a0: ef36 91bc acd3 cabd d81a 863d 3b75 adbc
000000b0: 04f5 c53b 7d0b 193d eaf3 053d 00a0 293c
000000c0: c814 953d c90c 72bb 9d60 e3bb a7e4 873d
000000d0: 3f9e abbb 5bad 91bd 74b3 edbd f800 f9bc
000000e0: 8e31 5ebc dd45 73bd 5939 8c3a d247 b6bd
000000f0: de2a 2cbc 4dac a93c 4f4d d73c 95fa 4dbd
00000100: a815 843a 876f 8abc 4f22 ce3d 544e 2abc
00000110: 7597 c33c 16f3 ba3b f1a8 43bd b329 ab3c
00000120: 7a28 e53c 59bf b3bd c4b0 a33d 46e2 00bc
00000130: 6c46 8c3c 334d 33bd a3e4 5ebc 6b35 383c
00000140: d51f 213c 6bfe 033d cf04 8ebc ab1d ddbb
00000150: c020 e3bc 6852 833d 8c52 28bd 685a 1abc
00000160: eb02 92bb 486b 133d f0e3 803d 8930 953c
00000170: d704 48bd 1bc1 533d 0786 e0bd 9a37 07bc
00000180: 1aa9 cf3c 4b76 a73d 364f 3f3a 4a2f d63c
00000190: 3553 113d 811a 89bd 0179 af3c a83c 92bc
000001a0: 2f5c 393d c851 5d3d 7e85 c0bd f223 e7bc
000001b0: 2b70 d63d f139 98bd 2e56 f1bc d636 c1bd
000001c0: 3624 fb3a db44 873d 8ac9 a5bd 2209 cf3c
000001d0: 5a4b 3f3c 9d75 70bd 5c87 793d 655f 29bd
000001e0: 41af b93d 1054 c03d c3cd 993d d54a 503d
000001f0: 2792 bebc 1260 063d d9f4 743d 6723 adbc
00000200: c2c6 233d 2d91 cd3c 1584 b4bd d9b1 243c
00000210: 96bb 54bc 56e0 13bd 2c9a d7bc 38c8 613c
00000220: bd62 42bd 61e1 32bd 0e1e d9bc ecab 3cbd
00000230: cd84 90bb e705 34bd 073a b33b 9541 033d
00000240: 0df1 b3bc 7aea 933c 70b0 f8bc e0c6 48bb
00000250: d5c5 583d fe48 0a3d 9553 80bc 012c ccba
00000260: c6dd 9fbc 1a36 c5bc b4d0 873d e8c1 963c
00000270: 9ca3 e6ba 2479 03bd 6340 8dba c8fd 19bc
00000280: 9fd2 01bc 09b2 32bd b537 46bd b413 eb39
00000290: cb2d 07bd cc6c 09bc bfcc 003d 96cd f03c
000002a0: 3068 ddbc 5eb1 36bc 1e5d 34bc d486 8dbd
000002b0: 0ab2 84bc 28a4 1cbd 2a86 ce3b 8a97 a4bc
000002c0: b5ef 4f3b 02c8 483b ab4e 57bd 5bdd 2cbd
000002d0: 8ef1 cb3b 53bf bcbc bc56 8c3b d458 e0bc
000002e0: ce01 adbd 47b9 383d bbf5 77bd 1bc8 593d
000002f0: 3122 4c3d a3fd 9ebd 2a19 e8bc 5e67 8cbd
00000300: 45b9 043d ec62 ccbc 86e5 913c 22ff a1bb
00000310: 793b 90bd 80c3 c0bc 0110 243d da8d 9bbb
00000320: f964 f9bc ac50 673d 7aa6 d13c b6c2 d93c
00000330: 2ce0 0f3c c206 1e3d 243a b8bd 4071 b2bb
00000340: c6b9 743b 797a 873c e780 78bd 1f64 de3b
00000350: e797 5bbd 1b08 1a3c 7e4d 883c 1fae 54bd
00000360: d5fb 373c 261b 9e3d 7f57 31bc 6a6c 363d
00000370: 9f5a 29bd ab86 71bc ee54 e53c 7b83 39bd
00000380: 7195 6ebd 8964 4bbc 1748 88bd 48eb 693c
00000390: 556e 00bd 4a65 53bd 6ed2 153d 8072 d5bd
000003a0: 5586 02bd 6a33 34ba 4aef cfbc 8b80 4abd
000003b0: 7b51 4bbd 0cb3 453d 96e0 37bd 706c aa3b
000003c0: 2540 143d e243 cfbc 8506 94bc c941 793c
000003d0: bbd1 393c 8257 703d b42c 69bc ef32 e63c
000003e0: 6f3b 3b3b d231 f8bc d9a8 c639 a62b 4abd
000003f0: 7a54 413d 3e7e 1cbd 996f 8e3c 4ccb 673d

network_body._body_endoder.seq_layers.0.bias f4 [128]
-0.011208026 0.053394996 0.022586528 0.0039688842 0.019209884 0.0075152814 0.003090609 0.040637564
0.024947014 0.025767898 0.028742425 0.00614525 0.02910931 0.0040542213 -0.0013126339 0.027947357
0.008308749 0.0029686328 -0.007365922 -0.032717194 -0.00018662016 0.017541336 0.00052031974 -0.030180344
0.008344849 0.004710348 -0.0058035497 -0.033028167 -0.014797336 0.042794738 0.0016664874 0.025386516
-0.01912642 -0.010575319 -0.0018074871 0.0041331714 -0.003374181 -0.0057581435 -0.0039924984 -0.0073202755
0.0069206767 -0.006863669 -0.009393723 -0.022997392 0.0023663773 0.0010458026 0.005690513 -0.005123743
0.026957856 -0.0026855087 0.016594028 -0.0145052215 0.01349658 -0.01613083 -0.02294204 -0.05239663
0.025194649 -0.013800896 -0.022966031 -0.03818918 0.015844012 0.02182056 0.03975876 0.015246036
0.034692466 -0.02507405 0.020248782 -0.030777995 0.0046492093 -0.028774835 -0.011072419 -0.011308736
0.01297603 -0.022581903 0.0009118416 0.035099786 0.019645022 -0.015272499 -0.01018486 0.012009793
-0.017293243 -0.014987436 0.016957743 0.017011851 0.046397842 5.8344167e-06 0.0034393861 0.015452345
0.032618023 0.002397824 -0.0065265624 0.017678902 0.0011308517 0.010611643 -0.000544248 -0.0039097476
0.035713103 0.008218705 -0.028363787 -0.007082697 0.0339775 0.009651591 0.017011203 -0.0036633448
-0.012887549 -0.026790865 0.013430325 -0.020154538 -0.003542555 -0.06628971 0.008432572 0.034687307
-0.011739136 0.026012693 0.020557707 0.011003637 0.03584945 0.004150379 0.019424433 0.0003034167
-0.007942078 -0.009561566 0.017556308 -0.024457714 0.015771672 -0.031376943 0.0099410545 0.0053402693
00000000: dea1 37bc b6b4 5a3d 6207 b93c 6a0d 823b
00000010: 0c5e 9d3c c042 f63b d18b 4a3b 9373 263d
00000020: ae5d cc3c 3317 d33c 3c75 eb3c 185e c93b
00000030: a676 ee3c 46d9 843b af0c acba dbf1 e43c
00000040: 6b21 083c 658d 423b d55d f1bb 7702 06bd
00000050: 78af 43b9 d9b2 8f3c 1166 083a c53c f7bc
00000060: d5b8 083c 4359 9a3b b42b bebb 8b48 07bd
00000070: 8770 72bc 8949 2f3d 0a6e da3a 62f7 cf3c
00000080: 03af 9cbc 1a44 2dbc 34e9 ecba 8e6f 873b
00000090: 5d21 5dbb cfae bcbb 81d3 82bb ecde efbb
000000a0: d8c6 e23b a1e8 e0bb 21e8 19bc 0765 bcbc
000000b0: 3915 1b3b 5013 893a 7c77 ba3b 12e5 a7bb
000000c0: b9d6 dc3c 5cff 2fbb 33f0 873c 4fa7 6dbc
000000d0: c220 5d3c cd24 84bc f2f0 bbbc d99d 56bd
000000e0: 0265 ce3c 271d 62bc 4223 bcbc 426c 1cbd
000000f0: 4dcb 813c 08c1 b23c 15da 223d 83ca 793c
00000100: b019 0e3d 1868 cdbc c6e0 a53c 2222 fcbc
00000110: 6558 983b 34b9 ebbc 1769 35bc 4748 39bc
00000120: 6a99 543c affd b8bc a708 6f3a cbc4 0f3d
00000130: 99ee a03c 8139 7abc 66de 26bc b9c4 443c
00000140: 8faa 8dbc dd8d 75bc f7ea 8a3c 705c 8b3c
00000150: aa0b 3e3d 42c5 c336 5367 613b d52b 7d3c
00000160: 7a9a 053d d024 1d3b c6dc d5bb 58d3 903c
00000170: 1639 943a 75dc 2d3c ddab 0eba 571d 80bb
00000180: e747 123d bfa7 063c 2c5b e8bc f815 e8bb
00000190: fe2b 0b3d b521 1e3c 145b 8b3c ba14 70bb
000001a0: 4c26 53bc 8478 dbbc de0a 5c3c 211b a5bc
000001b0: 362a 68bb e6c2 87bd c528 0a3c 4714 0e3d
000001c0: 8155 40bc 9218 d53c a368 a83c 9948 343c
000001d0: dfd6 123d e7ff 873b fd1f 9f3c e613 9f39
000001e0: 7d1f 02bc 1da8 1cbc 3fd2 8f3c 8b5b c8bc
000001f0: 9833 813c 1c85 00bd cedf 223c 6dfd ae3b

network_body._body_endoder.seq_layers.0.weight f4 [128, 179]
0.07731328 0.00012868077 0.037538826 -0.0069474396 -0.088873476 0.13828225 0.035523694 0.061283723
-0.12737758 -0.15864578 0.08635967 -0.15788502 0.03933487 -0.044824824 -0.0032878884 -0.0067020166
0.051102873 -0.019871963 -0.03711932 0.045675 -0.110931195 -0.14816885 0.0004851978 -0.12274132
0.08365847 0.10840044 0.0051941304 0.06645563 -0.05305835 0.050454225 -0.05499437 0.037101872
0.14817013 -0.10037733 0.0634616 0.014424094 0.0027473704 -0.025635285 -0.009180672 -0.097554125
-0.00027924898 0.10576784 0.08828831 -0.05218075 -0.03173973 0.010891 0.0102153355 0.17686343
-0.14369835 0.006584968 0.14470218 0.0017131717 -0.08434346 -0.02242768 0.071875915 0.0757809
-0.009576303 -0.04899079 -0.012426482 -0.0010713863 0.039126385 -0.043288805 -0.046973057 0.07058499
0.09719472 -0.030828657 -0.08027127 0.006422728 0.10068895 0.007033583 0.14632231 0.0494661
-0.013696209 0.07004262 0.019452436 -0.22958194 0.2287395 0.089924976 0.09114532 0.011648613
-0.055159006 0.062636435 -0.116613604 -0.17017059 0.08525143 -0.012986474 -0.068568744 0.058973268
-0.20616601 0.014812401 0.189877 -0.034696423 -0.20895922 -0.12925634 0.0762533 0.023907395
0.085481554 -0.021915385 -0.1842519 0.027431773 -0.3985505 0.012469282 0.10494334 0.020411696
0.3891227 -0.116607465 0.072807364 -0.03274616 -0.20187 0.015135965 -0.029531885 0.0728592
0.42121494 -0.012580168 0.11173158 0.08083802 -0.07310782 -0.025275182 0.030207675 -0.10302
-0.065611064 0.025840715 -0.050318338 -0.0055711605 0.06439685 -0.009796908 -0.17834096 -0.053010505
-0.057762504 0.10688469 0.051645238 -0.07148704 -0.101784125 0.07577957 0.02503853 0.16260058
-0.042739347 -0.05897042 -0.08752441 -0.00061561906 0.053990148 0.060872458 -0.08870793 0.090047695
0.0070760758 -0.016641045 0.24642223 -0.24346627 0.025990037 0.05095616 0.12678035 0.013519749
-0.055661097 -0.05822043 -0.14275281 0.03729032 0.046347197 -0.0038534703 0.01940699 0.066472985
0.010777321 -0.06409752 0.0668067 0.014889787 -0.04089196 0.06379086 -0.017601 -0.13972744
0.044371206 0.046618868 0.048172306 0.0044501196 0.05477829 -0.03187384 0.012345263 -0.15824084
0.025123043 -0.017629663 0.008084455 0.1808301 0.0021384566 0.20862854 0.09235341 0.09061466
0.0021838357 0.051046226 0.14362833 0.14568926 0.061468672 0.06235311 0.1818371 -0.027664267
0.095935374 0.046153557 0.055986464 0.11799479 0.028808465 -0.008488551 0.0010757409 0.10682123
-0.013881523 0.15130149 -0.13554984 0.07281827 -0.085683174 0.05644506 0.08056014 0.016283877
-0.12580046 -0.060236093 0.18554315 -0.12044174 -0.08790176 0.039778724 -0.018932998 0.034672737
0.061450154 -0.021601196 0.05144863 -0.06307605 -0.016104482 -0.026229018 0.020856308 0.04955381
-0.044619787 0.06979032 0.11059707 0.22829437 0.046631772 -0.047100347 0.030750155 0.088575356
-0.09299425 0.022650177 -0.0059915734 0.10604839 -0.101653814 0.055095736 0.102990784 0.15579583
-0.07046338 -0.018717615 0.08697163 0.015811015 -0.18701954 0.13112348 0.12523657 -0.09466397
-0.047929242 0.14050965 0.061962493 0.1231458 0.065987095 0.12371069 0.03334495 -0.33080372
00000000: 6d56 9e3d 7bee 0639 50c2 193d 59a7 e3bb
00000010: 4c03 b6bd dd99 0d3e 4b81 113d a404 7b3d
00000020: 456f 02be 0a74 22be 57dd b03d 9cac 21be
00000030: 9a1d 213d 3c9a 37bd 9d79 57bb 979c dbbb
00000040: 3f51 513d 87ca a2bc 6e0a 18bd b515 3b3d
00000050: e52f e3bd 93b9 17be 2562 fe39 cd5f fbbd
00000060: 2255 ab3d 0d01 de3d 8633 aa3b e419 883d
00000070: b653 59bd 17a9 4e3d c741 61bd 22f8 173d
00000080: e9b9 173e a192 cdbd 28f8 813d 0953 6c3c
00000090: 3a0d 343b 1701 d2bc 876a 16bc 75ca c7bd
000000a0: 2a68 92b9 cf9c d83d 80d0 b43d 7bbb 55bd
000000b0: 8501 02bd 2a70 323c 395e 273c b01b 353e
000000c0: a925 13be b7c6 d73b cf2c 143e 818c e03a
000000d0: 44bc acbd 41ba b7bc ae33 933d 0433 9b3d
000000e0: ede5 1cbc 91aa 48bd 7198 4bbc c26d 8cba
000000f0: fd42 203d 9a4f 31bd d266 40bd dd8e 903d
00000100: 060e c73d 618c fcbc 4365 a4bd bf75 d23b
00000110: 0236 ce3d f879 e63b 84d5 153e f79c 4a3d
00000120: 1066 60bc 8172 8f3d b75a 9f3c 8717 6bbe
00000130: b03a 6a3e 962a b83d 66aa ba3d d3d9 3e3c
00000140: 69ee 61bd 8847 803d 1dd3 eebd 3341 2ebe
00000150: 4d98 ae3d 38c5 54bc c56d 8cbd f48d 713d
00000160: 2f1d 53be b6af 723c 1e6f 423e d61d 0ebd
00000170: 68f9 55be c65b 04be b12a 9c3d 71d9 c33c
00000180: f410 af3d e587 b3bc 88ac 3cbe 99b8 e03c
00000190: d00e ccbe f64b 4c3c 89ec d63d 6e36 a73c
000001a0: 173b c73e e5cf eebd 071c 953d d620 06bd
000001b0: 02b7 4ebe d7fc 773c daec f1bc 3437 953d
000001c0: 7ca9 d73e 0d1d 4ebc 87d3 e43d 678e a53d
000001d0: 8db9 95bd e60d cfbc 1676 f73c 26fc d2bd
000001e0: 185f 86bd e8af d33c 9a1a 4ebd 488e b6bb
000001f0: 7fe2 833d 3683 20bc 039f 36be 8b21 59bd
00000200: 6098 6cbd 5ce6 da3d f589 533d cc67 92bd
00000210: 3274 d0bd 5232 9b3d 9a1d cd3c c480 263e
00000220: 740f 2fbd f88a 71bd ff3f b3bd 7f61 21ba
00000230: c624 5d3d 6655 793d 81ac b5bd ed6a b83d
00000240: 6dde e73b cd52 88bc 1c56 7c3e 394f 79be
00000250: 0fe9 d43c 68b7 503d b5d2 013e f081 5d3c
00000260: e4fc 63bd 8c78 6ebd cb2d 12be bcbd 183d
00000270: 8fd6 3d3d 818a 7cbb 68fb 9e3c fd22 883d
00000280: 5c93 303c 9045 83bd f3d1 883d 4bf4 733c
00000290: 547e 27bd c8a4 823d f92f 90bc b614 0fbe
000002a0: 95be 353d 6df3 3e3d 5350 453d 4fd2 913b
000002b0: 335f 603d 258e 02bd c943 4a3c e309 22be
000002c0: d7ce cd3c 156c 90bc a974 043c 872b 393e
000002d0: 5925 0c3b b8a2 553e c923 bd3d 2e94 b93d
000002e0: af1e 0f3b d915 513d 4e13 133e 912f 153e
000002f0: 93c6 7b3d fa65 7f3d 8133 3a3e 2ca0 e2bc
00000300: c479 c43d 830b 3d3d 1052 653d 41a7 f13d
00000310: bbff eb3c 9013 0bbc e0ff 8c3a 17c5 da3d
00000320: 546f 63bc c7ee 1a3e 94cd 0abe bf21 953d
00000330: a97a afbd ef32 673d b7fc a43d c465 853c
00000340: d6d1 00be 1fba 76bd 06ff 3d3e 29aa f6bd
00000350: d705 b4bd 04ef 223d 6019 9bbc 0005 0e3d
00000360: 28b3 7b3d fef4 b0bc ccbb 523d 042e 81bd
00000370: 8ced 83bc 3dde d6bc d9da aa3c f0f8 4a3d
00000380: 3dc3 36bd 3aee 8e3d b780 e23d 00c6 693e
00000390: f500 3f3d 4bec 40bd c0e7 fb3c ff66 b53d
000003a0: c573 bebd dd8c b93c f654 c4bb e62f d93d
000003b0: e02f d0bd 11ac 613d d5ec d23d f188 1f3e
000003c0: 1b4f 90bd af55 99bc 2f1e b23d 1a86 813c
000003d0: 0d82 3fbe 3c45 063e 043e 003e 2fdf c1bd
000003e0: 7451 44bd c3e1 0f3e 62cc 7d3d dd33 fc3d
000003f0: 3e24 873d 085c fd3d b794 083d 1b5f a9be

network_body._body_endoder.seq_layers.2.bias f4 [128]
0.026490249 -0.0022798087 -0.007849936 0.0199519 -0.008134411 0.010461865 0.0032073897 0.020107944
-0.00049527106 -0.005554888 0.01858938 0.011365984 0.008220848 -0.016324876 -0.04063498 0.0023312324
-0.010761214 0.028982196 0.0098435925 -0.01727161 0.019568708 -0.0059694615 0.029496456 0.0114349155
-0.014334146 0.00085515535 -0.04329283 0.00056111556 -0.014126238 -0.023884833 0.02742832 -0.015382945
0.005054835 -0.024639914 -0.007323537 -0.0048044063 -0.022220498 0.029351834 0.0017442742 0.029474203
0.017795319 0.010729087 -0.009146585 0.019057823 -0.0024192212 0.03138043 -0.0076297745 -0.04245103
-0.0009308418 -0.029778715 -0.014497606 0.0060907197 -0.00822429 0.038611647 0.028605187 0.0050088586
0.03203468 0.015308616 0.016684862 0.020984052 0.0069084135 0.013897566 0.020966602 0.0087366095
-0.047694895 0.012104928 0.023966545 0.0018304201 0.03558207 -0.0136319 0.003416007 -0.032095075
0.028042067 0.031007698 0.014180284 0.03216935 -0.022387045 0.04463231 0.0013983075 -0.0051870467
-0.062151667 -0.0015675769 -0.0011984468 0.0091668675 -0.010116493 -0.0148709705 0.0080374945 -0.006667673
-0.036937363 -0.0007957246 -0.015437328 0.018142616 -0.031012338 0.0045918417 0.039912496 0.028832868
0.009421445 0.005443019 0.02188816 0.027325653 0.0043218127 0.015852368 -0.0033528518 0.029913554
0.016506165 -0.010590033 0.033212613 -0.0002928125 -0.0034450444 0.009773891 -0.0136069795 0.014906409
0.0016866568 0.008090926 0.0024804943 0.010583169 -0.017072363 0.020935636 0.0048133256 -0.00812823
0.018987652 0.020191975 0.018442016 0.012190435 0.02080907 0.016336374 0.013410383 -0.009471936
00000000: 1402 d93c d868 15bb 059d 00bc 2b72 a33c
00000010: 3146 05bc 3e68 2b3c 1233 523b 6ab9 a43c
00000020: 14d5 01ba c705 b6bb c148 983c 6438 3a3c
00000030: bcb0 063c bfbb 85bc dd70 26bd 97c7 183b
00000040: ce4f 30bc 126c ed3c 0547 213c 317d 8dbc
00000050: 8e4e a03c 799b c3bb 8da2 f13c 8359 3b3c
00000060: c4d9 6abc 812c 603a d353 31bd d417 133a
00000070: bd71 67bc 20aa c3bc 5bb1 e03c bf08 7cbc
00000080: 08a3 a53b a5d9 c9bc 48fa efbb 486e 9dbb
00000090: c307 b6bc 4273 f03c 21a0 e43a e273 f13c
000000a0: 7dc7 913c 0dc9 2f3c 8fdb 15bc 271f 9c3c
000000b0: cc8b 1ebb c488 003d 3003 fabb 22e1 2dbd
000000c0: bc03 74ba 7ef2 f3bc 5e87 6dbc a994 c73b
000000d0: 2cbf 06bc 3f27 1e3d 6d55 ea3c 5a21 a43b
000000e0: cc36 033d fdd0 7a3c b1ae 883c bfe6 ab3c
000000f0: f95f e23b 9eb2 633c 27c2 ab3c ff23 0f3c
00000100: b95b 43bd bf53 463c 7d55 c43c b5ea ef3a
00000110: 81be 113d 5558 5fbc 16df 5f3b 2076 03bd
00000120: 7ab8 e53c db03 fe3c 6c54 683c 02c4 033d
00000130: 0965 b7bc 5ed0 363d 6a47 b73a 1af8 a9bb
00000140: bf92 7ebd 2777 cdba 3415 9dba a130 163c
00000150: a6bf 25bc 5fa5 73bc b2af 033c 7f7c dabb
00000160: a24b 17bd 2d98 50ba d9ec 7cbc d39f 943c
00000170: 960d febc 2977 963b 497b 233d e832 ec3c
00000180: 685c 1a3c 5a5b b23b cc4e b33c 0cda df3c
00000190: fe9d 8d3b d3dc 813c 85bb 5bbb 450d f53c
000001a0: f037 873c d181 2dbc f309 083d a184 99b9
000001b0: 41c6 61bb ac22 203c cfef 5ebc 033a 743c
000001c0: d012 dd3a ce8f 043c ca8f 223b 0765 2d3c
000001d0: 57db 8bbc 3681 ab3c 1ab9 9d3b 452c 05bc
000001e0: fe8b 9b3c a469 a53c b613 973c 64ba 473c
000001f0: c877 aa3c dcd3 853c 39b7 5b3c 2e30 1bbc

network_body._body_endoder.seq_layers.2.weight f4 [128, 128]
0.15462698 -0.055714305 -0.1561913 0.057303898 0.11654505 -0.094339564 0.11769182 0.011624691
-0.0633639 -0.009239131 -0.009341527 -0.06335616 0.08865423 -0.18945593 -0.11335813 0.1564877
-0.14349198 -0.07998372 0.07267448 -0.062989116 0.0101272 0.09713283 0.002741425 0.16404524
-0.127021 -0.0982482 -0.06123553 -0.027344257 0.06241271 0.07979041 0.079629496 -0.058579676
0.000906534 -0.12968203 0.17002156 -0.07250072 0.09009097 0.033691723 -0.048889473 -0.1570563
0.063904405 -0.008671567 0.05134516 -0.12340207 0.12233762 0.104968265 -0.12090388 0.06788759
-0.017998157 0.059293754 -0.009687312 -0.0032366035 -0.096245065 0.028773481 -0.0837347 -0.054712728
-0.06469728 0.050100923 0.15495287 -0.05907403 -0.013418413 -0.016938489 -0.16280231 0.11075476
0.030630177 0.029801518 -0.04055345 -0.047004826 -0.06927276 0.0031281058 -0.034101665 0.02142725
0.011829287 0.1598595 0.14433825 -0.09370286 -0.013599673 -0.034553234 -0.108861394 -0.09160254
-0.10534808 -0.08299873 -0.008291048 0.10805459 0.025042586 -0.050516695 -0.23017985 0.07734657
-0.031870317 -0.01866146 -0.1095261 -0.33660376 -0.07557209 -0.1085986 0.05187494 0.03934172
0.03846751 0.11103217 -0.061554026 0.095447965 -0.08877669 0.063340455 -0.06768345 0.16720353
0.011379553 -0.031884965 -0.16975597 -0.076242104 -0.06830283 0.17477225 -0.025988128 0.0400943
-0.0108248945 -0.12698239 0.010976306 -0.2775832 -0.124026276 -0.04276995 0.17788523 0.0321634
0.108391024 0.11519617 0.1687064 0.19363591 -0.014288103 0.008446267 -0.051702514 -0.15119623
-0.023819229 0.10594915 0.051111568 -0.0012182691 0.096314125 0.07211028 0.15654898 0.038690135
-0.121692434 0.044315856 -0.021237899 0.08425563 0.018544106 0.15009609 0.0868283 0.18011111
-0.06033653 -0.07704218 0.09685227 -0.021007763 -0.026988266 0.075344406 -0.00036063808 -0.050269213
-0.09095431 -0.07913494 0.07385606 0.06365054 -0.15513486 0.014728172 0.0141132595 0.15407081
0.07116766 0.1644545 -0.09835989 0.036208443 0.16798203 -0.004183448 0.0395867 -0.051911272
-0.053472817 0.12202147 0.06392616 0.07150603 0.107476875 0.062812194 -0.21360403 -0.024877299
0.05651099 0.121521495 -0.084405646 0.08939454 -0.1254308 0.039216805 0.11645819 0.047236618
-0.00991722 -0.22161536 0.029141033 0.055177987 0.06540063 -0.12153875 0.065081686 0.04959569
0.08191243 -0.10135805 -0.067739904 0.20385514 0.13654268 0.070789225 0.015987081 -0.08193924
0.008683261 -0.046075284 -0.17525084 0.1036911 -0.027079422 -0.069191754 -0.074240044 -0.14593509
0.00062064105 -0.1420522 0.092652045 -0.008108892 0.03262975 0.05115986 -0.01420183 0.056178138
0.047561686 0.008815053 -0.031296078 -0.05438783 0.009669699 -0.1135251 0.044977576 -0.12056972
-0.041014854 0.063638255 0.029668966 -0.06335406 -0.14137568 0.03882382 0.06625088 -0.0070975777
-0.019829158 0.028096834 0.04238241 0.15435207 -0.053701613 -0.102475815 0.051653735 0.1291741
-0.10223253 -0.01811293 0.11183579 0.15381086 -0.1070819 -0.019470964 0.007208849 -0.0055682603
0.064637855 -0.036368545 0.12571467 -0.057367396 0.0006807144 -0.054740187 0.138752 0.11428696
00000000: 8956 1e3e af34 64bd 9df0 1fbe 7eb7 6a3d
00000010: 2caf ee3d 1a35 c1bd 6908 f13d 7d75 3e3c
00000020: efc4 81bd b95f 17bc 340d 19bc e0c0 81bd
00000030: 5990 b53d bc00 42be 4f28 e8bd 503e 203e
00000040: 90ef 12be 81ce a3bd 5cd6 943d 7000 81bd
00000050: 8eec 253c 94ed c63d 7ba9 333b 7afb 273e
00000060: cb11 02be 5a36 c9bd 1bd2 7abd 1001 e0bc
00000070: 78a4 7f3d 2869 a33d ca14 a33d 3ef1 6fbd
00000080: 78a4 6d3a 5ecb 04be 221a 2e3e 427b 94bd
00000090: 9d81 b83d 5500 0a3d 5440 48bd 5ed3 20be
000000a0: 50e0 823d 3013 0ebc 4d4f 523d 39ba fcbd
000000b0: 258c fa3d 9af9 d63d 749c f7bd a608 8b3d
000000c0: df70 93bc 02de 723d 88b7 1ebc 321d 54bb
000000d0: 221c c5bd 5db6 eb3c 197d abbd 741a 60bd
000000e0: 0280 84bd a036 4d3d f7ab 1e3e 9cf7 71bd
000000f0: e7d8 5bbc 96c2 8abc a6b5 26be 64d3 e23d
00000100: 23ec fa3c 5022 f43c 601b 26bd 2288 40bd
00000110: e0de 8dbd e800 4d3b 30ae 0bbd 3388 af3c
00000120: a0cf 413c 35b2 233e 68cd 133e 49e7 bfbd
00000130: 2ad1 5ebc b187 0dbd b9f2 debd 1d9a bbbd
00000140: bcc0 d7bd 3dfb a9bd 2dd7 07bc ba4b dd3d
00000150: 1c26 cd3c 98ea 4ebd 44b4 6bbe e167 9e3d
00000160: 738a 02bd ebdf 98bc 384f e0bd 5457 acbe
00000170: 8ac5 9abd f168 debd d17a 543d c924 213d
00000180: 1c90 1d3d d664 e33d 1320 7cbd 397a c33d
00000190: 8ed0 b5bd a4b8 813d 9f9d 8abd 6737 2b3e
000001a0: 4e71 3a3c cf99 02bd 82d4 2dbe d224 9cbd
000001b0: 5be2 8bbd 7ff7 323e 0ee5 d4bc ec39 243d
000001c0: e65a 31bc ac07 02be f7d5 333c 631f 8ebe
000001d0: 7d01 febd 8b2f 2fbd 8c27 363e c5bd 033d
000001e0: 1dfc dd3d f8eb eb3d 5fc1 2c3e 7e48 463e
000001f0: a618 6abc 3662 0a3c 04c6 53bd 2fd3 1abe
00000200: 8b20 c3bc defb d83d 5d5a 513d 54ae 9fba
00000210: 5740 c53d 8eae 933d 604e 203e 8c79 1e3d
00000220: e239 f9bd 8b84 353d 1afb adbc 378e ac3d
00000230: cfe9 973c cab2 193e 09d3 b13d 0c6f 383e
00000240: 7023 77bd 4ac8 9dbd 7c5a c63d 7918 acbc
00000250: 7f16 ddbc 2b4e 9a3d 0614 bdb9 17e7 4dbd
00000260: 4146 babd 8011 a2bd d941 973d 375b 823d
00000270: acdb 1ebe 6e4e 713c 4d3b 673c bdc4 1d3e
00000280: 5ac0 913d c366 283e e970 c9bd 4e4f 143d
00000290: 7b03 2c3e 4e15 89bb aa25 223d eaa0 54bd
000002a0: 5006 5bbd 64e6 f93d b8eb 823d c171 923d
000002b0: d61c dc3d aea3 803d 04bb 5abe 7acb cbbc
000002c0: 1178 673d 43e0 f83d dedc acbd 7c14 b73d
000002d0: ee70 00be cda1 203d a281 ee3d 2f7b 413d
000002e0: d67b 22bc 23ef 62be 2db9 ee3c 5002 623d
000002f0: c4f0 853d 4fe9 f8bd 8c49 853d da24 4b3d
00000300: b4c1 a73d cf94 cfbd 38bb 8abd 67bf 503e
00000310: d8d1 0b3e f1f9 903d 57f7 823c c3cf a7bd
00000320: 3d44 0e3c 70b9 3cbd f574 33be 005c d43d
00000330: aad5 ddbc 68b4 8dbd 2a0b 98bd 0270 15be
00000340: 84b2 223a 2276 11be 5bc0 bd3d 28db 04bc
00000350: c6a6 053d 008d 513d cbae 68bc 0c1b 663d
00000360: 0bd0 423d 036d 103c 5130 00bd c6c5 5ebd
00000370: a86d 1e3c d97f e8bd 683a 383d 42ed f6bd
00000380: 31ff 27bd c654 823d 550c f33c c6bf 81bd
00000390: c9c4 10be ba05 1f3d 8bae 873d cc92 e8bb
000003a0: c270 a2bc 552b e63c 2e99 2d3d 780e 1e3e
000003b0: 39f6 5bbd d7de d1bd de92 533d 3746 043e
000003c0: 4a5f d1bd 9161 94bc 2a0a e53d 9880 1d3e
000003d0: c14d dbbd 9281 9fbc 3538 ec3b f475 b6bb
000003e0: da60 843d 2ff7 14bd 59bb 003e 13fa 6abd
000003f0: f871 323a 3f37 60bd 0115 0e3e 480f ea3d
