results/HideAndSeek5_2/Seek/Seek-0.pt (torch, 327631 bytes, 12 tensors)

network_body._body_endoder.seq_layers.0.weight f4 [128, 179]
00000000: 7a15 463d 786c a73c e7a8 8d3b 05d8 42bd
00000010: 9fa7 643d 80fa 7ebd ea79 cfbd b27f 9b3c
00000020: c65f 83bc 7eb5 bd3c 626f dbbd 5c8b 68bb
00000030: da7a b2bd 838b fa3c ac2a cabd b413 0dbe
00000040: 3b15 9bbc c546 033d 7d80 08bb 7c82 03be
00000050: 3b00 c43c faee f53d 5bb9 883d 8450 c53d
00000060: 4b79 fcbc 3560 b33d 5512 bb3d 7f18 00bd
00000070: b548 103d 0391 7bbc 37db 12be 568b c4bd
00000080: 3daf 96bc 2b14 c83c cca5 f53c 81d2 92bd
00000090: 8f6f 9bbc a71c 903d d47d 98bd 15fd 94bc
000000a0: 34aa 7fbd bb02 81bd 63a3 a8bd 30e7 65bd
000000b0: c192 4cbd 9f23 063d c933 7c3d 69f1 0b3d
000000c0: 6dd0 04b9 fe5b 9e3b 98c4 263c 262a c33c
000000d0: 0971 a83d 4e58 193d 76b6 f1bd e9c1 023d
000000e0: 5c30 20bc b823 06bd bef6 bc3c a574 85bb
000000f0: 7f23 ac3d f408 3dbd 2653 b83c e257 943d
00000100: bc15 d3ba 769f 22bc 84b0 3dbc 72ce 17bc
00000110: bcc3 a93d 43f7 a9bd 5590 043d c858 ccbb
00000120: 02dd 203d 10cb 3a3c f3fa cebd 759f a6bd
00000130: 0895 96bc 45ae a8bd c6d1 773d 5bbb 50bc
00000140: 53c6 22bd 2eab e5bd aeb0 e1bd 3c4d 35bc
00000150: 563f 8c3d cca6 543c b0db ebbc 237c 0ebe
00000160: 2a8f 6a3d f622 06bd 60b9 143d 19ff 813d
00000170: 7f30 b13b 2b22 053d 107c 2bbb f619 953c
00000180: 3e35 bbbc 84d1 ba3d 97f3 e53c fae6 c4bd
00000190: 038f 463d 12c6 403c bb47 a8bd 2210 b73a
000001a0: ed35 813c 775f ddbd b847 a8bd 2d01 0b3d
000001b0: 7a4e bebc 7bb3 903d ab64 8cbc 2a5a b8bc
000001c0: 8f2e e2bd 3928 c43a 6d82 87bd 105e e53c
000001d0: 0c85 01be 0fb7 a2bd 2b87 af3c 96f2 9bbc
000001e0: 5921 32ba 0111 b73d 13dd 363d f292 253d
000001f0: 3a07 0f3e 259a 1dbd b379 eebd 982a 6ebd
00000200: 74a4 873d 066c be3c 75cd 013d 31c8 603c
00000210: 6585 d4bc 293d 6c39 45ae 143e 2394 0b3e
00000220: be50 e5bc 5701 0ebd d802 a33d 52ad 563d
00000230: 319b 9cbd c80a 1abd ec8e 2f3d 19c6 f8bd
00000240: 2df9 033d bff2 523d b67c c53b 758a 643d
00000250: aa68 ad3d 69df 42bc 4cb3 553d c325 1abe
00000260: 99c0 a63d e0f7 82bd b03b 943c 4e80 8f3d
00000270: 2c6d 2d3c 62bf 20bb c373 bdbc 280d 82bd
00000280: 9b39 c9bc d2d7 d1bd 77f2 b6bd 754c 8d3c
00000290: db41 80bd 4f24 69bd a2f4 a43d d1e9 9ebd
000002a0: b63c 07bd 395e 153d a1d5 093c 48c4 5b3d
000002b0: 9cdb e23b 5d8b 34bc 16b8 4b3d 924e 9b3d
000002c0: 5fc3 983b 2598 8abd 515d 4ebd 664b b5bd
000002d0: 0b9e 27bd 4c43 afbc fbbf f1bb a169 00bd
000002e0: 63df 233e ca3b 0f3d b63f d63c e75f abbc
000002f0: 7410 7fbe 3a30 853c b525 033d 90b6 f93d
00000300: 7f5c 8bbd 2fd5 83bc b8fc 44bd c4bc 4a3c
00000310: 46f1 10bd 27a7 073d c734 d2bd 4762 14bd
00000320: ba56 1abe 1fbd ec3d 0b97 173e bf0b d13c
00000330: 5cd0 38bb 431a 7bbd ec5a bc3d 09e2 0ebd
00000340: eaea abbd b9b0 313c 68fd 5d3d fe44 3cbd
00000350: 1fe9 233e 2721 123d 0eb0 343c 7cdd 1fbe
00000360: 97d6 613c 54ca 6cb8 4150 46bd 448a 0abd
00000370: aa3a fabb c0db 1cbc f40a 58bd 0516 d7bd
00000380: 2c2e c8bd d211 ae3d 9002 a4bd 08e1 1fbc
00000390: b868 8b3e 8f9f 553c b0ef d0bc 286f 183e
000003a0: 710f d9bd a87a 8ebd ab81 dd3d 9019 183d
000003b0: dcec 12bd 5063 1fbe a54b e3bd e085 0b3e
000003c0: b192 dabc dfeb b43d 013f 083c 3c31 9b3c
000003d0: 7e91 21bd e6b2 4dbd 105d 06be 397e 233d
000003e0: 9f79 d43c aa28 fb3d 332a a4bd e4f7 5c3d
000003f0: 0285 a1bd c068 c7bd 7c0c 103d 4ca9 0dbd
0.048360325 0.020437464 0.0043231132 -0.047569294 0.05582392 -0.062250614 -0.10130675 0.018981788
-0.01603688 0.023157831 -0.10714604 -0.0035483455 -0.08714838 0.030584102 -0.0987142 -0.13777047
-0.018931022 0.032049913 -0.0020828538 -0.12842745 0.023925891 0.12008472 0.06675979 0.09634498
-0.030819556 0.087585844 0.09134356 -0.03127336 0.03522559 -0.015354398 -0.14341436 -0.09596889
-0.018394107 0.02442368 0.029986285 -0.07169057 -0.018974094 0.07036715 -0.07445875 -0.018187085
-0.062418178 -0.06299349 -0.082342885 -0.05612868 -0.049944643 0.032748815 0.061572824 0.034165774
-0.00012666146 0.0048327437 0.010178708 0.023823809 0.08224685 0.03743773 -0.1180238 0.03192321
-0.009777155 -0.032748908 0.023066875 -0.004072743 0.08405208 -0.046151116 0.022500586 0.07243325
-0.00161045 -0.009925714 -0.011577729 -0.009265529 0.082892865 -0.082991146 0.03236421 -0.0062361695
0.03927327 0.011400953 -0.101064585 -0.08135883 -0.01838161 -0.08236364 0.06050279 -0.0127399815
-0.039739918 -0.112142906 -0.11020027 -0.011065777 0.06848018 0.012979221 -0.028791279 -0.13914542
0.05726544 -0.032748185 0.0363096 0.06347484 0.0054073925 0.03250329 -0.0026166476 0.018200856
-0.022852536 0.09121993 0.028070254 -0.09614368 0.04847623 0.011765974 -0.082168065 0.00139666
0.015772784 -0.10809224 -0.08216804 0.03393667 -0.02323078 0.07065483 -0.017137846 -0.022503931
-0.110440366 0.00149656 -0.066166736 0.027998954 -0.1264841 -0.07945072 0.021426758 -0.019036572
-0.00067951303 0.0893879 0.044644427 0.04042334 0.139676 -0.03847708 -0.11644306 -0.05814609
0.06623164 0.023244869 0.03169008 0.013719604 -0.025942514 0.00022529498 0.14519604 0.13630728
-0.027992602 -0.034669247 0.07959527 0.052411385 -0.07646788 -0.037607938 0.04286091 -0.12147159
0.032220054 0.051501032 0.0060268296 0.055796105 0.08467229 -0.011894085 0.052172944 -0.15053467
0.08142204 -0.06394935 0.018094867 0.07006894 0.010585111 -0.0024528136 -0.023126489 -0.063501656
-0.024563601 -0.102462426 -0.08932965 0.017248372 -0.06262561 -0.056919392 0.080544725 -0.07759441
-0.033016883 0.03646681 0.0084127495 0.053653985 0.006923152 -0.011019555 0.049736105 0.075833455
0.004661962 -0.067673005 -0.050381962 -0.08852272 -0.040922206 -0.021394394 -0.007377622 -0.031350736
0.16003184 0.03496913 0.026153427 -0.020919753 -0.2490862 0.016258348 0.032018382 0.12193024
-0.068047516 -0.016092865 -0.048092574 0.012374107 -0.035386346 0.033118393 -0.10263973 -0.036226537
-0.15072146 0.115595095 0.14803712 0.025518296 -0.0028200364 -0.061304342 0.091970295 -0.034883533
-0.08394416 0.010845357 0.054196745 -0.045964234 0.16006897 0.035676148 0.011028303 -0.15611833
0.013784072 -5.6455217e-05 -0.04841638 -0.033823267 -0.007636388 -0.009573877 -0.05274482 -0.10502247
-0.097744316 0.08499493 -0.08008301 -0.0097582415 0.27228332 0.01303853 -0.025504917 0.14886153
-0.10598648 -0.069569886 0.10815748 0.037133753 -0.035870418 -0.15565228 -0.110984124 0.13625288
-0.026681276 0.08834051 0.008315803 0.018944375 -0.039445393 -0.05021944 -0.13121438 0.039915297
0.0259369 0.122636154 -0.08015861 0.053947344 -0.07886697 -0.09736776 0.035168156 -0.034585282

network_body._body_endoder.seq_layers.0.bias f4 [128]
00000000: 0000 0000 0000 0000 0000 0000 0000 0000
00000010: 0000 0000 0000 0000 0000 0000 0000 0000
00000020: 0000 0000 0000 0000 0000 0000 0000 0000
00000030: 0000 0000 0000 0000 0000 0000 0000 0000
00000040: 0000 0000 0000 0000 0000 0000 0000 0000
00000050: 0000 0000 0000 0000 0000 0000 0000 0000
00000060: 0000 0000 0000 0000 0000 0000 0000 0000
00000070: 0000 0000 0000 0000 0000 0000 0000 0000
00000080: 0000 0000 0000 0000 0000 0000 0000 0000
00000090: 0000 0000 0000 0000 0000 0000 0000 0000
000000a0: 0000 0000 0000 0000 0000 0000 0000 0000
000000b0: 0000 0000 0000 0000 0000 0000 0000 0000
000000c0: 0000 0000 0000 0000 0000 0000 0000 0000
000000d0: 0000 0000 0000 0000 0000 0000 0000 0000
000000e0: 0000 0000 0000 0000 0000 0000 0000 0000
000000f0: 0000 0000 0000 0000 0000 0000 0000 0000
00000100: 0000 0000 0000 0000 0000 0000 0000 0000
00000110: 0000 0000 0000 0000 0000 0000 0000 0000
00000120: 0000 0000 0000 0000 0000 0000 0000 0000
00000130: 0000 0000 0000 0000 0000 0000 0000 0000
00000140: 0000 0000 0000 0000 0000 0000 0000 0000
00000150: 0000 0000 0000 0000 0000 0000 0000 0000
00000160: 0000 0000 0000 0000 0000 0000 0000 0000
00000170: 0000 0000 0000 0000 0000 0000 0000 0000
00000180: 0000 0000 0000 0000 0000 0000 0000 0000
00000190: 0000 0000 0000 0000 0000 0000 0000 0000
000001a0: 0000 0000 0000 0000 0000 0000 0000 0000
000001b0: 0000 0000 0000 0000 0000 0000 0000 0000
000001c0: 0000 0000 0000 0000 0000 0000 0000 0000
000001d0: 0000 0000 0000 0000 0000 0000 0000 0000
000001e0: 0000 0000 0000 0000 0000 0000 0000 0000
000001f0: 0000 0000 0000 0000 0000 0000 0000 0000
0.0 0.0 0.0 0.0 0.0 0.0 0.0 0.0
0.0 0.0 0.0 0.0 0.0 0.0 0.0 0.0
0.0 0.0 0.0 0.0 0.0 0.0 0.0 0.0
0.0 0.0 0.0 0.0 0.0 0.0 0.0 0.0
0.0 0.0 0.0 0.0 0.0 0.0 0.0 0.0
0.0 0.0 0.0 0.0 0.0 0.0 0.0 0.0
0.0 0.0 0.0 0.0 0.0 0.0 0.0 0.0
0.0 0.0 0.0 0.0 0.0 0.0 0.0 0.0
0.0 0.0 0.0 0.0 0.0 0.0 0.0 0.0
0.0 0.0 0.0 0.0 0.0 0.0 0.0 0.0
0.0 0.0 0.0 0.0 0.0 0.0 0.0 0.0
0.0 0.0 0.0 0.0 0.0 0.0 0.0 0.0
0.0 0.0 0.0 0.0 0.0 0.0 0.0 0.0
0.0 0.0 0.0 0.0 0.0 0.0 0.0 0.0
0.0 0.0 0.0 0.0 0.0 0.0 0.0 0.0
0.0 0.0 0.0 0.0 0.0 0.0 0.0 0.0

network_body._body_endoder.seq_layers.2.weight f4 [128, 128]
00000000: a8c3 283d 6eaf 4ebd dd03 523d 7eaf c53c
00000010: be3e 593c 3aaf 9a3b e3ab 703b 7aac 12bd
00000020: 3368 e33d aef6 0c3e 57d1 81bd 5d33 2c3b
00000030: 6666 2bbe 689c 05be 0630 e0bd 8bab b0bd
00000040: 04d5 92bd 4f09 383b 5105 eabc 040d 283d
00000050: 7f21 6f3d fc6a 68bd c169 7dbd c932 0b3d
00000060: 2aae 803c 9f93 6b3d 6886 89bb bb70 0a3e
00000070: ae0a 053d 7d3a 14bb 08a5 c3bd 39f7 75bd
00000080: 2797 5cbd 71e4 583d dd1d 153d a3ee 9d3d
00000090: 1ba9 fcbd 4252 2d3e af6f 88bd e25f b13d
000000a0: 6d8c f53c 640c 58be 3266 ad3d d4cb b1bd
000000b0: 0f3c a83b 3c12 10be cdb1 4d3d 2d76 0cbc
000000c0: 689b 6e3c 669c cbbc 509b 1f3d 6d36 10bc
000000d0: 6c81 0b3e 6bf7 47be df77 b5ba fd20 71bd
000000e0: 3f05 17bc 641d bf3d 4a39 d63d 1f2c 413d
000000f0: 99a8 21bd 2b02 c6bd af42 01be 3460 023d
00000100: 0c8e 2c3d 9074 cd3c 983a ef3d bba7 2a3e
00000110: 9963 db3d 6144 733e bd4d 8abc 38a5 91bd
00000120: af49 a93d 39dd 92bb a3ce d7bb d4ed bb3d
00000130: d63d c43d 6432 2d3e d392 acbc 4b25 d4bd
00000140: bf2d 04be 0156 ebbc 62bd 93bc 5fa0 b13d
00000150: 70e4 49be 5173 fabd 53f1 c43d d52e 22bd
00000160: 8f6f 4dbe c86f 5a3d a225 9abc f278 3abd
00000170: 85e9 863d 6b85 2cbe cbd4 4a3d b068 af3c
00000180: c2dd 13be e31a 8ebd 7885 3b3e c8c7 d4bc
00000190: 88f8 cfbc fddc cbbc 94b8 b03d ea44 85bb
000001a0: a3d5 e83d c3ef 08be 16e6 1a3e 8615 b33d
000001b0: f2fd d23d e34a ba3d 189e 9e3d b504 4bbe
000001c0: c6d0 8e3b 954d 313d 3692 08be d41b 3bbe
000001d0: 24b9 be3c 62c6 dbbd 4808 2ebd 2a3b adbd
000001e0: 3822 bf3c 4cc8 183d 9631 fbbc d53e 483d
000001f0: 3601 02be e7c6 a53d 63ea 423e 07d8 0dbd
00000200: dc93 45be 2a7f 023e c8f7 533d da25 d83c
00000210: 392d 81bd 9a83 77ba 46a7 243e 0b38 cc3c
00000220: 1025 523d 578e 063e 2ffe f33d 0671 7cbc
00000230: e5d8 0b3e b9bb 9dbd 3a51 a33d 22e5 a83c
00000240: 1e58 d93d fafd 423c 9eb3 2a3d d16d b7bc
00000250: e799 97bd a991 8e3c 629a 1bbd 92e8 6fbd
00000260: adb8 3abe 30a3 b5bc 1246 8dbd d4ea bd3b
00000270: a2fa 1c3d f481 6fbd 6d22 55bd dc6b fcbd
00000280: e001 6bbc 0daa a6bd 39d1 d2bc c7c2 1fbc
00000290: 8459 80bd f51d b53c d21a 13bd a890 50bd
000002a0: c2e6 193d 495c 50be be1f cebc eec6 00bd
000002b0: d31a df3d 5e6a 3ebc 684e be3d f920 c1bd
000002c0: c35f 863d 7c7b a93d cade 07bd b488 063d
000002d0: 5d3e 3bbb 2f83 da3c 78e3 7b3d 565d 6aba
000002e0: e875 dfbc 0ba5 bd3b 39f0 3a3b 32f1 353e
000002f0: a778 99bd 875f 1ebc d50d 08bd 5b28 4bbc
00000300: 4322 153d d91b 6e3e 4d2d a7bd 41a9 a33d
00000310: b4c2 a0bd 1b20 59be 35db 413d dcd8 0fbd
00000320: bc47 63bd 470f 9e3d 8011 90bd 3824 5fbd
00000330: 671c a8ba c39f 9d3c 7ac8 8abe 2291 48bd
00000340: b461 503d 975d 8a3d 4547 ca3d f884 4a3d
00000350: 06e5 94bb 8249 e13d 1d97 913d eb22 4cbd
00000360: fa16 063d 8ec9 8ebd 6d3a bf3d 08ed 283e
00000370: ceaf dabc f541 67bd 8d09 153e 4a23 eebd
00000380: 38c7 78bd 5122 94be 0581 343e 432b 85bd
00000390: f9db 953d 1e39 873d a6d9 d73d 7d7a 31bd
000003a0: c96c 093c 9e77 ce3c 9093 0bbe c845 1a3d
000003b0: 522b 4cbd c206 c1bd ba90 843c 266d 44be
000003c0: cf68 d6bd 9c48 38be cd60 ff3c 98ba b3bd
000003d0: 9470 62bd 7173 a33d e969 e1bd ec2a 5fbd
000003e0: 5523 f0bd 58cf 14bd 7422 1c3d f7f8 82bd
000003f0: 310e 113d 2f11 13be b535 b03d 66ab 393e
0.041202217 -0.05046027 0.051273216 0.024131533 0.013259588 0.0047205957 0.0036723546 -0.035809018
0.11103859 0.13765976 -0.063387565 0.0026275732 -0.1673828 -0.13047945 -0.1094666 -0.08626469
-0.07169536 0.002808172 -0.028566988 0.041028038 0.058381554 -0.056742653 -0.061868433 0.03398398
0.015708048 0.05751383 -0.0041969307 0.13519566 0.032480888 -0.002261787 -0.095529616 -0.060050223
-0.053855088 0.052952234 0.036405433 0.07711532 -0.12336942 0.1692591 -0.06661927 0.08660866
0.029974187 -0.21098477 0.08466758 -0.08681455 0.0051341127 -0.14069456 0.050218392 -0.008573097
0.014563419 -0.02485485 0.038966477 -0.008802039 0.1362359 -0.19527976 -0.0013844928 -0.05886935
-0.009217559 0.09331778 0.10460146 0.047161218 -0.039467428 -0.09668382 -0.12623094 0.031830028
0.042127654 0.025079995 0.11681098 0.16665547 0.10712356 0.23756553 -0.016882772 -0.07111591
0.08266007 -0.004481938 -0.0065859123 0.091762215 0.09582107 0.16913754 -0.021066105 -0.103586756
-0.12908076 -0.028727533 -0.01803464 0.086731665 -0.19716048 -0.12229026 0.096163414 -0.039595444
-0.20062087 0.05332926 -0.018816773 -0.0455255 0.06587509 -0.1684777 0.04951934 0.021412224
-0.14440063 -0.06938722 0.18312633 -0.02597417 -0.025387064 -0.024885649 0.086289555 -0.004067053
0.11368873 -0.13372712 0.15126833 0.0874434 0.103023425 0.09096315 0.07744998 -0.19826014
0.004358384 0.04328688 -0.13337025 -0.18272334 0.023281641 -0.10731198 -0.042488366 -0.0845855
0.023331746 0.037300393 -0.030663293 0.048888046 -0.12695774 0.08094578 0.19034724 -0.034629848
-0.19294685 0.12743822 0.051749974 0.026385237 -0.06307454 -0.00094419124 0.16079435 0.024929067
0.051304877 0.13140236 0.11913716 -0.015407806 0.13656957 -0.07701821 0.07974477 0.020617072
0.1061251 0.011901373 0.041675203 -0.022391232 -0.074024014 0.01740344 -0.037989028 -0.058571406
-0.1823451 -0.02217254 -0.068981305 0.005795816 0.03832496 -0.058473542 -0.052034784 -0.1232526
-0.014343709 -0.08137903 -0.02573453 -0.009751028 -0.06267074 0.022109011 -0.03591425 -0.050919205
0.037573583 -0.20347704 -0.02516162 -0.031439714 0.10893788 -0.01162204 0.092922986 -0.09430117
0.06561234 0.08275506 -0.033171453 0.032845214 -0.0028571107 0.026673881 0.061496228 -0.00089403
-0.027277902 0.005787497 0.0028524532 0.1776779 -0.07493716 -0.00966633 -0.033216316 -0.012399758
0.036409628 0.2325281 -0.08162937 0.07991267 -0.07849637 -0.21203654 0.047328193 -0.035118923
-0.055488333 0.07717758 -0.07034588 -0.0544779 -0.0012825847 0.01924122 -0.27106076 -0.048966534
0.050874427 0.06756132 0.09876875 0.049443215 -0.0045439033 0.11000349 0.07108901 -0.049837988
0.032736756 -0.06972037 0.09337316 0.1649667 -0.026695158 -0.056459386 0.14554425 -0.116278246
-0.060736865 -0.2893243 0.17627342 -0.06502392 0.07317347 0.06602691 0.1053956 -0.043329705
0.008387753 0.025203522 -0.1363051 0.037664205 -0.049846 -0.09425117 0.016182292 -0.19182262
-0.104692094 -0.17996448 0.031174088 -0.08775824 -0.055283144 0.07981003 -0.11006529 -0.054484293
-0.11725489 -0.03633055 0.038118795 -0.063951425 0.035413925 -0.14362024 0.08603994 0.1813179

network_body._body_endoder.seq_layers.2.bias f4 [128]
00000000: 0000 0000 0000 0000 0000 0000 0000 0000
00000010: 0000 0000 0000 0000 0000 0000 0000 0000
00000020: 0000 0000 0000 0000 0000 0000 0000 0000
00000030: 0000 0000 0000 0000 0000 0000 0000 0000
00000040: 0000 0000 0000 0000 0000 0000 0000 0000
00000050: 0000 0000 0000 0000 0000 0000 0000 0000
00000060: 0000 0000 0000 0000 0000 0000 0000 0000
00000070: 0000 0000 0000 0000 0000 0000 0000 0000
00000080: 0000 0000 0000 0000 0000 0000 0000 0000
00000090: 0000 0000 0000 0000 0000 0000 0000 0000
000000a0: 0000 0000 0000 0000 0000 0000 0000 0000
000000b0: 0000 0000 0000 0000 0000 0000 0000 0000
000000c0: 0000 0000 0000 0000 0000 0000 0000 0000
000000d0: 0000 0000 0000 0000 0000 0000 0000 0000
000000e0: 0000 0000 0000 0000 0000 0000 0000 0000
000000f0: 0000 0000 0000 0000 0000 0000 0000 0000
00000100: 0000 0000 0000 0000 0000 0000 0000 0000
00000110: 0000 0000 0000 0000 0000 0000 0000 0000
00000120: 0000 0000 0000 0000 0000 0000 0000 0000
00000130: 0000 0000 0000 0000 0000 0000 0000 0000
00000140: 0000 0000 0000 0000 0000 0000 0000 0000
00000150: 0000 0000 0000 0000 0000 0000 0000 0000
00000160: 0000 0000 0000 0000 0000 0000 0000 0000
00000170: 0000 0000 0000 0000 0000 0000 0000 0000
00000180: 0000 0000 0000 0000 0000 0000 0000 0000
00000190: 0000 0000 0000 0000 0000 0000 0000 0000
000001a0: 0000 0000 0000 0000 0000 0000 0000 0000
000001b0: 0000 0000 0000 0000 0000 0000 0000 0000
000001c0: 0000 0000 0000 0000 0000 0000 0000 0000
000001d0: 0000 0000 0000 0000 0000 0000 0000 0000
000001e0: 0000 0000 0000 0000 0000 0000 0000 0000
000001f0: 0000 0000 0000 0000 0000 0000 0000 0000
0.0 0.0 0.0 0.0 0.0 0.0 0.0 0.0
0.0 0.0 0.0 0.0 0.0 0.0 0.0 0.0
0.0 0.0 0.0 0.0 0.0 0.0 0.0 0.0
0.0 0.0 0.0 0.0 0.0 0.0 0.0 0.0
0.0 0.0 0.0 0.0 0.0 0.0 0.0 0.0
0.0 0.0 0.0 0.0 0.0 0.0 0.0 0.0
0.0 0.0 0.0 0.0 0.0 0.0 0.0 0.0
0.0 0.0 0.0 0.0 0.0 0.0 0.0 0.0
0.0 0.0 0.0 0.0 0.0 0.0 0.0 0.0
0.0 0.0 0.0 0.0 0.0 0.0 0.0 0.0
0.0 0.0 0.0 0.0 0.0 0.0 0.0 0.0
0.0 0.0 0.0 0.0 0.0 0.0 0.0 0.0
0.0 0.0 0.0 0.0 0.0 0.0 0.0 0.0
0.0 0.0 0.0 0.0 0.0 0.0 0.0 0.0
0.0 0.0 0.0 0.0 0.0 0.0 0.0 0.0
0.0 0.0 0.0 0.0 0.0 0.0 0.0 0.0

action_model._continuous_distribution.log_sigma f4 [1, 3]
00000000: 0000 0000 0000 0000 0000 0000
0.0 0.0 0.0

action_model._continuous_distribution.mu.weight f4 [3, 128]
00000000: 0fd1 593b eaac 69bc ae10 803b 6552 b83c
00000010: d595 ec3c 9b92 ab3c e5c5 d5bc d640 943a
00000020: 5ef3 36bc 8140 0cbd 0784 313c b39d ea3c
00000030: bb78 92bc bbc9 a0bb e721 a239 bb78 02ba
00000040: a6e9 0fbb bbd8 8cbc cb2d 3d3c 2208 b9bc
00000050: 022b b4bb 019c 89b9 f5b6 93bc abd9 77ba
00000060: 98cc 69bc 785f 8b3b 0f6b 573b b0ba e4bc
00000070: d486 003c 4e41 8d3c 3568 143b 259b 643c
00000080: 9a56 8abc 2be2 aebc d770 31bc 5d53 53bc
00000090: f3c3 a1bc 9200 4d3c 7726 aa3c 2b4b 703c
000000a0: b5cc 073b a7f9 423c 4adc 343c ca6c 20bc
000000b0: dafc 67bc eb30 79bc 57bb 823c 2167 8cbc
000000c0: 07f2 d63c f8de 1b3c 8a2c a7b9 e25d d4bb
000000d0: 7204 59bc 7bcc 7ebc 0b8d 9e3b 36ab 81bc
000000e0: 018e c6bc 5776 0cbd 1916 993a af12 4d3c
000000f0: 4260 7b3b 0558 18bc bdec 55bb c338 103c
00000100: 28d1 b23c 9f43 633b 1514 94bc ec36 a3bb
00000110: 5e62 113c 4bca bfba eb70 92bb 4be4 3abc
00000120: b005 94bb 1bd9 89bc 7925 9fbc 5346 7b3c
00000130: edee 643c 334b 853c a3b5 073b 2a09 5a3c
00000140: 57fa a63c 234e 82ba ef1e 463c bd15 ec3c
00000150: 63fa a3ba fa9d e93b a365 1ebc 99bf c33b
00000160: 1739 093b d2c3 70bc 7d1b afbb 2756 103c
00000170: a0a1 e1bc 37ee fdbc 330e 873c e243 c93c
00000180: 32d7 f33b db67 e23c 2230 873c 1599 76ba
00000190: 9044 fdbb 3f70 d53b 58da 983c b847 883b
000001a0: 4844 93ba 2578 093d cfee 2d3c 6790 00bc
000001b0: bf16 b93c a29b d2bb f7ac 05bd 9381 923c
000001c0: 0f69 ae3b 4264 d33b d44b 2e3c fc9e 03b9
000001d0: 8b87 c6ba a74f 8f3c 6fa5 c9ba 329d 10bd
000001e0: 9477 223a 963e 393b 25ac d6bc ae09 40bc
000001f0: 9be0 753b 578b 8ebc 18db c83c 9507 583a
00000200: 2372 813c f820 f63b 07d5 c7ba 116a 9fbb
00000210: aa40 6ebc 4f3a fa39 cfd2 40bb 472f 79bc
00000220: 6da9 ad3c a823 bb3c 0d88 32bc e009 d13c
00000230: 7761 fbbc 6d6f 9cbc 772b 84bc 2e18 bb3b
00000240: 01d0 163d 2b75 31ba 986f 1bbc 0d6b c7bb
00000250: 729f 76bb 52ca 6f3c ce17 34bc 0a67 5a3c
00000260: d827 26bc 878b 083d 2f16 fc3b 3753 753c
00000270: d797 e7bc b87e 22bc d738 013c 4b66 e0ba
00000280: ea8c 83bc 5941 0cbc 7b8d 94bc fcf5 b6bc
00000290: 841e 0b3c 53a1 5d3c e500 56bc b22b 09bb
000002a0: 0647 8fba e4ed 0bbc a72e 41bb d2e4 7c3b
000002b0: c8a7 e2bc b70e a13c a6cf 183c 25ab 7f3c
000002c0: 5d7d ea3b 97f0 283d db38 79bb dea5 28bc
000002d0: 3448 a7bc 5383 e0bb 7d17 6b3b a8f0 4f3a
000002e0: 41ed 98bb 4829 e8ba 9b22 383c 085b 2bbc
000002f0: f68e c53c 08a4 a9bc 7748 e0bb a7b0 fabb
00000300: fbf0 c4bc 1adb 16bd 7599 e0bc 7291 1ebc
00000310: 4126 22bc e588 c2bc bb23 dbbc 55e8 f7ba
00000320: 9541 24bb a2aa 94bb 8500 b7bc e553 fc3b
00000330: 85ba a43c d686 11bc 094a 103d 3151 c13b
00000340: fff6 033c f630 8c3c 5f4d c83c 5b1e fcbb
00000350: d0a1 ed3c 73e2 13bb efe7 5cbc eb07 083c
00000360: 993d 8a3b 699f a3bc afbc a3bc 8873 edbb
00000370: dfab 973c a249 9fbc 9793 9ebb d654 a93c
00000380: 7528 43bc e3e6 0fbb d65b 22bc 37f7 043d
00000390: 2734 e03c 60cf 00bb 5097 9ebb 8e26 93bc
000003a0: 3829 013c 5305 1f3b d040 59bb 4cae be3a
000003b0: e61c 00bd 2b51 0fbd 3460 4cbb 5a94 823c
000003c0: b8ed 793b 876c 593c 3823 cfba 19db 91bc
000003d0: 6dad b5bb ab20 bb3c a74b 583c f5ab 81bc
000003e0: fec4 8cba e735 0fbd e175 aabc a759 5e3c
000003f0: bec7 45bc f38f b1bc ffb6 93bc f0db e3bc
0.003323618 -0.014262417 0.0039082384 0.022500226 0.02888004 0.02094393 -0.02609534 0.0011310827
-0.011166422 -0.034241203 0.0108347 0.02863965 -0.017879834 -0.0049068606 0.00030924307 -0.00049770967
-0.0021959334 -0.017193189 0.011546562 -0.022586886 -0.005498291 -0.00026246908 -0.018031577 -0.00094547373
-0.01426997 0.004253324 0.0032870208 -0.02792105 0.0078446455 0.017243054 0.002264512 0.013953005
-0.016886998 -0.02134808 -0.010830126 -0.012898293 -0.019746756 0.012512343 0.020770295 0.014666359
0.002072138 0.011900342 0.011038849 -0.009791562 -0.014159406 -0.015209417 0.015958471 -0.01713902
0.026238455 0.009513609 -0.00031885906 -0.0064809183 -0.013245689 -0.015551682 0.004838591 -0.01582871
-0.024237635 -0.034292545 0.0011679559 0.012516662 0.0038356935 -0.009298329 -0.0032642328 0.008802596
0.02182825 0.0034677756 -0.018075982 -0.0049809124 0.00887355 -0.0014632432 -0.0044690273 -0.011406968
-0.0045172796 -0.016827157 -0.019427048 0.015336591 0.01397298 0.01627121 0.002070763 0.013307849
0.020383043 -0.00099415 0.012092336 0.02881896 -0.0012510534 0.007129428 -0.009667787 0.005973768
0.002093857 -0.014695125 -0.005343853 0.008809603 -0.02754289 -0.030997379 0.016486263 0.024568502
0.0074414248 0.027637413 0.016502444 -0.0009406966 -0.0077291206 0.006513625 0.018658802 0.00415894
-0.0011235559 0.033561844 0.010616018 -0.007846928 0.022593854 -0.0064272443 -0.032635655 0.017884051
0.0053225826 0.0064511606 0.010638196 -0.0001255236 -0.0015146596 0.017494036 -0.0015384386 -0.035306163
0.0006197628 0.0028266064 -0.026205132 -0.011721058 0.0037517908 -0.017400427 0.024518535 0.0008240876
0.015801495 0.0075112544 -0.0015245982 -0.004864939 -0.014541784 0.0004772716 -0.0029422527 -0.015209026
0.021198953 0.02284415 -0.010896695 0.025517404 -0.030686123 -0.0190961 -0.016134007 0.0057096696
0.03681946 -0.00067694735 -0.009487055 -0.0060857595 -0.0037631658 0.014635639 -0.010992004 0.0133302305
-0.010141335 0.03333619 0.007693074 0.014973453 -0.028270645 -0.009917907 0.007887087 -0.001712033
-0.016058404 -0.008560502 -0.01813387 -0.022334091 0.008491162 0.013527232 -0.013061737 -0.0020930585
-0.0010931201 -0.008540604 -0.002947727 0.0038588536 -0.027667895 0.019660337 0.009326851 0.015604769
0.0071560577 0.04124507 -0.0038028273 -0.010293452 -0.020420171 -0.0068515926 0.0035872154 0.0007932284
-0.0046669547 -0.0017712498 0.011238719 -0.010458715 0.02411602 -0.020708099 -0.006844576 -0.007650453
-0.02404069 -0.036830045 -0.027416924 -0.009678232 -0.009896816 -0.023746917 -0.026750436 -0.0018913845
-0.0025063504 -0.0045369426 -0.022339115 0.0077004307 0.02010847 -0.008882245 0.035226855 0.0058995713
0.008054494 0.01711319 0.024450956 -0.0076940483 0.029007822 -0.0022565394 -0.013483032 0.008302669
0.004218769 -0.019973474 -0.019987432 -0.0072464384 0.018514572 -0.01944429 -0.0048393714 0.020670336
-0.011911501 -0.0021957688 -0.009909591 0.032462325 0.027368618 -0.0019654855 -0.004839815 -0.01796272
0.0078833625 0.0024264648 -0.0033150204 0.0014547794 -0.03127756 -0.034989517 -0.0031185271 0.01593988
0.0038136076 0.013270504 -0.0015803343 -0.01780467 -0.0055443556 0.022842726 0.013201631 -0.015829066
-0.0010739861 -0.034963515 -0.020808162 0.0135711795 -0.012071548 -0.021675086 -0.018031595 -0.027814835

action_model._continuous_distribution.mu.bias f4 [3]
00000000: 0000 0000 0000 0000 0000 0000
0.0 0.0 0.0

network_body._body_endoder.seq_layers.0.weight f4 [128, 179]
00000000: 54c9 87bd 7a63 13bd 8ce5 bdbd 9edf b13c
00000010: 9809 f13d 26e8 2e3b bfad bb3d 0b0d a6bc
00000020: 4ac7 d8bd c648 dd3d 4b5b 2f3d 59a5 b0bd
00000030: 940f af3d 95b7 153e 21db 89bb 321f 34bd
00000040: 14a9 01bd 7bbd 313e 3a66 483d 33e4 90bd
00000050: cb7e 693e 61a6 9cbd 85ee 673c a912 11be
00000060: 751d 11bd e5c9 05be d6b0 cbbb 9dd2 67bd
00000070: 644b 80bd 2246 c0bd c7d0 dc3c 0012 2c3d
00000080: 0b3c e03c 7143 cd3d dbbe 08bd 37d9 dbbd
00000090: 9252 c6bc abc2 f1bd dd20 d6bc ef7a 60bd
000000a0: 2eac 9f3d aabc 70bc 2b7f 773d 9825 81bd
000000b0: a788 89bb 5118 6c3c e4a4 553d 9f58 c7bd
000000c0: 1a58 ba3c 338a 27bd 7037 87bd a60a 81bd
000000d0: 9c70 3ebd 98e6 a1bd 09d7 6fbd 1bea 86bc
000000e0: 1724 4ebc 4c45 09be ba8d 20ba 6883 cf3d
000000f0: cbc0 ecbd 33de 11be 0684 0d3d bd95 57bc
00000100: 22e8 2bbc 35c5 c53d fb31 f4bd 5c51 1b3c
00000110: f573 42bd 14d2 353d bf84 d93b 971d cf3d
00000120: 1f8c 853d dff8 693d 6305 a53c 6956 84bb
00000130: e503 a33d 3781 15bc 6c13 ca3d b361 39bd
00000140: 250c 8939 f6f0 e0bd ec1c b6bd f152 84bc
00000150: 29b9 0ebe 1859 903c c639 663b 27a2 d13d
00000160: 55f0 82bd f4ac 453d b234 07be ff0a e7bb
00000170: dafe c8b9 5728 c9bd ef44 22bd bc51 c33d
00000180: ef27 873d 85af 053d 9f2a d2bd 9eec 9e3a
00000190: bf3c 963d 0950 e33d 3e0b c1bd a5cf 973d
000001a0: 0c4e a8bd 2181 6b3d bdc4 b5bd faa5 fcba
000001b0: cf23 a9bb 243f 13bd 6b1e 533d 07b2 b7bc
000001c0: 4b12 1fbd f77e 0c3e 55b6 0ebd 3df2 3dbd
000001d0: 1107 f7bc 2fe5 1fbc ea5f 40bd 53e4 0dbd
000001e0: b5ff beba 9646 1cbd 20b6 7bbd 6ab6 87bc
000001f0: 4148 7a3c 4949 96bd 411b 83bd 5008 ca3d
00000200: e629 073d 47c3 e33d 35bc d73c 95dc 76bc
00000210: d4da 24be f2bb 4fbd 6d34 c0bd 87af 6a3d
00000220: 1879 a2bc 8822 253c b635 463c eb6f cb3d
00000230: 5d0d 32bd d733 09bd e642 1dbc 7a0c 03bd
00000240: 527e a7bd a716 f23d d001 5c3d c50e 99bc
00000250: 286b 8cbd e62f 2fbc bd4b 0dbe 0b8c 25bd
00000260: 2bdb 8ebc 5592 a2bd 0869 923b 1055 333d
00000270: 5bef 8a3d 0431 a43c 6f44 3ebc b115 393e
00000280: b6ff 6e3d bd5b 02bd d0d7 073d fd8f 3fbd
00000290: 324f dfbd 2461 d1bd d835 313b 7750 c6bd
000002a0: 650a 503d 8044 1f3d 61ef 863c 8165 423d
000002b0: 5713 9d3c b70f 54bc cd47 ecbb 6017 e7bd
000002c0: ef03 d3bd 5186 ab3d c126 253c 496e c1ba
000002d0: 22d9 553d 8792 5cbd cf39 5aba ef39 c63c
000002e0: 6e04 073d c93f 453d 410d 92bd b30d 873d
000002f0: 4e14 88bd c9d9 0b3d ccf9 90bd 2db4 22be
00000300: 5233 4ebc fb03 3abb b733 10be c597 debc
00000310: 8e32 8f3d f34a 983c 2f94 b8bd cc38 0cbd
00000320: 6348 473d 6f14 7bbc 7099 f9bc 7bb8 4fbb
00000330: 4ce4 923c d42f 7e3c 19ad fcbc 9e32 703d
00000340: 20eb babc bdaa b0bc 8223 1e3e c9f7 8f3b
00000350: 3877 12bd 5af2 8c3b ad26 a8bb c1f1 20bd
00000360: 028e 9cbc 883b f43d df85 153d c0a4 8dbd
00000370: 0490 bfbd 9e4e b8bd d53c 673d c597 5abc
00000380: c6f9 843d 4862 40bd 0dd2 5dbc 63f2 423d
00000390: 82f2 0e3d 5088 ef3d 9663 823d ec9a 013e
000003a0: 1194 0a3d 438d 9f3d a42b 1f3d e1ba 70bd
000003b0: 8f21 f9bd f81d 05bd afc1 27bd 3088 bfbd
000003c0: 0198 7ebc 463a 3d3c 845c a1bd dce4 14be
000003d0: 11b8 503d 0d78 ad3d e524 803d 94b3 b5bd
000003e0: b264 dabd db75 de3d a57b 9eb9 437b ae3d
000003f0: 458e 6c3e 1125 0e3e 3d1d 43bc de79 16bd
-0.06630197 -0.03598354 -0.09272298 0.021713074 0.11769408 0.0026688664 0.09163999 -0.020269891
-0.10584886 0.10804896 0.042811673 -0.086252876 0.08547893 0.14620812 -0.0042070304 -0.043975063
-0.031655386 0.17357437 0.048925616 -0.070747755 0.22802274 -0.07648922 0.014155989 -0.14167275
-0.035428483 -0.13065298 -0.006216149 -0.05659734 -0.062643796 -0.09388377 0.026955022 0.042009354
0.02737238 0.10022629 -0.03338514 -0.1073479 -0.024209294 -0.11804708 -0.026138717 -0.05480474
0.077965125 -0.0146934185 0.06042401 -0.063059986 -0.0041971984 0.014410094 0.052159205 -0.097337
0.022747088 -0.04090328 -0.06602371 -0.06300859 -0.04649411 -0.079053104 -0.058554683 -0.016469052
-0.012581847 -0.13405341 -0.00061246345 0.10132486 -0.1156021 -0.14244919 0.034549735 -0.013158259
-0.0104923565 0.09656755 -0.119235955 0.009479847 -0.047473866 0.0443898 0.006638139 0.10113066
0.065208666 0.057122108 0.02014417 -0.004038621 0.07959727 -0.0091250455 0.09866986 -0.04525919
0.00026139725 -0.1098346 -0.08892235 -0.01615283 -0.1393782 0.017620608 0.003512965 0.10236006
-0.06393496 0.048260644 -0.13203695 -0.0070508714 -0.00038336852 -0.09822147 -0.03961652 0.09537074
0.065994136 0.03263809 -0.102620356 0.0012124961 0.07335805 0.1109925 -0.094259724 0.07412652
-0.08218011 0.057496194 -0.088754155 -0.0019275539 -0.0051617394 -0.035948887 0.05154268 -0.022423757
-0.038835805 0.13720308 -0.034841854 -0.046373595 -0.030154737 -0.0097592315 -0.04696647 -0.034641575
-0.0014572056 -0.038153253 -0.061452985 -0.016566474 0.015276016 -0.07338197 -0.06401683 0.09864867
0.03299894 0.111212306 0.026334861 -0.015067239 -0.16099101 -0.050716348 -0.093849994 0.057296302
-0.019833133 0.010079034 0.012097767 0.09933456 -0.043469775 -0.033496704 -0.009598469 -0.03199432
-0.081783906 0.11820727 0.053712666 -0.0186838 -0.06856376 -0.010692572 -0.13798423 -0.04041676
-0.017438492 -0.07938067 0.004468087 0.043782294 0.06783935 0.020042904 -0.0116129955 0.18074681
0.058349334 -0.03182577 0.0331648 -0.046768177 -0.10903777 -0.10223606 0.002704015 -0.09683316
0.050791163 0.038883686 0.016471567 0.047460083 0.019174261 -0.0129432 -0.0072107078 -0.11283755
-0.10303485 0.08375228 0.01008004 -0.0014757599 0.052209027 -0.053850677 -0.0008324654 0.024197547
0.03296321 0.048156533 -0.07131434 0.0659441 -0.06644498 0.034143243 -0.07078895 -0.15889044
-0.012585478 -0.002838372 -0.14082228 -0.027171979 0.069920644 0.018590426 -0.09012639 -0.034233853
0.048653018 -0.015324696 -0.030468673 -0.0031695652 0.017931126 0.015514333 -0.030844258 0.058642022
-0.022817194 -0.02156579 0.15443233 0.004393552 -0.035758227 0.0043013515 -0.0051315636 -0.039293054
-0.019110683 0.11925417 0.036504623 -0.06916189 -0.09353641 -0.0899937 0.0564545 -0.013341849
0.06492953 -0.04696873 -0.01353885 0.04759444 0.034899242 0.116959214 0.06366651 0.12656754
0.033832613 0.077906154 0.03885998 -0.05877197 -0.12164604 -0.032499284 -0.040956195 -0.093521476
-0.01553917 0.011549538 -0.07878974 -0.14540428 0.05095679 0.084701635 0.06257037 -0.088721424
-0.10663737 0.10862323 -0.0003022823 0.08519604 0.23101147 0.13881327 -0.011908826 -0.036737315

network_body._body_endoder.seq_layers.0.bias f4 [128]
00000000: 0000 0000 0000 0000 0000 0000 0000 0000
00000010: 0000 0000 0000 0000 0000 0000 0000 0000
00000020: 0000 0000 0000 0000 0000 0000 0000 0000
00000030: 0000 0000 0000 0000 0000 0000 0000 0000
00000040: 0000 0000 0000 0000 0000 0000 0000 0000
00000050: 0000 0000 0000 0000 0000 0000 0000 0000
00000060: 0000 0000 0000 0000 0000 0000 0000 0000
00000070: 0000 0000 0000 0000 0000 0000 0000 0000
00000080: 0000 0000 0000 0000 0000 0000 0000 0000
00000090: 0000 0000 0000 0000 0000 0000 0000 0000
000000a0: 0000 0000 0000 0000 0000 0000 0000 0000
000000b0: 0000 0000 0000 0000 0000 0000 0000 0000
000000c0: 0000 0000 0000 0000 0000 0000 0000 0000
000000d0: 0000 0000 0000 0000 0000 0000 0000 0000
000000e0: 0000 0000 0000 0000 0000 0000 0000 0000
000000f0: 0000 0000 0000 0000 0000 0000 0000 0000
00000100: 0000 0000 0000 0000 0000 0000 0000 0000
00000110: 0000 0000 0000 0000 0000 0000 0000 0000
00000120: 0000 0000 0000 0000 0000 0000 0000 0000
00000130: 0000 0000 0000 0000 0000 0000 0000 0000
00000140: 0000 0000 0000 0000 0000 0000 0000 0000
00000150: 0000 0000 0000 0000 0000 0000 0000 0000
00000160: 0000 0000 0000 0000 0000 0000 0000 0000
00000170: 0000 0000 0000 0000 0000 0000 0000 0000
00000180: 0000 0000 0000 0000 0000 0000 0000 0000
00000190: 0000 0000 0000 0000 0000 0000 0000 0000
000001a0: 0000 0000 0000 0000 0000 0000 0000 0000
000001b0: 0000 0000 0000 0000 0000 0000 0000 0000
000001c0: 0000 0000 0000 0000 0000 0000 0000 0000
000001d0: 0000 0000 0000 0000 0000 0000 0000 0000
000001e0: 0000 0000 0000 0000 0000 0000 0000 0000
000001f0: 0000 0000 0000 0000 0000 0000 0000 0000
0.0 0.0 0.0 0.0 0.0 0.0 0.0 0.0
0.0 0.0 0.0 0.0 0.0 0.0 0.0 0.0
0.0 0.0 0.0 0.0 0.0 0.0 0.0 0.0
0.0 0.0 0.0 0.0 0.0 0.0 0.0 0.0
0.0 0.0 0.0 0.0 0.0 0.0 0.0 0.0
0.0 0.0 0.0 0.0 0.0 0.0 0.0 0.0
0.0 0.0 0.0 0.0 0.0 0.0 0.0 0.0
0.0 0.0 0.0 0.0 0.0 0.0 0.0 0.0
0.0 0.0 0.0 0.0 0.0 0.0 0.0 0.0
0.0 0.0 0.0 0.0 0.0 0.0 0.0 0.0
0.0 0.0 0.0 0.0 0.0 0.0 0.0 0.0
0.0 0.0 0.0 0.0 0.0 0.0 0.0 0.0
0.0 0.0 0.0 0.0 0.0 0.0 0.0 0.0
0.0 0.0 0.0 0.0 0.0 0.0 0.0 0.0
0.0 0.0 0.0 0.0 0.0 0.0 0.0 0.0
0.0 0.0 0.0 0.0 0.0 0.0 0.0 0.0

network_body._body_endoder.seq_layers.2.weight f4 [128, 128]
00000000: 11fa ffba d5ee 4c3d 1540 c8bd 9d4d cf3c
00000010: 2635 db3d 4752 42bd 9f35 823d 4e24 703b
00000020: bb66 0ebe 05ea 3ebd 1b1d 853d 3220 073b
00000030: 9825 e2bd 7d9e 65bd 12aa c73d f796 323c
00000040: 943e 99bc 2ab8 ca3d 0004 2bbd 89cc f3bd
00000050: ad3f b0bc 59b0 a3bc 37a5 98bd c590 6f3e
00000060: 9f74 95b8 6afb 243d 8ef8 783b 536e cb3c
00000070: dd33 3bbd 362b 963c fc9e 273d a3b9 36bd
00000080: 9d4b 883d 7da2 683d e685 e8bd 2a45 89bb
00000090: 92af 01be d7d1 833d 84a7 093d 9248 48bc
000000a0: 2bd8 f03b 41e1 253e 8497 bebd cfe5 b13c
000000b0: 2d60 7d3b 900b 223d e1a3 bfbd 4d84 38bd
000000c0: dd26 073e 10f1 01ba a15c 8cbd 841d d7bd
000000d0: 19b5 cc3a f9c5 083e 0db0 223d 3cd2 33be
000000e0: dedf 0bbc e100 043e 0254 c93b ea9e 153d
000000f0: 0ce4 d8bd 42e5 9e3d b392 90bb 39c9 e6bd
00000100: 1fc6 693d 04db 92bd c282 053c a814 babb
00000110: f280 85bd 2857 00bb 7d90 babc 7550 e2bd
00000120: b8c3 8d3c ccdf 243e 049e 93bd 44cf 383c
00000130: 17a2 ee3c c2b3 80bd 8dbe 853c 871b ddbd
00000140: acea 9cbc 8d92 c23c c394 d83c c331 26bd
00000150: 3741 003d 487b 90bd f1e3 4abe 6a07 a83d
00000160: c4b4 023d 19dd 713e 3ee4 c2bc b184 593b
00000170: c9f4 1ebd a37e 21be ec36 a5bd b049 17bb
00000180: 45a7 17bd 185b 053e 9834 b33b e2d1 6d3c
00000190: 581f aebd 2d41 ddbc f333 6f3d 75a1 c23d
000001a0: 3304 38bd 20f8 3bbd 9e55 f7bc accd 523d
000001b0: ebd3 2f3e bb52 463e 31a1 8d3d 4dac 5bbd
000001c0: ef80 033e bde4 603c 60ec e7bd d8d1 1c3d
000001d0: 6536 01be 8d3e 3c3d daa0 f73d 6de5 153d
000001e0: 286a 1abd 9e96 ff3d f82d abbd 34fc 9e3d
000001f0: b146 893d 2784 d1bd 0e7b 1c3e 769c 3bbe
00000200: 1055 e43c feee d6bc c50f 523c 4b96 11bd
00000210: 0d90 133a aa5e 7a3d 1e9d c33c db59 d43d
00000220: 2829 473d 5b61 39be d52a 87bd 0757 24be
00000230: 1471 143d c378 23bc 6cdc acbd 3b50 333d
00000240: 78ec ed3d 587b 8abd d63d 293d 75ab 533d
00000250: f7db 09bd 446f 553e a471 a2bd 5c89 1e3e
00000260: de63 efbd 9a86 d8bd e5e6 8b3a 018a 023d
00000270: 049c ddbc cd39 893d 926c bf3d dec6 5c3d
00000280: 3e58 89bd ccc6 383e 087a 2b3d 4f7d ce3d
00000290: 87c2 053e ecf8 dd3d bb6e 9b3b af58 773c
000002a0: 43d3 273e 6eb2 bebd 1f84 bfbd 220f 8cbe
000002b0: 2ab7 e13d 6ae3 b4bd 68b6 3a3d 1f95 de3c
000002c0: 9d0c 22bd 5669 a4bc a70b a8bd 2af7 923d
000002d0: 9fbc 883b cee6 3cbe 5c35 ab3c 8234 15be
000002e0: 5a89 eabc 4116 d93b 698c 70be 4c07 6f3d
000002f0: e4e6 1f3e 46dd 6d3d b949 87bd 7fe1 213b
00000300: 49ab a53c b284 53be e8e4 93bd 5363 c73d
00000310: d675 f13d d12d a8bd 609e 313e e252 07bd
00000320: 994a efbd 737d 8cba 2357 513d 3e79 3f3d
00000330: 0d3a 61bd 8933 323d 2165 a2bd d84b f53d
00000340: 5dec 85bd fd68 6fbe 259b a23d e1a2 b23d
00000350: c13e c0bc ad5b dcb7 005d 74bc 08e4 a7bd
00000360: 4779 d3bd 869b b5bd 698f 4c3c afd3 aa3d
00000370: 2d1e 543c e636 dc3b a0cb b9bd 6cff 9ebd
00000380: 2c44 b9bd 04ed f9bc f900 12bd 4948 273d
00000390: 21d8 ef3d 5566 0b3d c56f d63c 33a5 ae3b
000003a0: ae7b 13be bee4 1d3e 400a 1dbe fb8a 79bd
000003b0: 2143 3e3d 3c3f 473d ab82 7c3c b220 123e
000003c0: 9556 3b3d 03b8 6c3d c53a c13c 0704 a63d
000003d0: 25bd c2bd e106 a6bd f97d b43d 288e e3bd
000003e0: 507f 0ebe 6cd4 1bba 2e15 6e3d 585e 94bc
000003f0: c181 00be 7f43 163d 66bb a3bd 1c2c bd3d
-0.0019529482 0.050032455 -0.09777848 0.025305564 0.10703497 -0.047441747 0.06357884 0.0036642733
-0.13906376 -0.046609897 0.06499692 0.0020618555 -0.11042327 -0.05605935 0.09749235 0.010900251
-0.018706597 0.09898408 -0.04175186 -0.11904246 -0.021514738 -0.01998155 -0.07453387 0.23395069
-7.126596e-05 0.04027883 0.0037989947 0.02483288 -0.045703758 0.018331151 0.040923104 -0.04461063
0.06655047 0.056795586 -0.11353664 -0.004189153 -0.12664631 0.06436508 0.03360702 -0.012224333
0.007349988 0.16199209 -0.09306243 0.021716027 0.0038662062 0.039561808 -0.09357429 -0.045048047
0.13198419 -0.00049568806 -0.06853605 -0.105036765 0.0015617936 0.1335677 0.039718676 -0.17560667
-0.008537261 0.1289096 0.0061440477 0.036528505 -0.105903715 0.07758571 -0.004412019 -0.11268849
0.05707371 -0.0717068 0.008148851 -0.005678732 -0.06518735 -0.00195832 -0.022773976 -0.11050502
0.01730524 0.16100997 -0.072078735 0.011279885 0.029130025 -0.06284286 0.016326213 -0.10796266
-0.019154869 0.023751521 0.026438123 -0.0405748 0.031312194 -0.07054764 -0.19813515 0.08204539
0.031910673 0.23619498 -0.023790475 0.0033190663 -0.038807664 -0.15770964 -0.08067116 -0.0023084693
-0.037024755 0.13023031 0.005468916 0.014515372 -0.08502072 -0.027008617 0.058399152 0.09503452
-0.04492588 -0.045890927 -0.030192193 0.051465675 0.17170684 0.19367497 0.069155104 -0.053631116
0.12842153 0.01372641 -0.11324382 0.03828606 -0.12618406 0.04595809 0.12091227 0.03659575
-0.037698895 0.124799 -0.08358377 0.07762948 0.067029364 -0.10230284 0.15281317 -0.18321404
0.027872592 -0.026237007 0.012821143 -0.03554372 0.000562907 0.061125435 0.02387863 0.10368701
0.048623234 -0.18103544 -0.065999664 -0.16048823 0.036240652 -0.009977522 -0.0844048 0.043777686
0.116173685 -0.06761807 0.041318737 0.051677186 -0.03365704 0.20843226 -0.079318315 0.15482086
-0.1168897 -0.10572548 0.001067367 0.031869892 -0.027051933 0.06700478 0.0934688 0.053900592
-0.06706284 0.18044585 0.041864425 0.100824945 0.13062488 0.10838494 0.0047434247 0.015096827
0.16389184 -0.093113765 -0.09351372 -0.27355295 0.11021264 -0.08832438 0.045584112 0.027170716
-0.03956281 -0.02006976 -0.082053475 0.07176049 0.004172876 -0.1844742 0.020899467 -0.14570811
-0.028629947 0.0066249673 -0.23491062 0.05835657 0.15615422 0.05807235 -0.06605858 0.0024701057
0.020223277 -0.20656088 -0.07221395 0.097357415 0.117900535 -0.08211864 0.17345572 -0.033038028
-0.1168415 -0.0010718539 0.05110849 0.046746485 -0.054987002 0.04350618 -0.07929445 0.11977357
-0.06539223 -0.23379894 0.07939748 0.08722473 -0.023467423 -2.6268734e-05 -0.014914751 -0.081977904
-0.10325866 -0.08867554 0.0124853635 0.08341157 0.012946648 0.0067204116 -0.090720415 -0.077635616
-0.09046206 -0.030508526 -0.03564546 0.04084042 0.11711145 0.03403314 0.026176343 0.005329752
-0.14402649 0.1541929 -0.15335941 -0.060923558 0.046450738 0.04864429 0.015412013 0.14270285
0.045736868 0.057792675 0.023587594 0.08106237 -0.09508733 -0.08106781 0.0881309 -0.111110985
-0.13915753 -0.0005944434 0.058125667 -0.018111393 -0.12549497 0.036685463 -0.07994728 0.09236929

network_body._body_endoder.seq_layers.2.bias f4 [128]
00000000: 0000 0000 0000 0000 0000 0000 0000 0000
00000010: 0000 0000 0000 0000 0000 0000 0000 0000
00000020: 0000 0000 0000 0000 0000 0000 0000 0000
00000030: 0000 0000 0000 0000 0000 0000 0000 0000
00000040: 0000 0000 0000 0000 0000 0000 0000 0000
00000050: 0000 0000 0000 0000 0000 0000 0000 0000
00000060: 0000 0000 0000 0000 0000 0000 0000 0000
00000070: 0000 0000 0000 0000 0000 0000 0000 0000
00000080: 0000 0000 0000 0000 0000 0000 0000 0000
00000090: 0000 0000 0000 0000 0000 0000 0000 0000
000000a0: 0000 0000 0000 0000 0000 0000 0000 0000
000000b0: 0000 0000 0000 0000 0000 0000 0000 0000
000000c0: 0000 0000 0000 0000 0000 0000 0000 0000
000000d0: 0000 0000 0000 0000 0000 0000 0000 0000
000000e0: 0000 0000 0000 0000 0000 0000 0000 0000
000000f0: 0000 0000 0000 0000 0000 0000 0000 0000
00000100: 0000 0000 0000 0000 0000 0000 0000 0000
00000110: 0000 0000 0000 0000 0000 0000 0000 0000
00000120: 0000 0000 0000 0000 0000 0000 0000 0000
00000130: 0000 0000 0000 0000 0000 0000 0000 0000
00000140: 0000 0000 0000 0000 0000 0000 0000 0000
00000150: 0000 0000 0000 0000 0000 0000 0000 0000
00000160: 0000 0000 0000 0000 0000 0000 0000 0000
00000170: 0000 0000 0000 0000 0000 0000 0000 0000
00000180: 0000 0000 0000 0000 0000 0000 0000 0000
00000190: 0000 0000 0000 0000 0000 0000 0000 0000
000001a0: 0000 0000 0000 0000 0000 0000 0000 0000
000001b0: 0000 0000 0000 0000 0000 0000 0000 0000
000001c0: 0000 0000 0000 0000 0000 0000 0000 0000
000001d0: 0000 0000 0000 0000 0000 0000 0000 0000
000001e0: 0000 0000 0000 0000 0000 0000 0000 0000
000001f0: 0000 0000 0000 0000 0000 0000 0000 0000
0.0 0.0 0.0 0.0 0.0 0.0 0.0 0.0
0.0 0.0 0.0 0.0 0.0 0.0 0.0 0.0
0.0 0.0 0.0 0.0 0.0 0.0 0.0 0.0
0.0 0.0 0.0 0.0 0.0 0.0 0.0 0.0
0.0 0.0 0.0 0.0 0.0 0.0 0.0 0.0
0.0 0.0 0.0 0.0 0.0 0.0 0.0 0.0
0.0 0.0 0.0 0.0 0.0 0.0 0.0 0.0
0.0 0.0 0.0 0.0 0.0 0.0 0.0 0.0
0.0 0.0 0.0 0.0 0.0 0.0 0.0 0.0
0.0 0.0 0.0 0.0 0.0 0.0 0.0 0.0
0.0 0.0 0.0 0.0 0.0 0.0 0.0 0.0
0.0 0.0 0.0 0.0 0.0 0.0 0.0 0.0
0.0 0.0 0.0 0.0 0.0 0.0 0.0 0.0
0.0 0.0 0.0 0.0 0.0 0.0 0.0 0.0
0.0 0.0 0.0 0.0 0.0 0.0 0.0 0.0
0.0 0.0 0.0 0.0 0.0 0.0 0.0 0.0

value_heads.value_heads.extrinsic.weight f4 [1, 128]
00000000: 2bc4 d43d a3a9 27bd d33f 05be ecae afbc
00000010: 6ffe 453e 3136 113d e181 ae3c 6d5b 7ebd
00000020: 1921 55be d27e 45be e913 0f3e fa6b 7c3c
00000030: af89 61bd c7d4 41be 7056 b03d 77ce 12be
00000040: 2114 39bd f6d5 2f3e 28ff 59be f3e5 26be
00000050: 670d 1c3e 8a7e d7bd 7587 7dbd 7b4e 773d
00000060: c4e2 6f3b 8f32 92bd 636f 183c fa06 c939
00000070: 42b9 c9bd 9b8a 12be 1f0c abbd 3ee6 b43c
00000080: 6b7f 353c e579 81bd 4785 bebd 7042 2cbe
00000090: 46dd 323d 2cf7 21bd b031 e7bd d0d7 23be
000000a0: 9686 f1bc 120c 083e 697a c9bd 330f 59bc
000000b0: 1a4f 05be 0fdf b63c fcdc 02be 5472 57be
000000c0: 9cd7 253e 01a8 d1bd b217 32bb e628 1c3d
000000d0: d745 8e3d 6e6c 37ba 6510 e7bd 9e83 2b3d
000000e0: 7f24 5a3e 10e1 00be d81f 03be 1dff a63d
000000f0: d413 78bd 9782 52bd 296e 463d 97b1 7dbd
00000100: 2a12 a33b 17ea 20be ded5 46be 373f 27be
00000110: e6ed 93bd 5d9d 263c 5982 113e ef54 ed3d
00000120: ece6 0d3c 1a99 40be 6979 19be 63de f2bd
00000130: c773 62bd 3b62 133d 69fb ee3c a0db 953d
00000140: 966e 58be 668c d03d 0dbe e63d dd73 27be
00000150: d202 24be 8b74 533e afc7 95bd 4671 b6bd
00000160: 94b2 d13d 97e0 28be 1886 813d e88b 393b
00000170: cbf3 113e 5b70 efbc f252 423e 5f61 1fbe
00000180: a108 813d f902 87bd 9756 4d3e 756c 863b
00000190: 6bb4 553d d022 0abe a4ba 463d a14f f73d
000001a0: 925f b0bd c9cf 253e 30c9 23be 0289 723d
000001b0: 14e4 d33d afcc 6abd 03c8 203e c234 e83b
000001c0: 9a86 503e 40df 1bbd e586 1bbe 0793 1dbe
000001d0: d9d6 8ebc c602 25bd 5002 a33c 7911 013e
000001e0: 5eb0 6fbd 69a9 f73c 622a 523d b20a a93d
000001f0: 64d2 4ebe afdd 253e 3cbf 03bd 9d9e 9dbd
0.103889786 -0.040933263 -0.13012628 -0.021445714 0.1933534 0.03545207 0.021302165 -0.06209891
-0.20813407 -0.1928666 0.13972439 0.015406603 -0.055062946 -0.18928824 0.08610237 -0.14336573
-0.045185212 0.17171463 -0.2128874 -0.16298656 0.15239488 -0.10522182 -0.06189676 0.06037758
0.0036603669 -0.071385495 0.0093039 0.00038342905 -0.09849788 -0.14310686 -0.08351921 0.022082444
0.011077742 -0.06322078 -0.093027644 -0.16822219 0.043668054 -0.039542362 -0.11288774 -0.16000295
-0.02948312 0.13285854 -0.09837801 -0.013248253 -0.13018456 0.02232316 -0.12779611 -0.21039706
0.1619553 -0.10237122 -0.0027174768 0.03812494 0.06946915 -0.0006997053 -0.11282424 0.041873567
0.21302985 -0.12585855 -0.12805116 0.08154128 -0.060565785 -0.05139407 0.0484449 -0.06193694
0.0049765306 -0.15714298 -0.19417521 -0.16332708 -0.0722311 0.010169354 0.1420988 0.115884654
0.008661013 -0.18808404 -0.1498772 -0.11858823 -0.055286195 0.03598235 0.029172616 0.07317281
-0.21135935 0.10183029 0.11266718 -0.16352792 -0.16016701 0.20649926 -0.07313477 -0.08908324
0.10239139 -0.16491924 0.063244045 0.002831215 0.14253156 -0.02922838 0.18976954 -0.15564488
0.06300474 -0.06592364 0.20052563 0.0041022846 0.052174013 -0.13489842 0.048517838 0.12075735
-0.086119786 0.16192545 -0.15994716 0.059212692 0.10346237 -0.057324108 0.15701298 0.0070863673
0.20363846 -0.038054705 -0.15188177 -0.15388118 -0.017436432 -0.040285848 0.019898564 0.12604322
-0.058517806 0.030232148 0.05130995 0.08253993 -0.20197445 0.16197847 -0.032164797 -0.07696269
