results/HideAndSeek5_2/Seek/Seek-9999984.onnx (onnx, 161813 bytes, 7 tensors)

action_model._continuous_distribution.log_sigma f4 [1, 3]
000000 57 94 8e be db 7c 8e be fe 0c 05 bf
       -0.2784755 -0.27829632 -0.5197295

action_model._continuous_distribution.mu.bias f4 [3]
000000 3d e0 a8 bc e1 bb 5d bb 2a 42 4a 3c
       -0.020614738 -0.0033833908 0.012344876

action_model._continuous_distribution.mu.weight f4 [3, 128]
000000 de fb fe ba 2b 53 79 3d 15 2d 77 3d a1 7e b9 3d
       -0.0019453724 0.06087033 0.060345728 0.09057356
000010 5e f7 3b bb 06 91 f3 bb 46 f9 a7 3c e0 a3 b6 bd
       -0.0028681378 -0.0074330596 0.020504605 -0.089179754
000020 e4 5f ce bc bb 30 55 bd c0 2b 63 3d 66 bb 77 3d
       -0.025192209 -0.052048426 0.055461645 0.06048145
000030 82 fe 92 3d c8 e2 be 3c 13 51 da 3c 8a 73 37 bc
       0.0717745 0.023301497 0.026649987 -0.01119698
000040 f5 56 37 3b 81 63 b9 3d 1b 22 e1 bc ee 92 e5 bc
       0.0027975414 0.09052182 -0.027482083 -0.028024163
000050 2b 82 c7 bd 55 14 d7 bc 6c cd c3 b9 92 f0 8f 3d
       -0.097416244 -0.026254812 -0.0003734635 0.07028307
000060 64 4c f9 bc 64 8a 80 bd 02 dd d1 3b de c5 9a 3d
       -0.030431934 -0.06276396 0.00640452 0.075572714
000070 86 28 84 3d ce c1 6f 3d 11 a5 02 be 0d 6b 3e bd
       0.06453042 0.058534436 -0.1275828 -0.04648881
000080 a7 e3 ce bd 16 14 ae 3b 1d d0 88 bd ac 01 0a 3d
       -0.10102015 0.005312453 -0.066803195 0.033693
000090 4a 24 a5 bb 0b 71 a4 3c 55 66 d5 3c c6 79 74 3d
       -0.0050397264 0.020073434 0.026049772 0.059686445
0000a0 0c 3d 8c bc 31 f9 cb bd 6d 49 86 3d 02 63 ca bc
       -0.017118953 -0.09959639 0.065569736 -0.024705414
0000b0 0b 77 a7 3b f6 e6 18 3d c8 86 06 3d 75 45 38 3c
       0.0051106266 0.037329637 0.03284338 0.011247029
0000c0 31 77 94 3d 85 f3 89 bb d5 75 23 bc 81 f6 85 3d
       0.072492965 -0.004209938 -0.009976824 0.065411575
0000d0 38 44 98 bb 87 b4 91 bd b0 7f ed bd 52 22 03 bd
       -0.004646804 -0.07114511 -0.1159662 -0.032015152
0000e0 16 f6 60 bc b7 13 73 bd 88 ac 56 ba 99 99 b6 bd
       -0.013730546 -0.059344973 -0.00081891613 -0.08916015
0000f0 ad e5 29 bc 67 bc a2 3c d3 7f cf 3c 13 06 5b bd
       -0.0103697 0.019865228 0.025329506 -0.05347259
000100 69 b5 8e 3a 9c 82 93 bc d2 c1 ce 3d 06 89 1d bc
       0.0010887805 -0.018006615 0.10095562 -0.009615188
000110 a9 ed be 3c 34 f4 d6 3b 95 52 43 bd 09 3f a0 3c
       0.023306685 0.006559873 -0.04768618 0.019561308
000120 02 5a db 3c 32 79 b8 bd ad ab a5 3d 79 8c f3 bb
       0.026776318 -0.09007491 0.08089385 -0.007432517
000130 a6 36 95 3c 3a 69 2d bd 78 96 71 bc ab 94 25 3c
       0.018214535 -0.04233668 -0.014745347 0.010106246
000140 2a a7 26 3c 45 05 02 3d 58 34 ab bc a3 b6 d3 bb
       0.010171691 0.031743307 -0.020898983 -0.006460981
000150 c8 84 e9 bc 28 c1 84 3d 80 94 23 bd 6d 34 59 bc
       -0.028505698 0.06482154 -0.039936543 -0.013257128
000160 59 18 8e bb f0 2a 14 3d 5f 3c 80 3d 04 c1 a4 3c
       -0.0043363986 0.03617376 0.06261515 0.020111568
000170 85 ff 4c bd 5a c8 4f 3d 61 08 e0 bd d5 54 15 bc
       -0.05004837 0.05072818 -0.10939098 -0.009114464
000180 e6 8b ce 3c e0 8d a8 3d c5 b2 b6 b9 4c 8b d1 3c
       0.025213193 0.082301855 -0.0003484694 0.025579117
000190 8c 38 0b 3d a9 2c 8a bd 51 40 ab 3c 99 43 99 bc
       0.033989474 -0.067467995 0.020904692 -0.01870899
0001a0 88 26 34 3d ad be 59 3d 16 0b c1 bd 72 30 e8 bc
       0.04398206 0.05316036 -0.094259426 -0.028343413
0001b0 2f a8 d4 3d e4 fb 95 bd 7f 10 08 bd cd 7a c0 bd
       0.10383641 -0.07323435 -0.033218857 -0.093984224
0001c0 78 36 28 3b fd 3d 88 3d cd 0f a7 bd fe 5b c4 3c
       0.0025667232 0.06652448 -0.08157311 0.023969647
0001d0 7e 5e 2b 3c 46 70 6a bd bc 2a 72 3d 2a 78 2d bd
       0.01045954 -0.05723598 0.059122786 -0.042350926
0001e0 98 55 b8 3d 74 af bf 3d 0e f7 99 3d d8 3f 4f 3d
       0.09000701 0.09359637 0.07517825 0.050597996
0001f0 e2 3a c5 bc 94 a5 05 3d ff c6 77 3d cc 65 aa bc
       -0.02407593 0.03262861 0.06049251 -0.020800494
000200 fb 76 23 3d be 12 cc 3c aa f8 b4 bd 55 c8 28 3c
       0.03990839 0.02491128 -0.088364914 0.010301669
000210 4d 90 21 bc 39 13 22 bd 33 f8 c9 bc e7 d3 0a 3c
       -0.009861064 -0.039569113 -0.024654483 0.008473373
000220 c0 77 3a bd de d8 28 bd 5a eb c9 bc 8c d0 41 bd
       -0.04552436 -0.041222446 -0.024648357 -0.047318026
000230 72 a0 c1 bb ad f6 35 bd b9 a1 9f 3b 15 ba 00 3d
       -0.005909019 -0.0444247 0.0048715738 0.03142746
000240 74 49 a2 bc 4d 19 9c 3c c3 8c 0b bd be 21 82 bb
       -0.019810416 0.019055033 -0.034069788 -0.0039713075
000250 a0 13 54 3d fe 10 19 3d fb e5 8c bc cc e0 a9 bb
       0.05177653 0.03736972 -0.017199507 -0.0051842686
000260 97 f9 98 bc a3 a6 ca bc cd a0 8d 3d 00 62 86 3c
       -0.018673701 -0.024737662 0.06915436 0.016404152
000270 bb 07 3e bb 7b 1b 01 bd 19 2f 60 bb 3a f3 cc bb
       -0.0028996307 -0.031520348 -0.003420776 -0.006254581
000280 03 a9 21 bc 51 60 24 bd ba c4 4f bd fc b4 53 3a
       -0.009866956 -0.040130917 -0.050724722 0.000807598
000290 ec d7 f6 bc 9a c0 40 bc c2 e5 08 3d 02 3f d5 3c
       -0.030132256 -0.01176467 0.03342224 0.026031021
0002a0 ff 4c fa bc 97 07 17 bc 2e 29 2b bc 00 e0 8b bd
       -0.030554293 -0.009218118 -0.01044683 -0.06829834
0002b0 a8 a6 6f bc c3 db 1f bd 00 ed 08 3c 9d 48 ae bc
       -0.014627136 -0.03902794 0.008357286 -0.02127486
0002c0 58 9b 78 3b c1 7c 3d 3b ef bb 54 bd 8f c4 29 bd
       0.003793439 0.002891347 -0.05193704 -0.04144722
0002d0 1b 29 bc 3b 4e 82 eb bc b1 d1 73 3b fc 76 ef bc
       0.005742205 -0.028748658 0.0037203843 -0.02923154
0002e0 ae 87 b2 bd e0 b0 3d 3d c3 fb 6e bd 28 71 5d 3d
       -0.08717285 0.04631126 -0.058345567 0.054062992
0002f0 77 8b 4b 3d 92 7e a1 bd 92 cc f5 bc e9 a3 8f bd
       0.04969355 -0.078854695 -0.030004773 -0.07013685
000300 74 cf 11 3d 84 71 ea bc da bf 9a 3c 72 b8 e7 ba
       0.035598233 -0.028618582 0.01889031 -0.001767887
000310 22 83 94 bd 4c c4 c2 bc 30 13 2b 3d 28 25 cf ba
       -0.07251574 -0.023775242 0.041766346 -0.001580392
000320 bd 2a 08 bd c9 f6 6e 3d 51 2f d2 3c f8 e7 b6 3c
       -0.033243883 0.05834082 0.025657328 0.022327408
000330 bd e1 f4 3b 46 0a 0d 3d 8f 19 bb bd 2f 00 05 bb
       0.007473199 0.034433626 -0.09135734 -0.00202943
000340 4d 2e ce 3b 1d 63 89 3c 6e f9 78 bd 12 f4 be 3b
       0.0062921406 0.016770894 -0.06078475 0.0058274353
000350 d3 4e 4b bd cd 12 12 3c 3b 6d 50 3c ca 3a 4d bd
       -0.04963572 0.008915615 0.012721355 -0.050104894
000360 68 81 2a 3c e0 49 a3 3d e7 f1 42 bc ff 93 30 3d
       0.010406829 0.07973075 -0.011898494 0.04310989
000370 7f d6 1c bd e5 d5 37 bc b7 90 e0 3c 7a df 43 bd
       -0.038290497 -0.01122043 0.027412755 -0.047820546
000380 db 1a 67 bd 93 87 50 bc 46 d9 89 bd 0d fa 7c 3c
       -0.056422096 -0.012727636 -0.06730895 0.015440476
000390 9c eb 03 bd e1 67 5c bd e6 a7 1d 3d 02 77 d9 bd
       -0.032207116 -0.053810004 0.0384902 -0.10618402
0003a0 4e d9 fc bc 81 22 2a 3b 56 81 e7 bc fe 38 4f bd
       -0.030865338 0.0025960507 -0.028259914 -0.05059146
0003b0 2d d9 4b bd 9d 6f 36 3d 26 9b 39 bd f3 0c 99 3a
       -0.04976766 0.044540036 -0.045313977 0.0011676833
0003c0 09 ac 04 3d 1b 9b d5 bc 52 31 aa bc 6c 10 80 3c
       0.032390628 -0.026074937 -0.02077547 0.01563283
0003d0 aa 4a 54 3c 25 87 67 3d cc 52 82 bc 52 57 fd 3c
       0.012957254 0.05652537 -0.015908621 0.030925427
0003e0 fd 99 da 3a d6 18 f6 bc bb b9 91 3a c1 85 4e bd
       0.0016677972 -0.03004114 0.0011117974 -0.050420526
0003f0 12 36 46 3d db 6a 23 bd 09 f0 67 3c 47 a2 71 3d
       0.04839141 -0.039896827 0.01415635 0.05899265

network_body._body_endoder.seq_layers.0.bias f4 [128]
000000 6b 47 18 bc 60 ee 58 3d 6d f0 c7 3c 52 94 ce 3b
       -0.009294371 0.052961707 0.024406636 0.0063043023
000010 0d c7 93 3c ec 5d 03 3c b0 90 0d 3b c0 ff 27 3d
       0.01803925 0.008017998 0.0021601133 0.041015387
000020 13 ea c2 3c 32 35 d6 3c a8 2a eb 3c 8b c8 c5 3b
       0.023793256 0.026148412 0.028706864 0.0060358695
000030 4f 00 f1 3c 18 25 8f 3b e9 0b 49 ba 0c ba dd 3c
       0.029419092 0.0043684356 -0.0007669316 0.027066253
000040 41 51 01 3c 4d 6f 91 3b e5 fe 07 bc 1d 50 ff bc
       0.007892908 0.004438317 -0.008300518 -0.03116613
000050 ea d6 78 39 53 fc 8a 3c 1a e3 7e b9 72 1f f8 bc
       0.00023731185 0.01696602 -0.0002430793 -0.030288432
000060 a5 c6 ee 3b 21 ef ad 3b 8a 39 a1 bb b7 fd 05 bd
       0.007286864 0.0053080474 -0.0049201893 -0.032712664
000070 b3 8e 7e bc 04 bd 30 3d cd ad 51 3a 58 25 cf 3c
       -0.015536952 0.04314901 0.00079986156 0.025286362
000080 51 08 a4 bc 21 51 21 bc 03 88 e3 ba 06 14 86 3b
       -0.020023497 -0.009846003 -0.001735926 0.0040917424
000090 bd 28 a0 bb d4 ca a0 bb a6 e2 9e bb 0f bf d9 bb
       -0.004887669 -0.0049069915 -0.004848796 -0.0066450904
0000a0 43 9e b1 3b c8 11 e0 bb 0e bb 26 bc a6 e5 be bc
       0.0054204776 -0.006838057 -0.010176433 -0.023302864
0000b0 48 cb 4b 3b 25 0a ef 39 fe 1e c7 3b 38 80 b2 bb
       0.0031096507 0.0004559319 0.0060766926 -0.005447414
0000c0 1a 65 cb 3c 1c 46 d4 bb 92 c0 7d 3c c1 d2 6f bc
       0.024828482 -0.0064780843 0.015487807 -0.01463765
0000d0 41 0e 72 3c b0 7d 7c bc f6 97 c8 bc 45 3f 5b bd
       0.014773906 -0.015410826 -0.024486523 -0.053527135
0000e0 3a dc cb 3c 68 1f 62 bc 49 f5 c5 bc 08 64 1e bd
       0.024885286 -0.013801433 -0.024164813 -0.038669616
0000f0 b9 e0 83 3c ba ac af 3c 2f 86 20 3d 7e 49 74 3c
       0.016098367 0.021444667 0.039190467 0.0149101
000100 cd 6f 0d 3d 8e 2f cd bc c3 56 a6 3c 5d f9 f3 bc
       0.03453045 -0.02504709 0.020305043 -0.029781992
000110 05 95 65 3b 55 4b de bc a3 62 43 bc 91 23 2d bc
       0.003503145 -0.02713553 -0.011925372 -0.010567562
000120 79 db 4b 3c 12 0a b9 bc 8b 8e 6d 3b de 3f 15 3d
       0.012442463 -0.02258781 0.0036248292 0.03643786
000130 ae 71 9f 3c 47 4b 76 bc 4c 4d 24 bc 40 df 5d 3c
       0.019463386 -0.015032596 -0.010028195 0.0135419965
000140 dc 98 93 bc 55 73 7e bc 5e 64 87 3c da 01 88 3c
       -0.018017225 -0.015530427 0.016527351 0.016602445
000150 27 04 3a 3d 13 3e 94 3b 2f 3a 6f 3b 25 0d 72 3c
       0.045414116 0.0045240014 0.0036503186 0.014773642
000160 e6 75 05 3d 91 3e b6 3b e6 fb 8f bb f9 74 94 3c
       0.03258314 0.0055616577 -0.0043940423 0.018122183
000170 bc 5f 6f 3b 6c df 43 3c 74 14 0b ba 8e 80 56 bb
       0.0036525568 0.011955123 -0.0005305477 -0.0032730433
000180 e8 1b 0e 3d c5 88 f8 3b fd 66 da bc 0f dc ea bb
       0.034694582 0.0075846636 -0.026660437 -0.0071673463
000190 0a 48 0a 3d 93 13 16 3c e9 f4 8c 3c bc 0d 5a bb
       0.033760108 0.00915994 0.017206626 -0.0033272346
0001a0 43 38 57 bc af 6f d9 bc a1 49 79 3c 07 74 b6 bc
       -0.013135972 -0.026542513 0.015215308 -0.022272123
0001b0 02 45 88 bb 21 54 86 bd 01 3b 16 3c 29 46 0a 3d
       -0.004158617 -0.06559015 0.009169341 0.033758316
0001c0 5b 11 25 bc 38 a3 df 3c 0c 89 a2 3c 01 e6 0f 3c
       -0.010074939 0.027299508 0.01984074 0.008782865
0001d0 0d be 11 3d f4 00 9c 3b ba f2 9c 3c 5e 47 86 3a
       0.035581637 0.004760856 0.01915871 0.0010244658
0001e0 4f 1b 08 bc 96 7a 49 bc 86 a4 92 3c db 79 cb bc
       -0.008307292 -0.012297293 0.017900717 -0.024838379
0001f0 27 ac 88 3c 90 d4 f9 bc 1b d6 2b 3c 82 44 ae 3b
       0.016683651 -0.030496866 0.010488058 0.0053182254

network_body._body_endoder.seq_layers.0.weight f4 [128, 179]
000000 02 20 9e 3d 7b ee 06 39 eb 73 1c 3d a7 5c ae bb
       0.07720949 0.00012868077 0.038196485 -0.0053211036
000010 a1 c9 b6 bd dd 99 0d 3e 65 15 18 3d 64 bf 80 3d
       -0.089251764 0.13828225 0.03712978 0.06286505
000020 de 4b 02 be 0a 74 22 be 2c ef b3 3d e3 88 1f be
       -0.12724254 -0.15864578 0.08785853 -0.15579562
000030 c8 b8 16 3d 3c 9a 37 bd f1 30 3f bb e7 04 b6 bb
       0.036797315 -0.044824824 -0.0029173458 -0.0055547836
000040 f6 8c 51 3d 87 ca a2 bc 81 e6 11 bd 41 90 42 3d
       0.05115982 -0.019871963 -0.035620216 0.047500852
000050 c9 73 e6 bd 93 b9 17 be 8d 10 3a 3a 7a 2e f9 bd
       -0.11252553 -0.14816885 0.0007097803 -0.12167068
000060 84 e7 aa 3d 0d 01 de 3d 46 2b 0b 3c a0 e6 8b 3d
       0.08344939 0.10840044 0.008494204 0.068310976
000070 4a c3 5e bd 17 a9 4e 3d d0 46 5c bd a6 fd 1d 3d
       -0.05438546 0.050454225 -0.05377847 0.038571976
000080 c2 89 16 3e a1 92 cd bd 45 4d 84 3d a6 f3 80 3c
       0.14700988 -0.10037733 0.064600505 0.01574118
000090 32 37 0c 3b 17 01 d2 bc 36 e5 0f bc 45 c6 c3 bd
       0.0021395204 -0.025635285 -0.0087826755 -0.09559301
0000a0 96 ac b1 ba cf 9c d8 3d 45 2e b9 3d 46 94 50 bd
       -0.0013555463 0.10576784 0.09042028 -0.050922655
0000b0 1d b2 fa bc 2a 70 32 3c 0a fd 39 3c 19 a7 36 3e
       -0.03060251 0.010891 0.011351833 0.1783718
0000c0 e8 a7 12 be b7 c6 d7 3b 7f 07 15 3e 82 06 53 3b
       -0.14321864 0.006584968 0.14553641 0.0032199924
0000d0 69 c3 ab bd 41 ba b7 bc c6 01 98 3d ac cc 9e 3d
       -0.08386881 -0.02242768 0.07422213 0.07753882
0000e0 78 6a 0f bc 91 aa 48 bd 6b 89 37 bc 1c 4f f4 38
       -0.0087534115 -0.04899079 -0.011202197 0.00011649562
0000f0 b5 63 21 3d 9a 4f 31 bd 43 d5 3d bd 4d 6b 93 3d
       0.03940173 -0.043288805 -0.04634596 0.071982004
000100 ca 80 c8 3d 61 8c fc bc ca 80 a3 bd 2c 44 f7 3b
       0.097901896 -0.030828657 -0.07983549 0.0075459685
000110 17 fd ce 3d f8 79 e6 3b 4a 2b 18 3e 50 d4 50 3d
       0.10106867 0.007033583 0.14860263 0.050983727
000120 df 59 67 bc 81 72 8f 3d ae 92 a5 3c cf d9 69 be
       -0.014120548 0.07004262 0.020211544 -0.22836994
000130 db 9f 69 3e 96 2a b8 3d 7d 5c bc 3d 73 55 55 3c
       0.22814886 0.089924976 0.09197328 0.013020861
000140 71 fd 64 bd 88 47 80 3d 5e 9e ef bd 6c d8 2c be
       -0.055905763 0.062636435 -0.11700128 -0.16879433
000150 68 84 ad 3d 38 c5 54 bc 66 27 8a bd 28 cd 77 3d
       0.0847252 -0.012986474 -0.06745796 0.060498387
000160 ec 7b 51 be b6 af 72 3c ed c5 44 3e aa 23 07 bd
       -0.20457429 0.014812401 0.19216128 -0.032992996
000170 5e 9e 54 be c6 5b 04 be 1f a4 9f 3d ef dc cf 3c
       -0.20763537 -0.12925634 0.077949755 0.025373904
000180 16 e5 ac 3d e5 87 b3 bc a0 0f 3b be f7 c5 ed 3c
       0.08442132 -0.021915385 -0.18267679 0.029025061
000190 82 af ca be f6 4b 4c 3c cb 6b d8 3d 5c 33 b3 3c
       -0.39587027 0.012469282 0.10567435 0.021875076
0001a0 fe 31 c7 3e e5 cf ee bd 97 e7 95 3d 24 1f 00 bd
       0.3890533 -0.116607465 0.07319563 -0.031279698
0001b0 a3 96 4f be d7 fc 77 3c 41 75 ee bc 5b 9c 97 3d
       -0.20272307 0.015135965 -0.029108645 0.07402869
0001c0 4e 76 d7 3e 0d 1d 4e bc ae f8 e7 3d 53 40 a9 3d
       0.42082447 -0.012580168 0.11326729 0.08264222
0001d0 ca f3 9c bd e6 0d cf bc 81 5a 00 3d 52 f3 cf bd
       -0.076636866 -0.025275182 0.03133631 -0.101538315
0001e0 de 7b 88 bd e8 af d3 3c 5e 66 47 bd 79 89 74 bb
       -0.06664251 0.025840715 -0.04868161 -0.0037313385
0001f0 31 63 82 3d 36 83 20 bc 5b ea 36 be 96 52 53 bd
       0.063665755 -0.009796908 -0.17862837 -0.051592432
000200 34 5a 6d bd 5c e6 da 3d 1a db 5e 3d e3 a1 8e bd
       -0.057947353 0.10688469 0.05440817 -0.06964471
000210 6f c6 cc bd 52 32 9b 3d 42 93 c2 3c 83 b0 27 3e
       -0.09998786 0.07577957 0.023751859 0.16375928
000220 57 a5 2c bd f8 8a 71 bd 3a e7 b1 bd 74 8e 1c 3a
       -0.042149868 -0.05897042 -0.08686681 0.0005972155
000230 0e 61 66 3d 66 55 79 3d 01 90 b8 bd c2 cb ba 3d
       0.056244902 0.060872458 -0.090118416 0.09120895
000240 5b 49 cf 3b cd 52 88 bc 2f be 7a 3e 61 66 78 be
       0.0063258833 -0.016641045 0.24486612 -0.24257804
000250 cb 12 dc 3c 68 b7 50 3d ac 0f 03 3e e9 41 73 3c
       0.02686443 0.05095616 0.12798947 0.014847257
000260 74 40 63 bd 8c 78 6e bd b3 6c 11 be 6a c2 20 3d
       -0.05548139 -0.05822043 -0.14201622 0.039247908
000270 74 8d 41 3d 81 8a 7c bb a4 11 97 3c e1 a6 8a 3d
       0.04725404 -0.0038534703 0.018441029 0.06770111
000280 ac e8 47 3c 90 45 83 bd 4f b2 87 3d 52 dc 82 3c
       0.012201469 -0.06409752 0.066258065 0.015974198
000290 e7 67 28 bd c8 a4 82 3d 50 b6 89 bc e3 d5 0c be
       -0.041114714 0.06379086 -0.016810566 -0.13753466
0002a0 6a f3 40 3d dd bd 46 3d 35 6c 4d 3d 4f d2 91 3b
       0.047107138 0.04852091 0.050152022 0.0044501196
0002b0 dd 09 5c 3d 25 8e 02 bd 4c 21 4e 3c be 90 23 be
       0.053720344 -0.03187384 0.012581181 -0.15973184
0002c0 4f 2b dd 3c 3b e8 a1 bc 5c de 05 3c f0 1f 39 3e
       0.02699819 -0.019764056 0.00817069 0.1807859
0002d0 59 25 0c 3b a9 38 56 3e ed dc bc 3d 98 53 bc 3d
       0.0021384566 0.20920052 0.09221826 0.09195632
0002e0 af 1e 0f 3b 34 74 52 3d cf 81 13 3e ff c3 15 3e
       0.0021838357 0.05138035 0.14404987 0.14625548
0002f0 93 c6 7b 3d 8c 6c 7e 3d 9a 62 39 3e 12 ad d6 bc
       0.061468672 0.062115237 0.1810402 -0.026205573
000300 c4 79 c4 3d 2e 96 3d 3d 9c a4 67 3d a1 85 f3 3d
       0.095935374 0.0462858 0.056553468 0.11890722
000310 bb ff eb 3c d9 01 01 bc c6 f8 3c 3a 1e 0d d7 3d
       0.028808465 -0.007873976 0.0007208701 0.10500549
000320 54 6f 63 bc 19 14 1c 3e f6 96 0a be d9 81 93 3d
       -0.013881523 0.15242042 -0.1353415 0.07202501
000330 a9 7a af bd 97 d8 62 3d 59 55 a4 3d 98 48 74 3c
       -0.085683174 0.055382337 0.08024091 0.014909886
000340 d6 d1 00 be 16 e1 71 bd bd e5 3e 3e b0 77 f6 bd
       -0.12580046 -0.05905255 0.18642326 -0.12034547
000350 d7 05 b4 bd cf e9 24 3d a9 d9 98 bc fa 12 07 3d
       -0.08790176 0.04026204 -0.018658476 0.03297708
000360 28 b3 7b 3d 25 e9 ad bc a6 b5 51 3d e6 32 81 bd
       0.061450154 -0.021229336 0.051198624 -0.06308536
000370 8c ed 83 bc f4 79 de bc a2 53 ad 3c aa ce 51 3d
       -0.016104482 -0.027157761 0.021158043 0.05122248
000380 3d c3 36 bd 78 ef 8e 3d a8 51 e3 3d 47 a0 69 3e
       -0.044619787 0.06979269 0.11099559 0.22815047
000390 f5 00 3f 3d 4a ba 3f bd 79 ac fe 3c 3c f9 b4 3d
       0.046631772 -0.04680852 0.0310881 0.088366
0003a0 c5 73 be bd 01 94 ad 3c cf 43 d4 bb 4c 9b d4 3d
       -0.09299425 0.021188738 -0.00647781 0.10381183
0003b0 e0 2f d0 bd 82 c3 67 3d b1 0c d5 3d 68 92 1f 3e
       -0.101653814 0.056582935 0.10402811 0.15583193
0003c0 1b 4f 90 bd bb 37 99 bc ec fc b0 3d 1a bc 60 3c
       -0.07046338 -0.018703332 0.08641991 0.013716722
0003d0 0d 82 3f be c6 fd 08 3e 4c b7 01 3e 7d 56 c2 bd
       -0.18701954 0.13378057 0.12667578 -0.094891526
0003e0 74 51 44 bd 8e 35 0e 3e b8 b5 7a 3d 2a b3 f8 3d
       -0.047929242 0.13887617 0.061208457 0.12143548
0003f0 3e 24 87 3d d5 4a ff 3d bf 82 0c 3d 99 18 a9 be
       0.065987095 0.12465445 0.034304377 -0.3302658

network_body._body_endoder.seq_layers.2.bias f4 [128]
000000 dd 1c be 3c 60 dc 09 bb 77 72 f2 bb 6e 33 9b 3c
       0.023207122 -0.0021035895 -0.007398899 0.018945422
000010 69 7c b5 bb a6 fd 61 3c ce 19 38 3b 96 c2 a5 3c
       -0.0055385125 0.013793385 0.0028091553 0.020234387
000020 40 cc 93 ba e6 6d 96 bb 60 96 9e 3c 53 9d 53 3c
       -0.0011276081 -0.0045907376 0.019358814 0.012915927
000030 17 92 00 3c 61 d6 67 bc 6f b2 26 bd c5 d7 4e 38
       0.0078473305 -0.014150233 -0.04069751 4.931518e-05
000040 a9 13 13 bc 5e b3 eb 3c 88 90 4c 3c ed dc 90 bc
       -0.008976855 0.028772052 0.012485631 -0.01768347
000050 20 16 95 3c 1a f1 ac bb 94 18 ee 3c c0 b8 41 3c
       0.018199027 -0.005277765 0.029064454 0.011823833
000060 6a 9e 67 bc f1 78 43 3a 90 f6 2e bd e7 49 86 39
       -0.01413689 0.00074566813 -0.04271561 0.00025613533
000070 13 7c 63 bc 0a 3e bf bc 3e 1f e8 3c bf 7e 6a bc
       -0.013884562 -0.023345012 0.02833521 -0.014312445
000080 bc ac ad 3b 9a 34 d6 bc 98 55 ab bb f2 6d b2 bb
       0.0053001326 -0.02614813 -0.0052287094 -0.0054452354
000090 63 21 bb bc 68 af f3 3c 30 f4 eb 3a 37 2d ea 3c
       -0.022843068 0.029746726 0.0018001851 0.028586013
0000a0 00 14 a6 3c c4 0e 37 3c dc 39 0d bc ce ac a5 3c
       0.020273209 0.011172954 -0.008619752 0.020224001
0000b0 20 8e 2f bb 33 44 01 3d 79 90 ea bb 11 89 21 bd
       -0.0026787594 0.03155918 -0.0071583358 -0.039437357
0000c0 40 2b 5c ba 11 c2 05 bd 7d 13 68 bc 9a ec c5 3b
       -0.0008398779 -0.03265578 -0.014164803 0.006040168
0000d0 60 e1 f2 bb da d4 24 3d 05 cf f2 3c b9 3d ee 3b
       -0.0074121207 0.040242054 0.02963973 0.0072705415
0000e0 1c 41 11 3d 1c 6f 60 3c 1a a1 8c 3c 10 2a a5 3c
       0.035462484 0.013698366 0.017166663 0.020161659
0000f0 fc 24 b0 3b 59 dc 70 3c 7f 5f af 3c 6f 0e 2e 3c
       0.0053755026 0.0147009725 0.02140784 0.010623558
000100 18 80 3f bd 29 27 82 3c ee fa c3 3c 29 ac 10 3b
       -0.04675302 0.015887814 0.023923364 0.0022075272
000110 17 00 1a 3d 0e 51 43 bc 0a 9a 3d 3b 9d 86 08 bd
       0.037597742 -0.01192118 0.0028930926 -0.033331502
000120 bf 15 fb 3c 77 f6 f7 3c 6a 5f 69 3c ac de 03 3d
       0.030650018 0.03026889 0.01424394 0.03219478
000130 a2 76 bb bc 6b 3a 36 3d 63 f5 85 3b ce 2a a9 bb
       -0.022883717 0.044489305 0.0040880903 -0.0051625734
000140 89 f9 7e bd f8 9b 01 bb 55 0e ab b9 62 7c 10 3c
       -0.062249694 -0.0019776803 -0.0003262634 0.008818718
000150 12 52 34 bc 98 d2 76 bc d2 37 ce 3b 1e a0 d8 bb
       -0.011005895 -0.015064858 0.0062932754 -0.0066108843
000160 b4 83 24 bd 56 fa 5d ba 1c 16 77 bc 91 bd 88 3c
       -0.040164664 -0.0008467784 -0.015080955 0.016691955
000170 2f 95 f8 bc fc c1 93 3b fb eb 24 3d 6a 0b fb 3c
       -0.030344574 0.0045092087 0.04026411 0.030645091
000180 a6 7a 27 3c 41 e6 c2 3b 4f ce c6 3c a9 95 dc 3c
       0.010222113 0.0059478586 0.024268297 0.026926832
000190 9e 1b 98 3b 2e 6b 95 3c 56 44 9a bb f2 d1 fe 3c
       0.004641964 0.018239584 -0.0047078533 0.03110597
0001a0 58 6d 81 3c 39 e9 33 bc c6 f0 10 3d 51 7b 42 3b
       0.01579921 -0.010980898 0.03538587 0.0029675553
0001b0 d0 ff 73 bb 90 6f e9 3b b6 f4 41 bc b4 06 84 3c
       -0.0037231334 0.007123895 -0.011838129 0.016116478
0001c0 da 53 62 3a 65 7f 0c 3c 2d 8c 5f 3b 1f 37 2b 3c
       0.00086337107 0.008575295 0.003411065 0.010450154
0001d0 e8 84 95 bc 81 a0 a2 3c 01 88 8d 3b 1d 5d 06 bc
       -0.018251851 0.019851925 0.0043191914 -0.008200911
0001e0 e9 62 96 3c 33 6d a7 3c 4f 6a 99 3c 7f 0e 3e 3c
       0.01835771 0.020437812 0.01872745 0.011600136
0001f0 7f 6c 91 3c 26 41 8b 3c 35 3d 56 3c a7 5c 33 bc
       0.01775193 0.016998839 0.013076116 -0.010947383

network_body._body_endoder.seq_layers.2.weight f4 [128, 128]
000000 fc 6a 1b 3e fe 34 69 bd 63 5a 20 be 8f 0b 58 3d
       0.1517753 -0.056935303 -0.1565948 0.052745398
000010 63 eb ee 3d 82 41 c6 bd 56 5a e9 3d 0a c6 ee 3b
       0.1166599 -0.096804634 0.11394183 0.0072867917
000020 5b f2 80 bd 9d f2 18 bc d4 89 3f bc cc 23 84 bd
       -0.06296226 -0.009335187 -0.011690576 -0.0645214
000030 b9 88 b0 3d c4 c0 41 be 93 d6 e7 bd 77 21 21 3e
       0.08619828 -0.1892119 -0.11320224 0.15735422
000040 5e d1 11 be 7c e4 aa bd db 74 8e 3d a6 b8 81 bd
       -0.14240023 -0.08344361 0.06955882 -0.06334047
000050 f9 e1 54 3c f8 81 bf 3d d9 5b aa 3b dd 33 2b 3e
       0.012993329 0.093509614 0.0051989374 0.16719003
000060 1e 9f 03 be ab 01 ce bd 74 6a 81 bd cd 07 f7 bc
       -0.12853667 -0.10058912 -0.063191324 -0.030155087
000070 6c c1 83 3d 07 7a a1 3d 59 45 a5 3d 52 c0 78 bd
       0.06433377 0.07884603 0.08069868 -0.060730286
000080 92 a9 98 b9 23 10 03 be 50 66 2d 3e c4 1e 92 bd
       -0.0002911804 -0.12799124 0.1693356 -0.07134774
000090 14 84 b0 3d ec 0a 01 3d db df 56 bd 8a 46 24 be
       0.08618942 0.031504557 -0.05245958 -0.16042534
0000a0 d0 0f 78 3d 8c 3c 38 bc b4 5d 60 3d a4 5d f8 bd
       0.060561955 -0.011244904 0.054776862 -0.121272355
0000b0 73 6b fb 3d ee 10 d1 3d 80 70 f5 bd 9e 14 8f 3d
       0.12276354 0.10208307 -0.11984348 0.06986354
0000c0 8b a3 92 bc 39 33 63 3d 3e 82 1a bc 05 88 cb bb
       -0.017900249 0.05546877 -0.009430466 -0.006211283
0000d0 55 5b c3 bd e7 15 f5 3c 6e 2c ae bd 3b a7 58 bd
       -0.095389046 0.02991767 -0.08504568 -0.05289386
0000e0 c7 7b 8b bd 98 a7 3d 3d 61 7a 20 3e 2c 6b 65 bd
       -0.06810718 0.046302408 0.15671684 -0.05601041
0000f0 40 6d 8c bc e5 d3 a4 bc 2c 49 27 be e6 8b e5 3d
       -0.017141938 -0.02012057 -0.16336507 0.11208324
000100 bb 16 e1 3c ba be db 3c b9 5e 1e bd 04 83 49 bd
       0.027476659 0.026824344 -0.038664553 -0.04919721
000110 68 69 84 bd 0d bf 65 3a d7 53 08 bd 5d 11 a1 3c
       -0.06465417 0.00087641255 -0.03328308 0.0196616
000120 5e b9 14 3c b2 88 23 3e 4b fd 11 3e 64 29 c5 bd
       0.009077398 0.15970114 0.1425678 -0.09627035
000130 20 79 42 bc 6e ca 10 bd a3 be de bd be 1d bd bd
       -0.011869699 -0.035349302 -0.10876205 -0.092341885
000140 e6 c6 d0 bd bb 66 a7 bd 20 24 b7 bb 98 98 d8 3d
       -0.10194187 -0.08173891 -0.005589023 0.1057598
000150 a4 e0 c9 3c b8 77 44 bd 8d 34 6c be 17 a7 96 3d
       0.02464325 -0.047965735 -0.23066922 0.073560886
000160 37 c7 04 bd 21 77 8f bc 49 f6 dc bd 89 ee ad be
       -0.03241655 -0.01751286 -0.10789163 -0.3397105
000170 33 f7 96 bd 6b ec e4 bd 8a 65 46 3d e0 4c 28 3d
       -0.07371368 -0.11177906 0.04843668 0.04108894
000180 e2 62 1f 3d 26 4a ed 3d cd 8c 71 bd 86 2a bc 3d
       0.03891266 0.11586408 -0.05897217 0.09187798
000190 32 41 ba bd 8a 9a 84 3d 42 6c 91 bd ac 54 2c 3e
       -0.09094466 0.064747885 -0.07100727 0.16829175
0001a0 c5 0b 4f 3c 20 5e ff bc 79 8c 30 be e0 77 a2 bd
       0.012637083 -0.031172812 -0.17241086 -0.079330206
0001b0 92 7b 89 bd 8c e1 35 3e f1 a9 ed bc fd ec 13 3d
       -0.06713022 0.1776182 -0.029011698 0.03611468
0001c0 31 0c 3a bc 47 8d 03 be 8a a3 1a 3c f6 4f 8c be
       -0.011355446 -0.12846862 0.009438405 -0.27404755
0001d0 52 56 fc bd c7 c3 3a bd e9 ce 32 3e 0f 76 01 3d
       -0.12321152 -0.045596864 0.17461742 0.03160673
0001e0 09 d9 d6 3d 3b bb f0 3d 70 cc 2d 3e cf 1b 43 3e
       0.10490615 0.117544614 0.16972518 0.19053577
0001f0 bb 92 93 bc 8e 99 da 3b e9 d0 59 bd 9b 5e 18 be
       -0.018014302 0.006671137 -0.053177748 -0.14879839
000200 b5 55 d1 bc d8 f4 d9 3d df d1 4d 3d 6a 1d 79 bb
       -0.025553564 0.10642403 0.050248977 -0.0038011917
000210 af 7a c6 3d 47 21 94 3d d4 9c 1f 3e 83 15 1d 3d
       0.09691369 0.0723291 0.15587169 0.038350593
000220 34 d9 f6 bd 20 b8 3a 3d ee f5 aa bc 92 cd a8 3d
       -0.12053147 0.04558575 -0.020869222 0.082423344
000230 6e 69 9d 3c da 81 19 3e 01 a8 b4 3d 56 60 3a 3e
       0.019215312 0.1499094 0.08821107 0.18200812
000240 8c e1 73 bd 9d db 9c bd 6b 91 c5 3d 65 1a b4 bc
       -0.05954127 -0.076590754 0.09646877 -0.021985242
000250 ff 86 da bc ca 03 9c 3d 1b 42 97 ba c6 37 4e bd
       -0.0266757 0.0761791 -0.0011540087 -0.05034616
000260 1d 8d bd bd 37 03 a2 bd 12 e9 96 3d de b8 81 3d
       -0.09255431 -0.079107694 0.073686734 0.06334089
000270 ee f6 1e be 31 24 82 3c a1 3f 7e 3c a3 7b 1e 3e
       -0.15523884 0.015886398 0.0155181 0.15476851
000280 dd 25 95 3d d6 bc 27 3e 29 43 c9 bd 4e 2a 18 3d
       0.072826125 0.16380629 -0.09827263 0.03714972
000290 bb da 29 3e 6c 08 8d bb 39 15 21 3d 78 86 54 bd
       0.16587345 -0.0043039825 0.03932688 -0.051886052
0002a0 98 d2 55 bd 9e 97 fb 3d a4 b5 7d 3d 34 cb 94 3d
       -0.05220279 0.12284778 0.061940804 0.072653204
0002b0 4f 5f e0 3d 9c 7f 82 3d f0 41 5a be 99 73 c3 bc
       0.10955679 0.06371996 -0.21314216 -0.023858832
0002c0 ac 55 6c 3d a8 65 f8 3d b0 01 ae bd d7 83 b5 3d
       0.05769889 0.121287644 -0.084964156 0.08863037
0002d0 db d9 01 be bd cc 19 3d 7b 40 f0 3d 84 94 44 3d
       -0.12680762 0.03754877 0.11731049 0.047993198
0002e0 89 21 24 bc a2 be 64 be 64 33 ea 3c 57 f8 65 3d
       -0.010017761 -0.22338346 0.028588958 0.05614504
0002f0 66 60 85 3d d7 99 f9 bd df aa 87 3d 7e 6a 4f 3d
       0.06512527 -0.12187546 0.06624388 0.05063867
000300 43 8d a7 3d f5 60 cf bd 59 af 8a bd 13 bd 51 3e
       0.081812404 -0.10125915 -0.06771726 0.20482282
000310 73 85 0b 3e 2b 13 90 3d b6 ee 7d 3c ff f3 a6 bd
       0.13625126 0.07034906 0.015498808 -0.08152007
000320 b2 ed 02 3c 62 3a 3e bd 61 4b 35 be 2d 66 d7 3d
       0.007991241 -0.046442397 -0.17704536 0.10517535
000330 2b 23 d4 bc 88 75 8f bd 4f e2 95 bd 9c 04 17 be
       -0.025895676 -0.07004839 -0.073185556 -0.14747852
000340 f1 dc 1e 3b 94 c0 10 be e7 33 bc 3d a1 4e 0a bc
       0.0024240578 -0.14135963 0.09189587 -0.008441598
000350 3e 04 0a 3d e7 33 4e 3d 17 18 69 bc 6d 5b 69 3d
       0.033695452 0.050342467 -0.014226935 0.056971956
000360 98 74 44 3d 18 d5 f3 3b 1a f3 01 bd 0f c3 5c bd
       0.047962755 0.0074411742 -0.03172598 -0.05389696
000370 eb 3c 04 3c be 55 e9 bd 57 ca 2d 3d e7 f1 f7 bd
       0.008071165 -0.11393307 0.042429294 -0.12106686
000380 3f 51 1b bd af 72 86 3d f7 4c e2 3c ec 3e 81 bd
       -0.03791928 0.06564843 0.02762459 -0.063108295
000390 da 02 10 be c7 3d 27 3d cd f7 87 3d 76 f3 c7 bb
       -0.14063588 0.0408304 0.06639061 -0.006102021
0003a0 78 d7 96 bc 84 a7 f7 3c 07 e0 33 3d 7f f7 1d 3e
       -0.01841329 0.030231245 0.04391482 0.15426444
0003b0 c6 cf 54 bd 82 fe cf bd bb a1 59 3d f3 1b 02 3e
       -0.05195596 -0.101559654 0.053132754 0.12705974
0003c0 ba 86 d3 bd b0 0e 88 bc f3 5e e2 3d 3a de 1c 3e
       -0.103284314 -0.016608566 0.110532664 0.15319148
0003d0 d2 f4 d6 bd 27 c9 97 bc 0b bf f5 3b 68 a9 86 bb
       -0.104959145 -0.018528534 0.0074995807 -0.0041095503
0003e0 e3 1d 7f 3d 47 66 0e bd bd 63 01 3e 79 af 6d bd
       0.06228436 -0.034765508 0.12635703 -0.058028672
0003f0 81 87 42 3a e7 96 63 bd fb 21 10 3e ba 45 eb 3d
       0.00074207044 -0.055563834 0.14075463 0.11487909
