results/HideAndSeek6/Seek/Seek-499965.onnx (onnx, 161813 bytes, 7 tensors)

action_model._continuous_distribution.log_sigma f4 [1, 3]
00000000: 2ba7 38be 86fe 2fbe f19c b7be
-0.1803252 -0.17186937 -0.35861924

action_model._continuous_distribution.mu.bias f4 [3]
00000000: f72b 013c 7dcd c4ba 57ba 1dba
0.007884017 -0.0015014854 -0.00060168415

action_model._continuous_distribution.mu.weight f4 [3, 128]
00000000: ac7b 8bbc c644 6b3d 1793 763d b959 853d
00000010: 0500 573c eb88 5ebd 5dd9 e1bc 7dcb b7bc
00000020: 306d 4dbd 2160 76bd 9d7e 05bc cf19 863b
00000030: e9f1 8d3d b092 b13d 03e5 153a 8196 5e3b
00000040: 3426 523b b8fe ff3b 5c2e 653c 0da2 403d
00000050: 6cb3 833c 9c41 cb3c e086 373d 065a 8bbd
00000060: 371d d13c 6daf 08bc 8bd7 1dbc 15bb 27bc
00000070: 723a 8ebc 61ea c63c 1f8c 253d 7684 483d
00000080: a34e b73c 5b37 0e3d 6eea c4bc f956 4d3d
00000090: ff82 2cbd 36b0 80bd 23a2 b23d 340d b0bc
000000a0: 53f4 1cbd fce0 3ebd d606 4b3c 9ca1 ce3c
000000b0: deea cebc f060 6cbc 59f3 6bbc 76be 0a3d
000000c0: a542 acbc efc9 933c ab35 47bd ff65 f83b
000000d0: 24c5 f2bc 1252 0ebd b6f5 633d eab2 23bd
000000e0: 81ba 0cba 2c1d 533c a21d 7e3c e4bb 043d
000000f0: cb78 63bd 46a0 b1bc abaf 0abd 8d3d adbd
00000100: 0f86 303c 57af f63b 1f64 28bd 5b68 09bd
00000110: cf3b 3b3d 226a fc3b 4171 4dbd 0abb 323c
00000120: 019f 1d3a 849b 5cbd d248 223c 15ec a23c
00000130: 4165 533d 95f3 3a3c d9e8 5dbc 54d5 e53c
00000140: 954c 8d3c 058b 223c 8d24 8ebc 2921 fcbd
00000150: 9b5f 1bbd 98f1 ecbc 5084 1a3c 0e6b 60bd
00000160: 1683 a83c d03b 8abc f861 b23b fd0a 97bb
00000170: 5bc8 263b 41fe 193d 8eee 0a3d dbec 8dbd
00000180: 4ced a23c 808b aabd 04b0 bc3c 4437 2e3d
00000190: d35a f03c dbf0 9b3b bb12 e9bc fd80 f33b
000001a0: c099 5f3d 0d88 01ba c5ea 3f3d fa5c d93c
000001b0: b993 153c ac1d 4d3c 5230 4f3d be53 e83c
000001c0: 006c 2bbc 07d7 62bb 0317 e83c 55fc 023d
000001d0: d891 3a3d 8489 6c3b 8599 b2b8 6263 4fb9
000001e0: 4fab 74bd f079 253c d867 b03c a145 0c3d
000001f0: 03c6 a2bd 7490 84bd 2972 39bd 23f9 14bd
00000200: 6cc8 0bbd 6365 55bc 9572 143d 5c80 89bd
00000210: b75e 443d c8c9 8c3c 4b89 ee3b bdd3 993c
00000220: 4065 ae3c 64af 123d a774 1b3d 06af 58bd
00000230: 8c79 b23c a44d 6ebd 096e 11bd 0cca 143d
00000240: 97d0 973d 292a a9bc e472 51bd 9ad8 9e3c
00000250: 305b 38bd 3643 d33c 771a 02bd fc89 04bb
00000260: 1fb9 0dbd d623 273d 7fce 4e3d 12a3 bbbd
00000270: 4489 c43c 7501 1c3d 5d2c 03bd 1eb4 85bd
00000280: 2b5e 24bd 2745 0b3c 99ea a1bb 0a39 1c3c
00000290: ffe9 7b3d de2a 7f3d 1ba6 89bd 38b2 1f3d
000002a0: dae0 1bbc 3d53 fabc 9b96 593d af22 743d
000002b0: 7aa3 4abd 167c 67bd da58 593c 41b4 1f3d
000002c0: 0486 01bd c63b 423d 37b8 15bc 16c8 a33c
000002d0: 82a2 363c b2c2 513d 16e3 35bc 6838 f6bb
000002e0: fb82 d03b bec9 6bbd e8af 1f3d ea07 023c
000002f0: dbb7 763c 8e4b 5e3d bf04 e6bb 03ba 1abb
00000300: 41ae 8abd b860 a93c 6f13 f6bd 9b1f 183d
00000310: b0c0 e23b a4e6 223b 622c b13c eb0e d53c
00000320: e4a4 48bd 2307 ba3a ca6e 6ebb 09bb 21bd
00000330: cd4d a83d 044d f63c 7da1 4d3d 0489 43bd
00000340: 60b6 8d3c 8517 33bc 03b0 b83c bd20 71bc
00000350: b36f a33d 0dca ddb9 05ea 34bd e453 43bd
00000360: 7dd7 acbc 0ab1 85bc 4cac be3d 4079 3bbd
00000370: e0e5 3cbd 9d77 a2bc 0f50 ad3b b322 b03d
00000380: 41b2 bdbc caaa 07bd 37d0 b13c 4861 a43b
00000390: ade7 30bd 40dd cc3c ac69 253d 0bbc 9c3c
000003a0: 28fc babc a753 dc3c 582c 15bd dbbc df3c
000003b0: df20 41bc 0c59 a63c 4925 fc3a 82cc 473d
000003c0: 80e9 7a3c 035c c03c af01 67bc 9c34 783d
000003d0: c9c3 fa3c 6ea0 0e3d 409d 153d f9c4 393d
000003e0: 1899 16bd 028c 96bc cd4d 96bb ccdb 09bd
000003f0: f3d8 063d 0a78 b33c 1c6b 82bd 79e6 283c
-0.017026745 0.057438634 0.06019887 0.06511254 0.013122563 -0.054329794 -0.027569467 -0.022435898
-0.050152957 -0.06015027 -0.008147863 0.004092432 0.06930906 0.086705565 0.00057180243 0.003396422
0.0032066228 0.0078123473 0.013988104 0.047029544 0.016076766 0.024811558 0.04480636 -0.0680428
0.025526626 -0.008342606 -0.009633909 -0.010237475 -0.017361853 0.024281682 0.040416833 0.04895445
0.022376364 0.03472076 -0.024037566 0.05013177 -0.042117115 -0.062836096 0.087223314 -0.02149067
-0.038318943 -0.04660128 0.0123917665 0.025223546 -0.025258478 -0.014427409 -0.01440128 0.033873044
-0.021027872 0.018040625 -0.048635166 0.0075805183 -0.02963502 -0.034746237 0.05565425 -0.039965548
-0.00053683674 0.012885373 0.015509995 0.03240575 -0.05553512 -0.02168287 -0.033858936 -0.084590055
0.01077415 0.0075282264 -0.041111108 -0.033546787 0.045711335 0.0077030817 -0.050156835 0.010908851
0.0006012768 -0.05385925 0.009905057 0.019887963 0.051610235 0.011410614 -0.013544285 0.028055824
0.017248431 0.00992084 -0.017351413 -0.12311012 -0.037932973 -0.028923795 0.00943096 -0.054789595
0.02057032 -0.016874224 0.0054438077 -0.004609464 0.002544901 0.03759599 0.03391891 -0.06929942
0.019888543 -0.08327389 0.02303315 0.042533174 0.029340183 0.004758937 -0.028451314 0.007431148
0.054589987 -0.00049412326 0.046854753 0.026533592 0.009129458 0.012519281 0.05058319 0.028360244
-0.010462761 -0.003461303 0.028331285 0.031978924 0.045549244 0.0036092708 -8.516297e-05 -0.00019778081
-0.059733685 0.010099873 0.021533892 0.03424609 -0.07947924 -0.06472865 -0.045274887 -0.036370408
-0.034126684 -0.013024661 0.036242086 -0.06713936 0.04794189 0.01718606 0.00727955 0.018777722
0.021288514 0.035811797 0.037953045 -0.05290129 0.021786474 -0.058179513 -0.03550533 0.0363255
0.07412832 -0.020649986 -0.05113496 0.019390393 -0.04500884 0.025788885 -0.03176352 -0.0020223847
-0.034600373 0.04080566 0.0504899 -0.091619626 0.023991235 0.038087327 -0.03202473 -0.06528495
-0.040128868 0.008500374 -0.0049412963 0.009535084 0.061502453 0.06229674 -0.06721135 0.038988322
-0.009514058 -0.03055727 0.053122144 0.05960339 -0.04947231 -0.056514822 0.013265813 0.038990263
-0.031621948 0.047420286 -0.0091381585 0.01999287 0.011147143 0.051211067 -0.011101505 -0.0075140484
0.0063632703 -0.057565443 0.038986117 0.007936457 0.015058483 0.054271273 -0.0070196087 -0.0023609407
-0.067715175 0.020676002 -0.120154254 0.037139516 0.006919943 0.002485671 0.021627609 0.02600809
-0.048985377 0.0014192801 -0.0036381953 -0.03948501 0.08217964 0.03006602 0.050202835 -0.04773809
0.017298877 -0.0109309 0.022544866 -0.014717278 0.07980289 -0.00042302944 -0.04416849 -0.047687426
-0.021098847 -0.01631977 0.09310207 -0.04576993 -0.046117663 -0.019832427 0.0052890847 0.08600368
-0.023156287 -0.03312186 0.02170573 0.0050164796 -0.043189693 0.025007844 0.04038398 0.019132635
-0.022825316 0.026895357 -0.036419243 0.027311733 -0.011787622 0.020306133 0.0019237186 0.04877902
0.01531446 0.023481375 -0.0140995225 0.060597047 0.030610936 0.034820966 0.03652692 0.045353863
-0.036767095 -0.018377308 -0.0045869113 -0.03365688 0.032921743 0.021907825 -0.06368086 0.010308855

network_body._body_endoder.seq_layers.0.bias f4 [128]
00000000: acc3 9e3c 215e 8cbb 2478 8f3c ce50 30bc
00000010: fa9c b33b 4bd6 df3c 1634 1ebc d6a6 033d
00000020: b5e5 ff3b 27c8 f9bb f5be 543b 385d 3dbc
00000030: e9c4 1c3c c267 753c d8dd 2f3d df9a 213c
00000040: 7a99 d9bc e1ce 473c a4d5 823c b005 87bc
00000050: 67e2 a5bc 3a6e 4139 2067 053c 2d9d ac3c
00000060: b84f 2e3c 3add af3c d048 26bb 9329 a1bc
00000070: e8c5 0c3d 53f5 85bb 5eff 193c 9377 84bb
00000080: 1049 b7bb 6788 6e3c beab 8a3c a651 ae3b
00000090: 285c ec3c bb35 893c baab f63b a954 eb3b
000000a0: 5c89 443c a469 0fba 3b85 9b3c a78f d03c
000000b0: 468e 26bb 79d2 f9bb 62a3 0f3c 5823 933c
000000c0: d533 5fbb 72e7 c03b 5403 1a3d a866 b6bb
000000d0: 84b7 27bc 3fe2 673c 347b 0bb9 96cf 803c
000000e0: 3d82 753c f794 8bbc c965 b13b faf7 d7bc
000000f0: abaf 2a3c e55b 03bc 29f3 6c3c baee 31bc
00000100: 44be e3bc b04d 093c 61d8 443c 0b7b d23c
00000110: c8c9 233d 85ad e23b aca0 083c c90e 633b
00000120: 7c6c 053c a715 eebc f84a e43a abe0 843b
00000130: 3486 a53c b313 143c 0c14 9abc ccc5 623c
00000140: 9aad 51bc b0d7 a3bb 1355 8bbb 3bfa 46bb
00000150: 588f d73c cc6c 683b b799 f83a 36e7 6a3c
00000160: 9a8d f83c 72bf 903c fb07 bb3c 3150 ac3b
00000170: 0349 933b 7b1a 663c 7cad ae3c a340 83bb
00000180: c960 0f3c 41eb a03b 5045 0a3d 8171 a13c
00000190: b551 18bb 4d9e 743c 2d3f 1d3c 502c cc3c
000001a0: 1653 0abd a8e5 78bb b43d 74bc 5f8d b4bb
000001b0: 967f 61bc bec7 263d a3a4 013d 3e5c 913c
000001c0: 5ced 19bc ea53 2dbc fa70 44bb e534 f93a
000001d0: 0065 5dba 1502 ba3b 8ee9 703b 6f91 01bd
000001e0: 56b6 ae3b 6a61 0a3c eec8 563b ea4d 86bc
000001f0: 2d87 bf3b 9732 c3ba 696f ac3c 725c 1d3c
0.019380413 -0.004283682 0.017513342 -0.010761453 0.0054813595 0.027323863 -0.009655973 0.03214153
0.0078093656 -0.007622737 0.0032462452 -0.01155787 0.009568431 0.014978351 0.042936176 0.009863584
-0.026562441 0.01219532 0.015971012 -0.016482204 -0.020249559 0.00018446977 0.008142263 0.021071041
0.010639124 0.021467794 -0.002537299 -0.019673144 0.034368426 -0.004088083 0.009399263 -0.0040425747
-0.0055934265 0.014558888 0.016927596 0.005319792 0.028852537 0.016749253 0.0075277956 0.007181723
0.01199564 -0.0005470759 0.018984428 0.025459124 -0.0025414391 -0.0076239672 0.008766981 0.01796119
-0.0034057994 0.0058869654 0.03760083 -0.005566437 -0.010236625 0.014153062 -0.0001330197 0.015723985
0.0149846645 -0.017038805 0.005413745 -0.026363362 0.010417859 -0.008017515 0.014462271 -0.0108601395
-0.027800687 0.008380339 0.012014479 0.025693437 0.039987355 0.006917658 0.008339088 0.0034646264
0.0081435405 -0.029063059 0.0017417362 0.004055103 0.020205595 0.0090379 -0.018808387 0.013841104
-0.0127977375 -0.005000077 -0.004252085 -0.0030361551 0.026313469 0.0035465239 0.0018966709 0.014337352
0.030340958 0.017669413 0.022830954 0.005258583 0.0044947877 0.014044399 0.021322958 -0.004005508
0.008751103 0.004910857 0.033757508 0.019707443 -0.002324206 0.01493032 0.009597582 0.024923474
-0.033770643 -0.0037978683 -0.014907289 -0.005510017 -0.013763329 0.040717833 0.03165115 0.01774418
-0.00939497 -0.010579089 -0.0029974566 0.0019012956 -0.0008445531 0.0056765177 0.0036760303 -0.031632837
0.0053317947 0.008446077 0.0032773572 -0.016394574 0.0058449716 -0.0014892396 0.021049218 0.00960456

network_body._body_endoder.seq_layers.0.weight f4 [128, 179]
00000000: 24b8 eebd f4d8 a83d 7a38 f1bd 0833 f03d
00000010: 1fd0 e9bd 0f6b babd 7ce6 c93d c9f4 c63d
00000020: 8878 6abd 081a babc dc3b 01bd 71a4 7fbc
00000030: c81d 273c 27d2 92bd baa6 fbbd 03c3 143d
00000040: 0188 1bbe 4567 62bc 7093 893d fdfd e8bd
00000050: 158f 8b3a 6460 67bd 1667 dfbc 81ae 00be
00000060: 2160 ccbd d729 64bd 05be 16be cb12 dfbd
00000070: 6eac 653c 77a6 da3c 1630 f6bc 5d54 4cbb
00000080: e582 6dbd caaa 0dbe cf3d 15be 1c0c 9e3d
00000090: 3cb3 15bc 5b0a c43d 1889 0abd 30cb 263e
000000a0: e4bb 7bbd 295d aa3c 9bdd 49bd d6c0 103d
000000b0: 8b2b cfbc d315 793c f86d 383c 0d40 02bd
000000c0: 8a02 92bd 6f44 b03d eb88 0d3d d68c be3d
000000d0: f8b3 8bbd 066b 78bc de1d 12bd f45e 9abd
000000e0: b0e2 38bd 2ff7 9fbb b4d2 5ebd e33d 97bd
000000f0: a604 3a3e 39ba 7fbc 511e 4cbd 8b99 8ebd
00000100: ab36 e93d b3fe 2dbe ad2f d23d 1d98 573d
00000110: 7bbf d8bc e53d 09be a459 99bd 9d70 fc3c
00000120: 1bda 433e 1aab b33d 4825 67bc 7bd9 a1bc
00000130: 1b59 15be 6936 f5ba 148f 95bd 0672 0e3e
00000140: f20c a73d 7dc6 fc3d c356 d23d 25a6 7e3d
00000150: 17fa d0bc b505 1b3e e356 e4bc 4ee1 d2bd
00000160: 0e0f fd3d 3a56 c9bc 5110 93bd 8a4b c4bd
00000170: aca8 923d 7459 81bd 8af3 d23c bd8a 113c
00000180: efbf f83c dea0 6d39 a453 b2bd 232f 0b3d
00000190: d948 e3bc c7ba 62bc 7969 10bd 100e eb3c
000001a0: 3988 95bd 1609 e93d 45a7 4bbd a81d 4b3d
000001b0: d813 0c3e bded 01be 0357 05bd 8348 063d
000001c0: b04a f8bd 7edc 8d3d 3caf 243e 7b7f 4d3d
000001d0: 479f 1e3c 5947 bd3c 3dc2 b6bd 0774 163d
000001e0: f376 50bd 7609 9e3d c361 a73d 04f9 9e3d
000001f0: fd93 a3bd 08d5 b63c 2a42 e7bc 36e5 143e
00000200: 7172 70be 8b5a e33c 7c5b debc fbc9 843d
00000210: abf5 023e 525f 3dbd 8b56 a2bd ba64 09be
00000220: 11b4 16bd 17c0 283d 7e72 f73c 6025 c53d
00000230: 8a24 a03d 2cb9 0abd 338d d83d 5d7e c03d
00000240: 098e b7bc 1287 78bd f0f6 e13b 2eba 823d
00000250: 3481 ad3d 49a0 5e3d 598c 113d 8dc1 ea3c
00000260: db43 f83d 8bf6 d1bd f7c2 80bc e05d a73d
00000270: 2b64 263c 4270 8abd 4521 773e c0c3 43bd
00000280: 6cc4 af3d eee7 903d 6234 a8bd 5308 783e
00000290: d0b4 c83d b505 32bd 4869 043e 0562 833c
000002a0: 67df ebbd dbb3 f23d 99e9 43bd 64e8 f13b
000002b0: 250e 433d 636f 39bd 79f5 c43d d0a9 8fbc
000002c0: 1696 50be 0d2b 21bd 2e7b 67bd ecb8 20bd
000002d0: 58c0 ce3c a7b2 91bd 2bb9 d63d 0a66 5a3d
000002e0: 2bd9 953d 9d9c bf3d dad0 02ba daad 1abd
000002f0: 902c b1bd 5cb0 a53d 0a56 24bd a34b 19be
00000300: 4cfe 86bb a059 873d 525d be3d b606 993d
00000310: 3649 fa3c a9c8 1d3b 1cf7 0fbe 9c8f a3bd
00000320: 7478 2cbc ea9b 0abe ce97 b83d 1da8 4e3d
00000330: d579 293c 42bc 4f3e 50be cf3c 2a2f b5bd
00000340: 5b5d 49bd ea5b 40bc a09d d9bd 5ff5 bbbc
00000350: d03b 0c3b 2b78 9a3d 8c4e 47bd 0d44 c7bb
00000360: b2fb 64bd 7e02 88bd dae8 813d 156f 0e3e
00000370: 0c35 a0bc 92c6 83bd f5db 0dbd 886c ccbd
00000380: 467c 4bbd fe77 fe3d 6a97 643b e776 34bd
00000390: b05b d73d 7607 0c3e eeae aa3c 72c0 213e
000003a0: 3589 a5bd 4a91 253d 8880 fc3c af61 d83d
000003b0: 4820 4a3d e4ef 13bc 1ff5 3b3d 799b 5a3d
000003c0: 3cce 38bd ba9e e63d 741c 81bd 7bcc febd
000003d0: eda8 ef3d 1dbf ba3d ec16 c8bd 3387 833d
000003e0: f924 ebbc 3e31 8d3d 07d2 803d 6d27 2ebe
000003f0: 66b4 583c 91ae e4bb ce58 803d 26a2 a73d
-0.11656216 0.082445055 -0.1177835 0.117284834 -0.11416649 -0.09102451 0.098584145 0.09714658
-0.057243854 -0.02271749 -0.031551227 -0.015603171 0.0101999715 -0.0716899 -0.1228766 0.03631879
-0.151886 -0.013818567 0.067175746 -0.113765694 0.00106475 -0.05648841 -0.027270835 -0.12566568
-0.09979273 -0.055703964 -0.14720924 -0.10892256 0.014018161 0.026690705 -0.030052226 -0.0031178214
-0.05798616 -0.13834682 -0.1457436 0.077171534 -0.009136971 0.09572288 -0.03382215 0.16288447
-0.061458483 0.020796375 -0.049283605 0.035340153 -0.025289318 0.015202957 0.011256687 -0.031799365
-0.071293905 0.08606803 0.034554403 0.09304206 -0.06821436 -0.015162235 -0.035673015 -0.07537642
-0.04513806 -0.0048817615 -0.05440016 -0.07384851 0.18165836 -0.015608364 -0.0498336 -0.0696288
0.1138738 -0.16991691 0.10263 0.0526353 -0.026458493 -0.13402517 -0.07487801 0.030815417
0.1912617 0.087728694 -0.01410801 -0.019757023 -0.14584772 -0.0018708232 -0.073026806 0.13910684
0.08156766 0.12342546 0.10270455 0.062170167 -0.025509877 0.15138896 -0.027873462 -0.1029688
0.12356387 -0.024577249 -0.071808465 -0.095847204 0.07161078 -0.0631589 0.025750894 0.008883175
0.030364959 0.00022662009 -0.087073594 0.0339805 -0.027744697 -0.0138384765 -0.035256837 0.028693229
-0.07301373 0.11378686 -0.049720068 0.04958883 0.13679445 -0.12688346 -0.032553684 0.032783996
-0.121236205 0.06926821 0.16082472 0.050170403 0.009681529 0.02310531 -0.08923767 0.036731746
-0.05089469 0.07716648 0.081729434 0.0776234 -0.07987211 0.022318378 -0.028229792 0.14540562
-0.23481156 0.027753135 -0.027143233 0.06483837 0.12789027 -0.046233483 -0.07926663 -0.1341733
-0.03679282 0.041198816 0.030205961 0.09626269 0.07819469 -0.033868 0.105738066 0.09399102
-0.022406595 -0.060675688 0.0068958923 0.06383167 0.08471909 0.05435208 0.035534237 0.028656745
0.121223174 -0.102521025 -0.015717966 0.08172202 0.010155718 -0.06759693 0.24133785 -0.047794104
0.085823864 0.07075487 -0.08213116 0.24221925 0.09800112 -0.043462474 0.12930787 0.01603795
-0.1151722 0.11850711 -0.047830198 0.0073824394 0.04762091 -0.045272242 0.09617133 -0.017537028
-0.20369753 -0.039347697 -0.056513958 -0.039238855 0.025238201 -0.07114153 0.10484537 0.05331997
0.07316812 0.093560435 -0.0004990228 -0.037763454 -0.08651078 0.080902785 -0.040121116 -0.1497026
-0.00411967 0.066088915 0.09295143 0.07471983 0.030552488 0.0024075902 -0.14059108 -0.07986376
-0.010526765 -0.13536039 0.090133294 0.050453294 0.010343988 0.20286658 0.025359303 -0.088468865
-0.049161296 -0.011740664 -0.10625768 -0.02294415 0.0021397956 0.075424515 -0.048658893 -0.0060811103
-0.055904098 -0.066411 0.06343241 0.13909562 -0.019556545 -0.06434359 -0.034633595 -0.09981638
-0.049679063 0.124252304 0.003488029 -0.044058707 0.10515535 0.13674721 0.020835366 0.15796068
-0.08082811 0.04042176 0.030823007 0.10565507 0.049347192 -0.009029362 0.045888063 0.053370927
-0.045118555 0.112607434 -0.06304255 -0.12441345 0.11702142 0.09118483 -0.09769997 0.064222716
-0.028704153 0.06894158 0.062900595 -0.17007227 0.013226604 -0.0069788177 0.06266938 0.08185224

network_body._body_endoder.seq_layers.2.bias f4 [128]
00000000: e6d1 9cba 6434 cb3a beb8 b73c f9ee 5c3c
00000010: a2b7 1abc cd3b 3d3c b886 60bc f341 dbbc
00000020: 98fe 5cba 3e0a 8cbb 6b73 87bc 0faa 533b
00000030: 54b3 eb3c 42b9 0d3d 5162 3abc e6dc 1abc
00000040: 1d23 e7ba 0193 743c 1ae3 6b3d 7894 763b
00000050: 57b3 0c3c 7728 2cbc 987e 803b cc5a 983b
00000060: 9ad4 173c 6578 26bc 707b 333c 2b50 4b3c
00000070: 8c5a 6f3c 7b02 24bb 0adc 1f3c 3a87 b53c
00000080: e65e 173c 7df6 d73c 9007 6bbc 6429 a03b
00000090: ced3 92bb 9a4c fe3b a7cf 193d 9662 453b
000000a0: cbc1 04bc f044 a83c 7432 a03b 7a0e f43c
000000b0: 6e9e 683c efeb 9a3b 4ce8 30bc fe00 6a3b
000000c0: bd6c a23b 9708 443c 6836 f53b 6402 993b
000000d0: 72fb c83a 5e2a e8ba e0bb 703b 453b cb3a
000000e0: db64 1ebc 6f7f 36bb ff93 0f3c 7f7f e43c
000000f0: 0f6c 9b3b e251 f03b aee6 7a3c fb06 5b3b
00000100: 5ffe c73c 68fc e33b 56a7 7e3c a315 913b
00000110: e3ba 3a3a 7bb5 183c 1c9b 30bc 1525 863c
00000120: 24f7 b3bb aab1 593c 3bf8 8f3c cfeb d93c
00000130: 4531 3a3a 6925 863c 9710 6f3a a628 8e3a
00000140: 110b 79ba 642f 64bb 619e 1ebb af03 983c
00000150: cb36 1d3c 2e20 58bc 22ed c2ba 2d63 53bb
00000160: a09b 413c 8b4d ccbb 88a8 903c 0ab1 a63c
00000170: 7254 e7ba 6847 313c 4337 79bc 8552 573c
00000180: c02c 283c 6442 ec3c 88d2 b6bc bc6b f33c
00000190: 78c4 ac3b 3043 153c cdd7 833c a52a 8abc
000001a0: b2c4 343c e1f0 123c c020 173d 8c67 c4ba
000001b0: 8428 c83a c6ab 4abc 125c a33c a920 173c
000001c0: 4331 9a3c 0d71 9c3c 5e9d a93c 5154 443c
000001d0: d1e5 d13c ef66 e8bb fe6b 953b 7440 133c
000001e0: e871 263c 8f19 38bc ce4d aa3b aef6 333c
000001f0: 48e9 a13b 4694 f23a ca81 773c f1fe 5a3c
-0.001196441 0.0015503285 0.02242696 0.01348471 -0.009443196 0.011549902 -0.013703994 -0.026764845
-0.00084302714 -0.004273682 -0.016534528 0.0032297408 0.028772034 0.034600504 -0.0113759795 -0.00945208
-0.0017634366 0.014927627 0.057589628 0.0037625115 0.00858768 -0.010507694 0.003921341 0.0046494957
0.009266997 -0.01016054 0.010954723 0.01240925 0.01460899 -0.0025025893 0.009757051 0.022159208
0.009238934 0.026362652 -0.014345065 0.0048877466 -0.0044808155 0.0077605965 0.03755155 0.0030118576
-0.0081028445 0.020540684 0.004888827 0.02979206 0.014197929 0.0047278325 -0.010797571 0.0035706158
0.0049568103 0.011964939 0.0074832924 0.0046694744 0.0015333726 -0.0017712822 0.0036733076 0.0015505335
-0.0096676005 -0.0027846952 0.008763312 0.027892826 0.004743106 0.00733398 0.015313787 0.0033420909
0.024413286 0.0069575794 0.015542826 0.004427628 0.0007123185 0.009320612 -0.010779168 0.016375104
-0.005492108 0.013286987 0.01757442 0.0266017 0.00071026786 0.01637526 0.00091195985 0.0010845854
-0.0009500245 -0.0034818286 -0.0024203288 0.018556444 0.009595583 -0.013191266 -0.0014871696 -0.0032255158
0.011816889 -0.00623483 0.017658487 0.02034809 -0.0017649068 0.010820247 -0.015210929 0.013142233
0.0102645755 0.028840251 -0.022317186 0.029714458 0.0052724443 0.009110257 0.016094113 -0.016866038
0.011033224 0.008968563 0.036896467 -0.0014984473 0.0015270864 -0.012370056 0.019941363 0.009224095
0.018822318 0.019096876 0.020704921 0.011982993 0.02562228 -0.0070923488 0.004559993 0.008987535
0.010158993 -0.011236562 0.0051972633 0.010984106 0.0049411394 0.0018507324 0.015106628 0.013366447

network_body._body_endoder.seq_layers.2.weight f4 [128, 128]
00000000: 9426 01be 2d87 fa3c c3b9 04bd 5521 ec3d
00000010: 5748 9abd 8ead 3a3e c84d 5ebb fd9a 243e
00000020: c37b 203d 9e89 093e ef20 d9bc 8fd3 203d
00000030: 4ab3 52bd 283f 143e db6e 42bd 66da dd3d
00000040: 7429 89bd 0965 f13c 53bf 11be 72d7 673d
00000050: 1710 303c 0a35 b13d fb71 3e3d 6a97 813d
00000060: 0add 52bd c733 9abd 41fc 8fb9 d6fa 003d
00000070: 29d2 80be b41d 3bbc 0ac9 873b 7567 2a3d
00000080: 8430 3b3e d5b1 fa3d be1c 783e df50 b3bd
00000090: de41 223e 7f6a a13d 94f5 8b3d dce4 6a3d
000000a0: 89ad 08bd 232d c9bd a36a f6bd e6ea e03c
000000b0: bcfe 2abd cef1 3ebb ccc6 d73c 28b4 44be
000000c0: 9e22 c3bc e310 7f3b 9547 bdbd 255d 9bbd
000000d0: a3ef 34bb 1eb9 023c b8b1 1bbd b539 083e
000000e0: a221 a73d 924c 8abd 39e9 17bd fdc8 92bd
000000f0: d871 bf3d ade5 bebc 16db d13b 0d27 7c3b
00000100: dced ed3d 3450 b63d 4582 883b 0551 3b3d
00000110: 1070 0d3e 1d27 bebd d34e 80bc 2235 0e3e
00000120: 60b0 e0bd b242 3cbe 25e8 e83c 1688 17bc
00000130: d235 bfbd 7b97 cb3d 67ff 67bb 812b ca3b
00000140: 8012 56be 10e6 b33d 9863 a83c d03b 603d
00000150: 0d4c cf3d 3e64 fd3d d1c4 d8bd 1a49 44bd
00000160: 7cdd a43c 9638 05be b05c 1f3d a76d e7bd
00000170: a5ab e73c 5fda 2f3e 375e ac3c 0f4c e83d
00000180: 8c98 f53d a3b7 433e 48c2 853d 1519 69be
00000190: 2005 3f3d 25d1 13bd aa37 cb3d 846e 84bd
000001a0: e4bf 953d 349c 703d d7b5 05bd 4e64 9cbd
000001b0: 1001 f9bc ec8d 233d 4e9a 093d 9b30 c43d
000001c0: b379 a43c 2a03 413b 47e2 243d d3f9 53be
000001d0: 3ffe 343e 8a2f 48bd d8cd dc3c 6980 89bd
000001e0: 7a4d 033d a404 2fbe 8945 1bbd 04f7 e5bd
000001f0: 96ca 8bbd cea8 55bc 7060 a4bc dc8c 6f3d
00000200: 660e f73c a1b9 7a3c 220c 4cbd 3eae c4bd
00000210: 1fe6 53bd c05e e83c 2b06 233e 68c1 1a3b
00000220: c000 1fbd 9cc3 94bd f48e 743d e230 e83d
00000230: 99ce 71bc f6ca ee3d f403 943c 8ee1 1ebe
00000240: df54 423e 5772 073d 0011 04bd 248e bb3c
00000250: 299a 58be 5c45 00be b7e6 ca3c 1128 e6bd
00000260: 207a b5bc aa44 08bd 90bc 043d 5b61 213d
00000270: 0e82 0fbb 858f 4abe fd58 8abd 5bb3 f93c
00000280: 10e6 47be d948 9f3d f211 e83c c3a1 f3bd
00000290: eb0b 253e 370d 9f3c 79ee 8e3c cc7e 86be
000002a0: 030c b0bd 02bf 46bd ef7d be3d e639 62bd
000002b0: c9d9 aebd 0691 fc3c 0fed 14be 9b9c 093e
000002c0: c42a fa3c 9a46 8dbb 27b2 7fbd 52d1 f5bd
000002d0: 8d0f 7fbd 6aa6 97bc e459 b5bd 68d4 073d
000002e0: ce1f 5f3d 2d14 983d 6bed d03d 990a c33d
000002f0: 1d60 c6bd 6f6e d63d fa7d 15bb 6c04 d7bc
00000300: 61e7 2fbc 9281 d8bc 44de ecbd ef88 07bd
00000310: 0b79 aa3b fd4d 96bd fe41 c0bd 354a 9bbc
00000320: 6fd3 5dbd 164e cb3d 49b6 253d 2f7f ba3d
00000330: 6fac 883e c063 883d 9657 b53d 550f 4b3d
00000340: 9445 003d 6a8e f53c 39bf 36be 2542 a1bd
00000350: ab85 dc3d e0a6 73bd 5ccd d23c 64be 36be
00000360: 75df 483c 0533 0cbe 1996 9c3d 3f95 803d
00000370: 7f38 8bbd 0416 09bd 62b4 903c fa6d 68be
00000380: 8433 24be 1523 64bd 9ee3 00bd 9c41 cabd
00000390: c6e6 0ebe d0fb 91bd 74be 273e 4570 913a
000003a0: 9109 4fbe 9165 8c3b 1b0b 093d fbea 653d
000003b0: 9aeb e9bd e68e b33d f357 3bbd 6634 f23b
000003c0: db73 4dbe c4df 9ebb 6737 11bb c698 433e
000003d0: 8cb4 e4bc e978 36bd eb79 9cbd 9a6b c5bc
000003e0: 0068 2cbc f402 c9bd 308d 4fbd b57f 153e
000003f0: 7af3 c0bd 220e 163c cb4f f93b 1cc1 683d
-0.12612373 0.030582035 -0.03240372 0.11529795 -0.07533329 0.18230268 -0.0033920873 0.16074748
0.03918053 0.13431403 -0.026504962 0.039264258 -0.051440515 0.14477217 -0.047469 0.10832672
-0.0669736 0.029467123 -0.1423314 0.05660195 0.010746024 0.086526945 0.04649542 0.06327708
-0.05148033 -0.07529407 -0.0002746303 0.031489216 -0.2516034 -0.011420656 0.004143839 0.04160257
0.18280226 0.1224095 0.24229714 -0.08755659 0.15845439 0.07881641 0.0683395 0.057347164
-0.03336862 -0.09823062 -0.12032058 0.027455758 -0.04174684 -0.0029135826 0.02633991 -0.19209349
-0.023820218 0.0038919977 -0.09242169 -0.07586125 -0.0027608655 0.007978706 -0.038011283 0.13303263
0.08160712 -0.06752886 -0.037087653 -0.07167242 0.09347886 -0.023302877 0.006404291 0.0038475425
0.11617634 0.08902016 0.00416592 0.045731563 0.1381228 -0.09284804 -0.015662586 0.13887456
-0.10971141 -0.18384817 0.028431008 -0.009248754 -0.09336437 0.09941002 -0.0035400034 0.006169737
-0.20905495 0.08784115 0.020555303 0.05474454 0.101219274 0.12372635 -0.10584415 -0.047921278
0.020125143 -0.13009867 0.038906753 -0.113002114 0.028280089 0.17173146 0.021041019 0.11342632
0.11991987 0.1911302 0.06531197 -0.22763474 0.046635747 -0.036088128 0.099227265 -0.06466392
0.07311991 0.058742717 -0.03264412 -0.07636319 -0.030396014 0.03993027 0.033594422 0.09579583
0.020077562 0.0029451349 0.040254857 -0.20700769 0.17675112 -0.04887346 0.026953623 -0.067139454
0.03205631 -0.17091614 -0.03790811 -0.11228755 -0.068257496 -0.013040734 -0.020065516 0.058483943
0.030158233 0.015303046 -0.04981626 -0.096035466 -0.051733132 0.028365493 0.15920322 0.0023613814
-0.038819075 -0.07263872 0.059706643 0.11337449 -0.014758729 0.116598055 0.018068291 -0.1551573
0.18977688 0.033068027 -0.032242775 0.022894926 -0.21152557 -0.12526459 0.024768217 -0.11238111
-0.02215296 -0.03326861 0.03240639 0.039399486 -0.0021897587 -0.19781311 -0.067552544 0.030481031
-0.19521356 0.077775665 0.02832887 -0.11896088 0.16117828 0.019415481 0.017447697 -0.26268613
-0.08596041 -0.048522003 0.09301364 -0.055230998 -0.08537633 0.030830871 -0.14543556 0.13438646
0.03053797 -0.004311395 -0.06242576 -0.12002815 -0.06227069 -0.01851197 -0.08855036 0.03316155
0.05447369 0.07425723 0.10201534 0.09523506 -0.09686301 0.10470282 -0.0022810684 -0.026247226
-0.010736317 -0.026428971 -0.11565831 -0.033089574 0.0052024177 -0.07339094 -0.09387587 -0.018956283
-0.054156717 0.09927003 0.040457044 0.091062896 0.26694056 0.06659651 0.08854596 0.04957517
0.031316355 0.029975135 -0.17846383 -0.07873944 0.10767683 -0.059485316 0.025732689 -0.17846066
0.012260308 -0.13691337 0.07645816 0.062784664 -0.06797885 -0.03346826 0.017664138 -0.22698203
-0.16035277 -0.05569752 -0.031467073 -0.09875795 -0.1395522 -0.071281075 0.16381246 0.0011096081
-0.20218493 0.0042845686 0.033457857 0.056132298 -0.114218906 0.0876749 -0.04573817 0.0073915003
-0.20063727 -0.0048484523 -0.0022158267 0.19101247 -0.027918123 -0.044548903 -0.076404415 -0.02409916
-0.010522842 -0.098150164 -0.050671756 0.14599498 -0.094214395 0.009158643 0.007608389 0.05682479
