results/HideAndSeek6/Seek/Seek-1059769.pt (torch, 972639 bytes, 36 tensors)

network_body._body_endoder.seq_layers.0.weight f4 [128, 179]
0	0xbdf49d79	-0.11944098
1	0x3da8d8f4	0.082445055
2	0xbde2bf32	-0.11071624
3	0x3df62ced	0.12020288
4	0xbe02666e	-0.12734386
5	0xbdba6b0f	-0.09102451
6	0x3df7dfff	0.12103271
7	0x3dd3e0ac	0.10345587
8	0xbd805422	-0.06266047
9	0xbcba1a08	-0.02271749
10	0xbd3957a0	-0.04524958
11	0xbcb0a267	-0.021561814
12	0x3bb4ec33	0.005521321
13	0xbd92d227	-0.0716899
14	0xbde680c8	-0.11255032
15	0x3d285bc0	0.041103125
16	0xbe0c2a14	-0.13687927
17	0xbc626745	-0.013818567
18	0x3dba8718	0.09107798
19	0xbdd990ee	-0.10623346
20	0xbcd31362	-0.025766078
21	0xbd676064	-0.05648841
22	0xbc99617e	-0.018723246
23	0xbdfc2781	-0.12312222
24	0xbd91249f	-0.07087063
25	0xbd6429d7	-0.055703964
26	0xbe0c8e28	-0.13726103
27	0xbde1553f	-0.110025875
28	0x3c740665	0.014894103
29	0x3cdaa677	0.026690705
30	0xbcefeb1d	-0.029286915
31	0xbb88a790	-0.0041703656
32	0xbd2858d8	-0.041100353
33	0xbe0daaca	-0.13834682
34	0xbe0ea919	-0.13931693
35	0x3da18e50	0.07888472
36	0xbc9065ef	-0.01762673
37	0x3dc40a5b	0.09572288
38	0xbd30a15c	-0.043122634
39	0x3e20d179	0.15704907
40	0xbd40c1d8	-0.047059864
41	0x3caa5d29	0.020796375
42	0xbd780a04	-0.060556427
43	0x3d02066c	0.031744406
44	0xbca5fe06	-0.02026273
45	0x3c7915d3	0.015202957
46	0x3cbdca25	0.02316768
47	0xbd08730c	-0.033312842
48	0xbd5f2584	-0.054479137
49	0x3db0446f	0.08606803
50	0x3d22e8d0	0.03977281
51	0x3dc06d51	0.093958504
52	0xbd2eb0da	-0.042649128
53	0xbc786b06	-0.015162235
54	0xbc633f31	-0.0138700465
55	0xbd9c178d	-0.076216795
56	0xbccbdf95	-0.024886886
57	0xbb9ff72f	-0.0048817615
58	0xbce04de2	-0.027380887
59	0xbd8ae885	-0.06782631
60	0x3e42cdb2	0.19023779
61	0xbc7fba39	-0.015608364
62	0xbd4e7bf5	-0.050411183
63	0xbd8e47a8	-0.06947261
64	0x3e0180f2	0.12646845
65	0xbe2dfeb3	-0.16991691
66	0x3ddd43d4	0.10803953
67	0x3d65b725	0.056082863
68	0xbb507056	-0.0031805239
69	0xbe093de5	-0.13402517
70	0xbdbb9e12	-0.09161009
71	0x3cbbe762	0.02293748
72	0x3e666f2c	0.22503346
73	0x3db3ab1a	0.087728694
74	0xbc09e08f	-0.008415355
75	0xbc890b9d	-0.01672917
76	0xbe1cea62	-0.15323785
77	0xbaf53669	-0.0018708232
78	0xbd96e3c3	-0.07367661
79	0x3e0be73c	0.13662428
80	0x3d8fc118	0.070192516
81	0x3dfcc67d	0.12342546
82	0x3dba265d	0.090893485
83	0x3d6effdc	0.058349475
84	0x3c1aefd8	0.009456597
85	0x3e1b05b5	0.15138896
86	0xbd3370ea	-0.043808855
87	0xbdd7e972	-0.10542573
88	0x3e100599	0.14064635
89	0xbcc9563a	-0.024577249
90	0xbd8c4c3f	-0.0685048
91	0xbdcf31e6	-0.10116939
92	0x3db4c97d	0.08827493
93	0xbd815974	-0.0631589
94	0x3cab1b12	0.020886932
95	0xbb15db65	-0.0022866365
96	0x3d35724d	0.04429846
97	0x396da0de	0.00022662009
98	0xbd9d0d83	-0.07668593
99	0x3d0e4d85	0.034741897
100	0x3c3e044b	0.011597703
101	0xbc62bac7	-0.0138384765
102	0xbcf3e8a8	-0.029774025
103	0x3ca8e7f3	0.020618415
104	0xbd4d9dd3	-0.05019934
105	0x3de90916	0.11378686
106	0xbd37f3a6	-0.044910096
107	0x3d4c34ba	0.04985497
108	0x3e27c794	0.16384727
109	0xbe01edbd	-0.12688346
110	0xbcfa5664	-0.030558772
111	0x3cf187e0	0.029483736
112	0xbde13e0d	-0.10998163
113	0x3d8ddc7e	0.06926821
114	0x3e254602	0.16139987
115	0x3d4a2b01	0.049357418
116	0x3ca157f4	0.01969526
117	0x3cbd4759	0.02310531
118	0xbda2380e	-0.07920848
119	0x3d0746da	0.033026554
120	0xbd44af1b	-0.048018556
121	0x3d9e0976	0.07716648
122	0x3db0a698	0.08625525
123	0x3d96b2e0	0.073583364
124	0xbd8f63a9	-0.070014305
125	0x3cb6d508	0.022318378
126	0xbcd4df65	-0.025985429
127	0x3e14f08c	0.14544886
128	0xbe7292aa	-0.2368876
129	0x3ce35a8b	0.027753135
130	0xbd3a297d	-0.045449723
131	0x3d667ef3	0.056273412
132	0x3e02d976	0.12778267
133	0xbd3d5f52	-0.046233483
134	0xbd99f529	-0.07517464
135	0xbe0958aa	-0.13412729
136	0xbd17df09	-0.037077937
137	0x3d28c017	0.041198816
138	0x3cfa78cc	0.030575179
139	0x3dc8cb7b	0.09804436
140	0x3d7ffef9	0.06249902
141	0xbd0ab92c	-0.033868
142	0x3de92bf1	0.11385334
143	0x3dbba466	0.09162216
144	0xbd130f73	-0.035903405
145	0xbd788712	-0.060675688
146	0x3c2f06e2	0.010682793
147	0x3d8c028c	0.06836423
148	0x3d955e8a	0.072934225
149	0x3d5ea049	0.05435208
150	0x3d4cabe8	0.04996863
151	0x3d040073	0.03222699
152	0x3dabd51f	0.08390259
153	0xbdd1f68b	-0.102521025
154	0xbbe25e47	-0.0069082114
155	0x3da626e5	0.08112887
156	0x3caaf943	0.02087081
157	0xbd8a7042	-0.06759693
158	0x3e862a89	0.26204327
159	0xbd2d0ea5	-0.042250294
160	0x3dbd7d9a	0.09252472
161	0x3d90e7ee	0.07075487
162	0xbd93f4a7	-0.07224398
163	0x3e7846d9	0.24245776
164	0x3d9cd1fb	0.07657238
165	0xbd3205b5	-0.043462474
166	0x3e0ad084	0.13556105
167	0x3c8bf070	0.017082423
168	0xbde4f39d	-0.11179278
169	0x3df13d39	0.117792554
170	0xbd36e512	-0.044652052
171	0x3bf1e864	0.0073824394
172	0x3d4e164e	0.05031424
173	0xbd396f63	-0.045272242
174	0x3dc2a54f	0.09504186
175	0xbc37defa	-0.011222595
176	0xbe518bec	-0.20463532
177	0xbd2132b9	-0.039355014
178	0xbd4945ec	-0.04913895
179	0xbd242030	-0.04006976
180	0x3ccec058	0.025238201
181	0xbd96ae8a	-0.073575094
182	0x3de1b12b	0.1102012
183	0x3d36375b	0.044486385
184	0x3d95d92b	0.07316812
185	0x3db66fb3	0.08908024
186	0xba9dfb13	-0.0012052975
187	0xbd53fec1	-0.051756624
188	0xbdb12c90	-0.08651078
189	0x3dc12199	0.09430236
190	0xbcf49540	-0.029856324
191	0xbe39cb71	-0.18144013
192	0xbb86fe4c	-0.00411967
193	0x3d501dca	0.05080966
194	0x3db23922	0.087023035
195	0x3d5b9de5	0.053617377
196	0x3cfa4936	0.030552488
197	0xbbd3f75d	-0.006468697
198	0xbe10a2f2	-0.14124659
199	0xbda5a732	-0.080885306
200	0xbc2c7874	-0.010526765
201	0xbe202b96	-0.15641627
202	0x3d9b5a5d	0.07585595
203	0x3cc648d4	0.024204649
204	0x3c2979d5	0.010343988
205	0x3e598169	0.21240772
206	0x3d08013e	0.03320431
207	0xbde4f3c4	-0.11179307
208	0xbd495d5b	-0.049161296
209	0xbcc7cd9f	-0.02439004
210	0xbdf5e61b	-0.1200678
211	0xbd1fc14b	-0.039002698
212	0x3b0c3bd0	0.0021397956
213	0x3d920096	0.07129018
214	0xbd2e0a36	-0.042490207
215	0xbcc327f2	-0.023822758
216	0xbd64fbb2	-0.055904098
217	0xbd535cd8	-0.051602215
218	0x3d6c642e	0.057712726
219	0x3e09c7b5	0.13455088
220	0xbca0350c	-0.019556545
221	0xbd280f2c	-0.041030094
222	0xbcdca8ce	-0.026935961
223	0xbe0784b4	-0.13234216
224	0xbd4b7c46	-0.049679063
225	0x3de32222	0.11090495
226	0x3bff1481	0.0077844267
227	0xbdc9f1be	-0.09860562
228	0x3dd75bb0	0.10515535
229	0x3e0ca1ee	0.13733646
230	0x3cbf8ae6	0.023381662
231	0x3e09f76e	0.13473293
232	0xbda58935	-0.08082811
233	0x3cf1173b	0.029430022
234	0x3d16c298	0.036806673
235	0x3daf7b5f	0.08568453
236	0x3d4a2048	0.049347192
237	0xbcfce574	-0.03087113
238	0x3d33492f	0.043770965
239	0x3d11dc33	0.03561039
240	0xbd38ce3c	-0.045118555
241	0x3dfce6a3	0.12348678
242	0xbd6c2a97	-0.057657804
243	0xbe180a72	-0.14847735
244	0x3defa8ed	0.11702142
245	0x3dbf562e	0.09342609
246	0xbdd17575	-0.10227481
247	0x3d5a5138	0.053300112
248	0xbceb24f9	-0.028704153
249	0x3dab43cf	0.08362543
250	0x3d8e37c8	0.06944233
251	0xbe583fe1	-0.21118118
252	0x3c58b466	0.013226604
253	0xbb15d11b	-0.0022860232
254	0x3d69f7f7	0.057121243
255	0x3da9ca20	0.082905054

network_body._body_endoder.seq_layers.0.bias f4 [128]
0	0x3c43bc3e	0.011946736
1	0xbbab408a	-0.0052261995
2	0x3c9712af	0.018441526
3	0xbc4a1eb2	-0.01233642
4	0x3b180c5c	0.0023200726
5	0x3d055c14	0.032558516
6	0xbc146387	-0.009056932
7	0x3d0ae77c	0.033912167
8	0x3b8e447c	0.00434166
9	0xbc573747	-0.013135738
10	0xbb7946fd	-0.0038036697
11	0xbc4d6f93	-0.012538808
12	0x3ba56ff4	0.0050487462
13	0x3c2074e8	0.009793498
14	0x3d48bc54	0.04900773
15	0x3c627ef7	0.013824216
16	0xbccc6f8d	-0.024955535
17	0x3c104aa4	0.008806858
18	0x3c4d3a5e	0.012526123
19	0xbbc650f7	-0.006052132
20	0xbc5f6ce5	-0.013636802
21	0x3c6762f9	0.014122718
22	0x3c51487b	0.012773628
23	0x3cb14323	0.021638459
24	0x38aaead7	8.149974e-05
25	0x3c3b1f19	0.0114209885
26	0x3b296c96	0.0025852076
27	0xbcb5575b	-0.02213638
28	0x3cfbd08b	0.03073909
29	0x39ac2493	0.00032833646
30	0x3c9f3498	0.019434258
31	0x3c3b4a67	0.011431313
32	0xbb573eef	-0.0032843908
33	0x3c891858	0.01673524
34	0x3c941a2f	0.018078892
35	0x3b74902b	0.0037317376
36	0x3d0062b9	0.03134415
37	0x3c8a506b	0.01688405
38	0x3c546d6b	0.01296554
39	0x3bcdc181	0.006279171
40	0x3c3bbb54	0.011458237
41	0xbbd67141	-0.0065442626
42	0x3cdd9532	0.027048681
43	0x3cec354d	0.02883401
44	0xbc061256	-0.008183083
45	0xbc0552ee	-0.008137448
46	0x3c320121	0.010864527
47	0x3c33a4c6	0.010964578
48	0xbbf349cf	-0.00742457
49	0x3c1c9537	0.00955706
50	0x3d010996	0.031503282
51	0x38e611c6	0.00010970565
52	0xbc7e8e3e	-0.015536843
53	0x3bc46e78	0.005994614
54	0xbaf3c90b	-0.0018599344
55	0x3ca77540	0.020441651
56	0x3c22b0f2	0.009929882
57	0xbc5dbb6e	-0.013533456
58	0xbc4ee630	-0.012628123
59	0xbcaf37ec	-0.02138897
60	0x3c29c4d0	0.010361865
61	0xbbd83ab7	-0.006598796
62	0x3c9a9b1e	0.018872794
63	0xbbbdee77	-0.0057962495
64	0xbc865e13	-0.01640228
65	0x3aff92cc	0.0019498705
66	0x3b6e18cd	0.00363307
67	0x3cb1293c	0.021626107
68	0x3d3b9d97	0.045804586
69	0x3b502669	0.0031761175
70	0x3b2fe69d	0.0026840337
71	0xbb3b38eb	-0.0028567861
72	0x3c888067	0.01666279
73	0xbce228a1	-0.027607264
74	0x3b5bdc2d	0.0033547983
75	0x3b69eaf1	0.0035693015
76	0x3c85072a	0.016238768
77	0x3ba615ae	0.0050685024
78	0xbc9d1f5f	-0.019179998
79	0x3be6b1d6	0.0070402427
80	0xbc41c755	-0.01182731
81	0xbbd035b0	-0.0063540563
82	0xbc5b283d	-0.013376293
83	0xbbe9f5f7	-0.007139917
84	0x3cfbb178	0.030724272
85	0x385a5b44	5.2060248e-05
86	0xbb1e54da	-0.0024159462
87	0x3c48c9ff	0.012255191
88	0x3cefa723	0.029254502
89	0x3c7c0cce	0.015383912
90	0x3c8e36b5	0.01736007
91	0x3aba3ce1	0.0014208817
92	0x3c122183	0.008919123
93	0x3c895ffb	0.0167694
94	0x3c9dbadc	0.01925414
95	0xbc42028e	-0.011841429
96	0x3c0e38c0	0.008680522
97	0x3c4665c2	0.012109222
98	0x3d1165df	0.035497542
99	0x3c871baa	0.016492683
100	0xbbcf0124	-0.0063172746
101	0x3c6234d3	0.01380654
102	0x3c695971	0.014242516
103	0x3cf818b4	0.030285217
104	0xbd224087	-0.03961232
105	0xbbf20c2e	-0.007386706
106	0xbc8f6384	-0.017503507
107	0x3c611867	0.013738728
108	0xbc9cdeb2	-0.019149158
109	0x3d3304e3	0.043705832
110	0x3d06eea8	0.032942444
111	0x3cb50f97	0.02210216
112	0xbc3223d7	-0.010872803
113	0xbb34ca1b	-0.0027586285
114	0xbbc84a95	-0.0061124065
115	0x3c0157d6	0.007894477
116	0x3c59b9c6	0.013288921
117	0x3c038e40	0.0080295205
118	0x3c154311	0.009110228
119	0xbcd25b8a	-0.025678415
120	0x3bdabcee	0.006675354
121	0x3c2c736e	0.010525567
122	0x3c62fcf3	0.013854253
123	0xbc52a374	-0.012856353
124	0x3b64b261	0.0034896361
125	0xbbd1bad2	-0.0064004445
126	0x3cd84d1a	0.026403952
127	0x3c53cfa8	0.012927927

network_body._body_endoder.seq_layers.2.weight f4 [128, 128]
0	0xbe036fd6	-0.12835631
1	0x3cb593f0	0.022165269
2	0xbd30977f	-0.043113228
3	0x3de217d7	0.11039703
4	0xbd9aa9e8	-0.07551938
5	0x3e39244a	0.1808025
6	0xbb970a35	-0.004609371
7	0x3e2541dc	0.16138405
8	0x3d0eaef9	0.034834836
9	0x3e058fa9	0.13043083
10	0xbc8bf704	-0.01708556
11	0x3d2abd91	0.04168469
12	0xbd721e33	-0.05911083
13	0x3e130d4d	0.14360543
14	0xbd01c242	-0.0316794
15	0x3dd41110	0.10354817
16	0xbda537a2	-0.08067252
17	0x3d04cc62	0.032421477
18	0xbe0e3890	-0.13888764
19	0x3d7cb79f	0.061698552
20	0x3b3a63cf	0.0028440838
21	0x3da792a7	0.081822686
22	0x3d41625c	0.047212943
23	0x3d73d8ea	0.059533037
24	0xbd656c34	-0.056011394
25	0xbd9f2ece	-0.07772599
26	0xbbde01bf	-0.0067751105
27	0x3c57b527	0.013165749
28	0xbe8631a9	-0.26209763
29	0xbc6d748f	-0.014493122
30	0xbaf481db	-0.0018654423
31	0x3d460d05	0.04835226
32	0x3e3aea2b	0.1825339
33	0x3df45a25	0.11931256
34	0x3e76a12e	0.24084923
35	0xbdb82d8f	-0.089930646
36	0x3e204d8e	0.15654585
37	0x3da183b4	0.078864485
38	0x3d7f6bcb	0.06235866
39	0x3d563572	0.052297063
40	0xbd2ae818	-0.041725248
41	0xbdcac16a	-0.09900172
42	0xbdf4b8dc	-0.11949322
43	0x3cb4fbc9	0.022092717
44	0xbd406cd4	-0.046978787
45	0xbc2e4aff	-0.010637998
46	0x3c912fc5	0.017722974
47	0xbe4c7f92	-0.19970539
48	0xbcec3811	-0.028835328
49	0x3c004198	0.007828139
50	0xbdb08123	-0.08618381
51	0xbd96965f	-0.073529
52	0xbc1be6cd	-0.009515476
53	0x3b52c8d2	0.0032163155
54	0xbd29d110	-0.041459143
55	0x3dfa6fd1	0.122283585
56	0x3db1624e	0.08661328
57	0xbd940b98	-0.07228774
58	0xbd657cfe	-0.056027405
59	0xbd9db03b	-0.07699629
60	0x3db6838c	0.08911809
61	0xbcda11b4	-0.02661977
62	0x3c0b7fc0	0.008514345
63	0x3c0f3cea	0.00874255
64	0x3ddc433b	0.10755011
65	0x3db64a41	0.089008816
66	0xbc0d27af	-0.008615418
67	0x3d2bd8ad	0.041954685
68	0x3e1e72e1	0.1547351
69	0xbdc5ec04	-0.09664157
70	0xbcb2c7ab	-0.021823725
71	0x3e0ada4c	0.13559836
72	0xbdc692ee	-0.09695993
73	0xbe422e05	-0.18962868
74	0x3ce6ba87	0.028165115
75	0xbcec0f26	-0.028815817
76	0xbdca2c29	-0.09871704
77	0x3dc9b1f6	0.098483965
78	0xbccac487	-0.024751915
79	0x3bf6fc7d	0.007537423
80	0xbe6b2f39	-0.22967233
81	0x3db2690a	0.08711441
82	0x3c0e9df5	0.008704652
83	0x3d6fefa1	0.058578137
84	0x3dd512fb	0.10404011
85	0x3e044264	0.12915951
86	0xbdcd2d83	-0.10018446
87	0xbd4a74cd	-0.049427796
88	0x3c8ec9d7	0.01743023
89	0xbe097044	-0.13421732
90	0x3d03e12d	0.032197166
91	0xbdd6ace6	-0.104821965
92	0x3cd19db4	0.025587894
93	0x3e2ba863	0.16763453
94	0x3c9b3f06	0.01895095
95	0x3de504ec	0.111825794
96	0x3de0ddae	0.10979782
97	0x3e48f8fe	0.19626233
98	0x3d89270a	0.06696899
99	0xbe72b6a8	-0.2370249
100	0x3d2f9900	0.04287052
101	0xbd30105b	-0.042984348
102	0x3dc7451e	0.0972998
103	0xbd8839f2	-0.06651677
104	0x3d93c617	0.07215517
105	0x3d1a6eff	0.03770351
106	0xbd2bd27d	-0.041948784
107	0xbd82ef69	-0.0639332
108	0xbce40cc8	-0.027838126
109	0x3d20e278	0.039278477
110	0x3cedf5d6	0.029047888
111	0x3db68975	0.089129366
112	0x3c6ce9a2	0.014459999
113	0x3ad250ef	0.0016045849
114	0x3d111831	0.03542346
115	0xbe526b22	-0.2054868
116	0x3e4054f9	0.18782414
117	0xbd8436bc	-0.06455752
118	0x3c959755	0.018260637
119	0xbdb82025	-0.08990506
120	0x3c13908c	0.009006631
121	0xbe2625a4	-0.16225296
122	0xbd16a0d4	-0.03677447
123	0xbdda1457	-0.10648411
124	0xbd8c3ea1	-0.06847883
125	0xbcbc2353	-0.022966063
126	0xbcc22833	-0.02370081
127	0x3d85c63a	0.06531949
128	0x3ceffb9c	0.029294781
129	0x3c8673c1	0.016412618
130	0xbd447649	-0.047964368
131	0xbdb9043c	-0.09034011
132	0xbd54b1e8	-0.051927477
133	0x3c5ecca7	0.013598598
134	0x3e272f23	0.16326575
135	0xbc201817	-0.0097713685
136	0xbd580229	-0.052736435
137	0xbda42ed2	-0.08016743
138	0x3d567680	0.052359104
139	0x3df8f97d	0.12156961
140	0xbcb22f64	-0.021751113
141	0x3ddffd78	0.10937017
142	0x3b07b77c	0.002070873
143	0xbe179adc	-0.14805168
144	0x3e3b7c20	0.18309069
145	0x3ced74f1	0.028986426
146	0xbcfafdb9	-0.030638563
147	0x3ce0bbe9	0.027433353
148	0xbe711428	-0.23542845
149	0xbe086be4	-0.13322407
150	0xba80b95c	-0.0009820866
151	0xbdf71530	-0.12064588
152	0xbd006caf	-0.03135365
153	0xbd0e7d60	-0.034787536
154	0x3d21cdb4	0.039502814
155	0x3ca86818	0.020557448
156	0xbc50b50e	-0.012738479
157	0xbe41f713	-0.18941908
158	0xbd9fe242	-0.07806827
159	0x3d0cc70c	0.034369513
160	0xbe3deb0c	-0.18546695
161	0x3da0aaac	0.07845053
162	0x3ce61494	0.028085984
163	0xbe035821	-0.12826587
164	0x3e1bb0ac	0.15204114
165	0x3bb6eaff	0.005582213
166	0x3cc6f22f	0.024285404
167	0xbe838b57	-0.25692245
168	0xbdb3123b	-0.087437116
169	0xbd0dba31	-0.034601394
170	0x3da9deb4	0.082944304
171	0xbd751fd5	-0.05984481
172	0xbd8d0d29	-0.06887276
173	0x3caf42b8	0.021394119
174	0xbe0f0006	-0.13964853
175	0x3e02f826	0.12789974
176	0x3d33fc2a	0.043941654
177	0xbc800c34	-0.015630819
178	0xbd95aaee	-0.07307993
179	0xbdf62a8a	-0.120198324
180	0xbd4ea925	-0.050454278
181	0xbd28bff9	-0.041198704
182	0xbda2bd26	-0.079462335
183	0x3d28a640	0.041174173
184	0x3d6257a7	0.055259373
185	0x3db2cedc	0.087308615
186	0x3dc345a2	0.09534766
187	0x3dd0bc7a	0.10192199
188	0xbdd25e86	-0.10271935
189	0x3deb0d6c	0.114771694
190	0xbb43abdf	-0.0029857082
191	0xbc5b31d9	-0.013378584
192	0x3bd62652	0.00653533
193	0xbce5018f	-0.027954845
194	0xbdf68fd1	-0.120391496
195	0xbd1d59ca	-0.038415708
196	0xbbcd253f	-0.0062605436
197	0xbd9ea360	-0.07746005
198	0xbde3caea	-0.11122687
199	0xbd335c9d	-0.043789495
200	0xbd62de90	-0.055388033
201	0x3dc6e848	0.09712273
202	0x3d0053a8	0.03132978
203	0x3dc4b85b	0.096054755
204	0x3e85a239	0.2610033
205	0x3d86345b	0.06552955
206	0x3dab96f5	0.08378402
207	0x3d4908bc	0.049080595
208	0x3c64d284	0.013966206
209	0x3d05c4e8	0.032658488
210	0xbe3afb54	-0.18259937
211	0xbdb06475	-0.08612911
212	0x3dc91469	0.09818346
213	0xbd749e0f	-0.05972105
214	0x3cbea247	0.02327074
215	0xbe29e33d	-0.16590591
216	0x3c060a65	0.008181189
217	0xbe092e6c	-0.13396615
218	0x3d9648f2	0.07338132
219	0x3d8d46e0	0.06898284
220	0xbd89648f	-0.06708633
221	0xbcf8d840	-0.030376554
222	0x3c86f0b1	0.016472192
223	0xbe5c6ad6	-0.2152513
224	0xbe1b6cf4	-0.15178281
225	0xbda8ffc8	-0.082519114
226	0xbd2b8887	-0.04187825
227	0xbdd4f6e9	-0.10398657
228	0xbe121606	-0.14266214
229	0xbd97f716	-0.07420175
230	0x3e1cea8a	0.15323845
231	0xbbb06f61	-0.005384371
232	0xbe3cfdf5	-0.18456252
233	0x3c349b17	0.011023304
234	0x3d44ff7d	0.048095215
235	0x3d417193	0.047227453
236	0xbdda374d	-0.10655079
237	0x3d97ed48	0.07418305
238	0xbd3b8954	-0.045785263
239	0x3ba6529e	0.0050757667
240	0xbe4e0c05	-0.20121773
241	0x3b4bdd35	0.0031107191
242	0xba88a1d8	-0.001042421
243	0x3e3c0ac0	0.18363476
244	0xbd62563b	-0.055258017
245	0xbd87ba1a	-0.06627293
246	0xbd8b4abd	-0.068013646
247	0xbcbea3dd	-0.023271495
248	0xbc16ed25	-0.009211813
249	0xbdb86c26	-0.09005003
250	0xbd1277c5	-0.035758752
251	0x3e0ccfd7	0.1375116
252	0xbda6ec4b	-0.08150538
253	0xbc2db55f	-0.010602324
254	0xbb2f7c18	-0.0026776846
255	0x3d4d85a4	0.050176278

network_body._body_endoder.seq_layers.2.bias f4 [128]
0	0xbb49553e	-0.0030720974
1	0xbc1c5e92	-0.009544032
2	0x3caef62b	0.021357616
3	0x3c7deb3e	0.015497981
4	0x3ab9fd03	0.0014189783
5	0x3c777320	0.0151031315
6	0xbc855bd1	-0.016279133
7	0xbcf638bd	-0.030056352
8	0x3ac7d822	0.0015246908
9	0xbb950a10	-0.0045483187
10	0xbca3a299	-0.019974994
11	0xba360093	-0.00069428346
12	0x3cd328f3	0.025776362
13	0x3d006699	0.031347845
14	0xbcb09836	-0.021556955
15	0xbc37b803	-0.011213305
16	0x3b36a229	0.002786765
17	0x3c91f2a5	0.017815897
18	0x3d7fcb43	0.062449705
19	0x3bf12259	0.007358831
20	0x3b9ccbea	0.0047850506
21	0xbc847aec	-0.016171895
22	0x3ba33b04	0.0049814004
23	0x3c807819	0.015682267
24	0x3b56c3cc	0.0032770513
25	0xbbe5ef28	-0.007017035
26	0x3c117ee3	0.00888035
27	0x3c87eaf7	0.016591532
28	0x3cd08396	0.02545337
29	0x3b88649c	0.004162384
30	0x3c2c42c7	0.010513968
31	0x3cba46ac	0.022738777
32	0x3bcb0ffc	0.006196974
33	0x3ce91a40	0.0284549
34	0xbc0951ef	-0.008381351
35	0x3b78719f	0.003790952
36	0x39f8012e	0.00047303125
37	0x3c583ba4	0.013197813
38	0x3d238ab2	0.039927192
39	0xb97105ed	-0.00022985759
40	0xbc0b7992	-0.008512871
41	0x3ca5aa81	0.020222904
42	0x3c7d512b	0.0154612465
43	0x3d02ba80	0.03191614
44	0x3c929155	0.017891565
45	0xbb866ce1	-0.004102335
46	0xbc92af79	-0.017905938
47	0x3a096215	0.00052407506
48	0x3c2906c1	0.010316552
49	0x3c3975cb	0.011319588
50	0x3b0c0a85	0.0021368575
51	0x3c6b1d28	0.014350213
52	0x3c046d41	0.008082689
53	0xbb34bdbd	-0.0027578913
54	0x3ae76ddb	0.0017656641
55	0x3b5d8e70	0.0033806823
56	0xbb54c492	-0.0032465798
57	0xbc1801ef	-0.009277805
58	0x3bf569a6	0.007489401
59	0x3c88f244	0.016717084
60	0x3c32bc0d	0.010909093
61	0x3c284b99	0.01027193
62	0x3cb23471	0.021753522
63	0x3bbcadfd	0.0057580457
64	0x3cf60de3	0.030035919
65	0x3b8e95d4	0.004351357
66	0x3c92fc15	0.017942468
67	0x3b6c2db1	0.0036037976
68	0x3bfa3a9a	0.0076363804
69	0x3c950189	0.018189209
70	0xbc00ad76	-0.007853856
71	0x3c7a22ad	0.015267056
72	0xbc25dea9	-0.010123887
73	0x39885b25	0.0002600785
74	0x3cbfa14f	0.023392348
75	0x3cab5e84	0.020919092
76	0x3c0bee17	0.008540652
77	0x3c436f47	0.011928386
78	0xbba573d1	-0.005049207
79	0xbbbb5f94	-0.005718181
80	0xbbb209f7	-0.005433317
81	0xbbe15ad2	-0.0068772817
82	0x3aaa4723	0.0012991171
83	0x3ca5cd99	0.020239638
84	0x3c3cb89b	0.011518623
85	0xbc80e1d7	-0.015732689
86	0xbbe3b566	-0.0069491146
87	0x374bfde1	1.2158854e-05
88	0x3b836fd3	0.004011133
89	0xbc7b9fe7	-0.015357948
90	0x3c86db24	0.016461916
91	0x3c93b6eb	0.018031558
92	0xbb268439	-0.00254084
93	0x3c420051	0.011840896
94	0x3bb64d5a	0.0055634202
95	0x3ca4655d	0.020067865
96	0x3c1d613e	0.009605704
97	0x3ce794a9	0.028269129
98	0xbca19f39	-0.019729244
99	0x3d11f6e5	0.035635848
100	0xba98f576	-0.0011669833
101	0x3b68c817	0.0035519653
102	0x3cbdea00	0.023182869
103	0xbc2e3bd8	-0.010634385
104	0x3c839ff5	0.016067484
105	0x3b57f7ed	0.0032954172
106	0x3d05545e	0.032551162
107	0x399c2448	0.0002978167
108	0x3bb5c2e3	0.005546914
109	0x3b8d6aaf	0.004315696
110	0x3c6530c4	0.013988677
111	0x3b249fd6	0.0025119684
112	0x3ce60ab5	0.028081277
113	0x3cece9ce	0.02892008
114	0x3cbed755	0.023296038
115	0x3c719a61	0.014746279
116	0x3cc7163e	0.024302598
117	0xbbb59239	-0.0055411127
118	0x3bc26dfb	0.005933521
119	0x3c0bec2c	0.0085401945
120	0x3beee2d0	0.0072902218
121	0xbc9fabec	-0.019491158
122	0xba7d4470	-0.0009661382
123	0x3c485dc8	0.01222939
124	0x3c249ece	0.010047628
125	0xba296a42	-0.0006462672
126	0x3c7d8eed	0.015475971
127	0x3ca1b772	0.019740794

action_model._continuous_distribution.log_sigma f4 [1, 3]
0	0xbe8c0ea6	-0.27354926
1	0xbe7a7674	-0.24459249
2	0xbee4da14	-0.4469763

action_model._continuous_distribution.mu.weight f4 [3, 128]
0	0xbc6a54a8	-0.01430241
1	0x3d32b6a6	0.04363122
2	0x3d87159c	0.065959185
3	0x3d8c5fe9	0.06854231
4	0x3b9e89ca	0.004838203
5	0xbd715121	-0.05891526
6	0xbcb979e5	-0.022641132
7	0xbcdeec1c	-0.027212195
8	0xbd56ceeb	-0.052443426
9	0xbd744010	-0.059631407
10	0xba233525	-0.00062258757
11	0x3bbd2577	0.0057722884
12	0x3d996a91	0.07491029
13	0x3db2cd69	0.08730585
14	0xbb8c3b66	-0.004279542
15	0x3c91e455	0.017809073
16	0x3c1fc9b9	0.009752684
17	0x3a6fcfee	0.00091481104
18	0x3c724aef	0.014788373
19	0x3d50e97a	0.05100391
20	0x3ced6c4f	0.02898231
21	0x3d28734b	0.041125577
22	0x3d3ba1a4	0.04580845
23	0xbd9068c0	-0.070512295
24	0x3cbbe2f4	0.022935368
25	0xbae42193	-0.0017405025
26	0xb8cee73b	-9.8659155e-05
27	0xbcc4265e	-0.023944076
28	0xbca9e545	-0.020739207
29	0x3d02c585	0.03192665
30	0x3d3de04a	0.046356477
31	0x3d398883	0.045296203
32	0x3bfaef87	0.0076579484
33	0x3d1bebcf	0.03806668
34	0xbc1c9500	-0.009557009
35	0x3d805124	0.06265476
36	0xbd16bfdb	-0.03680406
37	0xbd6a7c24	-0.057247296
38	0x3db560cd	0.08856354
39	0xbcbd8ece	-0.023139384
40	0xbd23dd42	-0.04000593
41	0xbd3b48b6	-0.04572364
42	0x3ccc78ed	0.024960006
43	0x3cf4ee9c	0.029898934
44	0xbcf3d3b5	-0.029764036
45	0xbc7bb9bb	-0.015364106
46	0xbc8fb93a	-0.017544378
47	0x3d265c14	0.040615156
48	0xbc9e1f20	-0.019301951
49	0x3d23048b	0.039799254
50	0xbd82437d	-0.063605286
51	0x3c9014d1	0.017588051
52	0xbd0f596b	-0.034997385
53	0xbd0b1b9e	-0.033961885
54	0x3d72c5f3	0.05927081
55	0xbd30a746	-0.043128274
56	0x3c675635	0.014119674
57	0x3bbbda98	0.0057328455
58	0x3cab85ab	0.020937761
59	0x3ca920d2	0.020645533
60	0xbd66a79d	-0.056312192
61	0xbc5d0a7f	-0.013491272
62	0xbd1e0bc0	-0.038585424
63	0xbdae8f73	-0.085234545
64	0x3c470eba	0.012149507
65	0x3c1a4bf8	0.009417526
66	0xbd24d4ee	-0.040242128
67	0xbd04e6ef	-0.032446798
68	0x3d9a13d7	0.075233154
69	0x3c7c06e0	0.0153824985
70	0xbd4710bf	-0.048599955
71	0x3cbb5b3a	0.022870649
72	0x3aad2b0e	0.0013211684
73	0xbd85590e	-0.065111265
74	0x3c2a38f1	0.010389552
75	0x3cb38f23	0.021918839
76	0x3d774726	0.060370587
77	0x3c8a80c0	0.016907096
78	0xbc5dc128	-0.013534822
79	0x3ce66589	0.028124588
80	0x3c3bf611	0.011472241
81	0x3c9b1760	0.018932045
82	0xbc19a775	-0.009378304
83	0xbe01c62f	-0.12673257
84	0xbd10cf77	-0.035354104
85	0xbcc62e69	-0.024192052
86	0x3bf550f4	0.007486457
87	0xbd4b1d21	-0.049588326
88	0x3cd035c0	0.025416255
89	0xbc7275fe	-0.014798639
90	0x3c3aec27	0.011408842
91	0xbc8fff03	-0.017577654
92	0xbc37d9b1	-0.011221335
93	0x3d2cb2da	0.042162754
94	0x3d4d4fee	0.050125055
95	0xbd8b8143	-0.06811764
96	0x3c9484e0	0.018129766
97	0xbdb56eeb	-0.088590465
98	0x3d100cfe	0.03516864
99	0x3d4b382a	0.04961411
100	0x3cd39552	0.025828037
101	0xbc1930b3	-0.00934999
102	0xbcced2c0	-0.025246978
103	0x3c83a897	0.0160716
104	0x3d4be0bc	0.04977487
105	0xb98c30cb	-0.00026739234
106	0x3d558c35	0.052135665
107	0x3d2abe87	0.041685607
108	0x3b6513a3	0.0034954331
109	0x3cf2b45a	0.029627014
110	0x3d455229	0.048174057
111	0x3d03da6c	0.032190725
112	0xbbe97ce2	-0.007125483
113	0xbbf38497	-0.0074315774
114	0x3d1a9661	0.03774107
115	0x3d1d8d73	0.038464975
116	0x3d64947f	0.05580568
117	0x3cae5ba0	0.021283925
118	0x3c446fe3	0.0119895665
119	0x3b7ae1c9	0.003828155
120	0xbd6b35bc	-0.057424292
121	0x3caa87e1	0.020816745
122	0x3c9fef87	0.019523395
123	0x3ce35c83	0.027754074
124	0xbda7356a	-0.08164485
125	0xbd81fe98	-0.06347388
126	0xbd5291df	-0.051408645
127	0xbd351d03	-0.04421712
128	0xbd05f8da	-0.032708026
129	0x3ad280d6	0.0016060125
130	0x3d20ca4f	0.039255437
131	0xbd8aebf3	-0.06783285
132	0x3d828c46	0.06374411
133	0x3c8e5fa4	0.01737959
134	0x3badf023	0.0053081675
135	0x3cc852e3	0.024453586
136	0x3c2ac636	0.010423234
137	0x3d1b18e7	0.037865546
138	0x3d102725	0.03519358
139	0xbd51770d	-0.051138926
140	0x3c87a254	0.016556896
141	0xbd780a8f	-0.060556944
142	0xbce70490	-0.028200418
143	0x3d21a243	0.039461385
144	0x3da2f6a3	0.079571985
145	0xbc84d6f5	-0.01621578
146	0xbd63a067	-0.055572893
147	0x3cb4f129	0.02208765
148	0xbd2739e7	-0.040826704
149	0x3ccdf44f	0.02514091
150	0xbd0bf4aa	-0.034168877
151	0xbb78ddf7	-0.0037974098
152	0xbd0b904f	-0.03407317
153	0x3d6410cf	0.055680092
154	0x3d644bbb	0.055736285
155	0xbdd6c5e1	-0.10486961
156	0x3d065b1e	0.03280174
157	0x3d0b969f	0.03407919
158	0xbcef449e	-0.029207524
159	0xbd8a0322	-0.06738879
160	0xbd08a7ee	-0.033363275
161	0x3c59f8c2	0.013303937
162	0xbb429336	-0.0029689795
163	0x3c50eea5	0.01275221
164	0x3d827e9f	0.06371807
165	0x3d8e8e81	0.06960774
166	0xbd8dbc90	-0.06920731
167	0x3d02efa9	0.03196684
168	0xbbe866dc	-0.00709234
169	0xbd043cc9	-0.03228453
170	0x3d74662f	0.059667762
171	0x3d865a4c	0.065601915
172	0xbd6cd6f8	-0.057822198
173	0xbd62132e	-0.055194072
174	0x3c863562	0.016382877
175	0x3d242945	0.04007842
176	0xbd408bd3	-0.047008347
177	0x3d9a5795	0.07536236
178	0xbc20d2ec	-0.009815913
179	0x3cd0d96e	0.025494304
180	0x3b296ffa	0.0025854097
181	0x3d4eed46	0.05051925
182	0xbbf03a86	-0.0073311953
183	0xbcc8cf96	-0.024513047
184	0x3c0a58da	0.008444035
185	0xbd5c7a80	-0.053827763
186	0x3d3cb3c7	0.046069887
187	0xba03c08f	-0.0005025947
188	0x3c0c981f	0.00858119
189	0x3d6a5c21	0.057216767
190	0xbc62a205	-0.013832574
191	0xbc404741	-0.011735738
192	0xbd999e72	-0.07500924
193	0x3c8693f0	0.016427964
194	0xbdfde715	-0.12397591
195	0x3ccc774f	0.024959235
196	0x3ce6a16c	0.028153144
197	0x3c93600f	0.01799014
198	0x3cf48e2d	0.029852951
199	0x3ca630be	0.020286914
200	0xbd3585bf	-0.044317003
201	0xba8f731c	-0.001094434
202	0xba89c858	-0.0010511978
203	0xbd43c4ad	-0.047794987
204	0x3dcd7687	0.10032373
205	0x3d07da6b	0.033167284
206	0x3d76bc27	0.06023803
207	0xbd4cb8c0	-0.04998088
208	0x3d09291e	0.033486478
209	0xb6553157	-3.1768193e-06
210	0x3ccba801	0.024860384
211	0xbcc63fda	-0.024200369
212	0x3da4e36b	0.08051189
213	0xbc225150	-0.009907082
214	0xbd0e850c	-0.034794852
215	0xbd4fbcac	-0.05071704
216	0xbc3b7bcd	-0.011443091
217	0xbcb0bb13	-0.021573579
218	0x3dd6cd7b	0.10488411
219	0xbd47ec7a	-0.048809506
220	0xbd0b991f	-0.034081575
221	0xbc8a2d31	-0.016867252
222	0x3d07c398	0.033145517
223	0x3db2e538	0.08735126
224	0xbc9d864b	-0.019229075
225	0xbd4e06fc	-0.05029963
226	0x3cea36b0	0.02859053
227	0x3b02111e	0.0019846628
228	0xbce04a25	-0.027379105
229	0x3c8f641d	0.017503792
230	0x3d03358c	0.03203349
231	0x3cde1441	0.027109267
232	0xbced35a9	-0.028956251
233	0x3cc2c92f	0.023777572
234	0xbd158d12	-0.03651149
235	0x3d0a05d5	0.033696968
236	0xbce83a97	-0.02834825
237	0x3cedd5ff	0.029032705
238	0x3ba447a1	0.0050134216
239	0x3d433b65	0.047664065
240	0x3c7ceb48	0.015436955
241	0x3cf02841	0.02931607
242	0xbc2bf2bd	-0.010494885
243	0x3d70c531	0.058781806
244	0x3d0056f7	0.031332936
245	0x3d1868d9	0.037209366
246	0x3d2ea20a	0.042635
247	0x3d556501	0.052098278
248	0xbd34ed96	-0.044171892
249	0xbca1f667	-0.019770814
250	0xba093b02	-0.0005234928
251	0xbcf8d6cf	-0.030375866
252	0x3d187afc	0.037226662
253	0x3c9ebc64	0.019376941
254	0xbd92fea1	-0.07177473
255	0x39317879	0.00016924915

action_model._continuous_distribution.mu.bias f4 [3]
0	0x3c0ffcad	0.00878827
1	0x3b494fdc	0.0030717766
2	0x3b9b9d97	0.004749011

exp_avg f4 [128, 179]
0	0x382e6547	4.1579155e-05
1	0x00000000	0.0
2	0x38a137e1	7.6874865e-05
3	0x394e282a	0.00019660653
4	0x37c89d56	2.3915123e-05
5	0x00000000	0.0
6	0x384aaa09	4.831891e-05
7	0x394a1aa1	0.00019274141
8	0xb8217edd	-3.8503542e-05
9	0x00000000	0.0
10	0x38bc246a	8.971321e-05
11	0x396488f0	0.00021794788
12	0xb80ab98b	-3.3074564e-05
13	0x00000000	0.0
14	0x393e1595	0.00018127852
15	0x39828c24	0.00024899945
16	0x37229f88	9.693096e-06
17	0x00000000	0.0
18	0x3929b45a	0.00016184282
19	0x3961724f	0.00021500255
20	0xb72fe402	-1.04839e-05
21	0x00000000	0.0
22	0x35429696	7.2489763e-07
23	0x3946101d	0.00018888754
24	0xb831906b	-4.233459e-05
25	0x00000000	0.0
26	0x3925a5ef	0.00015797441
27	0x396522f3	0.00021852161
28	0xb6a2b4d3	-4.849027e-06
29	0x00000000	0.0
30	0x39208109	0.00015306858
31	0x393015e0	0.00016792817
32	0xb7233b0f	-9.729308e-06
33	0x00000000	0.0
34	0x39128597	0.00013973411
35	0x39506e71	0.00019877568
36	0xb7c639ff	-2.3630446e-05
37	0x00000000	0.0
38	0x389ef564	7.579735e-05
39	0x393960c6	0.00017679026
40	0xb67bd2f2	-3.75247e-06
41	0x00000000	0.0
42	0x38790f1d	5.93803e-05
43	0x394fb338	0.00019807823
44	0x38180748	3.6246405e-05
45	0x00000000	0.0
46	0x3910a885	0.00013795689
47	0x39903019	0.00027501656
48	0x3711d990	8.693329e-06
49	0x00000000	0.0
50	0x38b99ddb	8.85089e-05
51	0x395e6ebe	0.00021212825
52	0xb7c659bb	-2.3645223e-05
53	0x00000000	0.0
54	0x38f33e8a	0.00011598792
55	0x398298d5	0.000249094
56	0xb82ed219	-4.16805e-05
57	0x00000000	0.0
58	0x3904e874	0.00012675097
59	0x39519c66	0.00019990056
60	0xb7c39cf6	-2.3318902e-05
61	0x00000000	0.0
62	0x38d18dfb	9.9923425e-05
63	0x3975e642	0.00023450798
64	0xb7b7d028	-2.191223e-05
65	0x00000000	0.0
66	0x39102df3	0.00013750028
67	0x3967955a	0.00022085515
68	0xb8a082c1	-7.653749e-05
69	0x00000000	0.0
70	0x38b2844d	8.512344e-05
71	0x3963dbc5	0.00021730278
72	0x36c54d8a	5.8800842e-06
73	0x00000000	0.0
74	0xb85705df	-5.1265462e-05
75	0x396370c8	0.00021690421
76	0xb7912e7d	-1.7306995e-05
77	0x00000000	0.0
78	0x3892939e	6.989318e-05
79	0x3953ee9f	0.00020211421
80	0x359532eb	1.1116184e-06
81	0x00000000	0.0
82	0x37d38272	2.5213903e-05
83	0x397d7897	0.00024172883
84	0xb7bb6d67	-2.2343082e-05
85	0x00000000	0.0
86	0xb6dd0e8c	-6.5880067e-06
87	0x391d8064	0.00015020516
88	0xb855254a	-5.0817885e-05
89	0x00000000	0.0
90	0x38db7666	0.00010464787
91	0x396b5539	0.00022443094
92	0xb7d311ca	-2.5161444e-05
93	0x00000000	0.0
94	0x391eebcc	0.00015155895
95	0x398e58b0	0.00027150428
96	0xb8760087	-5.865146e-05
97	0x00000000	0.0
98	0x385254d8	5.014692e-05
99	0x3972f50d	0.00023170207
100	0x371b714c	9.265099e-06
101	0x00000000	0.0
102	0x3901db2d	0.00012384048
103	0x39878e62	0.0002585529
104	0xb897ff77	-7.247825e-05
105	0x00000000	0.0
106	0x37072808	8.055948e-06
107	0x39441922	0.0001870138
108	0x379c66c1	1.8644498e-05
109	0x00000000	0.0
110	0x380fc7bb	3.427987e-05
111	0x398633d0	0.00025597075
112	0xb6d96e96	-6.479978e-06
113	0x00000000	0.0
114	0x3813c30f	3.5229194e-05
115	0x395c8b09	0.0002103263
116	0xb7e77371	-2.7591102e-05
117	0x00000000	0.0
118	0x38cdde1d	9.8165336e-05
119	0x397e4a69	0.00024251048
120	0xb830b658	-4.213149e-05
121	0x00000000	0.0
122	0x388754cf	6.4530985e-05
123	0x393672c8	0.00017399632
124	0x37919e18	1.7358965e-05
125	0x00000000	0.0
126	0x38be2af0	9.067904e-05
127	0x398a4e39	0.00026379692
128	0xb7fb224d	-2.9937504e-05
129	0x00000000	0.0
130	0x3834d424	4.3112916e-05
131	0x39424827	0.0001852816
132	0x3695dac9	4.466016e-06
133	0x00000000	0.0
134	0x389e194e	7.5387405e-05
135	0x39528a56	0.00020078695
136	0x35ba0635	1.3859886e-06
137	0x00000000	0.0
138	0x38cfe6ee	9.913543e-05
139	0x394ca652	0.00019516915
140	0x36b072e0	5.258582e-06
141	0x00000000	0.0
142	0x390d752a	0.00013490455
143	0x39b8e13a	0.00035263022
144	0x378d582d	1.684957e-05
145	0x00000000	0.0
146	0xb8b8097d	-8.775571e-05
147	0x38e58c1d	0.00010945669
148	0xb74c51ce	-1.2178394e-05
149	0x00000000	0.0
150	0x3508807b	5.085091e-07
151	0x39215b2e	0.00015388124
152	0x372a1932	1.0138656e-05
153	0x00000000	0.0
154	0x37c6a330	2.367943e-05
155	0x395af746	0.00020882217
156	0xb6b4a5ff	-5.3837425e-06
157	0x00000000	0.0
158	0xb8324e75	-4.2511576e-05
159	0x38f2918f	0.000115665716
160	0x36217aeb	2.4062417e-06
161	0x00000000	0.0
162	0x36941bb7	4.41397e-06
163	0x39038159	0.0001254132
164	0x369935af	4.566005e-06
165	0x00000000	0.0
166	0x38346aa6	4.301467e-05
167	0x39570d13	0.00020508868
168	0xbad3c883	-0.001615778
169	0x3949fde8	0.00019263441
170	0xba0877af	-0.00052058225
171	0x00000000	0.0
172	0xb95af35e	-0.00020880761
173	0x00000000	0.0
174	0xb894ffd5	-7.1048424e-05
175	0xbb152aa4	-0.0022761011
176	0x394997ff	0.00019225477
177	0xbb09a9c6	-0.0021005734
178	0xb8800997	-6.105302e-05
179	0xb7d759fc	-2.56719e-05
180	0x00000000	0.0
181	0xb92ef65c	-0.00016685709
182	0xb9840467	-0.00025180282
183	0xb8187d63	-3.63564e-05
184	0x00000000	0.0
185	0xb8d38306	-0.00010085669
186	0xb96cb6ff	-0.00022574885
187	0x35ef1911	1.7814183e-06
188	0x00000000	0.0
189	0xb90873ad	-0.00013013063
190	0xb9921979	-0.0002786627
191	0xb81ade1f	-3.6923328e-05
192	0x00000000	0.0
193	0xb8d9b3c8	-0.00010380853
194	0xb9670499	-0.0002203159
195	0x3764d78b	1.3640044e-05
196	0x00000000	0.0
197	0xb92c5dc8	-0.00016438134
198	0xb97c9b3d	-0.00024090424
199	0xb8569839	-5.1163344e-05
200	0x00000000	0.0
201	0x38313f76	4.225919e-05
202	0xb911b207	-0.00013894598
203	0x37de8c3f	2.652977e-05
204	0x00000000	0.0
205	0xb97b651e	-0.00023974894
206	0xb983081a	-0.00024992303
207	0xb8375bac	-4.3715976e-05
208	0x00000000	0.0
209	0xb89fddda	-7.623034e-05
210	0xb90ec0e7	-0.00013614037
211	0x35bc925e	1.404969e-06
212	0x00000000	0.0
213	0xb958086f	-0.00020602507
214	0xb9322782	-0.0001699012
215	0xb7d852c4	-2.5787747e-05
216	0x00000000	0.0
217	0xb8acb5c0	-8.235453e-05
218	0xb90b07d5	-0.0001325899
219	0x35a35b0e	1.2170947e-06
220	0x00000000	0.0
221	0x375d54a3	1.31923325e-05
222	0xb87d127c	-6.0337115e-05
223	0x37d7ba7b	2.5716834e-05
224	0x00000000	0.0
225	0xb9170cb8	-0.0001440522
226	0xb9918d6b	-0.0002776192
227	0x35d7dd60	1.6083177e-06
228	0x00000000	0.0
229	0xb906d108	-0.00012857106
230	0xb95caf71	-0.00021046192
231	0xb7be15e4	-2.2659959e-05
232	0x00000000	0.0
233	0xb911c988	-0.00013903354
234	0xb98e4ae3	-0.00027140146
235	0xb7650d97	-1.3652628e-05
236	0x00000000	0.0
237	0xb884b763	-6.328409e-05
238	0xb91af36f	-0.0001477727
239	0xb7443c54	-1.1696557e-05
240	0x00000000	0.0
241	0xb9655c8e	-0.00021873621
242	0xb993e4b0	-0.0002820841
243	0xb787c152	-1.6183276e-05
244	0x00000000	0.0
245	0xb94611b0	-0.0001888934
246	0xb93d52fe	-0.00018055362
247	0x37c08ec3	2.2954662e-05
248	0x00000000	0.0
249	0xb933e663	-0.00017156596
250	0xb9716482	-0.00023020993
251	0xb7976b3d	-1.805054e-05
252	0x00000000	0.0
253	0xb7bb6712	-2.2340133e-05
254	0xb97de30e	-0.00024212545
255	0xb5c170e0	-1.4412472e-06

exp_avg_sq f4 [128, 179]
0	0x3296410d	1.749188e-08
1	0x00000000	0.0
2	0x344bf653	1.899546e-07
3	0x34d5b908	3.980897e-07
4	0x326b4f4b	1.36968294e-08
5	0x00000000	0.0
6	0x347a56fe	2.3314712e-07
7	0x34eab355	4.3716378e-07
8	0x328e9b36	1.6601557e-08
9	0x00000000	0.0
10	0x342ca7a9	1.6079743e-07
11	0x34cf382d	3.8597628e-07
12	0x323b4cf7	1.0902332e-08
13	0x00000000	0.0
14	0x348b9735	2.6000785e-07
15	0x34fd78e7	4.721289e-07
16	0x3251784a	1.2192752e-08
17	0x00000000	0.0
18	0x342a0420	1.5833984e-07
19	0x34d18840	3.9028419e-07
20	0x3208f7fc	7.972627e-09
21	0x00000000	0.0
22	0x34a2cf81	3.032583e-07
23	0x3509d894	5.135164e-07
24	0x323e3a89	1.1072765e-08
25	0x00000000	0.0
26	0x3419a2b0	1.4308421e-07
27	0x34d59e63	3.9789583e-07
28	0x31e54ae3	6.673291e-09
29	0x00000000	0.0
30	0x34aae2aa	3.1829887e-07
31	0x351082c7	5.3834486e-07
32	0x320a262d	8.041337e-09
33	0x00000000	0.0
34	0x34262b67	1.5475744e-07
35	0x34d806f1	4.0238186e-07
36	0x319f4d20	4.636277e-09
37	0x00000000	0.0
38	0x34b7696d	3.4163114e-07
39	0x3517f46c	5.6607564e-07
40	0x31b10669	5.1521067e-09
41	0x00000000	0.0
42	0x340aee31	1.2938905e-07
43	0x34dad636	4.0761523e-07
44	0x32923318	1.7019872e-08
45	0x00000000	0.0
46	0x344f8e35	1.9330112e-07
47	0x34d8bf03	4.0372115e-07
48	0x327b3d7a	1.4624101e-08
49	0x00000000	0.0
50	0x347d38e3	2.3583156e-07
51	0x34ea0ea5	4.3596552e-07
52	0x329ea620	1.8469166e-08
53	0x00000000	0.0
54	0x342398a7	1.5236093e-07
55	0x34cb9194	3.7917619e-07
56	0x32403e4f	1.1190038e-08
57	0x00000000	0.0
58	0x34871086	2.5157732e-07
59	0x34fa41b7	4.6613943e-07
60	0x32903d52	1.6791692e-08
61	0x00000000	0.0
62	0x34206105	1.4936457e-07
63	0x34ca7ff4	3.771853e-07
64	0x32190714	8.9073815e-09
65	0x00000000	0.0
66	0x34a4b7a6	3.0681002e-07
67	0x350c0204	5.2157e-07
68	0x324ac586	1.1802859e-08
69	0x00000000	0.0
70	0x34134453	1.3715298e-07
71	0x34d41a83	3.9507367e-07
72	0x31f060b9	6.9959154e-09
73	0x00000000	0.0
74	0x34ad743a	3.2308327e-07
75	0x3513811a	5.4949635e-07
76	0x3208301a	7.927179e-09
77	0x00000000	0.0
78	0x3423adc8	1.5243779e-07
79	0x34dbeb8c	4.0963312e-07
80	0x31a6f61d	4.8592157e-09
81	0x00000000	0.0
82	0x34b64daf	3.3956664e-07
83	0x35193b1c	5.7082957e-07
84	0x31cc56bd	5.9470424e-09
85	0x00000000	0.0
86	0x340e3467	1.3243844e-07
87	0x34dbc2a7	4.0933557e-07
88	0x32adda0f	2.0239012e-08
89	0x00000000	0.0
90	0x343537c8	1.6877232e-07
91	0x34ce17b2	3.838773e-07
92	0x32a4d1ad	1.9187462e-08
93	0x00000000	0.0
94	0x346dd401	2.2149472e-07
95	0x34e58802	4.2753533e-07
96	0x32a6cc3e	1.9417822e-08
97	0x00000000	0.0
98	0x341aa577	1.4402563e-07
99	0x34c4d7e7	3.6664935e-07
100	0x326d567c	1.381488e-08
101	0x00000000	0.0
102	0x3489ef77	2.5692472e-07
103	0x34fac859	4.67119e-07
104	0x327d21ea	1.4734249e-08
105	0x00000000	0.0
106	0x34185b11	1.4189233e-07
107	0x34c7ec58	3.72386e-07
108	0x323044e9	1.0260217e-08
109	0x00000000	0.0
110	0x349ffcb7	2.9799932e-07
111	0x3509d9c2	5.1353356e-07
112	0x323e6ae1	1.1083757e-08
113	0x00000000	0.0
114	0x34182947	1.417112e-07
115	0x34d16b9c	3.900758e-07
116	0x31fc3d7c	7.3411552e-09
117	0x00000000	0.0
118	0x34aeeac9	3.2580854e-07
119	0x3513931f	5.4975857e-07
120	0x321cb424	9.121354e-09
121	0x00000000	0.0
122	0x3424d13d	1.534981e-07
123	0x34da6257	4.0677216e-07
124	0x31ca5817	5.8889884e-09
125	0x00000000	0.0
126	0x34b7a5a1	3.4206917e-07
127	0x351ac9b9	5.7663016e-07
128	0x31d03664	6.0597802e-09
129	0x00000000	0.0
130	0x340e8924	1.3274672e-07
131	0x34db075b	4.079728e-07
132	0x306a5178	8.524448e-10
133	0x00000000	0.0
134	0x346dd93a	2.2151372e-07
135	0x34fb116d	4.6765072e-07
136	0x30862a46	9.761798e-10
137	0x00000000	0.0
138	0x33f43dde	1.1373389e-07
139	0x34d89fe9	4.0349485e-07
140	0x30d3cacf	1.5409912e-09
141	0x00000000	0.0
142	0x3495d734	2.7909994e-07
143	0x351b8938	5.794168e-07
144	0x3072187f	8.80739e-10
145	0x00000000	0.0
146	0x347103cc	2.2446255e-07
147	0x34f7f299	4.6183848e-07
148	0x30a2c3a2	1.1842654e-09
149	0x00000000	0.0
150	0x33e0f94d	1.04761604e-07
151	0x34d2809f	3.9209132e-07
152	0x30fbbdb9	1.8316576e-09
153	0x00000000	0.0
154	0x3497f50f	2.8304245e-07
155	0x351ba783	5.798576e-07
156	0x3059ad56	7.9190465e-10
157	0x00000000	0.0
158	0x3468abcd	2.1669184e-07
159	0x34fc0895	4.6944902e-07
160	0x309b2094	1.1286994e-09
161	0x00000000	0.0
162	0x33e280c8	1.054737e-07
163	0x34d29156	3.9221294e-07
164	0x30d85080	1.5738948e-09
165	0x00000000	0.0
166	0x349bb124	2.8999887e-07
167	0x351c093e	5.812798e-07
168	0x37abaae5	2.0464367e-05
169	0x34c31187	3.6334333e-07
170	0x388a8018	6.604212e-05
171	0x00000000	0.0
172	0x34b498ec	3.3638878e-07
173	0x00000000	0.0
174	0x3445d6bf	1.8425179e-07
175	0x38a0e786	7.672519e-05
176	0x34c40017	3.650791e-07
177	0x3906068f	0.00012781679
178	0x34117596	1.3546955e-07
179	0x32d3ca11	2.4655522e-08
180	0x00000000	0.0
181	0x34af4f4d	3.265399e-07
182	0x352e4720	6.492355e-07
183	0x32c08dca	2.241622e-08
184	0x00000000	0.0
185	0x34b52d3d	3.3746792e-07
186	0x3531466e	6.6040127e-07
187	0x32c7abce	2.3244777e-08
188	0x00000000	0.0
189	0x34a260dd	3.024533e-07
190	0x352be91e	6.4041694e-07
191	0x327cddcf	1.4718764e-08
192	0x00000000	0.0
193	0x34a508f3	3.0740156e-07
194	0x3533bb98	6.695568e-07
195	0x32b61be6	2.1200275e-08
196	0x00000000	0.0
197	0x349d83c0	2.933939e-07
198	0x352f17c6	6.5227175e-07
199	0x323fd886	1.1166895e-08
200	0x00000000	0.0
201	0x349ba1da	2.8988762e-07
202	0x3535526a	6.754768e-07
203	0x32adb03d	2.0219995e-08
204	0x00000000	0.0
205	0x349829f9	2.8342745e-07
206	0x3536e53c	6.8133863e-07
207	0x32082654	7.924957e-09
208	0x00000000	0.0
209	0x349b9a9f	2.8983501e-07
210	0x3539229a	6.896822e-07
211	0x328e6e03	1.6581003e-08
212	0x00000000	0.0
213	0x34a1fd6e	3.017298e-07
214	0x3538c81e	6.883655e-07
215	0x31ac3e2d	5.0129274e-09
216	0x00000000	0.0
217	0x34a540d9	3.0780828e-07
218	0x353f1841	7.118834e-07
219	0x32569111	1.2489424e-08
220	0x00000000	0.0
221	0x34892a43	2.5548988e-07
222	0x3535801a	6.7614167e-07
223	0x32d115fb	2.4340798e-08
224	0x00000000	0.0
225	0x34af79ba	3.2684858e-07
226	0x352e60eb	6.4961085e-07
227	0x32ac1aef	2.0035683e-08
228	0x00000000	0.0
229	0x34b9ef8a	3.4633223e-07
230	0x353188d0	6.6136727e-07
231	0x32f3eac3	2.839568e-08
232	0x00000000	0.0
233	0x34a012e0	2.9816056e-07
234	0x352d976b	6.4667864e-07
235	0x32883a6c	1.5859051e-08
236	0x00000000	0.0
237	0x349fee79	2.978957e-07
238	0x3530abd5	6.581516e-07
239	0x32c9d673	2.3497e-08
240	0x00000000	0.0
241	0x349c9482	2.9165318e-07
242	0x3531fbe1	6.630417e-07
243	0x322b5dd0	9.9748405e-09
244	0x00000000	0.0
245	0x349dddff	2.9405052e-07
246	0x3534a85f	6.730024e-07
247	0x32a9379d	1.969948e-08
248	0x00000000	0.0
249	0x34973bf8	2.8169575e-07
250	0x3536d69d	6.8112587e-07
251	0x31d59ccd	6.216942e-09
252	0x00000000	0.0
253	0x3498e5f6	2.8479525e-07
254	0x35378df4	6.837938e-07
255	0x329a62dc	1.7972916e-08

exp_avg f4 [128]
0	0x399ef2ca	0.00030317
1	0xb9722211	-0.00023091609
2	0x39938e3b	0.00028143995
3	0xb8c123e6	-9.209644e-05
4	0xb8f86f2e	-0.0001184627
5	0xb80c6d8a	-3.3480617e-05
6	0xb7699244	-1.3921937e-05
7	0xb796bb57	-1.796863e-05
8	0x39a04f47	0.00030576644
9	0xb929c4a7	-0.00016190355
10	0x3958226e	0.00020612191
11	0xb852820a	-5.018901e-05
12	0x39eefe21	0.00045584238
13	0xb77327e4	-1.4493216e-05
14	0xb907c9a4	-0.0001294972
15	0xb9e0095a	-0.00042731577
16	0xb83d2820	-4.509848e-05
17	0x39b3b8f2	0.00034279336
18	0x3a41326e	0.00073698803
19	0xb8d37beb	-0.000100843456
20	0xb7058ebd	-7.960652e-06
21	0x390d193e	0.00013456211
22	0xb921b129	-0.00015420154
23	0x3956fc38	0.00020502589
24	0x3685295d	3.968524e-06
25	0x390c7178	0.00013393711
26	0x390087c9	0.00012257615
27	0xb822dc88	-3.8829196e-05
28	0x3a5df970	0.000846765
29	0xb981d0d2	-0.0002476038
30	0x379b3cf1	1.8505818e-05
31	0x38f472c8	0.00011656206
32	0xb86fb300	-5.7148747e-05
33	0xb999cb5a	-0.00029333943
34	0xb948ab08	-0.000191372
35	0x38fcb888	0.00012050668
36	0xb99ec8d2	-0.0003028573
37	0xb818f5f3	-3.6468682e-05
38	0xb963b4fb	-0.00021715827
39	0x38b6239f	8.685071e-05
40	0x3a045dbe	0.0005049369
41	0x38ef195a	0.0001140113
42	0xb9353a54	-0.00017283234
43	0xb91115eb	-0.00013836443
44	0x37d4c6f5	2.5365016e-05
45	0x3952d9bf	0.00020108277
46	0x3908b86b	0.00013038672
47	0x39392b4f	0.00017659109
48	0x39596e67	0.00020735861
49	0xb73c2033	-1.121317e-05
50	0x38dd951f	0.00010565877
51	0x388ae4bf	6.62296e-05
52	0x3892629d	6.980191e-05
53	0x39a99b12	0.00032349728
54	0x39ec42ef	0.00045063297
55	0xb9ae8f61	-0.00033294692
56	0x399f0170	0.00030327914
57	0xb8e25bac	-0.00010793595
58	0x38963990	7.163279e-05
59	0xb85a11fc	-5.1992e-05
60	0xb8e14194	-0.00010741051
61	0xb89efc7f	-7.581058e-05
62	0xb8bb5987	-8.9335306e-05
63	0xb931984f	-0.00016936775
64	0x3863483e	5.41883e-05
65	0x398d4ce5	0.00026950907
66	0x38afeac8	8.388382e-05
67	0x3a1ad5da	0.00059065
68	0xb8dbbd77	-0.00010478024
69	0x390241ff	0.00012422352
70	0x3a2e7c0c	0.00066560577
71	0x39092dbb	0.00013082374
72	0xb816c102	-3.594254e-05
73	0x379effd3	1.8954195e-05
74	0x379b023a	1.8478477e-05
75	0x38d568fe	0.00010176188
76	0x3a500429	0.000793519
77	0x394681a8	0.00018931052
78	0x38ccbae3	9.7622884e-05
79	0xb80637ea	-3.2000164e-05
80	0x39fa8349	0.0004778153
81	0xb99cdc9e	-0.0002991901
82	0x38aa1b61	8.1113314e-05
83	0xb99ddcff	-0.00030110028
84	0xb8085706	-3.2505974e-05
85	0xb8bd2ef7	-9.02097e-05
86	0x38d9a93d	0.000103788894
87	0x38da9767	0.00010423251
88	0x39bb3a21	0.0003571073
89	0x39d12a6c	0.00039895193
90	0x398041cb	0.00024463082
91	0xb425ae6d	-1.5430278e-07
92	0xb9df63cf	-0.00042608238
93	0xb98aa461	-0.00026443883
94	0x399f172e	0.00030344113
95	0xb904c927	-0.00012663436
96	0xb7e54193	-2.7329463e-05
97	0xb829f38d	-4.0519564e-05
98	0x38c2a610	9.2815724e-05
99	0x3a68f2ae	0.000888626
100	0x38c7f368	9.5343974e-05
101	0xb84775d5	-4.7555037e-05
102	0xb8db897b	-0.000104683415
103	0xb781f7ec	-1.5493446e-05
104	0xb8e68c14	-0.00010993346
105	0x378ade5b	1.6554424e-05
106	0x38a4a524	7.850889e-05
107	0xb8ac94c5	-8.2293096e-05
108	0xb8a3b189	-7.805514e-05
109	0xb9df1a40	-0.00042553432
110	0xb91b485b	-0.00014808906
111	0xb986d5a0	-0.00025717635
112	0xb937aaa7	-0.00017515813
113	0xb8b9dead	-8.862964e-05
114	0x3a0901bc	0.00052263937
115	0xb8b6802e	-8.7023116e-05
116	0xb9288cf9	-0.00016074245
117	0xb7732c0d	-1.4494185e-05
118	0xb967d25b	-0.0002210824
119	0x35ceabd5	1.5398206e-06
120	0x3895b7ff	7.1391456e-05
121	0xb89727b1	-7.207634e-05
122	0xb975beba	-0.00023436072
123	0xb88c74f3	-6.697504e-05
124	0xb7046286	-7.890752e-06
125	0x39b9d163	0.00035441955
126	0xb905ddde	-0.0001276652
127	0xb99461cc	-0.00028301624

exp_avg_sq f4 [128]
0	0x35857f2c	9.946284e-07
1	0x35d413b7	1.5800969e-06
2	0x36c6695e	5.913126e-06
3	0x3441db91	1.8054403e-07
4	0x3611de49	2.173607e-06
5	0x3681b795	3.8658713e-06
6	0x338d3192	6.574841e-08
7	0x363c9d45	2.8105726e-06
8	0x36a7afc3	4.997449e-06
9	0x354b3266	7.569673e-07
10	0x35a21902	1.2077219e-06
11	0x35ac2824	1.2826681e-06
12	0x3757f31b	1.2871601e-05
13	0x36043b68	1.9704112e-06
14	0x35713b25	8.986556e-07
15	0x37520930	1.25191145e-05
16	0x3504f81c	4.953488e-07
17	0x364e0664	3.0700112e-06
18	0x373a1e53	1.1093524e-05
19	0x3540a63c	7.1767477e-07
20	0x3406fe18	1.2572161e-07
21	0x34da1ceb	4.0626705e-07
22	0x3611c228	2.1719698e-06
23	0x360811df	2.0275982e-06
24	0x3377b86a	5.7676893e-08
25	0x35ccfc4e	1.5272615e-06
26	0x35e28ac5	1.6878699e-06
27	0x34a91870	3.1496484e-07
28	0x37592eef	1.29451355e-05
29	0x362d918c	2.5863728e-06
30	0x3512ca57	5.468368e-07
31	0x34845743	2.4650407e-07
32	0x3610a89d	2.1555818e-06
33	0x36b92453	5.5176583e-06
34	0x368efcdb	4.261366e-06
35	0x35964971	1.1197245e-06
36	0x377c31f6	1.5032003e-05
37	0x35d3cae5	1.5779775e-06
38	0x36392cc1	2.7593198e-06
39	0x362f0713	2.608115e-06
40	0x3726e520	9.947718e-06
41	0x353dfc37	7.077501e-07
42	0x3668987e	3.4659456e-06
43	0x368959f8	4.093392e-06
44	0x35a575bd	1.2327724e-06
45	0x352e8d97	6.502609e-07
46	0x362fb27b	2.6180921e-06
47	0x36506d57	3.105806e-06
48	0x368191a2	3.8614535e-06
49	0x34623007	2.1065362e-07
50	0x348414dd	2.4602096e-07
51	0x34398fd2	1.7281789e-07
52	0x35aec35f	1.3020871e-06
53	0x362dfba6	2.5925488e-06
54	0x36b5034f	5.3946055e-06
55	0x367c592a	3.7602827e-06
56	0x3640b71c	2.8716813e-06
57	0x34e1bb57	4.2045824e-07
58	0x353d681f	7.05595e-07
59	0x34efbde2	4.4655377e-07
60	0x36d2256e	6.262845e-06
61	0x343352cb	1.6700794e-07
62	0x3612dd52	2.188452e-06
63	0x35a1c0af	1.2051513e-06
64	0x33be161f	8.851588e-08
65	0x35e5839f	1.7100136e-06
66	0x35c8c4cf	1.495844e-06
67	0x3756f8c9	1.2813319e-05
68	0x36860156	3.9936667e-06
69	0x36a42a15	4.89248e-06
70	0x36d60386	6.378107e-06
71	0x3538e9d3	6.88856e-07
72	0x34837e31	2.4492468e-07
73	0x350632fc	4.999308e-07
74	0x348b5d0d	2.595847e-07
75	0x35f673fc	1.8362184e-06
76	0x37727322	1.44511305e-05
77	0x35d5ad98	1.5920259e-06
78	0x362594be	2.4673495e-06
79	0x3655e8d6	3.1875002e-06
80	0x36407dff	2.868357e-06
81	0x36adc969	5.179249e-06
82	0x34422e10	1.8084415e-07
83	0x35d82941	1.610526e-06
84	0x36b17512	5.28864e-06
85	0x3589424e	1.0226593e-06
86	0x34eb4a6d	4.3826313e-07
87	0x35b2b891	1.3315749e-06
88	0x3621016e	2.3991702e-06
89	0x36b4504e	5.3737667e-06
90	0x36107749	2.1527105e-06
91	0x357d96c3	9.446923e-07
92	0x3704576a	7.888166e-06
93	0x359b0b86	1.1551754e-06
94	0x3673c9cb	3.632728e-06
95	0x35d6d715	1.600684e-06
96	0x350a96b7	5.1628325e-07
97	0x351e1cd9	5.8901566e-07
98	0x3723adcf	9.756025e-06
99	0x37a773a2	1.9961797e-05
100	0x359ef745	1.1843882e-06
101	0x35e82731	1.7296753e-06
102	0x3629ca4d	2.5300717e-06
103	0x348cbf90	2.6216412e-07
104	0x348d4c6d	2.6318904e-07
105	0x35a8f971	1.2589572e-06
106	0x3531e922	6.627689e-07
107	0x34c7e3c2	3.7232354e-07
108	0x32fcfb0a	2.945082e-08
109	0x37d59eb6	2.5465484e-05
110	0x368b26d5	4.1470435e-06
111	0x36591ea9	3.2353366e-06
112	0x35f6934f	1.8371301e-06
113	0x35154d44	5.561926e-07
114	0x36a5bf53	4.9396563e-06
115	0x35afcb14	1.309762e-06
116	0x358f70e7	1.0687189e-06
117	0x35865663	1.000892e-06
118	0x36e8a408	6.9332345e-06
119	0x34df3b2c	4.158004e-07
120	0x3582ca22	9.744583e-07
121	0x360cabc5	2.0961609e-06
122	0x35c32c5c	1.4541542e-06
123	0x354c50f1	7.611371e-07
124	0x364a098f	3.010591e-06
125	0x37300673	1.0491919e-05
126	0x37028380	7.779221e-06
127	0x36842bcb	3.9390047e-06
