results/Test/Seek/Seek-6144.onnx (onnx, 75719 bytes, 7 tensors)

action_model._continuous_distribution.log_sigma f4 [1, 3]
00000000: 0000 0000 0000 0000 0000 0000
0.0 0.0 0.0

action_model._continuous_distribution.mu.bias f4 [3]
00000000: 0000 0000 0000 0000 0000 0000
0.0 0.0 0.0

action_model._continuous_distribution.mu.weight f4 [3, 128]
00000000: 0e11 8b3c 7b9c 2b3a 62a6 f73c 83b1 083c
00000010: 1725 79bc 707c 94bb 18a7 6f3a 0833 6c3b
00000020: 92e2 eabb b0bc 9f3c c7dc c13c 078f 23bc
00000030: 6ad4 293c 0bc3 2d3c 47e8 6dbc 2391 c43c
00000040: c7cb d83b d74f 653c 324b 023d 0bad 0bbb
00000050: 1f3e bbbb 13fa be3c 1f6f e23b d18a 41bc
00000060: 0e8e 0b3d 070a f63c 1ec1 98bc a242 24bd
00000070: d319 82bc 3265 833c b978 07bd 1d88 42bd
00000080: a708 633c a3f3 babc 80be 76bb c803 ba3b
00000090: 7b01 9b3c 47c0 b4bc 6658 9e3c 335d 053b
000000a0: b879 f0bb 60c2 dc3b da98 b4bc b4eb 4bbd
000000b0: e52a 0f3d cf9f 21bc cb76 77bb 18cd 0abd
000000c0: 2247 903c 3833 92bb fcec 013c 7f59 d33c
000000d0: dfc1 98bc 13d6 93bc 4ba5 5cbb ed51 e03b
000000e0: fd8f 013d e312 5fbc fcbd 163a 899d 25bc
000000f0: 1fda b4bb 2a0a 73ba f4f2 8bbc 24b9 0cbd
00000100: 074f 7d3b 6d05 213c ff51 35bd 6c87 9dbb
00000110: 2ab2 ac3a a706 bb3c 6be3 afbc ad15 df3c
00000120: 9576 3a3c 2783 c33c 8ff5 a43b 4220 4f3a
00000130: 00e8 7e3b d5cc ecbc 85de dabb 755d feba
00000140: a9ac 393d 62a0 e93b b64f a33c b2dd 5dbd
00000150: ea02 d2ba ab31 a5bc cbb2 deba 788d 613c
00000160: e74a a3bc 99f4 16bb dfa2 ba38 a2ad d03c
00000170: a2fb f43b 4694 03bd 55f7 05bd 40e3 6ebc
00000180: f504 97bc c3a1 633a 8a76 203d ab78 d73c
00000190: 9956 15bd 92b5 d3bc 559e 9ebc d6a5 353c
000001a0: 8333 cabb 0aea f63c 51c8 a23b 52a0 edbc
000001b0: e9e2 1b3c 57a5 cabc 5366 8a3c 07d0 fdbc
000001c0: af9d 443b d403 adbc 5a35 69bc e524 703a
000001d0: 4abd 683c eb11 cfbc 924b de3b 9997 a33c
000001e0: 572c 02bb 8942 b3bb 39ab 053d 6555 d93b
000001f0: 47ab 993c 53b9 ddba f40a c2bb 1b5b 73bc
00000200: 1809 373c 4ac9 333c 83ab 853c 2f43 dabc
00000210: 1f3b c63c 0672 3e3c 97a6 12bd 4791 26bc
00000220: d20e 7cbc 808c ad3c 12d3 52bd 0f64 c7bc
00000230: 3fa1 a33c 5a4e 643c d852 14bd 3bc9 793b
00000240: 68b7 d13b ef8b 273c 36ef 16bc 9798 6f3c
00000250: 7fe1 28bc 4b2e 4dbd 8f44 f43a 2b55 ed3c
00000260: 779b 7dbc 10f1 dcbb fbee cfbc 8bb4 82bc
00000270: 95eb e73a 1b12 48bc c434 36bc f31f 2b3b
00000280: 7317 193c 12dd 68bc 4313 cb3c 3789 6ebc
00000290: c835 07bb b8bc 273d f361 043c 5b2f 64bc
000002a0: 627c dc3b dfc3 d23c 9b9a beba 1837 c4bb
000002b0: 2a8d dabc c0a1 253c 2d1c 013c 7723 9fbb
000002c0: 624f 1abb 3631 30ba 7f38 b83b 2dc5 b8bb
000002d0: 9015 cabc 3a80 943b 7fc6 69bc abae 383d
000002e0: 5f88 84bc 4e16 93bc 270f 673c f85a c93c
000002f0: ad6a 053b de9d a03c db9f adbc 6f17 6bbc
00000300: 7344 cbbb 83af 66ba fba3 debc 955e f0bc
00000310: 745a b4bb 0f66 613c 4ac5 8d3a 5f23 803b
00000320: e139 803b 7be1 a63c eed5 943c 53e6 b13a
00000330: 6ac2 12bc effe 67bc 7b59 0a3c 81b9 c037
00000340: 91d7 993c 4134 883b d9fd 1ebd c06d f63b
00000350: 3e23 203c 8b41 fbbc 1a30 a6bc 0de5 013d
00000360: 8084 3fbd 8b90 d53b 3f44 263b 132b 963c
00000370: b664 a63b 9bef e93c bda8 6c3c 9a76 533c
00000380: 71bb 3aba 6ba1 bfba 3004 06bd 585e 0c3d
00000390: 7dc4 f5bb 9364 79bc 0710 d73b 328d 533c
000003a0: d56c fe3c 6a56 54bc 774f 9cbb 66d5 433b
000003b0: 58a5 393c e7c1 683a 285b 4f3b 813d b33c
000003c0: 4ff4 8b3b da14 f2bb 77b2 32bd 2d75 883c
000003d0: 2a98 88bc b353 d8b9 54fc 373c 5adc f5bc
000003e0: 3cfc 1d3d 2354 eb3c c554 b1bc 73df 8b3b
000003f0: f5c4 303b b358 d3bc 820d 09bb 109f 0abd
0.016975906 0.000654645 0.030230705 0.008343103 -0.015206597 -0.0045314357 0.00091420254 0.003604116
-0.0071681226 0.019499153 0.023664845 -0.009982831 0.010365585 0.010605584 -0.014520711 0.023994988
0.006616089 0.013996086 0.031809993 -0.0021312858 -0.0057141925 0.023312604 0.0069102193 -0.011812882
0.03407102 0.030034078 -0.018646773 -0.04010261 -0.015881455 0.016039465 -0.033074114 -0.04749309
0.013857043 -0.022821253 -0.0037650168 0.0056767203 0.018921604 -0.022064341 0.019329261 0.002034974
-0.0073387288 0.0067370385 -0.022045542 -0.04978533 0.034953017 -0.0098647615 -0.0037760015 -0.033887
0.017612044 -0.004461672 0.007930037 0.025799511 -0.018647132 -0.018046414 -0.0033667858 0.006845704
0.03163146 -0.013615343 0.0005750356 -0.01010836 -0.005519166 -0.0009271229 -0.017083623 -0.03435625
0.003865184 0.009827954 -0.04426765 -0.0048074033 0.0013175656 0.02283032 -0.021470746 0.027232016
0.011380811 0.02386625 0.0050341557 0.000790123 0.0038895607 -0.028906265 -0.0066793584 -0.0019406514
0.045330677 0.007129715 0.01993547 -0.054166503 -0.0016022597 -0.020165285 -0.001699054 0.013766639
-0.019933177 -0.0023033975 8.899508e-05 0.02547342 0.007476286 -0.032123826 -0.032706577 -0.014580548
-0.01843498 0.0008683467 0.039175548 0.026302656 -0.03645954 -0.025843415 -0.019362608 0.011086902
-0.0061706915 0.030140895 0.004967727 -0.02900711 0.009514549 -0.024737043 0.016894495 -0.030982984
0.0030001213 -0.02111999 -0.014233911 0.0009160771 0.014205286 -0.025277099 0.006783911 0.019969748
-0.0019862854 -0.005470578 0.032633994 0.0066324943 0.01875843 -0.0016916193 -0.005921716 -0.014853264
0.011171602 0.010973284 0.016317135 -0.026643364 0.024198113 0.011623865 -0.035803404 -0.010166473
-0.015384393 0.02118516 -0.051470824 -0.024339704 0.019974349 0.013934696 -0.03621182 0.0038114327
0.0064000376 0.010226234 -0.009212306 0.014623783 -0.010307669 -0.050092977 0.0018636155 0.028971275
-0.01547896 -0.006742604 -0.02538251 -0.01595523 0.001769411 -0.012211348 -0.011120979 0.0026111573
0.00934397 -0.0142128635 0.024789458 -0.014559082 -0.0020631421 0.04095146 0.008079994 -0.013927306
0.006728695 0.025728164 -0.0014541926 -0.005988013 -0.02667864 0.010109365 0.007880253 -0.0048565227
-0.002354585 -0.00067212 0.0056219692 -0.0056387396 -0.024668485 0.0045318874 -0.014268517 0.04508845
-0.016178308 -0.017954972 0.014102734 0.02457951 0.0020357773 0.019606527 -0.02119439 -0.014348849
-0.006203228 -0.0008799957 -0.027177801 -0.029341975 -0.005503947 0.013757243 0.0010816243 0.0039104666
0.0039131497 0.02037119 0.018168416 0.001357267 -0.008957485 -0.014159902 0.008444185 2.2974566e-05
0.018779548 0.00415662 -0.038816307 0.0075204074 0.009774027 -0.030670902 -0.020286608 0.03171258
-0.04675722 0.006517475 0.0025370268 0.018331086 0.0050779236 0.028556636 0.014444527 0.012906695
-0.0007123268 -0.001462025 -0.032718837 0.03426966 -0.00750023 -0.015221733 0.00656319 0.012912082
0.031057755 -0.012960056 -0.004770215 0.0029881834 0.011330925 0.00088789914 0.0031640027 0.021879913
0.004271067 -0.0073877396 -0.04362723 0.016657436 -0.01667412 -0.0004126109 0.011229593 -0.030012298
0.038570628 0.028726643 -0.021646867 0.0042685806 0.0026972864 -0.025799131 -0.0020912592 -0.0338431

network_body._body_endoder.seq_layers.0.bias f4 [128]
00000000: 0000 0000 0000 0000 0000 0000 0000 0000
00000010: 0000 0000 0000 0000 0000 0000 0000 0000
00000020: 0000 0000 0000 0000 0000 0000 0000 0000
00000030: 0000 0000 0000 0000 0000 0000 0000 0000
00000040: 0000 0000 0000 0000 0000 0000 0000 0000
00000050: 0000 0000 0000 0000 0000 0000 0000 0000
00000060: 0000 0000 0000 0000 0000 0000 0000 0000
00000070: 0000 0000 0000 0000 0000 0000 0000 0000
00000080: 0000 0000 0000 0000 0000 0000 0000 0000
00000090: 0000 0000 0000 0000 0000 0000 0000 0000
000000a0: 0000 0000 0000 0000 0000 0000 0000 0000
000000b0: 0000 0000 0000 0000 0000 0000 0000 0000
000000c0: 0000 0000 0000 0000 0000 0000 0000 0000
000000d0: 0000 0000 0000 0000 0000 0000 0000 0000
000000e0: 0000 0000 0000 0000 0000 0000 0000 0000
000000f0: 0000 0000 0000 0000 0000 0000 0000 0000
00000100: 0000 0000 0000 0000 0000 0000 0000 0000
00000110: 0000 0000 0000 0000 0000 0000 0000 0000
00000120: 0000 0000 0000 0000 0000 0000 0000 0000
00000130: 0000 0000 0000 0000 0000 0000 0000 0000
00000140: 0000 0000 0000 0000 0000 0000 0000 0000
00000150: 0000 0000 0000 0000 0000 0000 0000 0000
00000160: 0000 0000 0000 0000 0000 0000 0000 0000
00000170: 0000 0000 0000 0000 0000 0000 0000 0000
00000180: 0000 0000 0000 0000 0000 0000 0000 0000
00000190: 0000 0000 0000 0000 0000 0000 0000 0000
000001a0: 0000 0000 0000 0000 0000 0000 0000 0000
000001b0: 0000 0000 0000 0000 0000 0000 0000 0000
000001c0: 0000 0000 0000 0000 0000 0000 0000 0000
000001d0: 0000 0000 0000 0000 0000 0000 0000 0000
000001e0: 0000 0000 0000 0000 0000 0000 0000 0000
000001f0: 0000 0000 0000 0000 0000 0000 0000 0000
0.0 0.0 0.0 0.0 0.0 0.0 0.0 0.0
0.0 0.0 0.0 0.0 0.0 0.0 0.0 0.0
0.0 0.0 0.0 0.0 0.0 0.0 0.0 0.0
0.0 0.0 0.0 0.0 0.0 0.0 0.0 0.0
0.0 0.0 0.0 0.0 0.0 0.0 0.0 0.0
0.0 0.0 0.0 0.0 0.0 0.0 0.0 0.0
0.0 0.0 0.0 0.0 0.0 0.0 0.0 0.0
0.0 0.0 0.0 0.0 0.0 0.0 0.0 0.0
0.0 0.0 0.0 0.0 0.0 0.0 0.0 0.0
0.0 0.0 0.0 0.0 0.0 0.0 0.0 0.0
0.0 0.0 0.0 0.0 0.0 0.0 0.0 0.0
0.0 0.0 0.0 0.0 0.0 0.0 0.0 0.0
0.0 0.0 0.0 0.0 0.0 0.0 0.0 0.0
0.0 0.0 0.0 0.0 0.0 0.0 0.0 0.0
0.0 0.0 0.0 0.0 0.0 0.0 0.0 0.0
0.0 0.0 0.0 0.0 0.0 0.0 0.0 0.0

network_body._body_endoder.seq_layers.0.weight f4 [128, 11]
00000000: 7eb9 97bc e23e e23e 4364 ef3d b42c f1be
00000010: 3918 8abe 7169 78bf 57ea 88be b2a9 37be
00000020: 5950 1dbe 355b 8bbe edc2 37bf 9e3b d23e
00000030: ee03 983e a354 943e f063 cd37 8706 30bb
00000040: 0a7d 1b3d e25d 40be 4561 b5be e33e 57be
00000050: d83a 70bd 89fb c03e 353b 023e 2780 8bbe
00000060: 0e3f 493d 6bbf 17be a134 f6be b9fd e7be
00000070: 2590 89be 8397 cbbe d3f1 03bf 58f0 2cbe
00000080: f541 c73e a9ec b9be f9f8 48be 3da2 343d
00000090: 3e4b 223f 5513 05bf 4a2e 1f3f ef7f 893e
000000a0: c067 113f eb4d 0f3e bf29 f93d c4ad 123f
000000b0: 3411 c5bd 181c 17be 374b 2d3d df2b 03be
000000c0: d615 543d 4e23 76bd 0fde 3a3e e131 073f
000000d0: b59d d13c 70d6 23bf 23b1 9bbe 390d b03e
000000e0: 7475 7abe af84 313d d48e c2bb 8934 91bd
000000f0: 9a5b d8bd 0099 b3be b55a 153f 3306 c6be
00000100: e492 96be 9bc9 913e d38d e9bc 7f7a de3e
00000110: c9c3 043f 16dd a6be 4c36 633e a353 603c
00000120: b1ce 18bf 0e9e 20be 9800 963b cec3 8c3e
00000130: b194 8dbe 8db5 b73e 7112 94be 3686 0a3f
00000140: fc08 8d3d 1985 84be 63cf 2ebe ed4c 64be
00000150: cb4d 81bd 3880 c03d ee63 123e 10b5 ac3b
00000160: ec20 8cbc 34c1 30bf e3f6 c1bd 3385 0ebf
00000170: 8cf3 44be c408 613e 8764 5bbe ccb8 733d
00000180: 6858 52bd 3d30 6e3e 9841 5bbe 4286 be3c
00000190: 64ec 3fbd 9069 573e aaeb 0bbe 92cc 8dbe
000001a0: 2181 47be f9d7 c6be 479d a53d 4aaf 523e
000001b0: e4fb bd3e e191 3abe 7c43 21bd 7e14 ae3e
000001c0: 98c7 9a3d ed6d 953e 0d4c 28be e310 a23d
000001d0: 065d 853e 258c dfbd 6628 103e b479 eebd
000001e0: 03ac 5f3e acfa 433d 8ece f0bd 28ca 5d3e
000001f0: a024 3cbe 63d1 3abe f97e 2d3e f813 a53d
00000200: 0ede cbbe 11a0 b3be e730 2abe 3a4c 8a3c
00000210: 7a29 1d3b 9a43 273e 0df7 003e c914 c0be
00000220: 84e1 40bf 8515 19be bfed a8bd 90f7 04bf
00000230: 1a8d 223e c2a3 793c 0322 6cbe e358 71bd
00000240: 9a43 b9be 2f2b c93e 3307 30be 9216 c63d
00000250: 322e cb3d 1927 d73d 443f 973e ea5d 18be
00000260: 49cc a0be 76c7 39bf 6b6f 81bc 6ba8 38be
00000270: 0cb9 aebe 5f66 32be 15c8 253e 946f 0e3e
00000280: ceaf c33d 362f 01bf 8a63 cebe 9080 d5be
00000290: e5d6 23bf ef7f a23e 1e19 8dbe 5f2d 9f3e
000002a0: 39f8 823e affc b83c c96e dc3e 3e1e a1be
000002b0: a6fc 0d3f e2d4 fdbc eb9f 01be d06e d73c
000002c0: 6c33 d6bd 79a9 d1bc 20c8 34bd 4290 083f
000002d0: 0f51 b6be 5edf 39be 191f 9d3e 162a 96be
000002e0: f1d5 81be 04e0 ab3e d2a8 38be 620c 05be
000002f0: 86b3 6cbe e09f 04bf 805c 603e 3ff3 fa3d
00000300: c5fd 053e d404 90be 4c2d b33e ec3b 983e
00000310: 595f 87be c59a c93e b23c 82be 31ff a53e
00000320: b3e7 e8be 40cb aebb acb2 26bf 337d f239
00000330: 1861 63be d43a 6abe a14e a5be f4d1 bebe
00000340: 8517 64be 3da8 a03e 7c16 2cbe 5b17 f53e
00000350: 99e9 23bc c3dc 8a3e a3d9 22be 7a3f 9bbe
00000360: 9bb1 6f3e 36b9 eabe 31aa 493e 26ab 6ebd
00000370: 41d9 793e aa20 0cbe d6cd d5bd 33e0 1a3e
00000380: 04df cebe 2968 783e 0597 69be 8f6b 3ebe
00000390: 75d6 17be ab35 a3be 004e 20bf bcd8 e7be
000003a0: 560e e43e 5467 c03d 8028 80be 6c6f 58be
000003b0: 8d74 bbbd 69df 173b 4931 89be 4b28 d63c
000003c0: 3c19 17bf d3cc a33e 3f59 1f3d a1ee 6f3e
000003d0: 51ad d8bd b041 2b3f 8f73 0f3e 9407 0dbf
000003e0: 4d73 023f e2e2 173f 82f8 debc 09f4 ed3d
000003f0: 47b3 3a3e 7c55 b8be fb48 4abe 5866 24bd
-0.018521067 0.441886 0.11689045 -0.47104418 -0.26971605 -0.9703589 -0.26741287 -0.17935827
-0.15362681 -0.27218023 -0.7178181 0.4106111 0.29690498 0.28970823 2.4484441e-05 -0.002685936
0.037961043 -0.18785813 -0.35425773 -0.21020083 -0.058649868 0.37691906 0.12717898 -0.2724621
0.0491324 -0.14819114 -0.48087028 -0.45310763 -0.26867786 -0.39764032 -0.5154087 -0.16888559
0.3891751 -0.3631337 -0.19626226 0.044100035 0.6339606 -0.51982623 0.62180007 0.26855418
0.56798935 0.13994567 0.121661656 0.57296395 -0.09622422 -0.1475681 0.04230806 -0.12809704
0.051778637 -0.060092263 0.18248771 0.52810484 0.025587896 -0.6399908 -0.30408582 0.34385088
-0.24458867 0.043339428 -0.0059374366 -0.070900984 -0.105643466 -0.35077667 0.5834153 -0.38676605
-0.29408944 0.28474125 -0.02851001 0.43452832 0.51861244 -0.3259055 0.22188681 0.013691816
-0.59690386 -0.15685293 0.0045777075 0.27493137 -0.27652505 0.358807 -0.2892032 0.5411104
0.06886479 -0.25882795 -0.17071299 -0.2229497 -0.06313666 0.09399456 0.14295933 0.005270608
-0.017105542 -0.69044805 -0.09470918 -0.55671996 -0.19233531 0.21976 -0.21425067 0.059502408
-0.051353842 0.23260589 -0.21411741 0.023257378 -0.0468563 0.21036363 -0.13664117 -0.27695137
-0.19482853 -0.3883665 0.08086639 0.2057468 0.3710624 -0.18219711 -0.039371 0.3400001
0.07557601 0.2918543 -0.16435261 0.07913377 0.26047534 -0.10915402 0.14077911 -0.11644307
0.21842961 0.04784648 -0.11758147 0.21659148 -0.18373346 -0.18243937 0.16942967 0.08060449
-0.39817852 -0.35083058 -0.16620217 0.01688205 0.002398102 0.16334382 0.12594242 -0.37515858
-0.7534411 -0.14949615 -0.082484715 -0.5194025 0.15874138 0.015236797 -0.2305985 -0.05892266
-0.36184388 0.3929076 -0.17190246 0.09672274 0.099209204 0.10505504 0.29540455 -0.14879575
-0.31405857 -0.7256998 -0.015800199 -0.18032996 -0.34125555 -0.17421864 0.16189606 0.13909751
0.095550165 -0.50462663 -0.40310317 -0.41699648 -0.6399978 0.3173823 -0.27558225 0.31089303
0.25580004 0.022581426 0.43053272 -0.31468385 0.55463636 -0.0309853 -0.1265866 0.026297957
-0.10459027 -0.025593506 -0.044136167 0.5334512 -0.35608718 -0.18151614 0.30687788 -0.29328984
-0.25358537 0.33569348 -0.1803315 -0.12993005 -0.23115358 -0.5180645 0.21910286 0.12253427
0.13085087 -0.28128684 0.34995496 0.29733217 -0.26439932 0.39375892 -0.25436932 0.32421258
-0.45489272 -0.005334288 -0.6511638 0.00046251118 -0.22205007 -0.22874004 -0.32286552 -0.37269557
-0.22274597 0.31378356 -0.16805452 0.4786938 -0.0100044245 0.27121553 -0.15903334 -0.30321866
0.23407595 -0.4584443 0.19693829 -0.05826869 0.24399282 -0.13684335 -0.10439651 0.15124588
-0.40404522 0.24258484 -0.22811516 -0.18595718 -0.14827903 -0.31876883 -0.6261902 -0.45282543
0.44542187 0.09394708 -0.250309 -0.21136254 -0.0915309 0.0023173934 -0.26795414 0.02614226
-0.5902288 0.31992206 0.03890347 0.23430873 -0.105799325 0.66897106 0.14008926 -0.5508969
0.50957185 0.5933057 -0.027218107 0.11618812 0.18232451 -0.3600272 -0.19754402 -0.040136665

network_body._body_endoder.seq_layers.2.bias f4 [128]
00000000: 0000 0000 0000 0000 0000 0000 0000 0000
00000010: 0000 0000 0000 0000 0000 0000 0000 0000
00000020: 0000 0000 0000 0000 0000 0000 0000 0000
00000030: 0000 0000 0000 0000 0000 0000 0000 0000
00000040: 0000 0000 0000 0000 0000 0000 0000 0000
00000050: 0000 0000 0000 0000 0000 0000 0000 0000
00000060: 0000 0000 0000 0000 0000 0000 0000 0000
00000070: 0000 0000 0000 0000 0000 0000 0000 0000
00000080: 0000 0000 0000 0000 0000 0000 0000 0000
00000090: 0000 0000 0000 0000 0000 0000 0000 0000
000000a0: 0000 0000 0000 0000 0000 0000 0000 0000
000000b0: 0000 0000 0000 0000 0000 0000 0000 0000
000000c0: 0000 0000 0000 0000 0000 0000 0000 0000
000000d0: 0000 0000 0000 0000 0000 0000 0000 0000
000000e0: 0000 0000 0000 0000 0000 0000 0000 0000
000000f0: 0000 0000 0000 0000 0000 0000 0000 0000
00000100: 0000 0000 0000 0000 0000 0000 0000 0000
00000110: 0000 0000 0000 0000 0000 0000 0000 0000
00000120: 0000 0000 0000 0000 0000 0000 0000 0000
00000130: 0000 0000 0000 0000 0000 0000 0000 0000
00000140: 0000 0000 0000 0000 0000 0000 0000 0000
00000150: 0000 0000 0000 0000 0000 0000 0000 0000
00000160: 0000 0000 0000 0000 0000 0000 0000 0000
00000170: 0000 0000 0000 0000 0000 0000 0000 0000
00000180: 0000 0000 0000 0000 0000 0000 0000 0000
00000190: 0000 0000 0000 0000 0000 0000 0000 0000
000001a0: 0000 0000 0000 0000 0000 0000 0000 0000
000001b0: 0000 0000 0000 0000 0000 0000 0000 0000
000001c0: 0000 0000 0000 0000 0000 0000 0000 0000
000001d0: 0000 0000 0000 0000 0000 0000 0000 0000
000001e0: 0000 0000 0000 0000 0000 0000 0000 0000
000001f0: 0000 0000 0000 0000 0000 0000 0000 0000
0.0 0.0 0.0 0.0 0.0 0.0 0.0 0.0
0.0 0.0 0.0 0.0 0.0 0.0 0.0 0.0
0.0 0.0 0.0 0.0 0.0 0.0 0.0 0.0
0.0 0.0 0.0 0.0 0.0 0.0 0.0 0.0
0.0 0.0 0.0 0.0 0.0 0.0 0.0 0.0
0.0 0.0 0.0 0.0 0.0 0.0 0.0 0.0
0.0 0.0 0.0 0.0 0.0 0.0 0.0 0.0
0.0 0.0 0.0 0.0 0.0 0.0 0.0 0.0
0.0 0.0 0.0 0.0 0.0 0.0 0.0 0.0
0.0 0.0 0.0 0.0 0.0 0.0 0.0 0.0
0.0 0.0 0.0 0.0 0.0 0.0 0.0 0.0
0.0 0.0 0.0 0.0 0.0 0.0 0.0 0.0
0.0 0.0 0.0 0.0 0.0 0.0 0.0 0.0
0.0 0.0 0.0 0.0 0.0 0.0 0.0 0.0
0.0 0.0 0.0 0.0 0.0 0.0 0.0 0.0
0.0 0.0 0.0 0.0 0.0 0.0 0.0 0.0

network_body._body_endoder.seq_layers.2.weight f4 [128, 128]
00000000: ea0f 963c ff4b 8f3b a0ed c5bd e269 923d
00000010: fb54 633d 50bd c2bd 532b edbb 81e0 a5bd
00000020: e0a9 d83b 4b9d a53d 065b cc3d de06 4dbd
00000030: c3c3 cabd c60f a4bd a2a3 c239 cfb6 a0bd
00000040: e629 08be 338d 60bc d8ae 383d b6d7 6fbe
00000050: c1ad 223c 67b5 b13d 96d8 933b bd33 0d3e
00000060: c087 6dbd fec7 bdbd 1a2b 41be 3292 7a3c
00000070: 705e f43b d08c 9fbd 3021 a9bb 0f1a fc3d
00000080: 163b a1bd 9833 65be 424b 013d 2cc4 88bd
00000090: f21f 853d 306c 01be 0c96 d53d d428 5b3d
000000a0: 6e76 72bd d0c5 383d d4f6 f13d 4a58 59be
000000b0: 6969 17bd a075 0d3d 7700 e7bd de55 363d
000000c0: 1a12 203d 1e44 d0bb 17b8 573c 7f01 afbd
000000d0: 47dd 883d 6b4d 503a 49d1 2a3e b387 203d
000000e0: 8075 98bc d34d 2ebe 70fd 21bd 1101 80bd
000000f0: 76b7 f7bd be02 6cbd b8e7 bf3d 8d77 0c3e
00000100: adc1 873c a16d 07be d44e f8bd c97f 463d
00000110: 44b4 163e 48c7 e9bd 7155 6dbd face f6bc
00000120: ccd5 77be 10b8 c83d 1db4 c53d 9229 debd
00000130: 11e0 753d eeb3 47bc 0f36 95bd 0b4d ae3d
00000140: 8b3a 663d 8b2a debc ccde 6c3d 3366 4f3d
00000150: 6c38 96bb eb40 d4bd c245 9c3d 8fde 683d
00000160: 1aec 50bd 6fad 09bd ef0e d03d fa1e b8bd
00000170: 66ff 9ebb baed ab3d e3a4 43bc 7205 8f3d
00000180: 3388 97bd 533f b73d 15ae a93d b276 713e
00000190: 8e9d fe3d 9df1 2dbd a39b 6a3c f07e 973d
000001a0: 510b 55bd ec8a 513d 0d14 8fbd a74a 5b3c
000001b0: 1352 803d ad57 4e3d 97fb 7b3d b157 733d
000001c0: 4429 70bd f359 b13d b5df 833d abaa 313d
000001d0: 27b3 153e cfc3 77bd b35b 403e e718 24bd
000001e0: eaed 88bc 2d78 55bc 0fc4 143e c7c6 5b3e
000001f0: a908 403d df6a 213e a3c6 a53d 423c 843d
00000200: fb13 1bbd 1a0b 9f3d 87e8 c8bd 4112 543e
00000210: f4c1 3fbb a6dc a03d 98b8 cebb 47bc c1bc
00000220: c612 e03c dfd8 acbd d146 cdbd adf4 053e
00000230: c049 513c f4ae 07bd f8a9 8d3d 1c87 b3bc
00000240: e6bf 42be 527d 763b ca8c f1bb 74e6 e9bb
00000250: b656 24bd 47cf 023d 9c8d 05be 9a68 2fbc
00000260: 42a8 64bb fb09 c13b 5d51 3b3d 3bb8 74bd
00000270: 5351 e5bd c865 9a3d 9077 c03c e035 8cbd
00000280: fa51 55bc deac b8bd 044d ebbd f016 7a3d
00000290: 0ba0 1b3d 4264 71bd ee68 a4bb c1fa 403d
000002a0: 352a 203d c5ba b63d c118 e23d 037a 91bd
000002b0: 6101 1dbd fbf0 17bb 5b93 fcbc a421 fcbb
000002c0: 4d81 b4bd f6f4 dcbd 475d 103e 8091 41bd
000002d0: a533 dcbc 8581 16bd 344a 263c 0dae 1d3e
000002e0: 5f41 933d 25bc 993b 1746 c33d cb2e fd3c
000002f0: 8d75 abbd 8bf9 95bd ea16 eebd dafb f33d
00000300: 4a07 d1bd 69ab 173d fc22 203c 6140 913d
00000310: 1020 793d 0947 593d 855d 90bd ddf5 29bd
00000320: 538f d03b cccd 6bbd 337f 00be 65b9 5c3d
00000330: f82c 623c 71b5 da3d e3cc 3abd c1a7 d9bd
00000340: 97a5 58bd b940 9d3c e0ee 3a3d 96d9 bc3b
00000350: 843a abbc 6a46 7e3d c193 53bd 897f d4bd
00000360: e74b adbc d13f 2b3d 0ded 183a 61a9 24bd
00000370: b837 1b3c 6111 c9bd 8996 173e 38a4 043e
00000380: 7d02 833d 42cb ebbd e294 20be e595 5e3d
00000390: ae91 eeba e169 263c b027 fe3c 2d32 983d
000003a0: ff5c de3b 7962 cf3d d5c3 91bd d0ed 82bd
000003b0: 84a4 d1bd edf6 e0bd 5a14 cb3c f03c 1e3d
000003c0: 905f 96bd d8a6 01bd 1ebc 1dbd 2579 9b3d
000003d0: 9df6 6c3d 33df 2fbd 85e7 8ebd 5c34 013e
000003e0: bfbe b0bd 8564 953d 0050 7c3d 0870 f53c
000003f0: d27b babc 0f63 013e 6ae1 9a3c 94da b5bc
0.018318135 0.004373073 -0.09664464 0.07149102 0.055500966 -0.09508765 -0.0072378307 -0.08099461
0.0066120476 0.08086642 0.09978299 -0.050055377 -0.0990062 -0.08010821 0.0003712448 -0.07847368
-0.13297233 -0.0137055395 0.04508862 -0.23422131 0.0099291215 0.08677178 0.004511903 0.13789268
-0.05799079 -0.09266661 -0.18864098 0.015293645 0.007457547 -0.0779053 -0.005161427 0.12309658
-0.07872598 -0.22382963 0.031565912 -0.06678042 0.06500234 -0.12638927 0.1042901 0.053505734
-0.059194975 0.045110524 0.11814657 -0.21225086 -0.03696576 0.034536004 -0.112793855 0.044515483
0.039079763 -0.0063557765 0.013166449 -0.08545207 0.0668283 0.00079461065 0.16681398 0.039191913
-0.018610716 -0.17021875 -0.039548337 -0.062502034 -0.12095539 -0.057619803 0.09370369 0.1371748
0.016571844 -0.13225414 -0.1212441 0.04846171 0.14717203 -0.11414963 -0.05794281 -0.030127991
-0.24202651 0.09800732 0.096534945 -0.10847773 0.06002814 -0.012188895 -0.072857015 0.085107885
0.056208175 -0.027119895 0.057829663 0.050634574 -0.0045843627 -0.103639446 0.07630493 0.056852873
-0.051006414 -0.033612665 0.10159098 -0.08990283 -0.004852223 0.08394952 -0.0119411675 0.069834605
-0.07399025 0.08947625 0.08285157 0.23580435 0.12432395 -0.04246675 0.014319333 0.07397258
-0.052012745 0.051157877 -0.06986246 0.013384498 0.062656544 0.050376583 0.06151923 0.0594098
-0.058633104 0.086597346 0.06439153 0.043375652 0.14619122 -0.060489472 0.1878498 -0.04006281
-0.016715009 -0.01302914 0.14527915 0.21462546 0.04688326 0.15763424 0.080945276 0.06456806
-0.03786085 0.07765789 -0.09809976 0.20710088 -0.0029259892 0.07854585 -0.0063086264 -0.023649348
0.027352702 -0.084398024 -0.10023273 0.13081618 0.012773931 -0.033125833 0.069171846 -0.021915011
-0.19018516 0.0037611318 -0.0073715197 -0.007138068 -0.040121756 0.031935956 -0.13042301 -0.010706091
-0.0034890329 0.0058910823 0.04573189 -0.05974601 -0.11197152 0.075389445 0.023494512 -0.06846213
-0.013020033 -0.09017347 -0.11489299 0.06105703 0.037994426 -0.058933504 -0.0050173914 0.047114138
0.03910275 0.08922342 0.11039878 -0.0710335 -0.038331393 -0.0023184407 -0.030831983 -0.00769444
-0.08813725 -0.1078891 0.14098082 -0.0472579 -0.026880095 -0.036744613 0.010149527 0.15398426
0.07190203 0.004691618 0.09534853 0.030906102 -0.083720304 -0.07322987 -0.11625464 0.11913271
-0.102064684 0.037028704 0.009773966 0.070923574 0.060821593 0.05304626 -0.070490874 -0.04149424
0.006364742 -0.05756931 -0.12548523 0.053887744 0.013804667 0.106791385 -0.04560555 -0.106277
-0.052892294 0.019195901 0.045637965 0.005763243 -0.020901926 0.06207887 -0.05165458 -0.10375888
-0.021154357 0.041808907 0.0005833663 -0.040200595 0.009473734 -0.09817768 0.14803518 0.1295327
0.06396959 -0.11513378 -0.15681794 0.05434217 -0.0018201375 0.010157079 0.031024784 0.07431445
0.0067859883 0.10126204 -0.0711743 -0.063930154 -0.10236457 -0.10984597 0.024789978 0.038632333
-0.07342446 -0.031653255 -0.03850948 0.07591466 0.057852376 -0.04293747 -0.069777526 0.1261763
-0.08630132 0.07294563 0.06159973 0.029960647 -0.02276412 0.12635444 0.018906314 -0.022198953
