results/HideAndSeek5/Hide/Hide-1204041.onnx (onnx, 161813 bytes, 7 tensors)

action_model._continuous_distribution.log_sigma f4 [1, 3]
000000 58 7e 79 be 37 2e 91 be 57 f3 2b be
       -0.24364603 -0.28355572 -0.16792046

action_model._continuous_distribution.mu.bias f4 [3]
000000 ea b3 ba 3b 98 28 f4 bb 72 e7 77 bc
       0.005697717 -0.007451128 -0.015130864

action_model._continuous_distribution.mu.weight f4 [3, 128]
000000 43 07 c1 3c f6 a5 2d bd 51 e5 d5 3d 26 fb 7a 3c
       0.023563033 -0.0423946 0.10444129 0.0153186675
000010 da 29 ac 3b 65 d5 08 3c f1 9c 7b 3d 76 75 8f bc
       0.0052540125 0.0083516585 0.061428968 -0.017512064
000020 d0 cb 0a 3c 94 f1 37 3d 9e 26 32 3d bc 5b 09 3d
       0.008471444 0.04490812 0.04349386 0.03353475
000030 36 a5 04 3c 51 c9 33 bd ab c1 81 bd e8 d6 06 3d
       0.00809603 -0.043893162 -0.06335767 0.032919794
000040 89 20 2b bd ae 1d a3 bb bd f8 32 bd 1d 49 03 3d
       -0.041779075 -0.0049779033 -0.043694247 0.032052148
000050 96 61 33 3d 51 98 91 3c 76 c8 d2 3c 77 7c a8 bc
       0.043794237 0.017772825 0.025730353 -0.020567162
000060 fb ed a5 3c 20 61 5f bd fd aa 6b ba 9e 15 71 bc
       0.02025508 -0.054535985 -0.0008990018 -0.014714627
000070 3c b7 24 3d 8b b1 9e 3a 5d c1 88 3d ce c2 15 3c
       0.04021381 0.0012107355 0.06677506 0.009140683
000080 82 d3 50 bd c7 e1 a4 3d 91 60 22 bd 21 19 bf bc
       -0.05098296 0.08050876 -0.039642874 -0.023327412
000090 e7 e6 85 3c f4 37 e8 bc a4 25 63 bc 8a af 40 3d
       0.016345454 -0.028346993 -0.013863955 0.047042407
0000a0 b0 28 91 3c 42 0f 94 bc 51 60 2d bd b8 94 02 3d
       0.017719597 -0.018073682 -0.042328183 0.03188011
0000b0 a0 21 46 bd e7 72 b6 3c 85 05 7c bc 6d 83 d8 bc
       -0.04837191 0.022271587 -0.015382175 -0.026429856
0000c0 b5 4c 71 bc 2b c6 40 3b c3 a3 d2 3c 96 88 02 bb
       -0.014727761 0.0029414992 0.025712853 -0.0019917837
0000d0 26 91 cd bb 06 c1 14 3d 62 e7 e8 bb 8c bc 67 bd
       -0.0062734066 0.036316894 -0.007107661 -0.056576297
0000e0 69 d9 05 bc c2 6a 8e 3d 00 71 a4 3c 68 d1 cd 3c
       -0.00816951 0.06953956 0.020073414 0.025124267
0000f0 80 4c e1 ba bb bd f7 bb 34 fb b5 3c 13 ba 96 bd
       -0.0017188936 -0.0075604594 0.02221451 -0.073597096
000100 7d 09 0f 3d 4f f8 b1 bc 77 80 26 bc 6d 18 62 3d
       0.034921158 -0.021724848 -0.010162464 0.055199075
000110 2b ec b1 bc 0a aa a3 bc 9e e8 47 bd d7 fd 72 bc
       -0.021719059 -0.019978542 -0.048805825 -0.014831028
000120 62 4b 7b 3b e3 9d cf 3c 6b 76 9d 3d d0 4c 1e bd
       0.0038344492 0.025343841 0.07688602 -0.038647473
000130 93 be d3 bb fd 05 f3 bc ce 4f 33 3c 1c bc ad 3c
       -0.006461927 -0.029665941 0.01094432 0.021207862
000140 0f 97 21 bd e3 58 cd 3b c2 59 d1 3b 65 c0 0b 3d
       -0.0394507 0.0062666996 0.006388874 0.03411903
000150 c8 65 fa bc 3e 84 66 3d cd 30 2a 3d 83 ea 42 bd
       -0.030566111 0.05627846 0.041550446 -0.04758693
000160 29 26 75 bc 4e 5a 08 3b 72 e3 3c 3d a6 80 d0 3c
       -0.014962711 0.002080578 0.046115346 0.02545197
000170 f8 71 a7 3c 64 54 c7 3b 70 48 01 3d c7 0b 0b bd
       0.020440087 0.006083058 0.031563222 -0.03394678
000180 b3 da 56 3b 1d a2 fc 3c 57 15 a6 3b ee aa 0b bc
       0.0032784163 0.03083902 0.005068462 -0.0085246395
000190 3d 92 82 bd 39 2e 05 3a 69 c1 67 bc 16 24 c2 bc
       -0.06375549 0.0005080435 -0.014145234 -0.023698848
0001a0 10 e6 fe bc 4d 48 4d bb f5 34 1b 3d e1 40 89 bc
       -0.031115562 -0.0031323612 0.0378923 -0.01675457
0001b0 14 d6 5c bc b4 6b 5d bd 2c 0c 92 bd df df 87 bc
       -0.013478775 -0.05405779 -0.07131228 -0.016586242
0001c0 d0 70 68 3c 62 0b 1e bd c0 5b 4b 3d d3 e5 55 3d
       0.014187053 -0.038585074 0.049648046 0.05222113
0001d0 fe 4f 92 3b fa 1d 8d 3b 12 fa 68 bc bd 18 07 3d
       0.004465102 0.004306552 -0.014219778 0.032982577
0001e0 24 16 46 bc 1f 39 09 bd 59 f5 d4 3c 91 7f bc bc
       -0.01209024 -0.03350174 0.025995897 -0.023010047
0001f0 9e dc 19 bd b1 c0 85 3c fd 4b 34 3d 98 81 67 bc
       -0.037563913 0.016327234 0.04401778 -0.014130019
000200 53 40 8c bc 9a eb 56 bc 44 bc 10 3d a5 d3 3d 3d
       -0.017120516 -0.013117695 0.035335794 0.046344418
000210 39 52 a9 3c 10 0e 12 bd 3b 6d df bc c8 36 96 bb
       0.02066909 -0.035657942 -0.027273765 -0.004584167
000220 39 83 bf bc 91 20 14 3d b7 93 35 bd d1 6b 3e 3d
       -0.023378002 0.03616387 -0.044330325 0.04648954
000230 21 32 93 bd 72 47 d4 bc f8 30 85 bd c6 d1 25 3d
       -0.07187296 -0.025912974 -0.06503481 0.04048326
000240 fb 5e 6b 3b 99 78 c0 3b 21 94 09 3d 29 7c 7c 3a
       0.0035914767 0.0058737514 0.033588532 0.00096315384
000250 25 23 32 3d 9d 9d 26 bd 3d 83 14 bd a8 40 37 bd
       0.043490548 -0.040677655 -0.03625797 -0.044739395
000260 12 74 6c bd a1 00 ed 3c 0b cf c8 bb 07 e6 94 bb
       -0.05772788 0.028930964 -0.006128197 -0.004544023
000270 4f 14 0a bd 39 39 05 3d c5 32 36 3d 4b 5d 3f 3c
       -0.033710774 0.032525275 0.04448201 0.011679958
000280 61 de 1c bd a2 3f b3 bc 05 b4 02 bc 11 c7 6d 36
       -0.038298015 -0.021880928 -0.00797749 3.5431624e-06
000290 30 53 12 bd 27 90 d5 bc 2f 28 26 3c 44 00 05 bb
       -0.035723865 -0.026069714 0.010141416 -0.0020294348
0002a0 74 81 ad bc d1 10 37 bc 83 bb 3d 3c 6e 95 5f 3c
       -0.021179892 -0.011173443 0.011580351 0.013646467
0002b0 2e ae bc bc 84 20 73 bd 38 e8 c2 3d 08 8f 5e bd
       -0.023032274 -0.05935718 0.095169485 -0.054335624
0002c0 00 72 e4 3c 5a 2a 93 3c 7d da 97 3c bd fe 22 bd
       0.02788639 0.01796453 0.0185368 -0.03979372
0002d0 c2 29 4b bd 1a 1f 7b 3c ec 06 e4 ba b5 96 0e bd
       -0.04960037 0.015327239 -0.0017397082 -0.034811694
0002e0 13 e0 15 bd 4f 1b 36 bd 8b cf 32 3d a6 50 0c 3c
       -0.036590647 -0.044459637 0.04365496 0.00856415
0002f0 8e c8 a9 bc 1f b7 5a 3d 26 92 99 3c b2 7f ca 3c
       -0.020725515 0.053397294 0.018746447 0.024719093
000300 ea 65 39 3c 3a 45 b2 3d aa f9 e2 3c d5 9f 6c bb
       0.011315802 0.0870461 0.02770694 -0.003610601
000310 23 77 14 bd 03 1f 34 bb f3 7e 9e ba b8 44 c7 bc
       -0.03624643 -0.0027484305 -0.0012092277 -0.02432476
000320 fd f0 07 3c 4b 8c 3a bc 9c bd 97 3a b7 60 81 3d
       0.008297202 -0.0113859875 0.0011576894 0.06317275
000330 67 64 75 bd 60 da c4 3b 57 5a e0 bc d3 45 e5 3c
       -0.059910204 0.0060074776 -0.027386827 0.027987396
000340 9a 05 0d 3d 6c f7 4b 3c c0 5c 00 bc f6 35 da bc
       0.03442917 0.012449127 -0.007834613 -0.026637059
000350 a3 90 49 bd 01 7a 29 bc 39 cf 2d 3d 82 d3 86 bd
       -0.049210202 -0.010344029 0.04243395 -0.06583311
000360 22 53 29 ba 25 39 74 3b 0b 20 cf bc ca af 1d bc
       -0.0006459226 0.0037265506 -0.025283834 -0.009624431
000370 d3 57 00 bd a2 14 13 3d 10 1b bd bc 27 fe c3 3d
       -0.031333756 0.03590835 -0.023084193 0.0956996
000380 d9 ac 43 ba 49 aa 8b 3a 0a d3 5f bd b8 5d 32 3d
       -0.0007464416 0.0010655607 -0.054644622 0.04354641
000390 d4 08 e6 bc 12 31 17 3d 34 72 b1 bc a9 0d 8b bb
       -0.028080381 0.03691203 -0.021660902 -0.004243572
0003a0 bf b6 02 bc 8c 44 6e bc 68 22 96 3c e2 97 8b bd
       -0.00797814 -0.01454271 0.018326953 -0.06816079
0003b0 df 67 7a 3c 8f 5e 1b bd a6 62 0b bb 30 67 40 3d
       0.015283554 -0.037931975 -0.0021268516 0.046973407
0003c0 b0 19 9e bc 13 5b 2e 3b 30 eb ca 3b 58 02 86 3c
       -0.019299358 0.0026604577 0.0061925873 0.01635854
0003d0 a5 34 89 3c 89 45 99 bb c2 3a dc 3b 18 85 66 bc
       0.016748736 -0.0046774787 0.0067208717 -0.014069818
0003e0 0b 46 75 bd a8 78 39 bd e7 8e aa bc 4c 8b 9c 3b
       -0.05988125 -0.045281082 -0.020820094 0.0047773477
0003f0 d5 e3 3e bd 8d 53 89 3c 9d bb 67 3d c1 94 0d bd
       -0.046603996 0.016763473 0.056575406 -0.03456569

network_body._body_endoder.seq_layers.0.bias f4 [128]
000000 46 34 0b 3c d1 94 5a bd b9 a3 13 3d 30 24 0e bc
       0.00849635 -0.05336458 0.03604481 -0.00867562
000010 7a ba 6b 3c 99 b1 2c 3c a9 34 c6 3c 99 a5 de 3b
       0.014387721 0.010540389 0.024195032 0.006794643
000020 ff 96 83 bd fd 33 06 3d 1d 26 00 3c 57 e9 9e 3c
       -0.064252846 0.032764424 0.007821587 0.019398374
000030 73 04 1d 3c 29 9f 7b 3c 40 e0 ad 3c 6d f2 51 bc
       0.00958358 0.015357771 0.021225095 -0.0128141465
000040 20 64 bd ba 62 59 0e bd 6e 33 09 3c 36 90 bd 3b
       -0.0014449395 -0.03475321 0.008374078 0.0057850135
000050 1b db ce 3c 89 01 83 bb 6b 48 76 bb d8 7a 1a 3d
       0.025250962 -0.0039979857 -0.0037579786 0.03771481
000060 a8 5f 9f 3c 5d 19 fb bc b6 27 a0 bc 67 c6 a3 bb
       0.019454792 -0.030651743 -0.019550186 -0.0049980166
000070 76 76 09 bd 9d e6 d7 3c 12 b3 3e bb cd 5f 39 bc
       -0.03356024 0.026355082 -0.0029098433 -0.011314345
000080 e2 f2 26 bd 09 7e c9 3b 29 bc 99 3c 7a bb 3e bc
       -0.040758975 0.0061490578 0.01876648 -0.011641378
000090 45 f9 31 3c 0f 75 23 bd 67 9f f1 bc 58 ad 3c bc
       0.010862653 -0.039906558 -0.029494954 -0.011515938
0000a0 af d5 51 3c 4c dd b7 b9 82 53 0c bc 2b 4d a3 3b
       0.012807294 -0.0003506936 -0.008564832 0.0049835644
0000b0 c4 d3 69 3c b1 ca b5 3c be a0 80 bc 07 cb ab 3b
       0.01427168 0.022191377 -0.015701648 0.0052427086
0000c0 81 32 b6 bb e2 24 1c bd 7d b0 30 3d 35 a6 97 bc
       -0.0055602198 -0.03812111 0.043137062 -0.01851187
0000d0 de ee 4b bc 7c 5d 15 bd 64 f0 4c 3c e6 21 94 bc
       -0.012447087 -0.036466107 0.0125084855 -0.01808257
0000e0 48 10 91 bc 26 a2 9e 3c cf 06 19 3d b2 c4 52 3d
       -0.017707959 0.019364428 0.03736001 0.051457115
0000f0 a0 5f 23 bb 38 a1 17 bc 99 40 d5 3b 61 03 8d bc
       -0.0024928823 -0.009254746 0.006507945 -0.017213525
000100 80 0d e2 3c 9e 91 cf bc 18 1a 18 3d ca 2e a8 bc
       0.027594328 -0.02533799 0.03713426 -0.020530123
000110 79 ce 67 bc c0 18 a6 3c f5 63 ee bc 7c b5 3e 3d
       -0.014148348 0.020275474 -0.029100398 0.046559796
000120 be 36 0b bc 71 e3 f9 3a 70 35 32 bc 1b 15 99 bc
       -0.008496938 0.0019064975 -0.010876998 -0.018686822
000130 24 05 47 3d 29 f2 a3 3b a2 e8 fc bc 14 2f fe bb
       0.048588887 0.005003233 -0.030872647 -0.007757077
000140 92 b3 31 3c 0b 51 8d bd ff ed d0 bb 21 05 65 bc
       0.010846036 -0.06900223 -0.0063760276 -0.013978274
000150 3d 73 10 39 79 f6 13 bb 58 70 64 bb 5f 57 91 bb
       0.0001377584 -0.002257733 -0.0034857 -0.0044354643
000160 ef ba ac bc 56 76 66 3c d3 69 72 3b 56 e3 7b bd
       -0.02108523 0.014066299 0.0036989346 -0.0614961
000170 05 c5 a8 bb 8c e5 05 3b b8 8f 44 3c c2 95 04 bc
       -0.0051504397 0.002043101 0.011997156 -0.008092346
000180 b0 06 73 bc 62 14 e9 3c f3 f4 c9 bb 0d 68 73 3b
       -0.014833137 0.028452102 -0.0061632334 0.0037140877
000190 6b 02 b2 3b 44 40 69 bc b2 02 1f 3c 2c 9c 68 bc
       0.005432417 -0.0142365135 0.009705232 -0.0141973905
0001a0 38 81 00 bd 2f d6 12 bb 90 43 03 3c 41 d8 9b bc
       -0.031373233 -0.0022405495 0.008011714 -0.019024016
0001b0 c9 36 f2 bb d3 67 0c 3d 15 f1 94 3b 5a 49 55 3d
       -0.007391785 0.034278702 0.004545341 0.052071907
0001c0 44 ad 4a bd 61 17 4f 3d ed ea 0e bc 0d 97 3b 3d
       -0.049481645 0.050559405 -0.008723003 0.04579835
0001d0 09 df 08 bd 57 61 d0 3b 58 83 36 3c d1 c8 da 3c
       -0.033415828 0.00635926 0.011139713 0.026707085
0001e0 00 1d 57 3d cb fd 0f bd 60 66 f6 3b e8 73 63 bb
       0.05251789 -0.035154145 0.0075195283 -0.0034706537
0001f0 1a c0 85 bc 09 42 51 bc d7 42 fc bc 37 67 b0 bc
       -0.016326953 -0.012772092 -0.03079359 -0.021533592

network_body._body_endoder.seq_layers.0.weight f4 [128, 179]
000000 ce e4 3a 3e cb a2 f3 bd 3d 77 18 3e 25 61 ee 3d
       0.18251345 -0.11896285 0.14889236 0.116396226
000010 3a c9 22 3d ed ff 7f 3d 4e 20 ca 3d 0f 9f 01 be
       0.039742686 0.06249993 0.09869443 -0.12658332
000020 b7 01 db 3d 78 5c 5e 3d 51 e2 61 3d 19 be 9e 3d
       0.106936865 0.054287404 0.055147473 0.07751102
000030 10 de d9 bd be 82 22 3e c5 a7 1d 3e 5f 0f 50 bb
       -0.10638058 0.15870187 0.1539603 -0.0031747443
000040 ef bd 2e 3d a8 af 0b 3d a5 ad 6c 3d 76 3c 04 bd
       0.042661604 0.034103066 0.057782788 -0.032284223
000050 bc 57 08 be 82 3c b0 3d a3 2a 47 bc 8f 66 8c 3d
       -0.13314718 0.08605291 -0.0121561615 0.06855499
000060 72 ac e0 3d 9f fc 7d bc 04 3c 94 3d 6e 9e 19 3e
       0.10970391 -0.015502124 0.072380096 0.15001842
000070 41 13 da bc 68 50 b8 bd 76 9e 93 3d 56 9b f2 bd
       -0.02662051 -0.08999711 0.072079584 -0.11846034
000080 3a a9 ed 3d 8a d6 49 bd cc fc ea 3d e6 8c f7 3d
       0.11604543 -0.049276866 0.114739984 0.12087421
000090 f5 63 6f bd 83 07 3a bc f6 c0 1f 3b 2e b4 a5 bd
       -0.058444936 -0.01135433 0.0024376488 -0.08091007
0000a0 8f 6a 85 3d 87 04 1a be 2f f9 12 3e 41 ec 0b 3e
       0.06514465 -0.1504079 0.14352868 0.13664342
0000b0 9c 76 9d bd 31 a4 7a bd c3 d5 f1 3c f3 f9 e9 3d
       -0.076886386 -0.06119174 0.029520875 0.11424627
0000c0 20 cf ac 3c 6c a2 10 3d 12 e2 d4 3c a1 f7 7c bd
       0.021094859 0.035311148 0.025986705 -0.061759595
0000d0 e4 ca 22 3c f4 f1 60 bd 29 87 40 3e 75 a7 f2 3d
       0.009936068 -0.054918244 0.1880156 0.11848346
0000e0 16 74 cc bb bf 57 16 3d f1 06 51 3d 85 06 45 3d
       -0.0062394245 0.036704775 0.05103201 0.04810192
0000f0 5a 3f 4d 3e 96 bb da 3d 4e 4d 39 3e 5e cf 3d 3e
       0.20043698 0.106803104 0.18095896 0.18536136
000100 f1 76 8a 3d 3d 8d 8f bc c1 ec e3 3c 93 17 03 3e
       0.067609675 -0.017523402 0.027822854 0.12801962
000110 5e e5 60 3e 94 e5 09 3d 54 bc 24 3e 94 e0 07 3e
       0.21962497 0.03366621 0.16087466 0.13269264
000120 66 07 37 3d 33 c2 e4 3d 90 e9 74 3d 3f 6a 8c bd
       0.04468479 0.11169853 0.059793055 -0.06856202
000130 77 5a 59 3e 23 2a 29 bd 84 dd ab 3d 9e cb 01 3e
       0.21225916 -0.04129995 0.0839186 0.1267533
000140 bc e9 d9 bd 19 a5 c8 bd 29 df 64 bc 2c a9 4b bd
       -0.106402844 -0.09797115 -0.013969221 -0.04972188
000150 e8 53 10 3e 96 56 2a 3e 8a cf 74 bd b7 c0 54 bc
       0.14094508 0.16634592 -0.059768237 -0.0129854
000160 bf 8f dc 3d 45 4b 67 3c 70 c7 0c 3e 5b 6e 1d be
       0.10769605 0.014117067 0.13747954 -0.15374129
000170 57 c2 0b 3d 02 31 81 3c 4e 7c 0e 3d 8a 8e 54 bd
       0.034120884 0.015770439 0.034786515 -0.05189375
000180 5d 77 db 3b c0 11 38 3d f4 e1 93 bd e4 3b 88 3d
       0.006697579 0.044938803 -0.072208315 0.06652048
000190 43 99 92 bd 3e aa f7 3c 9e 06 39 3e fc cc ce 3d
       -0.071581386 0.030232545 0.1806893 0.100976914
0001a0 02 d5 3b 3e 4b b4 0a 3d f3 e5 86 3d e2 f4 6e 3d
       0.18342975 0.033863347 0.06586828 0.058339007
0001b0 31 27 23 3d d4 8c 2b 3d f3 4a 9d 3d 3b 21 88 3c
       0.039832298 0.04188235 0.07680311 0.016617408
0001c0 31 c8 94 3d 56 01 5a 3b 32 34 30 bc 7a 4c 40 3e
       0.07264746 0.0033264956 -0.010754632 0.18779173
0001d0 34 0d 0a be 16 f7 c3 3d 15 03 51 bd 7c 97 ea 3c
       -0.13481599 0.09568612 -0.05102833 0.028636687
0001e0 77 fb 0a 3e 36 0d 10 bd 8e 94 0b 3d 6f 53 a5 bd
       0.13572489 -0.03516885 0.03407722 -0.08072554
0001f0 d9 1f fe bc c6 af a6 3c fb 64 d0 bb fd 94 3f bd
       -0.031021046 0.020347487 -0.006359694 -0.046772946
000200 80 3e 30 3d 89 00 6f bd 98 10 43 bd 5b e0 dd ba
       0.043028355 -0.05835012 -0.047623247 -0.0016927825
000210 64 99 23 bd 55 91 9b 3d 50 35 f6 bc b0 a8 9a bc
       -0.039941207 0.07596079 -0.030054718 -0.018879265
000220 c8 df f9 3b 5e b1 98 3b 96 cc 92 3d 46 e3 e9 bc
       0.0076255538 0.0046598157 0.07167928 -0.028550755
000230 60 0d 96 3d 94 4a 72 bd 9b b0 84 be ae dc 20 3d
       0.0732677 -0.059153154 -0.2591599 0.039272957
000240 6c 0e d0 bc d8 c8 20 3d 90 74 bf bd d3 21 59 bd
       -0.025397502 0.03925404 -0.093484044 -0.053010773
000250 ed 0a 89 3d cd 1c 29 be a0 af 21 be 53 65 30 bd
       0.06691537 -0.16514893 -0.15789652 -0.04306538
000260 0c c8 5c 3d ad 87 3b bd 66 df 81 3d 9a 49 d5 bc
       0.053901717 -0.045783687 0.06341438 -0.026036073
000270 40 46 d3 3b e5 7c a3 3d 19 9b e4 bd 51 17 6b 3c
       0.0064475834 0.07982806 -0.11162395 0.014348821
000280 d8 3e 12 be fd 71 a9 3d 18 ab 0c 3d 18 ba 9d 3c
       -0.14281785 0.08273695 0.034342855 0.019253775
000290 2a f7 53 bd a1 0f 33 be d0 c4 e8 bd d0 21 93 3d
       -0.051749386 -0.1748643 -0.11365664 0.071841836
0002a0 8e c1 2a bb 87 00 a0 3d 4a e3 83 bd 01 55 9b be
       -0.002605531 0.078126006 -0.06439836 -0.3033829
0002b0 30 4f 85 bb a0 cb 86 bd be 17 3d 3d 3d 66 3f 3d
       -0.004068278 -0.06581807 0.04616522 0.04672836
0002c0 24 fe a0 bd 3d b5 85 bd a8 1a 79 3d 4d 09 d7 bd
       -0.078609735 -0.06528709 0.060816437 -0.10499821
0002d0 ed a7 0b be d3 38 bc bd 1f b0 d0 bd dd bd c1 3d
       -0.13638277 -0.09190526 -0.101898424 0.09460042
0002e0 84 7e 91 bd ba ec 0a be 26 dc ac bd 16 bf 34 bd
       -0.07104209 -0.13566867 -0.084404275 -0.044127546
0002f0 94 d8 9a 3b 3f f5 e2 bd cc 28 12 be 54 8e ae 3d
       0.004725525 -0.11081933 -0.14273375 0.08523241
000300 70 3d 07 3e d2 70 6d bd 0f b0 6c be f5 92 a9 bd
       0.1320703 -0.057968922 -0.23114036 -0.08279983
000310 94 b1 a3 3d 33 83 a6 bd ed 57 98 3b f1 75 6b 3c
       0.07992855 -0.08130493 0.0046491534 0.014371381
000320 5b dd 2a 3d e8 a4 7e 3c 6a 44 b7 bc 55 b8 89 3d
       0.041715007 0.015542246 -0.02237149 0.06724612
000330 13 4c e7 3d f2 ff d7 bd e0 af c6 bd 72 58 b0 bd
       0.11293807 -0.105468646 -0.09701514 -0.086106196
000340 57 4a 7e 3d eb ce de 3d aa b9 c8 3c d4 2b f2 bd
       0.062082615 0.1087931 0.024502594 -0.11824766
000350 5f 6c b5 3c 4e 59 c4 bd 26 ab e5 bd 36 7e 78 bd
       0.022146402 -0.09587346 -0.112142846 -0.06066724
000360 f1 85 b8 3d a2 d2 58 bc 36 99 4c bd c8 14 23 3e
       0.09009922 -0.0132338125 -0.0499508 0.15925896
000370 91 ff 6e 3e a6 a3 7e 3d 75 ee 62 3d 94 0e 6e bd
       0.23339678 0.062167786 0.05540319 -0.05811937
000380 92 30 ab 3d dc c4 60 be 3b c2 ea bd f2 ec 87 bd
       0.083588734 -0.21950096 -0.11462828 -0.066369906
000390 4b 41 e8 3c ea 3e f0 bc bf c0 ff bd ae 88 74 3d
       0.028351447 -0.029326875 -0.12487935 0.05970066
0003a0 04 2a dc bc 2d 17 a4 bd 3c 39 cb bd 07 18 8c 3c
       -0.026875503 -0.08012233 -0.09923026 0.0171013
0003b0 7f 7e 20 3d 0a 97 c2 bd ce 8c 5d be 25 3b 26 3d
       0.039183136 -0.09501465 -0.21635744 0.04058375
0003c0 32 c1 22 be af 4f de bc 2c cb 48 be 86 a1 3d 3d
       -0.1589401 -0.027137605 -0.19608754 0.04629662
0003d0 17 60 9c bc 95 64 d3 3c be 22 d2 bd 73 a8 eb 3d
       -0.019088788 0.025804797 -0.10260533 0.115067385
0003e0 5e 44 ae 3d cd 70 0d bb 2e e3 30 bd 7b 69 a9 3c
       0.08509134 -0.0021582127 -0.043185405 0.02068018
0003f0 c2 03 96 bd b0 5b 76 bd 19 0b 84 bd 18 7b 0e be
       -0.073249355 -0.060146034 -0.06447429 -0.13914144

network_body._body_endoder.seq_layers.2.bias f4 [128]
000000 1f 8b 2b bc 2a b7 1c bc 38 7b 04 3d b5 73 68 bb
       -0.010470181 -0.009565154 0.032344073 -0.0035469357
000010 f3 dd a8 3a cc 3e 8f bc be 43 37 3d 17 76 06 3c
       0.0012883529 -0.017485999 0.04474234 0.008206866
000020 da e8 85 bc 1b c7 9d b9 ee e3 2d 3c 9c 28 62 3d
       -0.016346384 -0.0003009372 0.010613425 0.05521451
000030 c3 bc 79 3c 47 f0 93 3c 6c 3f 25 3b cc 73 54 3c
       0.015242758 0.01805891 0.0025214804 0.012967061
000040 41 c4 aa bb e0 d0 91 bc 74 5a c2 3c 40 7e f3 bb
       -0.0052113836 -0.017799795 0.023724772 -0.0074308217
000050 a5 ae b5 3b 62 1f c6 3b b0 9f 40 bc c4 3a 52 bb
       0.005544501 0.0060462216 -0.0117568225 -0.0032078484
000060 f1 09 64 3c 4e 3f e7 3c 03 01 08 bd c4 8d c6 bc
       0.013918386 0.028228428 -0.03320409 -0.024237521
000070 aa fd 0b 3d 46 e3 bd 3b 86 89 98 3c 8d 4a 62 3d
       0.03417746 0.0057949154 0.018620264 0.05524688
000080 29 46 81 bb 5b 7f 5b 3c 00 ab 17 3b 46 c6 2f bc
       -0.0039451313 0.013397063 0.0023142695 -0.010728424
000090 99 4e b9 3b f5 05 46 3c 40 8d 4f 3c 89 67 29 3c
       0.0056551215 0.012086381 0.012667954 0.010339626
0000a0 92 5a e6 bc 88 0d dc bb 90 0e 8c ba 6c fb d6 bc
       -0.02811936 -0.0067154802 -0.0010685492 -0.026242934
0000b0 24 bd f2 bc 6d f1 ee 3b 69 d8 39 3d cd 02 60 3a
       -0.029631205 0.007291964 0.0453724 0.0008545339
0000c0 72 54 71 bc bb ef 0d bd 8c 6e e2 bc 88 41 8d 3c
       -0.014729606 -0.034652453 -0.027640603 0.017243162
0000d0 fc 01 aa bc a7 fc 2b 3d 13 3c 0c bd b1 29 76 bc
       -0.0207529 0.041988995 -0.03423698 -0.015024588
0000e0 ce 34 46 3c 85 2e ac 3c ff fc 77 3b bb dc ce bc
       0.012097551 0.021018276 0.0037840006 -0.025251737
0000f0 b6 6c 9f bb a9 f5 6b 3c 73 1d d1 bb 83 67 be 3c
       -0.0048652543 0.014401832 -0.0063816844 0.023242718
000100 64 b2 88 bb 38 c8 04 3d 18 2e 48 bc ac 6b 20 3d
       -0.0041716564 0.032417506 -0.012218021 0.039165184
000110 ec e0 bc 3b bf 64 66 3b fe 99 54 3a 67 88 a6 bc
       0.0057641175 0.0035155264 0.0008110105 -0.020328714
000120 f5 7b 9d 3c de b7 5e 3b dc a8 52 3b 3a e4 5e 3b
       0.019224146 0.0033984105 0.0032144105 0.0034010545
000130 74 12 b8 3c 09 70 b9 ba 68 3b c5 bb 77 62 05 bc
       0.022469737 -0.0014147769 -0.0060190447 -0.008141152
000140 85 2d 63 3b 0b 28 b6 bc 77 df 18 bd d8 e9 bf bc
       0.0034664583 -0.02223589 -0.037322488 -0.023426935
000150 66 db ab 3c 13 15 d0 3c 54 af 41 3d f4 04 cd 3c
       0.02097864 0.025400674 0.047286347 0.025026776
000160 ba 1f a3 bb 97 91 06 bd e3 11 e7 3c 26 23 19 3b
       -0.0049781473 -0.03285369 0.028206771 0.0023366897
000170 ac ae 6b 3c b3 10 36 bb e3 4d 8e bc 0c 3e 61 3d
       0.014384907 -0.002778095 -0.017371124 0.054990813
000180 34 0a 52 bd ed 2c e9 ba 9e 84 fc 3b b3 1f 71 3c
       -0.05127926 -0.0017789878 0.007706239 0.01471703
000190 93 cd 15 3c 71 41 91 bc 47 d6 25 bb 3e c3 2a bc
       0.009143251 -0.0177314 -0.0025304721 -0.010422526
0001a0 94 4d 88 3b 90 b7 99 bc 9a 89 d7 3b 4a 76 d4 3a
       0.0041596387 -0.018764287 0.0065776827 0.0016209569
0001b0 be 26 bd 3c 73 25 2f 3c 23 57 c7 3b 9c 37 ca 3c
       0.023089763 0.010690081 0.0060833856 0.02468472
0001c0 03 cd cb bb 58 67 14 bc d1 57 fa 3c 00 b8 e0 3c
       -0.0062195077 -0.009057842 0.030559452 0.027431488
0001d0 ec 0f 36 3c 85 6f 57 3c 8e 93 dd bc f7 0b c4 3b
       0.0111121945 0.013149147 -0.027047899 0.0059828716
0001e0 f3 e8 cc 3b 42 ae b4 3a ea 6c 92 3b b1 22 29 bd
       0.0062533556 0.0013784843 0.00446855 -0.04129285
0001f0 52 cc 0a 3d 1a 54 50 bc 35 c0 66 3d 08 12 2d bc
       0.03388626 -0.012715364 0.056335647 -0.010563381

network_body._body_endoder.seq_layers.2.weight f4 [128, 128]
000000 31 20 37 3d a1 32 98 3c 97 ae 30 3d 23 b3 95 3d
       0.044708434 0.01857883 0.04313525 0.07309558
000010 5c c7 08 bd 41 12 a6 3c 51 7e a1 3d 93 e2 31 3c
       -0.03339325 0.020272376 0.07885421 0.010857242
000020 7d 7e a8 3d 74 65 b0 bd d7 4f 6d bd 54 33 60 bd
       0.08227251 -0.08613101 -0.05793747 -0.05473645
000030 94 bf c5 bd 88 10 71 bd 67 9e 46 3e 92 b2 83 bd
       -0.09655681 -0.058853656 0.19396363 -0.06430544
000040 5c 2d b8 bc fb a7 3a 3e d6 dd 30 be 0a 34 f6 bd
       -0.022482567 0.18228142 -0.17272124 -0.120216444
000050 a6 39 68 bd f3 93 ab 3a 11 c5 c4 3d cb e4 0c bd
       -0.056695603 0.0013090357 0.096079 -0.03439788
000060 a9 c7 1d be 25 fa fb bc e7 1b 38 3d 44 81 03 3e
       -0.15408196 -0.030758927 0.044948485 0.1284228
000070 d2 a7 30 be c1 fb ad 3d 75 28 98 3d e6 c2 98 3b
       -0.17251518 0.08495284 0.074295916 0.0046619056
000080 7c ab 35 3d 5b 10 b5 3d 53 89 99 bd 2f f1 d7 3d
       0.044352993 0.0884101 -0.07496896 0.10544049
000090 1e cf b6 bd 28 1e 8d bc 65 0e 50 3d 02 11 e4 bd
       -0.08926223 -0.017226294 0.050794978 -0.111360565
0000a0 4c bb 5e 3d 20 1c 69 3c d6 21 1a 3e fc ac 90 be
       0.05437784 0.014227897 0.1505197 -0.28256977
0000b0 6e 31 04 bb 40 a4 67 3c d1 3b 29 3e 41 f5 42 3d
       -0.0020171064 0.014138281 0.16526724 0.047597174
0000c0 a2 c9 d3 bc 14 33 84 3c 12 8e 9a 3c b3 04 e5 bc
       -0.025852982 0.016137637 0.018866573 -0.027956342
0000d0 16 ce 15 bd e3 52 1f 3d 4e ba 9b bd db 84 1c 3e
       -0.036573492 0.038897406 -0.07603894 0.15285055
0000e0 9e 4e 80 bc 1d a1 ca 3d 08 ce e0 bc d7 eb 77 3d
       -0.015662488 0.09894011 -0.027441993 0.06052765
0000f0 67 a1 d2 3d a7 bb d9 bd 35 53 6e 3d 2a 38 2c be
       0.10284691 -0.10631495 0.05818482 -0.168183
000100 da 75 87 bc 07 a3 36 be 5c b6 d5 bc 4d a3 d8 bc
       -0.016535688 -0.17835627 -0.026087932 -0.026445055
000110 3d 17 37 3d 4c 3a 33 3d 8b e7 52 bd 72 ff 2d 3d
       0.044699896 0.043756768 -0.051490348 0.04247994
000120 45 c4 64 3a 9a 36 e8 3b 4f 3f 8c 3c f3 83 44 3e
       0.0008726756 0.007086587 0.017120032 0.1919096
000130 7e 1e 0d bd a7 f4 0f 3e 50 a5 4f bc 9f 36 07 bd
       -0.034452908 0.14058171 -0.012673691 -0.033011075
000140 b1 6f 2b be 76 56 49 3d 50 11 58 3d 4d 7a 2f bd
       -0.16741826 0.04915472 0.052750885 -0.042841244
000150 38 bb 0f be 5e 50 17 3c 14 20 2e 3d d8 f1 ce 3d
       -0.14036262 0.00923547 0.04251106 0.10104722
000160 72 78 6f 3d b5 02 cc bd 4d 55 80 3c d3 69 d5 3c
       0.058464475 -0.09961454 0.015665675 0.026051437
000170 10 72 5e bc d3 e9 10 bd 85 77 4b 3c 06 f0 f0 3c
       -0.013576999 -0.035379242 0.012418632 0.029411327
000180 0d 98 1e be 96 d2 cd 3d 86 ce d6 bb 48 93 bc 3d
       -0.1548769 0.10049932 -0.006555381 0.09207779
000190 6e d0 45 3e c6 ae 2e bd 4e af 4e 3d 36 d1 0f be
       0.19317791 -0.042647146 0.050460152 -0.14044651
0001a0 fb 3f a7 3d 28 66 f8 3d 4b 60 dd 3d 38 ce 35 bd
       0.081665 0.1212886 0.10809382 -0.04438612
0001b0 d1 ae 8b bc 38 3d 90 bd a5 78 e5 3c ad 47 53 3d
       -0.017051132 -0.070429265 0.02801163 0.051582027
0001c0 56 4c 20 3d a4 7c 02 3e ca e3 76 3d 3c 89 03 bd
       0.0391353 0.12742859 0.06027583 -0.0321133
0001d0 71 e7 57 3d ba 60 a5 3a 73 ec 9c 3d 39 cb a1 bd
       0.052710954 0.0012617328 0.076622866 -0.0790009
0001e0 59 ce 04 bd 02 04 38 3e 6a 47 1b 3d c0 7b ce 3d
       -0.03242335 0.17970279 0.037909903 0.10082197
0001f0 0a b5 59 3c c1 b4 36 bd e4 7d 14 be 9d 6e 3a 3d
       0.013287792 -0.044605974 -0.14501148 0.045515645
000200 51 32 21 3c f5 b6 46 3d cc 03 a9 bc 97 c8 5f bd
       0.0098386565 0.048514325 -0.020631693 -0.054634657
000210 45 83 3a be 5e e9 c2 bd 6b 58 05 be c4 20 1a bd
       -0.18214138 -0.095171675 -0.1302201 -0.037628904
000220 2b 18 98 bd 8a 92 7c bd 28 c2 b3 3c 47 60 0f be
       -0.07426485 -0.061663188 0.021943167 -0.1400157
000230 35 54 9b bd 84 d9 a4 3d fe 74 ae 3c 9f 05 9d bd
       -0.075844206 0.080493 0.02129602 -0.07667088
000240 d4 b6 6a 3c ef 49 b8 3d 23 cf 3c 3d ba 03 e0 3d
       0.014325816 0.08998477 0.04609598 0.10938211
000250 cd b5 21 3c b9 83 3b 3d 79 82 b6 bd f0 5f 17 3d
       0.009870005 0.045779917 -0.089116044 0.036956728
000260 64 f3 1a 3e 06 1c 68 bd c1 0b b2 bd ba 79 6c 3d
       0.15131909 -0.05666735 -0.08693648 0.057733275
000270 a6 c3 7d 3d 88 66 1e be fd bc 3c 3e 6b ea cc bd
       0.061954163 -0.154688 0.18431468 -0.10005649
000280 6d 30 0e 3e b4 4e 10 3c 52 aa cb 3d 92 6f d5 3d
       0.1388566 0.008807827 0.099445954 0.10421671
000290 6f a6 96 3d 26 1a 00 3d a3 1d c1 3d 56 fe a9 3d
       0.073559634 0.031274937 0.09429481 0.08300464
0002a0 70 08 af 3d 7f 3b 39 bd 94 3c 0e 3d c6 26 fb 3d
       0.08546531 -0.045222756 0.03472574 0.12263255
0002b0 95 2e f5 bd 82 06 c1 bd 8f 30 d9 bd 19 40 93 3d
       -0.119717754 -0.094250694 -0.10604965 0.0718996
0002c0 01 0e 67 bc a4 40 d3 bc 71 6b b9 3d e0 86 02 be
       -0.01410246 -0.025787659 0.09053696 -0.12746763
0002d0 9c 11 0b 3d f2 fe ea bc 13 00 bf 3d 8b c2 29 3d
       0.03395234 -0.02868602 0.09326186 0.041445296
0002e0 49 a7 f3 bd 79 9d ae bc a3 7d 94 3d f1 0c ac bd
       -0.118971415 -0.021315323 0.07250526 -0.08400906
0002f0 55 6d 8d 3d 37 7e 51 bc 80 be 8e bd b4 47 03 3d
       0.06905619 -0.01278644 -0.06969929 0.032050803
000300 50 44 8e 3b 46 2a 22 3e 33 92 81 3d 18 8a 7f be
       0.0043416396 0.15836439 0.063267134 -0.24955022
000310 96 81 85 bc db 2a 60 bd 66 55 dc bd b3 95 93 3d
       -0.016297143 -0.05472837 -0.10758476 0.07206287
000320 0e 70 b7 bd 65 b1 d1 bc 25 b1 4c bd 1d 90 4d be
       -0.089569196 -0.025597284 -0.049973626 -0.20074506
000330 7f 35 de bd 14 38 ad bc d0 67 f6 bd 72 8f 56 bd
       -0.10850047 -0.021144904 -0.120315194 -0.052382894
000340 fe 96 9b 3b 0c 6f 80 3c c5 85 f6 bd c1 96 a6 39
       0.0047482243 0.015677951 -0.12037233 0.00031774308
000350 ea 28 b8 bd 75 ff b6 bc 61 d7 91 3d f3 1d d7 bb
       -0.08992179 -0.022338608 0.071211584 -0.0065648495
000360 20 b1 78 bc 91 08 63 bc 03 1c 8d be fb 29 a9 bd
       -0.015178949 -0.013857023 -0.27560434 -0.0825996
000370 17 c2 cd 3c 38 4f 02 be 6e e6 20 be 02 c4 c0 3c
       0.025116963 -0.12725532 -0.15712902 0.023530964
000380 de 41 10 bd c7 4e b2 3d c5 4b fd bb a8 2d c5 3c
       -0.035219066 0.08706432 -0.0077299797 0.024069622
000390 78 e3 37 be c8 b6 d3 bd da ad 72 bd 68 35 80 3d
       -0.17957866 -0.10337597 -0.05924783 0.062601864
0003a0 d4 a0 8b 3d 7d 2d 87 3c f7 7b 0d 3e 14 0e 10 3e
       0.06817785 0.016501183 0.1381682 0.1406787
0003b0 a0 26 19 3e 2c b6 1f bd 5e 7c b7 bd d6 74 70 bd
       0.1495614 -0.038992092 -0.08959268 -0.058705173
0003c0 73 fa 9a bd 01 3a 2b be 74 93 b7 bc 02 3e 4f be
       -0.07567301 -0.16721345 -0.022409178 -0.20238498
0003d0 af 13 8b bd 20 7c 8e 3d f8 c4 f3 3d 3c 25 13 3c
       -0.06790864 0.06957269 0.11902803 0.008981045
0003e0 cc c8 a1 3d 23 db 8f 3c f1 9a 89 bd ab 87 e8 bd
       0.07899627 0.017560547 -0.06719006 -0.113540016
0003f0 29 13 6b bd 3c 32 c3 3c 5e 08 64 3d c0 43 a7 bb
       -0.05739132 0.023827665 0.055672042 -0.005104512
