results/HideAndSeek5/Hide/Hide-999990.onnx (onnx, 161813 bytes, 7 tensors)

action_model._continuous_distribution.log_sigma f4 [1, 3]
00000000: 2656 61be 463f 81be 047b 15be
-0.2200552 -0.25243586 -0.14597708

action_model._continuous_distribution.mu.bias f4 [3]
00000000: 53c1 7f3b 641b 39bc b7fb 4fbc
0.0039025142 -0.011298034 -0.012694291

action_model._continuous_distribution.mu.weight f4 [3, 128]
00000000: d47c a13c 471f 1fbd fedb c73d fd0d ae3c
00000010: 6e28 263c 592a d83a 8fea 553d c4c7 97bb
00000020: 0cc3 193c a169 5f3d 533e 333d 507c 0c3d
00000030: 9524 ce3b 9cd5 17bd 2346 7ebd 6a7b f03c
00000040: ee46 0abd e959 4fbb 36f7 27bd 11bd 0c3d
00000050: 1a4a 363d 26bc 863c 443f dc3c 14ca b1bc
00000060: 35b2 4b3c f1c8 5dbd 2a86 f6ba 39cb 65bc
00000070: bd82 233d 38fc 713b 8d57 9a3d e22d 193c
00000080: 196c 50bd 9c26 963d 7c1d 21bd 7129 96bc
00000090: 07ac 603c be22 fdbc 977d 30bc fb6d 393d
000000a0: a8e5 933c 9742 76bc c617 30bd 7da2 003d
000000b0: 933a 34bd 4a92 af3c ca5b 8ebc 9a97 cfbc
000000c0: e929 64bb abe4 113c d2cf dc3c d5e4 a4bb
000000d0: 2538 0dbc 2785 0a3d fae3 be3a 7057 68bd
000000e0: 253c 0fbc 5a9e 823d 21f7 cd3c abce e33c
000000f0: 0242 afbb dd22 ecbb 5596 bc3c b38e 94bd
00000100: 4467 1a3d a598 93bc 02e1 17bc 6d42 653d
00000110: 978f bebc 849a 9bbc 97fd 0ebd 65db 83bc
00000120: 5660 0a3c 5506 c83c 475c 9a3d 5b01 1fbd
00000130: 1ecc c9bb 69a0 c8bc 10bf 303c 6896 1c3d
00000140: 224b 19bd 2f30 e23b 5a18 7e3c bfd5 1a3d
00000150: 1ab7 aebc c877 573d d1bc 1a3d 2bb5 48bd
00000160: 57d5 85bc 538b a537 875d 3d3d 873e de3c
00000170: fc86 9f3c b665 183c 342f 063d eecc f6bc
00000180: cd52 013b d1d6 f73c bb66 de3b 101f 2dbc
00000190: 3ab6 83bd ad37 0c3c b0d7 91bc a78d a4bc
000001a0: 5f2e e6bc 615e c9ba 0fa3 193d 8f43 90bc
000001b0: 7fc6 0ebc a0e8 61bd 1a95 88bd 3239 9abc
000001c0: 23c7 c03b 261e 21bd 1501 473d 3882 503d
000001d0: dcf0 20bb 8476 e83b 5a5c 4fbc a6a7 0b3d
000001e0: 866e 4fbc bd8b 0dbd ae21 7d3c 2f0c 8fbc
000001f0: ab84 1abd 8a09 a03c 629a 263d 829e 7cbc
00000200: 68a1 9ebc 412c 65bc ae5a 093d 4938 2c3d
00000210: 0a9a dc3c b1c0 09bd 42b1 fcbc 0a06 073b
00000220: 8998 bbbc 9d7e 023d 7ed3 38bd 5c5d 423d
00000230: 4708 98bd ef7a d5bc dbe1 66bd 9495 093d
00000240: 8812 ef3b 2e87 d73b d870 fe3c 4ec3 163b
00000250: 246d 1b3d 0584 3abd ad7b 1dbd ef67 3abd
00000260: 58d2 69bd ea7d eb3c 90d6 0dbc 6697 30bb
00000270: 56ea febc fb6e ee3c 4d5b 1f3d ad3d 623c
00000280: d788 14bd a2ca ebbc 95d6 a9ba 445d ba3b
00000290: 29d8 febc 6dbc ddbc 8b3e 553c 6484 82bb
000002a0: 393e c9bc b30e 3cbc ff43 653c 7354 2d3c
000002b0: ae8f a9bc d493 72bd 65a9 b33d 903b 54bd
000002c0: dde4 f23c 5571 2d3c 9528 863c dcfd 24bd
000002d0: 2b02 47bd ff75 6c3c 1908 5f3b 9e0c 0abd
000002e0: eb13 ebbc bb30 55bd ac5d 2e3d c3ea 753c
000002f0: a607 a1bc fa0b 353d 8592 d83c 855b b03c
00000300: 583b 1a3c ca01 a83d e895 c73c 4a93 a8bb
00000310: 5a04 1abd af93 b1bb e255 633a 0feb c7bc
00000320: 653c d53b 3eb7 74bc b8ba b5bb cf89 723d
00000330: 3944 5bbd ee40 783c bbc8 e0bc 056c cc3c
00000340: eeb3 103d e8f8 3a3c f642 aabb 9db4 94bc
00000350: a812 3dbd 2665 45bc b0b4 043d 315b 89bd
00000360: e8df 1ebb f40a e93b 968f d2bc d692 66bc
00000370: 6893 0ebd 540d 0e3d fdbb f8bc 1432 b93d
00000380: 0f71 35ba 3047 ebbb 0c19 67bd fb51 2a3d
00000390: 6dbb d1bc 7ea1 1a3d b86b a9bc 644c a939
000003a0: c4d0 51bb 00a0 86bc 28c9 983c 7365 8abd
000003b0: d95b 7b3c 3675 0cbd b968 f63a 693a 343d
000003c0: 67dc b8bc 38cc ba3a 657e 633b 79e9 533c
000003d0: fb2c 8a3c e0f7 d4bb 8d79 2e3b 1823 53bc
000003e0: 50e3 71bd 2152 3abd 856a c0bc 5c0c a63b
000003f0: 993c 2dbd 7c61 923c 7350 573d 4f99 febc
0.019712843 -0.038848188 0.09758757 0.021246905 0.010141475 0.0016492113 0.052225646 -0.004631968
0.009384882 0.054544095 0.04376061 0.03429824 0.006290982 -0.03706895 -0.062078606 0.029355723
-0.03375905 -0.0031639284 -0.041007243 0.034359995 0.044504263 0.016447138 0.026885636 -0.021702804
0.012432625 -0.05414671 -0.0018808295 -0.014025503 0.039919604 0.0036924016 0.0753623 0.009349318
-0.05088434 0.07331583 -0.03933476 -0.018330308 0.0137128895 -0.030900355 -0.01077213 0.0452709
0.018053845 -0.015030525 -0.042991422 0.03140496 -0.044001173 0.02143206 -0.017377753 -0.025340844
-0.003481502 0.008904616 0.026954565 -0.0050321617 -0.008619343 0.03381839 0.0014563792 -0.056724012
-0.008742367 0.063778594 0.025142254 0.027808508 -0.005348445 -0.0072063045 0.023020903 -0.0725378
0.037696138 -0.018017123 -0.009269955 0.05597155 -0.023261828 -0.018994577 -0.03490981 -0.016095826
0.00844582 0.024417082 0.07537132 -0.038819652 -0.006158366 -0.024490552 0.01078774 0.038229376
-0.037425168 0.0069027166 0.015508736 0.0378015 -0.021327544 0.052604467 0.037777726 -0.0490009
-0.01633708 1.973441e-05 0.046231773 0.027129425 0.019473545 0.0093015935 0.03275986 -0.030127015
0.001973319 0.0302538 0.006787149 -0.010566488 -0.06431241 0.008558196 -0.017803043 -0.020087076
-0.028098283 -0.001536321 0.03750902 -0.01761034 -0.008714317 -0.05515349 -0.06669064 -0.018826101
0.005883114 -0.039335392 0.048585016 0.050905436 -0.0024557626 0.0070942063 -0.012656296 0.03409543
-0.012660628 -0.034557093 0.015449924 -0.017461864 -0.03772418 0.019535799 0.040674575 -0.015418651
-0.019364074 -0.013987602 0.033533745 0.042045865 0.02692892 -0.03363103 -0.030846242 0.0020602965
-0.022899883 0.03185903 -0.04512357 0.047452316 -0.07423454 -0.026059596 -0.056367736 0.033589914
0.0072959103 0.006577394 0.031059667 0.0023004594 0.03794588 -0.04553606 -0.038448025 -0.045509275
-0.057085365 0.028746564 -0.008657113 -0.002694571 -0.0311176 0.029105654 0.03890543 0.01380865
-0.036263313 -0.028783146 -0.0012957627 0.0056873877 -0.031108933 -0.027067387 0.0130154 -0.0039830673
-0.024565803 -0.011478114 0.013993262 0.010579216 -0.020698395 -0.05922301 0.08772544 -0.051814616
0.029650146 0.0105861025 0.016376773 -0.04028116 -0.048586052 0.014432429 0.0034031926 -0.03370344
-0.028696021 -0.052048426 0.0425698 0.015009585 -0.019656967 0.044200875 0.026437053 0.021528015
0.009413563 0.08203466 0.024363473 -0.0051445113 -0.037601806 -0.0054192166 0.00086721603 -0.024404077
0.0065074437 -0.0149362665 -0.0055459403 0.059213456 -0.05353186 0.015152199 -0.027439466 0.024953851
0.035327844 0.011411883 -0.0051959706 -0.01815253 -0.04616037 -0.012048041 0.03239888 -0.067068465
-0.0024242345 0.0071119014 -0.025703233 -0.014073094 -0.034808546 0.03468068 -0.030363077 0.09042755
-0.0006921449 -0.007180117 -0.05642037 0.04158209 -0.025602067 0.037751667 -0.020681247 0.00032291107
-0.0032015303 -0.016433716 0.018650606 -0.06757631 0.015341722 -0.03429147 0.001879952 0.044001017
-0.022566034 0.0014251536 0.0034712788 0.012934082 0.016867151 -0.0064992756 0.0026622743 -0.012886785
-0.059054673 -0.04548848 -0.023488292 0.0050673913 -0.04229412 0.01786875 0.052566957 -0.031078963

network_body._body_endoder.seq_layers.0.bias f4 [128]
00000000: c36e 683c b055 38bd b906 003d d5fe 03bc
00000010: 9a2e 653c 9392 d83b a081 fd3c 4907 bc3b
00000020: fb8c 71bd 45cc e13c 967e 163c f09a 4d3c
00000030: 1a22 3e3c 0c16 9f3c b875 843c 3b17 1cbc
00000040: 6330 93ba 08bf d8bc bf7e 483c 1dd8 753b
00000050: 5d87 be3c 0d93 4ebb 77f1 a7bb fdf8 083d
00000060: b9b6 823c 7882 dfbc 2d37 bcbc 8d17 953b
00000070: b633 cdbc f194 c13c 03f3 313b 98fa 1fbc
00000080: 85ba 29bd 007e e93b 3c06 8b3c 1af0 dbbb
00000090: f0c1 833c ccc1 31bd 3296 c7bc 6e94 41bc
000000a0: 88ab 9b3c 25ec c73b 547b 0ebc d59a ed3b
000000b0: 94c7 8c3c f6b9 b43c 6bdd 88bc 4fe4 313c
000000c0: fa27 08bc ba07 07bd 7279 ee3c d5d7 70bc
000000d0: bf44 7fbc 5538 1dbd 6554 5b3c 5e3e 5abc
000000e0: c590 ddbc a39f 913c 68d4 ad3c 43b7 553d
000000f0: c630 0339 e3d6 b9ba 8fab 883c 4a68 7abc
00000100: c15c b23c 3be8 87bc bf75 053d 96a0 aabc
00000110: 16a7 66bc 9c56 a13c c845 c2bc 248b 3a3d
00000120: bcc3 09bc 42db 023c 7068 24bc 9a52 86bc
00000130: ff17 503d 5142 d939 2e9c d8bc 823e 35bb
00000140: be7e 313c 3f45 6ebd ef97 b9bb 34bb 42bc
00000150: 3a02 eb3a 637d c63a e7f9 11bb b75b 24bb
00000160: bf4d 82bc 9554 b03c b3e6 09bb 3d32 72bd
00000170: 8f1b cebb 8378 003c 7229 803c c328 debb
00000180: 026e 0ebc 1489 be3c 6f46 d3ba 64c5 203b
00000190: 83c3 183b 37c1 7abc b31e 4d3c 9ce7 80bc
000001a0: cbef fbbc ff72 e3bb ec31 1d3c 721d 59bc
000001b0: e229 343b 1ac6 fe3c c5f4 f43b 57d7 383d
000001c0: bd1c 31bd 32c2 3f3d 8ea9 dfbc 8858 2e3d
000001d0: cd00 c3bc c70b abbb c1bc 053c 5563 ce3c
000001e0: 16ee 473d db45 11bd ab59 433a 041b 083a
000001f0: ae12 83bc c598 24bc 391b 08bd 6a58 8cbc
0.014186564 -0.045003593 0.03125641 -0.008056362 0.013988161 0.00660927 0.0309456 0.005738173
-0.05897234 0.027563224 0.009185454 0.012549147 0.01160481 0.019419692 0.016169414 -0.009527023
-0.001122963 -0.026458278 0.01223725 0.0037512847 0.023257906 -0.0031520755 -0.0051252204 0.03344058
0.01595627 -0.027283892 -0.022975529 0.0045499266 -0.025049072 0.023630591 0.0027152903 -0.009764336
-0.041437645 0.007125616 0.016970746 -0.006711972 0.016083688 -0.04339771 -0.02436361 -0.011815174
0.01900269 0.0061011487 -0.008696396 0.0072511234 0.01718501 0.02206133 -0.016707143 0.010857656
-0.008310312 -0.032966353 0.029110644 -0.014699896 -0.015580355 -0.0383838 0.01338682 -0.013320534
-0.02704657 0.017776316 0.021219447 0.052176725 0.00012511303 -0.0014178421 0.016683368 -0.0152836535
0.021772744 -0.016590228 0.032582995 -0.020828526 -0.014077922 0.019694619 -0.023714915 0.04554285
-0.008408483 0.007986845 -0.010034665 -0.01639681 0.050804134 0.00041438875 -0.02644166 -0.0027655666
0.01083344 -0.058171507 -0.005663864 -0.011885453 0.0017929741 0.0015143569 -0.0022274198 -0.002507908
-0.015906213 0.021524707 -0.0021042048 -0.059129942 -0.0062899063 0.007841232 0.015644763 -0.0067797615
-0.00869322 0.023258723 -0.0016119013 0.0024531716 0.0023309893 -0.015304855 0.012519526 -0.01573544
-0.03075399 -0.006941199 0.009594422 -0.013251649 0.0027490784 0.031100322 0.007475468 0.04512724
-0.043240298 0.04681606 -0.02730253 0.0425649 -0.023804093 -0.00521991 0.008162678 0.02519385
0.04881104 -0.03546701 0.0007452021 0.0005192014 -0.016000118 -0.010046189 -0.033229087 -0.017132003

network_body._body_endoder.seq_layers.0.weight f4 [128, 179]
00000000: 4d6b 2e3e cba2 f3bd e108 103e efba e53d
00000010: 164f 493d edff 7f3d 36e3 a23d c0fb 01be
00000020: 632f da3d 785c 5e3d eda6 5e3d adec 953d
00000030: e707 b4bd be82 223e 61a7 153e 4261 85bb
00000040: 63f7 1d3d a8af 0b3d 7022 403d dae4 0abd
00000050: 9d0d e4bd 823c b03d ddd2 cc3a 76d6 843d
00000060: b905 d73d 9ffc 7dbc 196a 9e3d 5805 1a3e
00000070: 8143 93bc 6850 b8bd 4a0e 843d e3b8 01be
00000080: b916 d23d 8ad6 49bd 72b9 cf3d 4f7a f63d
00000090: 8c11 55bd 8307 3abc 20dc 12bc ebc2 afbd
000000a0: 9e30 463d 8704 1abe 0d7f 123e 356e 0b3e
000000b0: 91f3 98bd 31a4 7abd 8a87 a83c a1b2 f73d
000000c0: 90d5 ac3c 6ca2 103d 1e66 1d3d 33fc 6fbd
000000d0: 9c9c a73c f4f1 60bd a77f 3a3e 7b4a fe3d
000000e0: 205d 35bc bf57 163d d822 633d 5600 4a3d
000000f0: 31ae 4c3e 96bb da3d 0895 363e 8346 3c3e
00000100: f991 a23d 3d8d 8fbc f9f5 d83c 0248 033e
00000110: f41f 5b3e 94e5 093d 2cd7 283e 162b 083e
00000120: 2fa1 773d 33c2 e43d ad63 743d e4dd 83bd
00000130: 8276 5d3e 232a 29bd 8f9f 9a3d 1f30 033e
00000140: e3f2 c4bd 19a5 c8bd 8f99 77bc 59bf 48bd
00000150: e814 163e 9656 2a3e ab44 60bd e732 02bc
00000160: 4780 d93d 454b 673c 971b e33d 313f 20be
00000170: 8ce3 493d 0231 813c 5425 e83c 3de0 47bd
00000180: 57e4 66bb c011 383d d084 50bd 4f8c 903d
00000190: 47d4 92bd 3eaa f73c 178e 243e 7413 d53d
000001a0: 1ae3 313e 4bb4 0a3d 3395 633d d60c 743d
000001b0: 385c 123d d48c 2b3d 03c7 943d 15a1 6e3c
000001c0: e696 843d 5601 5a3b 5b12 99bc 509b 433e
000001d0: 7233 11be 16f7 c33d 2fbd 37bd eecd 053d
000001e0: 7b17 003e 360d 10bd bced 143d 2de5 9abd
000001f0: ece6 ccbc c6af a63c ed66 383b d21e 12bd
00000200: 1d7e 113d 8900 6fbd 1d62 08bd 3eea 063c
00000210: 3cb5 c0bc 5591 9b3d 545a aebc 9167 c2bb
00000220: 930f e23c 5eb1 983b a0a6 b33d e4a2 bebc
00000230: 9017 a93d 944a 72bd f063 86be b0ad 173d
00000240: d109 b6bb d8c8 203d 0e55 c3bd b7e1 3ebd
00000250: efa9 af3d cd1c 29be f69f 25be b5db 13bd
00000260: 42c9 8e3d ad87 3bbd b785 823d 508e c2bc
00000270: 3b02 523c e57c a33d b52f d2bd 9f4a 483c
00000280: 796d 0dbe fd71 a93d 5d9b 6b3d eeff 093d
00000290: 1199 42bd a10f 33be 64b0 e4bd 5912 8a3d
000002a0: b256 a3bb 1cb6 ab3d 8eae 82bd 0155 9bbe
000002b0: 42c0 3fbb a0cb 86bd 1b6a 343d cc1c 413d
000002c0: ba63 95bd 9616 8fbd b4e6 9e3d adff cfbd
000002d0: eda7 0bbe e1ca ecbd 8900 e6bd 8b23 c03d
000002e0: 847e 91bd e132 10be 0c49 c0bd 4c47 28bd
000002f0: 94d8 9a3b 353c 06be 64dd 23be c02f b93d
00000300: 703d 073e 0f4c 4dbd 498e 74be 12e8 9bbd
00000310: 94b1 a33d aec5 d8bd b9bc ecbb 24bb a33c
00000320: 5bdd 2a3d 91b8 563c 1e20 19bd fa8a 863d
00000330: 134c e73d 7889 ecbd 4d11 cdbd e19b 9dbd
00000340: 574a 7e3d 0638 cf3d 31e0 243c 7465 eebd
00000350: 5f6c b53c 1788 efbd 0d63 f3bd 6b09 78bd
00000360: f185 b83d ad4e f3bc 1da7 79bd cd46 1c3e
00000370: 91ff 6e3e 3a02 473d fb65 6e3d d3f8 4bbd
00000380: 9230 ab3d a40c 63be 8c02 e9bd af08 87bd
00000390: 4b41 e83c e3e6 c1bc 4bfc 03be e6d8 833d
000003a0: 042a dcbc f6b1 a7bd c553 d5bd e449 933c
000003b0: 7f7e 203d 2814 b6bd d0d0 65be d5a5 253d
000003c0: 32c1 22be c15d 37bd 6130 58be f3d4 413d
000003d0: 1760 9cbc 4463 823c 357b ddbd 3bac fc3d
000003e0: 5e44 ae3d 88e5 ebbc 4da1 55bd f3fd fb3c
000003f0: c203 96bd 6c76 73bd a1b7 93bd 7ad5 07be
0.1703312 -0.11896285 0.14065887 0.112172954 0.049147688 0.06249993 0.07953493 -0.12693691
0.106535695 0.054287404 0.05435841 0.07320533 -0.0879057 0.15870187 0.14614631 -0.004070432
0.038566004 0.034103066 0.046907842 -0.033909656 -0.11135409 0.08605291 0.0015626807 0.06486218
0.104991384 -0.015502124 0.0773508 0.15041101 -0.017976524 -0.08999711 0.06448038 -0.12668185
0.1025824 -0.049276866 0.10142793 0.12035047 -0.052018687 -0.01135433 -0.008963615 -0.085820995
0.04838621 -0.1504079 0.14306279 0.1361626 -0.074683316 -0.06119174 0.020572443 0.12094618
0.021097928 0.035311148 0.038427465 -0.058590125 0.02046042 -0.054918244 0.18212758 0.1241655
-0.011069566 0.036704775 0.05545315 0.049316727 0.19988324 0.106803104 0.17830288 0.18386273
0.07937998 -0.017523402 0.026484476 0.12820438 0.21398908 0.03366621 0.16488332 0.13297686
0.06045645 0.11169853 0.05966537 -0.06438807 0.21627238 -0.04129995 0.07549965 0.12811325
-0.096166395 -0.09797115 -0.015112295 -0.04901061 0.14656413 0.16634592 -0.054752987 -0.007946706
0.1062017 0.014117067 0.11089247 -0.15649106 0.04928927 0.015770439 0.028338112 -0.048797835
-0.0035231316 0.044938803 -0.05090791 0.07058012 -0.07169395 0.030232545 0.16069828 0.10404101
0.17371789 0.033863347 0.05556221 0.059582554 0.035732478 0.04188235 0.07264521 0.014564772
0.06474094 0.0033264956 -0.01868551 0.19102216 -0.14179781 0.09568612 -0.044858154 0.032667093
0.12508957 -0.03516885 0.036359534 -0.07563243 -0.025012456 0.020347487 0.002813752 -0.035673924
0.03552066 -0.05835012 -0.033296693 0.008234559 -0.02352392 0.07596079 -0.021283306 -0.0059327562
0.027595317 0.0046598157 0.087720156 -0.023271032 0.08256447 -0.059153154 -0.2624812 0.037030876
-0.0055553694 0.03925404 -0.09537707 -0.046601977 0.08577334 -0.16514893 -0.16174302 -0.0360982
0.06971981 -0.045783687 0.0637316 -0.0237495 0.012817915 0.07982806 -0.10263006 0.012224822
-0.13811292 0.08273695 0.057521213 0.03369134 -0.047509257 -0.1748643 -0.11166456 0.06741781
-0.0049847 0.08384344 -0.0638095 -0.3033829 -0.0029258882 -0.06581807 0.044046503 0.047146603
-0.07294412 -0.0698673 0.07758847 -0.10156188 -0.13638277 -0.115621336 -0.11230571 0.09381779
-0.07104209 -0.14081909 -0.093889326 -0.04108362 0.004725525 -0.13108905 -0.16002423 0.09042311
0.1320703 -0.050121363 -0.23882402 -0.07612623 0.07992855 -0.105845794 -0.007224646 0.019986697
0.041715007 0.0131055275 -0.037384145 0.065694764 0.11293807 -0.115496576 -0.100130655 -0.07695747
0.062082615 0.101181075 0.010063217 -0.116404444 0.022146402 -0.11695879 -0.11884127 -0.060555857
0.09009922 -0.029700601 -0.060950387 0.15261383 0.23339678 0.048586108 0.058202725 -0.049797844
0.083588734 -0.22172791 -0.11377439 -0.06593453 0.028351447 -0.023669666 -0.12889211 0.064378545
-0.026875503 -0.0818824 -0.104163684 0.01797957 0.039183136 -0.08890563 -0.22442937 0.040441353
-0.1589401 -0.044767145 -0.21112205 0.047322225 -0.019088788 0.015916474 -0.108145155 0.12337538
0.08509134 -0.028795972 -0.05215578 0.03076074 -0.073249355 -0.059439108 -0.07212759 -0.13265029

network_body._body_endoder.seq_layers.2.bias f4 [128]
00000000: a757 1abc 8459 33bc e206 af3c 5f77 e6bb
00000010: 0ff7 033b f317 7dbc ff8f 263d 4814 b23b
00000020: 01c4 77bc e26b 20bc 0ee9 363c 2600 483d
00000030: 59ad a13c 28db 763c 30a5 03bb f3cc 0f3c
00000040: d28c bcbb c05a 73bc e46f 8c3c 2ea2 4abc
00000050: 0d91 84ba d12b f93b 90b5 30bc ac3c 8b3a
00000060: 371e 7f3c 840d ca3c 1bfd e0bc 039c a7bc
00000070: a393 d93c 7f09 62bb 27e7 493c 0666 4e3d
00000080: f0e6 6eba fd66 363c 909a 913b 538b 20bc
00000090: 718f 9a3b 54ca 133c 703c 503c 694e 0f3c
000000a0: be1b c0bc bbac 48bb 44dd 89ba 95bc d1bc
000000b0: 3d0b c3bc 57cc 1c3c 8da4 2c3d a81b 153c
000000c0: d369 90bc e7cb 08bd 403d f7bc cc27 a93c
000000d0: 1e63 7ebc b3c2 173d 50b0 dcbc 7b8d 3fbc
000000e0: 1a24 033c 150c ab3c be3e 053b 287b d9bc
000000f0: 7704 71ba 78c1 e13b 2045 bdbb cbdb c53c
00000100: f240 16bb f332 d63c 48f1 53bc aab8 003d
00000110: 844e c33a 9a9e b93b 947e 4dbb 5703 85bc
00000120: ceb9 223c 5cdf 813b b1a1 7e3a 7283 fa3a
00000130: 9a23 aa3c c8eb f9ba 07da 93bb 8a0d c4bb
00000140: 4976 483b c066 c1bc 3f6f febc 1549 adbc
00000150: 367c a83c 7560 bd3c c69c 283d 5115 e93c
00000160: 7089 ad3a cfce fabc 8a56 e53c 788d 1b3b
00000170: d1b5 903c 876e 01bc 5b5a 4dbc 2727 533d
00000180: 2744 40bd 7ec7 14bb 8b00 313c c1db 133c
00000190: 7574 a63b e895 a4bc 0d87 d8b8 ca35 46bb
000001a0: c6a4 bc3b ae04 7abc 50de 393b 92f4 803b
000001b0: 7756 aa3c 4554 503c f41d a53b 89f7 883c
000001c0: 3c34 3ebb 00b3 c1bb 8080 a63c d5ab a53c
000001d0: 9b62 e43b 37ce 273c 1702 b3bc 30d1 213a
000001e0: 2573 1a3c 7ba9 f63b 601e f13a 9ef4 19bd
000001f0: 2646 e43c 755e 51bc 79d7 443d c9d7 eebb
-0.009420312 -0.010946635 0.021365587 -0.007033273 0.0020136272 -0.0154476045 0.04066467 0.0054345466
-0.015122415 -0.009791346 0.011163963 0.048828267 0.019735979 0.015066899 -0.0020087473 0.008776891
-0.005754092 -0.014853179 0.017143197 -0.012367768 -0.0010114029 0.0076041003 -0.010785475 0.001062294
0.015571169 0.024664648 -0.02746444 -0.020460134 0.026559656 -0.0034490523 0.012323177 0.050390266
-0.0009113392 0.011132953 0.004443474 -0.0097988425 0.0047168066 0.009020407 0.012709722 0.008746722
-0.023450729 -0.0030620534 -0.0010518213 -0.025602618 -0.02380907 0.009570203 0.042149115 0.009100832
-0.017628586 -0.03339758 -0.030180573 0.02064886 -0.015526561 0.037050914 -0.026939541 -0.011691446
0.008004213 0.020879785 0.0020331587 -0.026547983 -0.0009194086 0.0068895184 -0.0057760626 0.024152657
-0.0022926894 0.026147341 -0.012935944 0.03142611 0.0014900719 0.0056646587 -0.0031355964 -0.016236944
0.009931995 0.003963394 0.0009713425 0.001911266 0.02076893 -0.0019067461 -0.004512075 -0.0059830593
0.0030588082 -0.023608565 -0.031058906 -0.021153012 0.02056704 0.023117283 0.041165136 0.028452547
0.0013239812 -0.030616192 0.027995367 0.0023735445 0.017664822 -0.007899887 -0.012533749 0.05155101
-0.046939995 -0.0022701914 0.010803352 0.009024561 0.0050798007 -0.020091012 -0.00010324838 -0.0030244463
0.005756947 -0.015259905 0.0028361268 0.003935405 0.020793183 0.012715404 0.005038971 0.016719596
-0.0029022833 -0.005911231 0.020324945 0.020223537 0.0069697625 0.010242037 -0.021851582 0.0006172834
0.009426867 0.007527528 0.0018395893 -0.0375868 0.02786548 -0.012778868 0.048057053 -0.007288907

network_body._body_endoder.seq_layers.2.weight f4 [128, 128]
00000000: 30db 3e3d 03fe 8b3c 3164 203d 92fe 943d
00000010: 7c24 00bd 7c7b 363c 2506 a93d 4691 593c
00000020: 2367 a73d b8e5 c0bd 27fa 59bd cb0b 60bd
00000030: 32e7 c2bd fd5c 6cbd 77dd 4b3e 50ee 85bd
00000040: 6f8b 92bc 5045 313e 35a2 2fbe d0a8 f5bd
00000050: 9949 69bd 38d4 943b 4ce8 b53d 6fe3 0ebd
00000060: deda 1bbe f125 e5bc fd9e 413d 348b e73d
00000070: 26ef 34be e483 a03d df3d 913d 5cfd 91ba
00000080: 173c 443d a128 b33d dcb3 95bd e726 d93d
00000090: 09ef b7bd a85b e7bc ec24 563d 816a e1bd
000000a0: 95c7 333d a981 753c 6e17 1d3e a729 90be
000000b0: 9ba2 85ba bbfb 073c d705 2b3e 2904 313d
000000c0: 11b2 b9bc d3c1 533c 52e4 e73c e3d4 10bd
000000d0: 7e33 12bd 6370 273d 241e 96bd 8e2b 1c3e
000000e0: df7a 1abc b4ed d13d e9c6 f5bc d521 753d
000000f0: a9e7 cf3d 466a e2bd 8163 523d 7839 2ebe
00000100: baca afbc b658 39be b131 b8bc 4b8a cfbc
00000110: 8afc 2d3d 836f 3f3d 769c 5ebd d8f6 273d
00000120: 5219 c83b 53bd 4c3c a13e c23c c611 433e
00000130: 8552 01bd e342 053e 69f9 40bc b547 f5bc
00000140: 5b5b 2ebe 72dd 3f3d 4b91 643d d76c 2ebd
00000150: 5bdf 09be 328d d53b f398 193d a288 c83d
00000160: 5ed4 683d 6e78 d0bd 4201 cd3b 5caf a53c
00000170: bd48 3ebc 0387 08bd ad31 3c3c 9483 053d
00000180: 74c1 24be ebc0 d43d c4c4 febb df5d bd3d
00000190: d47a 473e d11e 2bbd 582f 3b3d 7e8d 0ebe
000001a0: b385 a03d 4592 fe3d d585 d43d df3a 2cbd
000001b0: a5c9 8dbc a515 90bd e689 d93c 8690 4c3d
000001c0: a5e9 303d 5606 fc3d 5439 333d 8525 f7bc
000001d0: a3fd 653d 32a5 6a3b b68a a43d 9def 9abd
000001e0: 8bf6 f3bc b340 423e eb45 f43c f7c7 ce3d
000001f0: c26d 923c 97be 2dbd 2082 14be 6112 343d
00000200: ebd6 163c 0e25 5c3d 4680 8ebc 795a 5abd
00000210: 472a 3cbe 2751 bfbd 8daa 08be 2115 1fbd
00000220: 1383 9bbd c687 64bd d576 a73c b459 0cbe
00000230: 90a2 9bbd de26 ae3d e4e3 7e3c 750c 8fbd
00000240: f328 943c 95d6 c73d 629f 383d 2bb8 e83d
00000250: 18f7 313c 385b 383d 2a91 a9bd 7413 fc3c
00000260: d2f0 1d3e a445 74bd dc19 aabd faf8 753d
00000270: eba2 8f3d 7ff9 1abe 7982 3c3e 2afe c2bd
00000280: 4557 113e 9ad7 593c d8fa cc3d a27d d43d
00000290: cda0 993d 9a09 1f3d 0de6 be3d 7685 aa3d
000002a0: bec4 b23d 7cae 1ebd af94 123d 8781 fa3d
000002b0: 4e94 eebd f95b bbbd 8186 d3bd 5ad2 9a3d
000002c0: ad5c 37bc fdcb b8bc 4b68 af3d 395b f8bd
000002d0: 5e86 0e3d ac31 dfbc fbd2 bd3d 1f46 433d
000002e0: 0652 ebbd 4495 b5bc 1fe8 8c3d 4cd6 a1bd
000002f0: 101f 953d ba64 8abc 5e1e 8dbd 5aa1 0c3d
00000300: b211 263c 7925 253e d1c8 803d 185f 81be
00000310: 7948 7abc f599 86bd 6ba4 d9bd f6b7 923d
00000320: 43da bbbd ab38 dfbc 0990 47bd 9f67 49be
00000330: 0397 e3bd 3b36 8abc 8800 e7bd 2237 56bd
00000340: 382b 4a3b 2e52 a03c 6ff4 f3bd a360 9e39
00000350: 2d1c b9bd e14f aebc 6f88 883d 6378 bebb
00000360: 1e49 22bc c649 7bbc 8077 8cbe fb3c 9cbd
00000370: ef62 cd3c 027d 01be 64ec 21be 722b da3c
00000380: 04f5 fabc 9712 a53d a918 48bb 9017 c43c
00000390: bf45 3bbe a630 c6bd 54a4 69bd 4bcd 743d
000003a0: 8f42 8c3d 6470 763c 149e 0f3e 54e4 123e
000003b0: 0e2b 143e 28c2 19bd 829b aebd cd96 77bd
000003c0: 6519 9cbd 38b5 2dbe 7605 a7bc 03fc 57be
000003d0: c2c5 8abd 8fd5 973d 91f7 ee3d 5e10 883b
000003e0: 9edf 933d 3ced bd3c 360d 8bbd 8f96 d9bd
000003f0: 4b97 60bd 63d9 be3c 6e10 673d 04f5 5c39
0.046595752 0.017088896 0.03915805 0.07275118 -0.031284794 0.011137839 0.08253125 0.013279265
0.08173969 -0.094188154 -0.05321708 -0.054698747 -0.09516753 -0.057705868 0.19908701 -0.06539595
-0.017888753 0.17311597 -0.17151721 -0.11995089 -0.056954954 0.0045419 0.08882198 -0.034884866
-0.1522021 -0.027972193 0.047270764 0.11305848 -0.17669353 0.07837656 0.07091879 -0.0011138129
0.04790887 0.08747984 -0.07309696 0.10603123 -0.08981139 -0.028241947 0.052281305 -0.11006642
0.043891508 0.014984527 0.15340969 -0.28156778 -0.0010195555 0.008299763 0.16701446 0.043216858
-0.022667916 0.012924629 0.028307114 -0.035359275 -0.035693638 0.040878665 -0.073299676 0.1525099
-0.009428709 0.102504164 -0.030002074 0.059846718 0.101516075 -0.11055426 0.051364426 -0.1701411
-0.021458972 -0.18100247 -0.022484632 -0.025334498 0.04247717 0.046737205 -0.05434843 0.041006893
0.006106534 0.01249631 0.023711504 0.19049749 -0.031572837 0.13013797 -0.011778214 -0.02994142
-0.17027037 0.046842046 0.055802625 -0.042584267 -0.1346411 0.006517076 0.03749938 0.09791686
0.056843154 -0.1017922 0.0062562535 0.02022522 -0.011614022 -0.033331882 0.011486453 0.032596186
-0.16089422 0.10388359 -0.007774921 0.0924642 0.19480449 -0.041777436 0.045699447 -0.13921162
0.07838001 0.124302424 0.10377089 -0.04204833 -0.017308066 -0.07035378 0.026555013 0.049942516
0.04319157 0.12305896 0.043755844 -0.030169258 0.05615009 0.003580403 0.080342695 -0.07565234
-0.029780647 0.18969993 0.029818496 0.10096734 0.017874602 -0.04241809 -0.14502764 0.04396284
0.009206514 0.053746276 -0.01739515 -0.053308938 -0.18375503 -0.093416505 -0.1334631 -0.03883851
-0.0759336 -0.055793546 0.020442406 -0.13706094 -0.07599366 0.08503507 0.015557263 -0.06984798
0.018085932 0.09757725 0.045073874 0.11363252 0.010862134 0.045008868 -0.08279641 0.030770995
0.15423897 -0.059636727 -0.083057135 0.060051896 0.07013496 -0.15134238 0.18409146 -0.09521134
0.14193447 0.013296032 0.10008782 0.10375525 0.075013734 0.038827516 0.093212225 0.08326237
0.08728932 -0.03874062 0.035786327 0.12231737 -0.116493806 -0.09148402 -0.10328389 0.075596526
-0.011191529 -0.022558207 0.08564814 -0.12126774 0.03479611 -0.027245365 0.09268757 0.047674295
-0.11490254 -0.022165902 0.06880211 -0.07902202 0.07281315 -0.016893733 -0.06890558 0.034333564
0.010136055 0.16127576 0.06288303 -0.25267863 -0.015276068 -0.06572334 -0.10627063 0.07163994
-0.091724895 -0.027248701 -0.048721347 -0.19668435 -0.111127876 -0.016871562 -0.11279398 -0.052298672
0.0030848514 0.019570436 -0.119118564 0.00030208108 -0.09038577 -0.021278324 0.06666648 -0.005812691
-0.009905128 -0.015337413 -0.2743492 -0.076288186 0.02507159 -0.12645343 -0.15812832 0.026632044
-0.03063441 0.08060186 -0.0030532277 0.023937017 -0.18288325 -0.09677248 -0.05704148 0.059766095
0.068486325 0.015041444 0.14025146 0.14344913 0.14469549 -0.037538677 -0.085257545 -0.06044655
-0.07622031 -0.1696366 -0.020388346 -0.21092229 -0.067760006 0.0741378 0.11668313 0.0041523417
0.07220386 0.023184411 -0.06789629 -0.1062442 -0.054831784 0.023297017 0.056412153 0.0002107211
