results/HideAndSeek6/Hide/Hide-1059769.onnx (onnx, 161813 bytes, 7 tensors)

action_model._continuous_distribution.log_sigma f4 [1, 3]
0	0xbf1d7a72	-0.6151496
1	0xbee5bf5e	-0.44872564
2	0xbf285c41	-0.6576577

action_model._continuous_distribution.mu.bias f4 [3]
0	0xbba4927d	-0.0050223456
1	0x3c271d68	0.010199882
2	0x3b2fa9e7	0.002680415

action_model._continuous_distribution.mu.weight f4 [3, 128]
0	0xbc08c8db	-0.008348669
1	0x3d46827e	0.04846429
2	0x3c892608	0.016741768
3	0xbda6fc11	-0.081535466
4	0x3d829315	0.0637571
5	0x3c8c7d95	0.017149726
6	0x3c456034	0.012046862
7	0xbcb65315	-0.022256413
8	0xbd8634c1	-0.06553031
9	0xbd96acdf	-0.07357191
10	0xbd33667c	-0.04379891
11	0xbd3b9a69	-0.045801554
12	0x3c829ded	0.015944446
13	0xbc9eacd7	-0.019369526
14	0x3d3666c6	0.044531606
15	0xbca51e22	-0.02015597
16	0xbb03bc72	-0.0020101336
17	0xbccb54a6	-0.024820637
18	0xbbafa5df	-0.0053603495
19	0xbccf8772	-0.02533314
20	0x3caf002d	0.021362389
21	0xbcb78991	-0.022404464
22	0x3d7da9f1	0.061929647
23	0xbd4090df	-0.04701316
24	0x3cea0309	0.0285659
25	0x3d594d6c	0.05305235
26	0xbd5f81ce	-0.05456715
27	0x3c8b268d	0.016986156
28	0x3d15d4b6	0.03657981
29	0x3d9d3fdb	0.07678195
30	0xbd9c2e2c	-0.07625994
31	0x3ce61b7d	0.02808928
32	0x3ce8b7b8	0.028407916
33	0x3bf3f490	0.0074449256
34	0x3d0c24d3	0.034214806
35	0xbc5f6dd4	-0.013637025
36	0x3d896286	0.06708245
37	0xbc9b6bfd	-0.018972391
38	0xbba86267	-0.0051386836
39	0x3ca63b05	0.020291815
40	0x3cf2c077	0.02963279
41	0x3ce3b6f7	0.027797205
42	0xbc60c319	-0.01371839
43	0xbd812824	-0.06306484
44	0x3c51616b	0.012779574
45	0xbd66c4fd	-0.056340206
46	0x3c845f88	0.016158834
47	0xbb7dda8b	-0.0038734998
48	0x3c19b11c	0.009380605
49	0xbcfd2dc9	-0.030905621
50	0xbb81b870	-0.0039587542
51	0xbd740067	-0.059570696
52	0xbcaac80c	-0.020847343
53	0x3d3a0ce0	0.045422435
54	0x3c95045b	0.018190553
55	0xbd8ec1d3	-0.06970563
56	0xbb94c5dc	-0.0045401882
57	0x3bcb6a06	0.0062077073
58	0x3c0748b1	0.008257077
59	0x3cf0ceae	0.029395428
60	0x3cfb63ea	0.030687291
61	0xbb28e9a3	-0.0025774024
62	0xbce565a2	-0.028002564
63	0xbd53c0f0	-0.05169767
64	0x3d131b87	0.035914924
65	0x3c1f83b0	0.009735987
66	0x3d8542cb	0.065068804
67	0xbd36cd68	-0.044629484
68	0xbb05cea5	-0.002041736
69	0x3d07a881	0.033119682
70	0x3d5ae7c3	0.05344368
71	0x3ccea11e	0.025223311
72	0x3c9229fd	0.017842287
73	0x3d2bea40	0.041971445
74	0xbd4da218	-0.050203413
75	0x3ce1f84c	0.027584217
76	0xbc4230a9	-0.011852422
77	0xbda5ef07	-0.081022315
78	0x3d1f73dc	0.03892885
79	0x3cb38f6f	0.02191898
80	0xbda9953e	-0.08280419
81	0xbd62fe92	-0.05541856
82	0x3d24f283	0.04027034
83	0x3ceab2b7	0.028649671
84	0x3c806d58	0.01567714
85	0x3d10ae87	0.035322692
86	0x3c0bc57a	0.008530969
87	0x3cf41f16	0.02979998
88	0x3c2a486b	0.010393242
89	0x3d666ee7	0.05625811
90	0x3d5230c3	0.051316034
91	0x3cf27498	0.029596612
92	0x3d1ce435	0.038303573
93	0xbdc52129	-0.096254654
94	0x3d5d4c8c	0.05402808
95	0x3d517c93	0.051144194
96	0xbd289971	-0.041161958
97	0xbdb978fc	-0.09056279
98	0x3d3f4f57	0.046706524
99	0x3d323dc2	0.043515928
100	0xbdb1c987	-0.086810164
101	0x3d5b3912	0.053521223
102	0x3a8162f5	0.000987141
103	0xbcc0fc75	-0.02355788
104	0xbccf98d1	-0.025341423
105	0x3c8823a4	0.016618557
106	0x3cb0cde1	0.021582546
107	0x3c120bb2	0.008913921
108	0xbca7035f	-0.02038735
109	0x3d714f18	0.05891332
110	0x3d8acb42	0.067770496
111	0x3d099fa1	0.0335995
112	0xbd4f3e00	-0.050596237
113	0x3ca8d894	0.020611085
114	0x3cb26a2d	0.021779144
115	0xbd3abe4a	-0.04559163
116	0xbd82b7cf	-0.06382715
117	0xbda9e87b	-0.08296295
118	0xbca40ca4	-0.020025559
119	0x3d20bd74	0.039243177
120	0x3cb9a525	0.022661755
121	0x3ce459f9	0.027874934
122	0x3c8190e6	0.015816163
123	0x3d576d20	0.052594304
124	0x3d1bc600	0.038030624
125	0x3d63a6e0	0.055579066
126	0xbc1b6ee1	-0.009486885
127	0x3d5829a0	0.05277407
128	0xbdc59f7c	-0.0964956
129	0xbcbef9bc	-0.023312442
130	0xbc181a62	-0.009283634
131	0xbe01bef0	-0.12670493
132	0x3d1a9652	0.037741013
133	0x3db35abf	0.08757543
134	0x3b45af0e	0.0030164155
135	0xbd9022de	-0.070379004
136	0x3ae15cdd	0.0017193813
137	0xbcdd11e3	-0.026986068
138	0x3d10242a	0.03519074
139	0xbddc5c01	-0.10759736
140	0xbc10f625	-0.008847748
141	0xbcf16184	-0.029465444
142	0xbc9bf5ae	-0.019038048
143	0xbda16ef6	-0.07882492
144	0x3c671020	0.014102966
145	0x3d8d7dc1	0.06908751
146	0x3d44cee3	0.048048865
147	0xbe01f9af	-0.12692903
148	0x3c97a6d3	0.018512165
149	0xbc0a49ea	-0.008440474
150	0xbc34acf5	-0.011027564
151	0xbd5d7bf8	-0.054073304
152	0x3b935e7f	0.004497349
153	0x3d07ee02	0.033185966
154	0x3c9fbcd0	0.019499213
155	0xbd9a75cd	-0.07542
156	0xbd44c8cb	-0.048043054
157	0x3bfa2d4d	0.007634795
158	0xbd788fb5	-0.060683925
159	0x3d32b811	0.04363257
160	0xbcb70635	-0.022341827
161	0xbdbae424	-0.091255456
162	0x3d87cd69	0.06630976
163	0x3c2e9dc7	0.010657734
164	0x3d2d82c9	0.042361055
165	0xbc8f2d87	-0.017477764
166	0x3d1c979b	0.03823052
167	0x3c8a811d	0.01690727
168	0xbd345423	-0.04402555
169	0xbcea5c0d	-0.028608346
170	0xbc89539f	-0.016763506
171	0xbe02c7ca	-0.12771526
172	0x3d8246c3	0.06361153
173	0xbbe25ad1	-0.006907799
174	0xb97f2fa5	-0.00024336444
175	0x3db321ea	0.08746703
176	0xbd1a0214	-0.037599638
177	0xbdd2d6cf	-0.10294878
178	0x3c2d5b64	0.010580871
179	0xb99a1190	-0.00029386254
180	0xbd99de1c	-0.07513067
181	0x3d84c2a8	0.0648244
182	0xbc880a6a	-0.016606528
183	0xbd3d74fd	-0.046254147
184	0x3ce28d92	0.027655397
185	0xbcac793d	-0.021053905
186	0x3d16189f	0.036644574
187	0xbcd6d69e	-0.026225384
188	0xbc7bea69	-0.015375712
189	0xbd69e8b2	-0.05710668
190	0xbd5e6b62	-0.054301627
191	0x3b31bc3c	0.0027120253
192	0x3d80401c	0.06262228
193	0x3ba7e798	0.0051240437
194	0x3d2de437	0.04245397
195	0xbc004e49	-0.007831165
196	0xbe12b3d6	-0.14326414
197	0x3ceab102	0.028648857
198	0xbd9e0f11	-0.077177174
199	0xbd5a71e6	-0.05333128
200	0x3d2dc3ab	0.04242293
201	0x3c805cd8	0.015669271
202	0x3d57af2e	0.0526573
203	0xbcc92ffe	-0.024559017
204	0xbe0b5a9d	-0.13608785
205	0x39c90b15	0.00038345964
206	0x3d34fdd3	0.04418738
207	0xbcc49a41	-0.023999335
208	0xbe03b26d	-0.12861033
209	0x3cc02cd1	0.02345887
210	0x3ba49623	0.0050227805
211	0xbdb9bfb0	-0.090697646
212	0x3d83f972	0.06444062
213	0x3d4a16fe	0.049338333
214	0xbd8e2553	-0.06940713
215	0x3b98d828	0.0046644397
216	0xbca1a3c5	-0.019731412
217	0xbc3e3817	-0.011610053
218	0x3c87f37b	0.016595593
219	0x3c0ba656	0.008523544
220	0xbd86815e	-0.065676436
221	0xbda9fe5e	-0.0830047
222	0xbbf2a826	-0.0074052988
223	0xbd1a8aa8	-0.03772989
224	0xbd7a2658	-0.061071724
225	0xbd8dc24f	-0.06921827
226	0xbd84bf46	-0.06481795
227	0x3c8043a9	0.015657263
228	0xbd522110	-0.051301062
229	0x3dac06be	0.083997235
230	0x3b35bfa3	0.0027732633
231	0xbdf4a01e	-0.119446024
232	0xbda2958f	-0.07938682
233	0x3d80b6e3	0.06284883
234	0xbca4859d	-0.020083243
235	0xbbbdc3a9	-0.005791147
236	0x3dd66dc6	0.10470156
237	0xbc51ae03	-0.012797835
238	0x3d392062	0.0451969
239	0x3cea49a0	0.02859956
240	0xbd854eff	-0.06509208
241	0x3d9abb0c	0.075552076
242	0xbbc42678	-0.005986031
243	0xbca2b2d5	-0.019860664
244	0x3c9be294	0.01902894
245	0xbe03e420	-0.12879992
246	0xbbf1d9c2	-0.007380695
247	0x3c6111ae	0.013737125
248	0x3cee8d3d	0.029120082
249	0x3c4d68d4	0.0125372
250	0x3d91fd8f	0.071284406
251	0x3ce4bfc6	0.027923476
252	0xbd2f602f	-0.042816337
253	0x3d8aca82	0.067769065
254	0xbc9069b7	-0.017628534
255	0x3d4e2678	0.050329655

network_body._body_endoder.seq_layers.0.bias f4 [128]
0	0x3ca76128	0.02043207
1	0xbd121367	-0.035663035
2	0x3d0fcb60	0.035106063
3	0x3c97dbcf	0.01853743
4	0x3d03e029	0.032196198
5	0xbca95992	-0.020672593
6	0xbbdb3f4b	-0.0066908947
7	0xbc73b230	-0.014874026
8	0xbca391cd	-0.019966984
9	0x3b80ac14	0.0039267633
10	0x3c8ea458	0.01741235
11	0x3c1977a0	0.0093669
12	0x3d4d5272	0.050127454
13	0xbcd1aeaa	-0.025595982
14	0xbd5d8a2b	-0.054086845
15	0x3d151a09	0.036401782
16	0x3cefac2f	0.029256908
17	0x3c77c4f4	0.015122641
18	0x3b6c0142	0.0036011492
19	0x3c086b7a	0.008326406
20	0x3c9c89bf	0.019108651
21	0x3c9f010b	0.019409677
22	0x3d1c8952	0.038216896
23	0x3bffb5c9	0.007803653
24	0x3c5a3a1f	0.013319521
25	0xbca48e8a	-0.0200875
26	0xbb1b43f0	-0.0023691617
27	0xbcb12df1	-0.021628352
28	0x3c6e33c4	0.014538709
29	0x3c33698a	0.010950455
30	0x3ab96ec8	0.0014147395
31	0x3c80c609	0.01571943
32	0x3d06d4c3	0.03291775
33	0x3c125cf5	0.0089332955
34	0x3c9369d1	0.017994793
35	0x3c96cfa5	0.01840956
36	0x3c5f67f8	0.013635628
37	0xbc836b77	-0.016042454
38	0x3cbcd18a	0.023049135
39	0x3d2fde89	0.042936835
40	0xbd0eefda	-0.03489671
41	0x3bb7b7e9	0.0056066406
42	0x3babc790	0.0052422956
43	0x3b0065c5	0.001959191
44	0xbc93b5da	-0.01803105
45	0x3d1fc4e6	0.039006136
46	0x3967015e	0.00022030386
47	0xbc6aa40f	-0.014321341
48	0xbd3397a0	-0.043845773
49	0x3cab7abe	0.020932551
50	0x3cbfd4f4	0.023416974
51	0x3b7631bb	0.0037566263
52	0x3d909f18	0.07061595
53	0xbc981c00	-0.018568039
54	0x3d5a3f68	0.053283125
55	0x3d6b0af5	0.057383496
56	0xbc9e632e	-0.019334402
57	0x3caf7936	0.021420103
58	0x3cd90c23	0.026495045
59	0xbc0ffac0	-0.008787811
60	0xbc4439c6	-0.011976665
61	0xbc8108e5	-0.015751312
62	0x3b45ed95	0.0030201424
63	0x3d5316fd	0.051535595
64	0x3b81820a	0.0039522694
65	0x3cd212f2	0.0256438
66	0x3cc70974	0.0242965
67	0xbbe8adf2	-0.007100814
68	0x3cc23c47	0.023710383
69	0xbd676d2d	-0.056500603
70	0x3cdcde7c	0.026961558
71	0x3c0d52d9	0.008625709
72	0x3cd33fc5	0.025787244
73	0x3c7f1718	0.015569471
74	0x3ccc3a63	0.024930185
75	0x3bd4e6ac	0.006497225
76	0xba833e13	-0.0010013006
77	0xbcbde7fc	-0.023181908
78	0x3c2cc99d	0.010546115
79	0x3cefffcd	0.02929678
80	0x3cdd4b2b	0.027013382
81	0xbb9e755d	-0.004835768
82	0xbb60d262	-0.0034305085
83	0xbc54ed4a	-0.012996027
84	0x3cfee4dd	0.03111499
85	0x3c4f4503	0.012650731
86	0xbcc79df1	-0.024367305
87	0x3b909a4a	0.004412924
88	0x3d7ef1cc	0.062242314
89	0x3c419302	0.011814835
90	0x3cc847e7	0.024448348
91	0xbb632c46	-0.003466384
92	0xbc022188	-0.007942565
93	0x3a9475d5	0.0011326621
94	0xbc3df3ba	-0.0115937535
95	0x3c23cc1b	0.009997393
96	0xbbf62725	-0.0075119906
97	0x3c433bba	0.011916095
98	0xbce9fca2	-0.028562848
99	0x3ce0a9d7	0.027424736
100	0x3c931091	0.017952235
101	0x3c4a13f6	0.012333861
102	0x3cb3e591	0.021960052
103	0x3c5761a6	0.01314584
104	0xbc45b51d	-0.012067107
105	0xbc8c0197	-0.017090602
106	0x3c360886	0.011110431
107	0x3d167266	0.036730193
108	0xbb8693d7	-0.0041069794
109	0x3cb30cac	0.021856628
110	0x3be5e3d0	0.0070156828
111	0xbc9ad9e0	-0.018902719
112	0x3b892b2d	0.004186055
113	0x3b93dea0	0.004512623
114	0x3c85d9cc	0.016339205
115	0xbc42f72f	-0.0118997535
116	0xbcd72f9b	-0.026267817
117	0x3cd118c4	0.025524504
118	0x3cd8d319	0.026467847
119	0x3bab7885	0.005232873
120	0x3b687e96	0.0035475842
121	0x3c5d68e1	0.013513775
122	0xbad3dec4	-0.0016164412
123	0x3cef65f0	0.029223412
124	0x3d19b788	0.037528545
125	0x3b54a16a	0.0032444843
126	0xbcacb04d	-0.02108016
127	0xbb1e3764	-0.0024141902

network_body._body_endoder.seq_layers.0.weight f4 [128, 179]
0	0x3dce7dc3	0.10082581
1	0x3d8d3edc	0.06896755
2	0x3defe148	0.11712891
3	0xbcfa935a	-0.03058784
4	0x3dbbff63	0.091795705
5	0xbd84b51b	-0.064798556
6	0xbdfa0df4	-0.122096926
7	0xbd997d03	-0.07494547
8	0xbcef4ea2	-0.0292123
9	0x3cc376cf	0.023860363
10	0x3bfdbe7b	0.0077436543
11	0x3d216de9	0.03941146
12	0x3d701e87	0.058622863
13	0x3e46f34b	0.19428746
14	0xbdd85f91	-0.10565103
15	0xbce561e0	-0.028000772
16	0xbcd08daf	-0.025458185
17	0x3d671654	0.056417778
18	0xbd717a3a	-0.058954455
19	0xbbd618a7	-0.0065337005
20	0x3e3bda2a	0.18344942
21	0xbd86dd76	-0.06585209
22	0x3c0ac197	0.008469007
23	0x3d356516	0.044285856
24	0xbdc7cdb5	-0.097560324
25	0xbc832eb2	-0.016013477
26	0x3d9b471b	0.07581922
27	0xbc89552f	-0.016764252
28	0x3e6a7a89	0.22898306
29	0x3e3667d1	0.1781304
30	0x3e07eabe	0.13273141
31	0x3c9f9bba	0.019483436
32	0xbd2ba0f4	-0.041901544
33	0x3d630aee	0.055430345
34	0x3abc189f	0.0014350599
35	0x3c1c2df3	0.0095324395
36	0x3c71f2cb	0.014767359
37	0x3dc43cf5	0.09581939
38	0xbe20a4cf	-0.1568787
39	0xbdce2a5d	-0.10066674
40	0x3e168fbe	0.14703271
41	0xbe400252	-0.18750885
42	0x3dffc0da	0.124879554
43	0x3cc4cc5e	0.024023231
44	0xbe15d19f	-0.14630745
45	0x3d1474ca	0.03624419
46	0x3cf0fdce	0.029417899
47	0xbd4c4259	-0.04986796
48	0x3e1645f7	0.14675127
49	0x3b72051c	0.0036929315
50	0x3d86cbb4	0.06581822
51	0xbd212f7a	-0.039351918
52	0x3e42196a	0.18955007
53	0xbbfcf798	-0.007719945
54	0x3d58ff69	0.052977953
55	0xbe024b2e	-0.12723991
56	0x3c3213b6	0.010868957
57	0xbcc8b7c3	-0.024501687
58	0x3dfc2075	0.12310878
59	0xbd3eb2b5	-0.046557147
60	0x3de1b784	0.11021331
61	0xbd69e884	-0.05710651
62	0xbce0a73d	-0.027423495
63	0x3d203aff	0.039118763
64	0xbca4cb8c	-0.02011659
65	0xbd0c4ffa	-0.03425596
66	0xbe4ae328	-0.19813216
67	0xbdbb971a	-0.0915968
68	0xbd215022	-0.03938306
69	0x3dec6fe3	0.11544778
70	0x3e43242f	0.19056772
71	0xbdd8debf	-0.105893604
72	0x3dcaaf0d	0.098966695
73	0x3c933011	0.017967256
74	0xbda31a0d	-0.07963953
75	0xbd1b11d2	-0.03785879
76	0x3d39dea6	0.04537835
77	0xbdda8a39	-0.10670895
78	0xbb2db7d0	-0.0026507266
79	0x3d83c9c1	0.06434966
80	0xbcd272ce	-0.025689509
81	0x3dca55c2	0.09879638
82	0xbe3c35e4	-0.18379933
83	0xbd1307af	-0.035896
84	0xbdd4f85b	-0.103989325
85	0xbc92bdab	-0.017912706
86	0x3cec3090	0.02883175
87	0xbca78056	-0.020446938
88	0x3d4c4a69	0.04987565
89	0x3d8b04bb	0.06788012
90	0x3de54b7a	0.11196037
91	0xbd25e5ed	-0.040502477
92	0x3db6cd61	0.08925892
93	0x3e36f76e	0.17867824
94	0x3cc6c5f6	0.024264317
95	0x3dc1b447	0.09458213
96	0xb9f8e869	-0.00047475405
97	0xbdb35f55	-0.087584175
98	0x3e7cd127	0.2468916
99	0x3dc5bdd6	0.09655349
100	0xbdc33e5a	-0.09533377
101	0xbdad6b5d	-0.084677435
102	0x3d71381f	0.058891412
103	0xbc3f5269	-0.011677363
104	0xbd970fa9	-0.07376034
105	0x3d2b86bc	0.04187654
106	0xbd1f6892	-0.038918085
107	0xbd9c6c5b	-0.07637855
108	0xbd84a0f1	-0.0647601
109	0x3e4074e6	0.18794593
110	0xbbd487f5	-0.006485934
111	0xbb11f96c	-0.002227391
112	0xbc8de037	-0.017318828
113	0xbc633a2f	-0.0138688525
114	0xbd6fe1c4	-0.058564916
115	0xbd85dbcc	-0.065360636
116	0x3c2aaddb	0.010417427
117	0xbcbdc3b4	-0.023164608
118	0xbe36c62c	-0.17849034
119	0xbc36a3f3	-0.011147487
120	0x3d4fd7aa	0.050742783
121	0xbdad8155	-0.08471934
122	0xbe0323b2	-0.12806585
123	0x3c1ab971	0.009443627
124	0x3b09a57d	0.002100318
125	0xbca756e8	-0.020427182
126	0xbe71a850	-0.23599362
127	0x3db9a955	0.09065501
128	0x3dedfc80	0.11620426
129	0xbda3d998	-0.08000487
130	0x3e786087	0.24255572
131	0x3d8d60c9	0.06903226
132	0x3c88dfa0	0.016708195
133	0x3d9b965c	0.07597038
134	0xbd9349dd	-0.07191823
135	0xb9cac2e4	-0.00038673647
136	0x3dc42ed1	0.09579242
137	0xbd6a0676	-0.057135068
138	0xbdc9bb9c	-0.09850237
139	0xbd2f9b2c	-0.042872593
140	0xbdfa4b03	-0.122213386
141	0xbd281773	-0.041037988
142	0xbc97ccf9	-0.018530356
143	0x3cd54622	0.026034418
144	0x3d85c3cb	0.06531485
145	0x3b9d4cf0	0.0048004314
146	0x3dbb7536	0.091532156
147	0x3df94391	0.121710904
148	0xbe0c2ed3	-0.13689737
149	0xbac57c4d	-0.0015066952
150	0xbca7b152	-0.020470295
151	0xbe0457c7	-0.1292411
152	0xbe38f9ec	-0.18064088
153	0xbe895f30	-0.26830435
154	0xbc8c1216	-0.017098468
155	0x3e0f6287	0.14002429
156	0x3db5812e	0.0886253
157	0xbd80795b	-0.06273147
158	0x3d3151b5	0.043290813
159	0x3d9c0072	0.076172724
160	0xbd447768	-0.047965437
161	0x3d88df78	0.06683248
162	0xbd913a62	-0.07091214
163	0xbd047f33	-0.03234787
164	0xbbf36063	-0.0074272617
165	0x3d71ae20	0.05900395
166	0xbd135796	-0.0359722
167	0x3e020585	0.12697418
168	0x3d6823e5	0.056674857
169	0x3dd87b4a	0.105703905
170	0xbc9420f3	-0.018082118
171	0xbd08ecdd	-0.033429015
172	0x3e81cfc0	0.25353813
173	0xbcee831d	-0.029115254
174	0x3e87b20e	0.26503032
175	0xbc4c9e90	-0.012488976
176	0xbc9da812	-0.019245181
177	0x3d9d8d96	0.07693021
178	0xbd3d6b0b	-0.046244662
179	0x3e1f51d3	0.15558557
180	0x3d0f2956	0.03495153
181	0xbc5a3f9c	-0.01332083
182	0xbd97101b	-0.07376119
183	0xbd2ceee9	-0.04222003
184	0xbc90a01f	-0.017654477
185	0xbd8dba0a	-0.0692025
186	0x3db60b42	0.08888866
187	0x3d515daf	0.051114734
188	0xbe0f10f3	-0.1397131
189	0xbd25cfb3	-0.04048128
190	0xbbc1dfaf	-0.0059165577
191	0x3d378b8b	0.044810813
192	0xbd9b5b07	-0.075857215
193	0x3bac280a	0.0052537965
194	0x3d9e040e	0.07715617
195	0x3db5f129	0.08883888
196	0x3c1a6b35	0.009424974
197	0x3dd11c8a	0.102105215
198	0x3db21b06	0.086965606
199	0xbdfe5a14	-0.12419525
200	0xbdc8536f	-0.09781539
201	0xbd5a93db	-0.053363662
202	0x3d03def7	0.032195058
203	0x3de5fe08	0.11230093
204	0x3cdfc53f	0.027315734
205	0x3d71c914	0.059029654
206	0xbdfc914a	-0.12332399
207	0xbe062b3c	-0.1310243
208	0x3bb74e07	0.0055940184
209	0xbda581d8	-0.08081406
210	0x3cfd3ba2	0.030912224
211	0x3dac08f9	0.08400149
212	0x3d40e7bd	0.047096003
213	0xbe3e7abe	-0.1860151
214	0xbe3889c2	-0.180213
215	0x3d7befdb	0.06150804
216	0xbcc1a1d0	-0.023636729
217	0xbd1d29c6	-0.038369916
218	0x3da5031b	0.08057233
219	0x3e396e91	0.18108584
220	0xbd35090f	-0.044198092
221	0xbdf6c0b7	-0.12048476
222	0x3deee873	0.1166543
223	0x3e4e03d9	0.20118655
224	0x3e205090	0.15655732
225	0xbd8afac7	-0.06786113
226	0x3d801936	0.062548086
227	0x3e2010be	0.15631387
228	0x3ddb0290	0.10693848
229	0x3b12caf1	0.0022398795
230	0x3dfbea42	0.123005405
231	0x3c41ca32	0.011827992
232	0x3d7fed65	0.062482256
233	0xbe0cffb1	-0.13769414
234	0xbd9ce2e6	-0.07660465
235	0x3da0129d	0.0781605
236	0x3dcc1206	0.09964375
237	0xbd91672f	-0.07099759
238	0x3dd7040d	0.104988195
239	0xbd372724	-0.04471506
240	0xbd75f327	-0.06004634
241	0xbdaf87cb	-0.08570822
242	0x3d2b6ba9	0.04185072
243	0x3c8a3689	0.016871708
244	0x3dc45e1b	0.09588262
245	0x3d2c0893	0.042000365
246	0x3e0b4065	0.13598783
247	0xbe47e159	-0.19519557
248	0x3cb6f671	0.02233431
249	0xbddad65d	-0.10685418
250	0xbd90d196	-0.07071225
251	0x3e28fdee	0.16503116
252	0x3de57019	0.112030216
253	0x3d97852b	0.07398447
254	0x3c80bfec	0.015716515
255	0x3da28631	0.07935751

network_body._body_endoder.seq_layers.2.bias f4 [128]
0	0x3c8362d8	0.016038343
1	0xbd61783c	-0.055046305
2	0xbd2e9412	-0.04262168
3	0x3d329da8	0.043607384
4	0x3d05bfa8	0.03265348
5	0x3c44906a	0.011997322
6	0xbc27d335	-0.010243227
7	0x3c5b20c5	0.013374512
8	0x3a3c30e2	0.0007178915
9	0x3d5c9084	0.05384876
10	0x3c04d4c2	0.008107366
11	0x39fc1525	0.0004808094
12	0x3bd7453e	0.0065695336
13	0x3cd6efcc	0.026237391
14	0xbc0b1941	-0.008489908
15	0x3c12e2f6	0.0089652445
16	0x3bee04da	0.007263762
17	0x3bcccfbe	0.0062503507
18	0x3c03d37f	0.00804603
19	0x3b526ca6	0.0032108217
20	0x3c95e2f4	0.018296696
21	0x3ccb0c3e	0.024786111
22	0x3bf170f0	0.0073681995
23	0x3a9538ce	0.0011384727
24	0xba4978de	-0.0007685552
25	0x3c76a4e4	0.015053961
26	0x3c6e8b57	0.014559588
27	0x3d772b74	0.060344175
28	0x3c8db1eb	0.017296752
29	0x3cd5934f	0.026071219
30	0x3cecc58b	0.02890279
31	0xbcb60792	-0.022220407
32	0xbcae71f7	-0.021294577
33	0x3c074bb1	0.008257792
34	0xbbf38ff9	-0.0074329344
35	0xbcabb4cf	-0.02096024
36	0xba54cb45	-0.0008117448
37	0x3c6580e0	0.014007777
38	0xbc22cbaf	-0.009936257
39	0xbc97d537	-0.018534286
40	0x3b69af3b	0.0035657424
41	0xbc47a536	-0.012185385
42	0xbc37452c	-0.011185925
43	0x3ca74964	0.020420738
44	0x3a85a50c	0.0010196283
45	0x3ca3176a	0.019908626
46	0xbcc5ba6f	-0.02413675
47	0x3ce672ec	0.02813097
48	0xbca4af03	-0.020102983
49	0x3c7063fb	0.014672275
50	0x3b465ebe	0.0030268873
51	0x3a2ffc5e	0.0006713326
52	0x3c58f6d6	0.013242444
53	0x3c33d9c5	0.010977213
54	0xbbaca8c9	-0.005269144
55	0x3d537ec9	0.051634584
56	0xbd6d9365	-0.058001895
57	0x3cd58e3d	0.026068801
58	0xbc594535	-0.013261129
59	0x3c70a691	0.01468815
60	0xbb270ae4	-0.002548867
61	0x3b1cda2b	0.002393375
62	0x3cacee06	0.021109592
63	0x3cd03ebe	0.025420543
64	0x3cb5f202	0.022210125
65	0xbbc9dfe4	-0.006160723
66	0xba75a95b	-0.0009371244
67	0x3bb7733d	0.0055984543
68	0x3c0a4818	0.00844004
69	0xbc0385e0	-0.008027524
70	0x3cef139d	0.029184157
71	0xbc26bf22	-0.010177406
72	0x3a9bc112	0.0011883101
73	0xbca02167	-0.019547177
74	0x3c463382	0.012097241
75	0xbb95612d	-0.0045587034
76	0x3cb7ec09	0.022451418
77	0x3b8ee6fb	0.004361031
78	0x3c8fd6e1	0.017558517
79	0xbcbc5e6b	-0.02299424
80	0x3d404271	0.046938363
81	0x3c940fb6	0.018073898
82	0xbcd74916	-0.026279967
83	0x3c5bc57a	0.013413781
84	0x3c5b38cb	0.01338024
85	0x3cbb1940	0.022839189
86	0xb9ce0841	-0.00039297531
87	0x3c5f35d8	0.013623677
88	0xbaa62e08	-0.0012678513
89	0x3c983d01	0.018583776
90	0x3b32c044	0.0027275244
91	0xbbeff2a1	-0.007322625
92	0x3c8a5674	0.016886927
93	0x3d57df34	0.052703097
94	0x3c06137e	0.008183358
95	0x3b3c3223	0.0028716407
96	0x3d356a35	0.04429074
97	0x3d1b7c2a	0.03796021
98	0x3c89ccb0	0.016821235
99	0x3c8b14ef	0.016977755
100	0x3c95a231	0.018265815
101	0x3cefe49b	0.029283812
102	0xbd03778d	-0.032096434
103	0x3c9c391c	0.0190702
104	0x3b766ab4	0.003760022
105	0x3c3a1d5b	0.011359538
106	0xbc9143b3	-0.017732477
107	0x3cc63bfc	0.024198525
108	0x3c15ecd3	0.009150702
109	0x3d376f43	0.04478384
110	0x3c54c9ec	0.012987595
111	0xbc9cac95	-0.019125262
112	0x3a85bfdd	0.0010204274
113	0xbd2d7433	-0.042347144
114	0xbce44e3f	-0.027869342
115	0x3bf21a21	0.0073883687
116	0x3cc237fe	0.02370834
117	0x3cc87783	0.02447105
118	0xbd254d5c	-0.04035698
119	0x3d0c3d05	0.03423788
120	0xbcc04e54	-0.02347485
121	0xbca8e4e0	-0.020616949
122	0x3cf06ccc	0.029348753
123	0x3d189922	0.037255414
124	0x3ba995c2	0.005175323
125	0x3c9dd706	0.01926757
126	0xbb4f40d1	-0.0031624327
127	0x3ca012cf	0.019540219

network_body._body_endoder.seq_layers.2.weight f4 [128, 128]
0	0x3e30dcb9	0.17271699
1	0x3d9f2cca	0.07772215
2	0x3e1f1e1d	0.15538831
3	0xbe347bfd	-0.17625423
4	0x3bf96776	0.0076112105
5	0x3ca4817f	0.02008128
6	0x3d045d6e	0.032315664
7	0x3e34d859	0.17660655
8	0x3e21f041	0.15814306
9	0x3d02a76b	0.031897943
10	0xbd01d0fa	-0.031693436
11	0xbe3b4857	-0.18289314
12	0xbe381350	-0.17976117
13	0xbd007d7a	-0.031369664
14	0xbdfa07dc	-0.1220853
15	0x3df17499	0.11789817
16	0xbd4cd76c	-0.05001013
17	0xbe7c3175	-0.24628241
18	0x3db98b17	0.090597324
19	0x3e4cbdf9	0.19994344
20	0xbdb5f40b	-0.08884438
21	0xbd73d86a	-0.05953256
22	0x3dc11896	0.094285175
23	0x3ca7bd85	0.020476112
24	0x3d405b73	0.046962213
25	0xbbf37e1b	-0.0074308044
26	0x3dcf685b	0.10127326
27	0x3cbb28dd	0.022846634
28	0xbd964dfd	-0.07339094
29	0x3df5d65b	0.12003776
30	0x3df452ed	0.11929879
31	0xbe3b0246	-0.18262586
32	0x3df832d2	0.12119068
33	0x3c5b8993	0.0133994995
34	0x3d22ad60	0.039716125
35	0xbe205a31	-0.15659405
36	0xbb84b335	-0.0040496835
37	0x3da1ebea	0.07906325
38	0x3e50ebe7	0.2040249
39	0x3dc840fe	0.09778021
40	0x3d10daf7	0.03536507
41	0x3ca3f84b	0.020015856
42	0x3da1bb7f	0.0789709
43	0x3d1b5748	0.037925035
44	0xbd4a722c	-0.04942529
45	0x3e1e3b5c	0.15452331
46	0xbe055aeb	-0.13022964
47	0xbb5ff8ce	-0.0034175399
48	0xbe072dc5	-0.13201053
49	0xbb35ef22	-0.0027760942
50	0xbe14930a	-0.14509216
51	0xbda5c2e9	-0.08093817
52	0x3d269729	0.0406715
53	0xbd32dc13	-0.04366691
54	0xbb8639b1	-0.004096233
55	0xbd01d82b	-0.031700294
56	0x3e1eed76	0.15520272
57	0x3da6aa15	0.08137909
58	0x3d214509	0.039372478
59	0xbd4d0579	-0.050054047
60	0xbd95b7b6	-0.07310431
61	0x3e431d02	0.19054034
62	0x3d694df8	0.056959122
63	0xbe712a4d	-0.23551293
64	0xbcdb6e9e	-0.026786145
65	0x3c18f522	0.009335788
66	0xbdcb8ee8	-0.099393666
67	0x3dcf843a	0.10132642
68	0x3e1e8e49	0.15483965
69	0xbc9211d1	-0.017830761
70	0xbd66e7ca	-0.056373395
71	0x3e514db9	0.20439805
72	0x3d6648da	0.05622182
73	0x3df34458	0.1187827
74	0x3e0da2dd	0.13831659
75	0x3e2ed17f	0.17072104
76	0xbd1f3497	-0.038868513
77	0xbdb794e9	-0.08963949
78	0xbe09a531	-0.13441922
79	0x3dbf3d25	0.09337834
80	0x3ddd6a91	0.108113416
81	0x3db40159	0.087893195
82	0x3d86a92e	0.06575237
83	0xbd23c700	-0.039984703
84	0x3cd8dcd5	0.026472488
85	0x3d443205	0.047899265
86	0xbde4f1ef	-0.11178958
87	0xbdd45622	-0.10367991
88	0x3d306e70	0.04307407
89	0xbb5ef57a	-0.0034020827
90	0xbc8dff7c	-0.017333739
91	0xbe29261d	-0.16518445
92	0x3dc6d56e	0.09708677
93	0xbd5e7fa9	-0.054320965
94	0xbe17908a	-0.14801231
95	0x3e4b7b42	0.19871238
96	0xbd20d130	-0.039261997
97	0x3db65a76	0.08903973
98	0x3dd94561	0.10608936
99	0xbdcdc3a3	-0.1004708
100	0xbad5afd2	-0.0016303009
101	0x3cd13a9e	0.025540646
102	0xbc2a427d	-0.010391829
103	0x3cdbf468	0.02684994
104	0x3d2bc820	0.0419389
105	0xbdcb2739	-0.099195905
106	0xbd2e589e	-0.04256498
107	0x3c8de613	0.017321622
108	0xbd9be31a	-0.076116756
109	0x3d56cd02	0.052441604
110	0xbd97e7ec	-0.074172825
111	0x3d10b4ef	0.0353288
112	0x3a0d06b8	0.00053797243
113	0xbbfe8897	-0.0077677476
114	0xbdbbcc36	-0.091698095
115	0x3d5994e2	0.0531205
116	0xbd03c42c	-0.032169506
117	0xbc040fc2	-0.008060398
118	0x3e3876e9	0.1801411
119	0xbbd55bf7	-0.006511207
120	0x3e5c2673	0.21499042
121	0x3c961644	0.018321164
122	0x3e0c6c82	0.13713267
123	0x3de7a61d	0.113109805
124	0xbd8c1342	-0.06839611
125	0xbd84bc25	-0.06481198
126	0xbcea1228	-0.02857311
127	0xbc6af7bb	-0.01434129
128	0xbe7d6c0f	-0.24748252
129	0xbd2c84cf	-0.042118844
130	0x3c0f4f5d	0.008746949
131	0xbe01272f	-0.12612604
132	0xbda45aac	-0.08025107
133	0xbd4a653b	-0.049412947
134	0x3d9199ce	0.07109414
135	0x3d9457c9	0.07243306
136	0x3d970cb7	0.07375472
137	0xbdadbff6	-0.08483879
138	0xbe3c3b28	-0.18381941
139	0x3d9b30d8	0.075776756
140	0xbd5301af	-0.051515277
141	0xbc2b5211	-0.010456578
142	0x3de5643e	0.1120076
143	0xbe2d7b54	-0.16941577
144	0xbe03c192	-0.1286681
145	0xbd0cad7b	-0.03434513
146	0xbd90b89c	-0.070664614
147	0xbe6f5e52	-0.23375824
148	0xbc3df573	-0.011594164
149	0xbdbcd1aa	-0.09219678
150	0xbd9e92f0	-0.0774287
151	0xbd4bca96	-0.049753748
152	0x3de6e11e	0.112734064
153	0xbd4b1b35	-0.049586494
154	0x3d291f4a	0.041289605
155	0x3e1a7366	0.15083084
156	0xbc0ed401	-0.008717538
157	0xbc91ee03	-0.017813688
158	0x3d4ab8d0	0.049492657
159	0xbe1ca05b	-0.15295546
160	0x3cabcfd9	0.020973133
161	0xbcf815b1	-0.03028378
162	0xbe05ee4e	-0.13079187
163	0x3d4efde2	0.05053509
164	0xbd28026f	-0.041017946
165	0xbdc3a450	-0.095528245
166	0xbc9ec4b1	-0.0193809
167	0x3d39b587	0.045339134
168	0x3c4a6fb7	0.012355736
169	0x3d898f8a	0.06716831
170	0x3d78ac14	0.06071098
171	0x3dcd6173	0.100283526
172	0x3d522334	0.051303104
173	0xbe14a88e	-0.14517424
174	0x3d92cf1c	0.07168409
175	0xbcb805c3	-0.022463685
176	0xbdafd977	-0.085864
177	0xbe65bf28	-0.22436202
178	0x3dbe7e54	0.09301439
179	0xbd826fc7	-0.06368976
180	0x3d1a739a	0.037707902
181	0x3e3392b3	0.1753643
182	0xbd3c0e2f	-0.045911964
183	0xbcb8cead	-0.022559488
184	0xbca4d8f3	-0.02012298
185	0xbca97a12	-0.02068809
186	0xbdc107ba	-0.09425302
187	0xbd1c56e8	-0.038168818
188	0xbe1b2776	-0.15151772
189	0xbe0f46b7	-0.1399182
190	0xbe039be4	-0.12852436
191	0xbd352d1a	-0.044232465
192	0xbda9d73e	-0.08293007
193	0x3e954d55	0.29160562
194	0xbda73802	-0.081649795
195	0xbe81bdb1	-0.25340036
196	0xbce4b0ab	-0.027916273
197	0xbdbb0faf	-0.09133851
198	0xbe4dde12	-0.20104244
199	0xbd870c63	-0.065941595
200	0x3d25e353	0.040499996
201	0x3c956f76	0.018241625
202	0xbe8c682d	-0.2742323
203	0x3ca6d7dd	0.020366604
204	0xbd487fc3	-0.048949968
205	0x3cf995c4	0.030466922
206	0xbc513274	-0.012768377
207	0xbc39ec04	-0.011347774
208	0x3e37538d	0.17902966
209	0xbe0369bd	-0.12833305
210	0xbbc4b4c7	-0.0060029957
211	0xbceb0394	-0.02868823
212	0xbe225a1e	-0.1585469
213	0x3da1517a	0.078768685
214	0xbe24b885	-0.16086014
215	0x3e1a9398	0.15095365
216	0x3ddf1a37	0.10893672
217	0x3c2fa202	0.010719778
218	0xba813852	-0.0009858704
219	0xbd19623f	-0.03744721
220	0xbd19132e	-0.037371807
221	0xbe2ec907	-0.17068873
222	0x3dbfe218	0.09369296
223	0xbcb67173	-0.022270894
224	0x3dce4bf2	0.10073079
225	0xbde64a2d	-0.11244617
226	0xbe3ff21b	-0.187447
227	0xbccda97f	-0.025105236
228	0xbde25907	-0.11052137
229	0xbe282974	-0.16422063
230	0x3d8e5fbf	0.06951856
231	0x3c847669	0.016169744
232	0xbdc28958	-0.094988525
233	0xbe6f7109	-0.23382963
234	0x3d9f5ef5	0.077817835
235	0xbcb0d8f1	-0.02158782
236	0xbc500207	-0.012695796
237	0xbdbe3e98	-0.092892826
238	0x3cadaf60	0.02120179
239	0x3c97ab69	0.018514352
240	0xbe866e3b	-0.26255974
241	0x3bc57ff1	0.0060272147
242	0xbe3315d0	-0.1748879
243	0x3dfa48bc	0.12220904
244	0x3cefb4d3	0.029261028
245	0xbcd43616	-0.025904696
246	0xbd4d58ca	-0.050133504
247	0xbd9dd5d0	-0.07706797
248	0x3e29ed64	0.16594464
249	0x3d49a1c0	0.049226522
250	0xbe451b2d	-0.19248648
251	0x3c8e0504	0.017336376
252	0xbdce4b8a	-0.10073002
253	0x3d001198	0.03126678
254	0x3dccef71	0.10006607
255	0xbd7a9849	-0.061180387
