results/HideAndSeek6/Hide/Hide-499965.onnx (onnx, 161813 bytes, 7 tensors)

action_model._continuous_distribution.log_sigma f4 [1, 3]
000000 ff 7c 09 bf 63 2d c2 be 31 fb 19 bf
       -0.53706354 -0.37925252 -0.6014891

action_model._continuous_distribution.mu.bias f4 [3]
000000 d6 3b 3c bc 5b 6c 1d 3c 25 d5 4e 3b
       -0.011488875 0.0096083535 0.003156015

action_model._continuous_distribution.mu.weight f4 [3, 128]
000000 42 ea 93 bc 34 88 2e 3d e8 d5 50 3c bc 8c a3 bd
       -0.018056039 0.042610362 0.012746312 -0.07985827
000010 e2 5c 60 3d 5f bd 9c 3c ac a2 80 3c 75 f1 02 bd
       0.05477608 0.019133268 0.015702568 -0.031968553
000020 42 4b 74 bd aa 02 9d bd 46 49 27 bd 9e c1 39 bd
       -0.059642084 -0.07666524 -0.040841363 -0.045350663
000030 62 44 73 3c 50 ca 89 bc 87 7d 20 3d c3 46 f2 bc
       0.014847847 -0.016820103 0.039182212 -0.029574757
000040 e4 ec b4 bb 3b 72 d8 bc 07 18 7e bb 2a 44 d4 bc
       -0.0055214036 -0.026421657 -0.0038771646 -0.02591141
000050 91 c9 ab 3c 8d 36 f7 bc 01 11 7d 3d 8b a3 37 bd
       0.020970138 -0.030177379 0.061783794 -0.0448337
000060 36 78 0b 3d 07 92 4c 3d 2a 1f 5a bd 49 97 cc 3c
       0.03405019 0.04994395 -0.053252377 0.024974482
000070 65 5d fa 3c 07 17 9a 3d f8 74 94 bd e0 35 10 3d
       0.030562112 0.07523923 -0.072488725 0.03520763
000080 43 aa 71 3c a1 01 43 bb 48 86 d8 3c c2 c4 13 bc
       0.014750066 -0.002975561 0.026431218 -0.009019079
000090 a4 e1 5f 3d 9f 25 ba bc b6 77 23 bc eb a2 9c 3c
       0.054658547 -0.022723017 -0.009977272 0.019120654
0000a0 e8 f1 00 3d 1d 7e a8 3c ec b4 79 bc c1 44 78 bd
       0.0314807 0.020567948 -0.015240889 -0.060612444
0000b0 a4 e6 8f 3c 78 3a 6a bd d0 c0 a9 3c c2 4e fd 38
       0.017566033 -0.057184666 0.020721823 0.0001207865
0000c0 97 aa 1c 3b ab ea ca bc 17 cb 8d ba 8b 5a 78 bd
       0.002390539 -0.024770102 -0.0010817972 -0.060633224
0000d0 13 b2 77 bc f9 17 27 3d ac 7b ed 3c 38 c1 85 bd
       -0.01511814 0.040794346 0.028989635 -0.06530994
0000e0 e3 92 50 39 ae c5 0b 3c 9d 99 31 3b 5f 4f 03 3d
       0.00019891145 0.008531017 0.0027099617 0.032058116
0000f0 6b 0b 50 3d 9d 68 b8 3a 56 6e 09 bd 08 ba 39 bd
       0.05079214 0.0014069263 -0.03355249 -0.04534343
000100 1a ad 1c 3d 2a 34 53 3c e7 ac 84 3d 58 f4 13 bd
       0.03825102 0.012890855 0.06478291 -0.036121696
000110 6f 83 8c bc aa 1d 09 3d eb a1 64 3d 33 39 9a 3c
       -0.017152516 0.033475555 0.05581848 0.018826103
000120 e9 5a 8d 3c 7b 9b 2b 3d ff c6 2c bd 72 0f bf 3c
       0.017255263 0.041896325 -0.042181965 0.023322795
000130 a0 bb 57 bc 94 0b a4 bd 24 19 08 3d a0 ee f6 3c
       -0.013167292 -0.08010021 0.0332271 0.030143082
000140 6a 3c b5 bd 8c e4 6c bd 34 17 2c 3d 55 9b e6 3c
       -0.08849414 -0.057835147 0.042014316 0.02815024
000150 e4 ae 68 3c a8 aa 21 3d a7 b8 58 bc e7 16 b7 3c
       0.014201853 0.03946939 -0.013227618 0.022349788
000160 2b 4e 71 3c 80 45 4e 3d 7a aa 5b 3d b2 88 0b 3d
       0.014728109 0.05035925 0.053629376 0.03406591
000170 7b d9 16 3d 8f 7b ca bd 0b 30 64 3d 5e f6 50 3d
       0.0368285 -0.09886848 0.05570988 0.051016204
000180 38 86 40 bd af e3 bd bd 23 35 48 3d 45 58 2d 3d
       -0.047003 -0.09271943 0.0488788 0.04232051
000190 d7 da b1 bd 7c b7 4c 3d 5e 53 d2 3b 51 44 f7 bc
       -0.086843185 0.04997967 0.0064186295 -0.030183943
0001a0 dc 3a 08 bd ac 5b 59 3c c0 4a d5 3c 29 16 22 3c
       -0.033259258 0.013266485 0.02603662 0.009892979
0001b0 3e e8 cb bb 54 76 4b 3d 5e ae 83 3d ca 0d 27 3d
       -0.006222754 0.049673393 0.06429742 0.040784635
0001c0 38 75 3e bd 87 da f4 3c 86 ae 07 3d 3e 3c 23 bd
       -0.046498507 0.029889358 0.033125423 -0.039852373
0001d0 3c 26 85 bd c4 b4 b1 bd 4e 5e 95 bc 39 c3 45 3d
       -0.06501433 -0.086770564 -0.018233445 0.048281882
0001e0 cb f0 e7 3c 23 37 0f 3d 25 11 aa 3c bc dc 34 3d
       0.028313061 0.03496469 0.020760128 0.04415582
0001f0 16 f4 fa 3c 79 e4 6e 3d 25 30 8d bc 37 1a 4b 3d
       0.030633967 0.058323357 -0.017234871 0.049585547
000200 18 65 c1 bd 30 27 c7 bc 4b e5 18 bc 56 fb f7 bd
       -0.0944311 -0.024310678 -0.009332011 -0.121084854
000210 76 e1 2f 3d 48 13 bb 3d 9c 44 a2 3b 19 d8 8a bd
       0.042939626 0.09134537 0.0049520265 -0.067794986
000220 9a 43 e9 3b 8a 8e bc bc 39 8b 1d 3d a0 7c d8 bd
       0.0071186544 -0.023017187 0.03846285 -0.10570645
000230 95 9c 88 39 bc 92 f5 bc d6 57 91 bc 54 71 97 bd
       0.00026056604 -0.029977195 -0.017742079 -0.073946625
000240 01 07 94 3c 96 85 8c 3d a6 4e 56 3d a0 41 fe bd
       0.018069746 0.06861417 0.0523211 -0.12414861
000250 cf 5c 97 3c 51 c5 dd bb d8 56 dc 3b 44 6d 53 bd
       0.018476872 -0.0067679067 0.00672422 -0.051617876
000260 a8 c4 f9 3b 1b 76 1f 3d cc 88 81 3c c7 35 a5 bd
       0.00762232 0.038930994 0.0158123 -0.08066898
000270 e4 2f 4a bd f9 58 fc 3b 7c d8 63 bd bb 37 5f 3d
       -0.04936208 0.007701036 -0.055626377 0.054496508
000280 90 99 c2 bc 79 d5 b7 bd 08 d7 97 3d d1 07 91 3c
       -0.023754865 -0.089762636 0.07414061 0.017703922
000290 97 b9 4d 3d 9e 4c 0e bc 5f 3e f4 3c 05 12 9c 3c
       0.05022582 -0.008685259 0.029814897 0.019051561
0002a0 a0 b5 24 bd d8 71 f4 bc 45 47 88 bc 74 cf ec bd
       -0.040212274 -0.029839441 -0.016635546 -0.11563006
0002b0 5b 14 84 3d 69 2b 20 bc 22 84 38 3b 83 ea ca 3d
       0.06449195 -0.009775975 0.002815493 0.09908011
0002c0 2c 78 17 bd b2 48 c5 bd 60 1e 8d 3c 75 69 38 3a
       -0.03697984 -0.09633006 0.017226398 0.0007034757
0002d0 ac f5 a0 bd 95 bb 8c 3d ff 63 a0 bc 1a fd 3c bd
       -0.07859358 0.06871716 -0.019578932 -0.046139814
0002e0 fd 9a d3 3c f2 7e 8f bc 93 e7 2f 3d 36 54 b1 bc
       0.02583074 -0.017516587 0.042945456 -0.0216466
0002f0 4d 5f 53 bc 65 ca 4a bd 63 68 51 bd dc 43 76 3b
       -0.012901139 -0.049509425 -0.05112494 0.0037577068
000300 73 27 84 3d 3a 37 9a 3b 80 a9 32 3d b0 06 21 bc
       0.06452837 0.0047062906 0.04361868 -0.009828255
000310 f7 62 0e be 20 f7 16 3d 28 14 96 bd 64 1f 5f bd
       -0.1390494 0.03685677 -0.07328063 -0.054473296
000320 98 22 44 3d 04 67 81 3c 31 7f 51 3d 59 58 b9 bc
       0.047884554 0.015796192 0.05114669 -0.022625135
000330 a1 3b fc bd f5 e9 fa b9 ee 38 60 3d 75 31 81 bc
       -0.12316061 -0.00047858027 0.054741792 -0.015770653
000340 d5 6c fb bd bd 32 c5 3c 34 90 a2 3b b9 85 b2 bd
       -0.122766174 0.024072045 0.004961038 -0.08716912
000350 b2 22 89 3d 55 aa 73 3d 38 88 89 bd 00 a1 0e 3c
       0.06696071 0.059488613 -0.06715435 0.008705378
000360 2c da 9f bc fc d8 35 bb 9c c9 86 3c b6 ad cc 3b
       -0.019513212 -0.002774774 0.016453557 0.006246294
000370 4d 8e 7b bd cf 57 a0 bd 5b 61 0b bb c5 30 9c bc
       -0.061415005 -0.07829248 -0.0021267745 -0.019066224
000380 c0 16 6a bd 5f 22 8d bd dd a8 81 bd c8 51 a7 3c
       -0.057150602 -0.068913214 -0.06331036 0.020424739
000390 e8 c9 59 bd 71 88 ab 3d 62 fe 9e 3b 93 31 ed bd
       -0.05317107 0.083756335 0.004852102 -0.11581721
0003a0 41 c0 99 bd bd ea 88 3d 76 24 85 bc b0 7c 07 bb
       -0.07507373 0.06685398 -0.016252737 -0.0020673685
0003b0 68 58 df 3d 5d ad 1b bc 10 3e 42 3d d0 aa 29 3d
       0.10905534 -0.009501782 0.04742247 0.041422665
0003c0 47 59 8d bd 94 14 95 3d a0 00 26 bc 0c df 9f bc
       -0.06901794 0.072793156 -0.010131985 -0.019515537
0003d0 82 19 96 3c 6e 01 01 be de 67 1f bc 9e aa 75 3c
       0.01832271 -0.12598202 -0.009729354 0.014994292
0003e0 76 07 08 3d 09 46 1d 3c c4 17 a0 3d 09 02 17 3d
       0.03321024 0.009599217 0.07817033 0.036867175
0003f0 da 73 34 bd 31 dd 88 3d ef e7 9d bc 4f 20 5d 3d
       -0.044055797 0.06682814 -0.019275634 0.05398589

network_body._body_endoder.seq_layers.0.bias f4 [128]
000000 c8 16 9d 3c 83 54 f0 bc d9 9d 0a 3d ba 61 ca 3c
       0.019175902 -0.029337173 0.03384194 0.024704803
000010 07 ca 02 3d ac b7 c7 bc f4 e9 89 bb d3 5d 59 bc
       0.03193095 -0.024379574 -0.0042087976 -0.013266998
000020 a8 a6 a2 bc d7 50 c1 3b 19 62 85 3c 21 06 6a 3b
       -0.019854859 0.0058995294 0.016282128 0.003570922
000030 63 a6 61 3d 3f 56 ab bc 5a f2 64 bd 1d 74 0e 3d
       0.05509032 -0.020915149 -0.055895187 0.034778703
000040 19 2a de 3c f1 04 92 3c 40 87 06 3c c7 85 47 3b
       0.027119683 0.017824622 0.008210957 0.0030444728
000050 16 f7 95 3c 5f 00 ad 3c de 85 2a 3d 5f 17 be 3b
       0.018306296 0.021118341 0.041631572 0.005801126
000060 9e 7e 76 3c 8a 55 84 bc 99 19 3a bb 5d e9 a1 bc
       0.015044836 -0.01615407 -0.0028396605 -0.019764597
000070 97 ce 86 3c af be 11 3c 16 eb 44 bb 5d ca 69 3c
       0.016455932 0.00889556 -0.0030047349 0.014269439
000080 ba 8b 02 3d c0 6c 27 3c c7 04 57 3c 64 bc a2 3c
       0.031871535 0.010218799 0.013123698 0.019865222
000090 c8 d7 41 3c b1 48 8f bc f3 7b c1 3c d5 27 25 3d
       0.011831231 -0.017490717 0.023618674 0.04032119
0000a0 cd 50 00 bd b0 e9 d7 3b 85 d1 d4 b9 b0 b5 be 3a
       -0.031327058 0.006589137 -0.00040591895 0.0014549997
0000b0 25 e8 af bc 2a 34 20 3d c2 bd a7 bb 2e f5 88 bc
       -0.021473 0.039112248 -0.0051190564 -0.016718473
0000c0 31 48 21 bd 55 ae 91 3c c6 47 c5 3c 55 19 a8 3a
       -0.039375488 0.017783323 0.024082076 0.0012824932
0000d0 37 7e 8e 3d 21 d0 ac bc e2 13 5f 3d df 15 57 3d
       0.06957667 -0.021095337 0.05446232 0.052511092
0000e0 93 20 a4 bc d7 8c 9b 3c 9c 1f d9 3c 2d 1a 68 bc
       -0.020035064 0.018988056 0.02650433 -0.014166397
0000f0 72 fd fe bb de ff 48 bc 76 1a fe 3a 03 6a 4b 3d
       -0.007781678 -0.012268035 0.0019386548 0.049661648
000100 38 66 96 3b cd ea d0 3c dc 50 c7 3c 1e fc 08 bc
       0.004589822 0.025502587 0.024330549 -0.008360891
000110 41 96 ab 3c 61 ed 6c bd 5e 81 f4 3c 8f 93 04 3c
       0.02094567 -0.05784357 0.029846843 0.008091821
000120 0e 92 c4 3c 20 75 30 3c 7f 3a a1 3c d8 89 2e 3b
       0.023995426 0.010770112 0.019681213 0.0026632454
000130 5b 47 b7 bb 63 01 d6 bc e4 57 9c 3c 45 90 db 3c
       -0.005593223 -0.026123708 0.019084878 0.026802192
000140 0a d3 d5 3c cb 86 97 b9 0d 6b 86 bb c5 1b 40 bc
       0.026101608 -0.00028901393 -0.004102117 -0.011725371
000150 e2 a6 04 3d 97 34 53 3c 93 70 be bc b9 32 38 3c
       0.032385714 0.012890956 -0.023247039 0.011242562
000160 b1 af 8c 3d 34 b2 3a 3c 00 67 b6 3c 47 54 48 bc
       0.06869448 0.011395026 0.022265911 -0.012227125
000170 74 86 03 bc 1c 66 0f 3b 9d 58 12 bc 5d e0 40 3c
       -0.008027662 0.002188093 -0.00893226 0.011772242
000180 e9 72 c8 bb 79 e9 43 3c ec 3f fd bc 89 68 9a 3c
       -0.006117214 0.01195752 -0.03091427 0.018848674
000190 de 4c 77 3c 0c 92 99 3c b7 18 aa 3c 04 12 47 3c
       0.01509401 0.018746398 0.020763738 0.012150291
0001a0 8b 9a 51 bc 57 5a 91 bc d9 5b 75 3c 8c f1 f9 3c
       -0.012793194 -0.017743273 0.0149755115 0.030510686
0001b0 7c bf cf bb 4e fc b5 3c 8c 23 f3 3b 00 a4 8b bc
       -0.0063399654 0.022215035 0.007420009 -0.017045975
0001c0 92 f4 62 3b 3d af 1f 3c 80 23 80 3c 2f 5b 59 bc
       0.0034630639 0.00974637 0.015641928 -0.013266369
0001d0 f0 3f d6 bc 3d ac c6 3c ec b9 d3 3c 79 16 2d 3b
       -0.026153535 0.024252051 0.02584549 0.00264111
0001e0 55 6f 5e 3a 91 3c 32 3c fa 53 ef 3a c9 f5 f1 3c
       0.00084852177 0.010878698 0.001825928 0.029536145
0001f0 f8 22 13 3d f6 a3 2b 3b a3 ba 99 bc d5 92 98 ba
       0.03592202 0.0026190258 -0.018765753 -0.0011640439

network_body._body_endoder.seq_layers.0.weight f4 [128, 179]
000000 dd b9 c2 3d dc 3e 8d 3d 72 96 f6 3d 4f 62 f0 bc
       0.09508107 0.06896755 0.12040414 -0.029343752
000010 10 5c 89 3d 1b b5 84 bd d9 dd 00 be ba 73 b1 bd
       0.06707013 -0.064798556 -0.12584628 -0.08664651
000020 fc 98 1e bd cf 76 c3 3c e5 17 2a 3b 73 0b 2c 3d
       -0.038720116 0.023860363 0.0025954184 0.042003106
000030 db 8b 89 3d 4b f3 46 3e 26 5f d7 bd 80 21 3b bd
       0.067161284 0.19428746 -0.10516195 -0.045686245
000040 ee e9 5e bc 54 16 67 3d dc b2 75 bd 47 d5 a0 bb
       -0.013605578 0.056417778 -0.059985027 -0.004908237
000050 14 46 48 3e 76 dd 86 bd 2f fc 07 3c 04 d0 f4 3c
       0.19557983 -0.06585209 0.008299871 0.029884346
000060 19 e1 93 bd b2 2e 83 bc 44 c4 8c 3d 1a b4 44 bc
       -0.07220668 -0.016013477 0.06873372 -0.01200583
000070 bb d1 61 3e d1 67 36 3e 4c b2 15 3e a4 03 5f 3c
       0.22052662 0.1781304 0.14618796 0.013611708
000080 73 9d 3b bd ee 0a 63 3d d8 ec a2 ba d2 53 8e 3c
       -0.045804452 0.055430345 -0.0012430204 0.017373953
000090 e4 3e a3 3c f5 3c c4 3d f3 5b 25 be 9b 66 da bd
       0.01992745 0.09581939 -0.16148357 -0.10664102
0000a0 f2 77 fe 3d 52 02 40 be c5 96 03 3e 03 40 1b 3d
       0.124252215 -0.18750885 0.12850483 0.037902843
0000b0 6a 46 10 be ca 74 14 3d b0 53 e7 3c 86 25 3d bd
       -0.14089361 0.03624419 0.028238147 -0.046178363
0000c0 d9 10 02 3e 1c 05 72 3b 71 66 93 3d ae 0e ff bc
       0.1270174 0.0036929315 0.071972735 -0.03113493
0000d0 8e c9 3c 3e 98 f7 fc bb ef a0 35 3d f2 4e ff bd
       0.18436262 -0.007719945 0.04434293 -0.124662295
0000e0 15 4f 09 3c c3 b7 c8 bc a0 29 07 3e a7 bb 27 bd
       0.008380671 -0.024501687 0.13199472 -0.040950444
0000f0 f0 08 f4 3d 84 e8 69 bd 0c 59 2d bd 60 e0 33 3d
       0.11915767 -0.05710651 -0.04232125 0.043915153
000100 20 4b 2b bd fa 4f 0c bd 36 47 47 be 04 9b c2 bd
       -0.04181969 -0.03425596 -0.19460759 -0.09502223
000110 4f 0d 29 bd e3 6f ec 3d c5 ff 32 3e 37 2c ca bd
       -0.041272458 0.11544778 0.17480381 -0.098717146
000120 80 dd 85 3d 11 30 93 3c fb e4 96 bd fb f8 5a bd
       0.065363884 0.017967256 -0.07367893 -0.053460103
000130 29 16 10 3d 39 8a da bd ef 13 e4 bb f3 32 92 3d
       0.035177384 -0.10670895 -0.006960384 0.07138624
000140 c1 6d f2 bc c2 55 ca 3d 14 6a 44 be 48 bd 53 bd
       -0.02959335 0.09879638 -0.1918109 -0.051694185
000150 2f 8d a2 bd ab bd 92 bc f3 8c 4e 3c 41 60 63 bc
       -0.07937085 -0.017912706 0.012606847 -0.013877929
000160 65 33 5f 3d bb 04 8b 3d 00 49 d4 3d 49 04 0e bd
       0.054492373 0.06788012 0.10365486 -0.034672055
000170 22 fb bd 3d 6e f7 36 3e 65 ab c6 3c 14 a6 bc 3d
       0.092764154 0.17867824 0.02425165 0.092113644
000180 52 af 1d bc 55 5f b3 bd 18 a1 6f 3e 06 d6 dc 3d
       -0.009624319 -0.087584175 0.23401296 0.10783009
000190 b6 c9 a8 bd 5d 6b ad bd 59 d0 6f 3d de e9 61 bc
       -0.08241598 -0.084677435 0.058548305 -0.013788668
0001a0 07 38 8b bd bc 86 2b 3d 70 94 24 bd 9b 5d 85 bd
       -0.06797796 0.04187654 -0.040180624 -0.065119945
0001b0 f9 b7 82 bd e6 74 40 3e e7 d5 73 3c ba c7 9a 3b
       -0.06382746 0.18794593 0.014882541 0.0047235163
0001c0 a6 a2 da bc 2f 3a 63 bc 90 b4 5a bd 5c 3b 5e bd
       -0.026688885 -0.0138688525 -0.053394854 -0.05425583
0001d0 b0 71 ad 3b b4 c3 bd bc db c0 31 be bb 2e 4b bc
       0.0052930936 -0.023164608 -0.17358725 -0.012401278
0001e0 a6 ee 50 3d 55 81 ad bd c4 a3 0b be 41 47 8f 3c
       0.051008843 -0.08471934 -0.1363669 0.017490031
0001f0 3b cf 29 bc e8 56 a7 bc ff cd 6b be 1c f2 b8 3d
       -0.010364349 -0.020427182 -0.230278 0.09030554
000200 91 ea d9 3d 98 d9 a3 bd 97 72 69 3e f9 17 98 3d
       0.10640443 -0.08000487 0.22797619 0.074264474
000210 a3 6b 20 3d 5c 96 9b 3d d5 e4 8d bd dc c2 15 bb
       0.03916515 0.07597038 -0.06928412 -0.002285174
000220 23 de db 3d 76 06 6a bd 6f 22 d2 bd b2 30 f6 bc
       0.107357286 -0.057135068 -0.10260474 -0.030052517
000230 59 d3 09 be 73 17 28 bd ba ed 97 bc a8 94 ee 3c
       -0.13459529 -0.041037988 -0.018545974 0.02912362
000240 ec f5 95 3d f0 4c 9d 3b 84 48 c4 3d 52 af 03 3e
       0.073222965 0.0048004314 0.09584144 0.12859848
000250 35 58 0c be 4d 7c c5 ba a0 b6 ab bb 23 17 e9 bd
       -0.13705523 -0.0015066952 -0.0052402765 -0.11381366
000260 44 06 40 be 30 5f 89 be dd cc cb bc a1 be 0a 3e
       -0.1875239 -0.26830435 -0.02487796 0.13549282
000270 66 f5 bf 3d 5b 79 80 bd 5b 76 84 3d 51 6f 9d 3d
       0.09372978 -0.06273147 0.06467887 0.076872475
000280 99 7c 29 bd 78 df 88 3d 34 2a a5 bd 52 68 f7 bc
       -0.04137859 0.06683248 -0.0806469 -0.030201111
000290 0e 75 12 3c 20 ae 71 3d 8d 7f 8a bc 5b 78 ee 3d
       0.008939041 0.05900395 -0.016906524 0.1164405
0002a0 34 98 54 3d bb d5 d5 3d 0d 55 ad bc dd ec 08 bd
       0.051902965 0.104411565 -0.02115872 -0.033429015
0002b0 74 92 93 3e 1d 83 ee bc 0e b7 78 3e df f9 61 bc
       0.28822672 -0.029115254 0.2428858 -0.013792484
0002c0 8b e8 a7 bc 9c 05 ab 3d 06 85 6e bd 53 ad 1b 3e
       -0.020496627 0.08350679 -0.05823233 0.15202837
0002d0 56 29 0f 3d 86 eb 78 bb 26 e0 92 bd 2d 30 03 bd
       0.03495153 -0.003798218 -0.07171659 -0.032028366
0002e0 1f a0 90 bc 8b b6 6b bd 5a ad d2 3d 85 af 25 3d
       -0.017654477 -0.057547133 0.102869704 0.04045059
0002f0 f3 10 0f be 36 5c e8 bc a6 eb 95 bb e5 d5 68 3d
       -0.1397131 -0.028364282 -0.0045752106 0.05684461
000300 07 5b 9b bd e6 f2 83 bc 1f c4 a3 3d 45 f5 b6 3d
       -0.075857215 -0.016107034 0.079963915 0.089335
000310 35 6b 1a 3c f9 ca e2 3d 7d 78 c4 3d 66 75 ff bd
       0.009424974 0.1107387 0.09593294 -0.12473564
000320 6f 53 c8 bd 83 00 84 bd 6d 68 e6 3c ba 03 e2 3d
       -0.09781539 -0.0644541 0.028125966 0.11035867
000330 3f c5 df 3c 66 01 69 3d 55 b6 f4 bd 7c e6 04 be
       0.027315734 0.0568861 -0.119488396 -0.12978548
000340 07 4e b7 3b 51 01 d5 bd e1 65 8e 3c ff e8 9c 3d
       0.0055940184 -0.10400642 0.017382564 0.07661628
000350 bd e7 40 3d cd 79 5c be 31 8d 37 be 03 f9 f0 3c
       0.047096003 -0.21530838 -0.17924954 0.029415613
000360 d0 a1 c1 bc 06 30 03 bd bc 47 9d 3d 76 33 48 3e
       -0.023636729 -0.03202822 0.07679698 0.19550881
000370 0f 09 35 bd 57 63 13 be 32 62 ed 3d d2 8e 32 3e
       -0.044198092 -0.14393364 0.11590995 0.17437294
000380 90 50 20 3e eb 1c 42 bd 30 32 86 3d a6 b9 09 3e
       0.15655732 -0.04739086 0.06552541 0.13449726
000390 90 02 db 3d 7d 51 e6 bb 4b 70 e9 3d 24 be 94 3c
       0.10693848 -0.007028757 0.11398371 0.018157072
0003a0 65 ed 7f 3d e2 ef dc bd 0e 6c 8d bd 47 9c 90 3d
       0.062482256 -0.107879415 -0.069053754 0.070610575
0003b0 06 12 cc 3d aa 5e b9 bd e9 47 c5 3d 43 e5 2a bc
       0.09964375 -0.09051259 0.096328564 -0.010430637
0003c0 27 f3 75 bd 51 e3 86 bd ee ad 1f 3d bf bd d1 3c
       -0.06004634 -0.06586326 0.03898423 0.025603173
0003d0 1b 5e c4 3d a5 5c b9 3c c4 b6 07 3e 1d 5b 2b be
       0.09588262 0.022627184 0.13253313 -0.16733976
0003e0 71 f6 b6 3c 76 11 e3 bd 70 a0 9c bd 59 bf 40 3e
       0.02233431 -0.11087315 -0.076477885 0.18822993
0003f0 19 70 e5 3d 76 23 52 3d 60 f7 83 3c 2e 5a 95 3d
       0.112030216 0.05130335 0.016109169 0.07292591

network_body._body_endoder.seq_layers.2.bias f4 [128]
000000 ae f8 7c 3c 98 8d 73 bd 7c ea 26 bd 35 38 2f 3d
       0.015440149 -0.059461206 -0.040750965 0.042778213
000010 65 c8 d1 3c a0 46 4a 3c f9 78 09 bc c8 d6 a2 3c
       0.02560825 0.01234594 -0.008390659 0.019877806
000020 be bc 08 3c 77 18 54 3d 74 d0 1e 3c 40 a6 18 bb
       0.008345781 0.051781144 0.009693254 -0.0023292452
000030 e1 bd 5c bb ef af d2 3c 89 45 82 bc 74 d0 30 3c
       -0.0033682513 0.025718657 -0.015902298 0.010791887
000040 2d 6b d6 3b aa 46 0b 3c fe c7 eb 3b 34 97 77 ba
       0.006543538 0.008500734 0.007195472 -0.0009444833
000050 1b 83 72 3c 5d f4 d6 3c f5 7e a0 ba bb ce 21 3b
       0.014801766 0.026239568 -0.0012244867 0.0024689871
000060 76 bf 2f bb 71 50 38 3c c5 9f 80 3c 2b 65 7e 3d
       -0.0026817 0.0112496475 0.015701184 0.0621082
000070 32 6f 42 3c 1c e7 9a 3c 3e d1 0a 3d 40 87 f6 bc
       0.011867331 0.01890903 0.033890955 -0.03009379
000080 54 c6 c3 bc 37 36 66 3c fd c5 06 bc a4 d8 78 bc
       -0.023898281 0.014051012 -0.008225915 -0.01518837
000090 d2 7c 2a bc db ac 99 3c aa fc 0d bc 8c 17 95 bc
       -0.010405736 0.018759182 -0.008666197 -0.018199705
0000a0 81 07 0e 3b ed 9e 87 bc 68 9e bf bb 46 55 c5 3c
       0.0021671953 -0.016555274 -0.005847741 0.024088513
0000b0 d5 cf 3b 3b c1 e0 dc 3c 09 85 bc bc 8f de dd 3c
       0.0028657813 0.02696264 -0.023012655 0.027083663
0000c0 09 b4 9d bc d6 eb 8c 3c 69 33 3a 3b db ac 81 3b
       -0.019250887 0.0172023 0.002841199 0.0039573736
0000d0 85 b3 78 3c 73 ed 93 3b b7 07 4e bb 39 44 51 3d
       0.01517952 0.00451439 -0.0031437704 0.051090453
0000e0 68 55 49 bd d4 92 db 3c fa 9d 45 bc 4b 33 6a 3c
       -0.049153715 0.026803412 -0.01206159 0.014294456
0000f0 b9 8a 97 b9 2e 34 31 3b c3 b9 c3 3c d7 d2 e5 3c
       -0.0002890432 0.0027039158 0.023892289 0.028054638
000100 19 cd be 3c 14 b7 88 bb b0 b3 2e bc b1 fb 88 3b
       0.023291158 -0.0041722152 -0.010662958 0.0041803946
000110 4d 20 d5 b8 66 39 90 bc 4d 89 d0 3c aa 3f 57 bc
       -0.00010162648 -0.017605495 0.025456095 -0.013137737
000120 51 ab a9 3a c3 17 52 bc 29 6a 3d 3c bf 48 2b ba
       0.0012944733 -0.012823048 0.011560955 -0.00065339723
000130 09 1c 7e 3c 0b ff 1e 3c 70 05 5c 3c bd 18 6e bc
       0.015509614 0.009704362 0.013429031 -0.014532265
000140 e4 d0 52 3d a3 ee c3 3c d6 84 d6 bc b6 e3 3f 3c
       0.051468745 0.023917502 -0.026186388 0.011712005
000150 e1 03 5e 3c ec 38 cf 3c cb 3c 84 3a 46 9c 2a 3c
       0.0135507295 0.025295697 0.0010088918 0.010413235
000160 4c 26 a2 ba ba a0 8c 3c e6 48 d7 3b 1e cf 15 bc
       -0.0012371032 0.017166484 0.0065699695 -0.009143619
000170 61 df 81 3c 72 38 59 3d 85 79 84 3a 61 aa 53 bb
       0.015853586 0.053032346 0.0010107016 -0.0032297599
000180 a9 d6 4c 3d 9d cc 27 3d 4e 58 88 3c 78 6f 68 3c
       0.050009403 0.04096662 0.01664367 0.0141867325
000190 8e ba b5 3c ea e8 d1 3c 91 8a e8 bc 11 c7 c0 3c
       0.022183683 0.025623757 -0.028386386 0.023532422
0001a0 d7 c9 19 3c 9e c0 27 3c 8c ba 8d bc bf e9 c5 3c
       0.009386501 0.010238795 -0.017300867 0.02415931
0001b0 9b 60 3e 3c 2c b3 37 3d c1 9f 1b 3c e3 10 6d bc
       0.011619712 0.044848606 0.0094985375 -0.014469358
0001c0 52 67 47 3b 0f 9c 4c bd af 89 ca bc 9f df 01 3c
       0.0030426574 -0.049953517 -0.024723856 0.007926851
0001d0 34 6f bf 3c ad 2a e0 3c f3 76 0f bd 6b b3 c4 3c
       0.023368455 0.0273641 -0.03502555 0.024011334
0001e0 1d 26 7f bc e9 f5 cb bc 49 db e2 3c c0 8d de 3c
       -0.015573052 -0.024897533 0.027692454 0.027167201
0001f0 dd 1e 3f 3b af 7b 8a 3c bb b2 f3 ba fb b7 8c 3c
       0.0029162683 0.01690468 -0.0018592695 0.017177572

network_body._body_endoder.seq_layers.2.weight f4 [128, 128]
000000 76 0b 30 3e 42 17 a3 3d e8 3b 28 3e c5 2c 41 be
       0.17191872 0.079634205 0.16429102 -0.18864734
000010 87 85 2b 3c 16 4b b4 3c cf e0 f3 3c ee 5e 24 3e
       0.010468847 0.02200846 0.029770283 0.16051838
000020 f1 44 12 3e 43 73 0c 3d a8 45 dd bc 27 71 34 be
       0.14284112 0.03428961 -0.027010754 -0.17621289
000030 76 91 46 be 6d fe c6 bc 8f c5 fe bd d5 32 ef 3d
       -0.19391426 -0.024291242 -0.12440025 0.11679617
000040 51 c9 3a bd ba 4f 81 be d9 76 bb 3d 82 f7 58 3e
       -0.045602147 -0.2525614 0.09153528 0.21188167
000050 53 f4 b9 bd 9d 5a 60 bd 32 6b ac 3d 2c 63 97 3c
       -0.09079804 -0.054773916 0.084188834 0.018479906
000060 42 f8 4c 3d 1f fd 5f ba 1d fc d3 3d 34 0f d9 3c
       0.050041445 -0.0008544493 0.10350821 0.026496507
000070 a2 6c a1 bd e7 98 f9 3d 6c f2 f5 3d 5c fa 39 be
       -0.07882048 0.12187367 0.12009129 -0.18161911
000080 20 84 f5 3d 66 7c 85 3c 0a 0f 35 3d 9f c4 22 be
       0.119880915 0.01629467 0.044203795 -0.15895317
000090 49 7c 8a 3a 9a ef 8e 3d a5 3e 53 3e 12 7b c9 3d
       0.0010565604 0.06979294 0.20629366 0.09837927
0000a0 27 68 ea 3c 12 1d cd 3c b1 17 b0 3d 2a 49 0e 3d
       0.028614117 0.025038276 0.08598269 0.034737743
0000b0 25 d5 52 bd 27 ed 1d 3e c3 b4 05 be ac 3e 1c bb
       -0.0514728 0.15422498 -0.13057236 -0.0023841066
0000c0 22 07 0b be b6 03 4b b9 53 8b 0d be f8 4a ad bd
       -0.1357694 -0.00019360971 -0.13822679 -0.08461565
0000d0 17 b8 26 3d 32 0d 4f bd 01 30 9a bb 4c c8 fc bc
       0.040702906 -0.050549693 -0.0047054295 -0.030857228
0000e0 96 3b 1c 3e fe 61 a5 3d 3b b1 3a 3d 19 40 5c bd
       0.15257105 0.08075331 0.045579176 -0.053772066
0000f0 13 d6 89 bd 33 e4 3d 3e 72 ed 6c 3d 3c 26 6a be
       -0.067302845 0.18544082 0.057843633 -0.22866148
000100 7a 95 aa bc 0a cb 39 3c 88 b5 cb bd c8 4c dd 3d
       -0.02082323 0.011339912 -0.09946734 0.108056605
000110 80 00 1f 3e 2a cd e4 bc 2b 2b 52 bd d4 b9 4f 3e
       0.15527534 -0.027929861 -0.0513107 0.20285732
000120 f7 95 59 3d fc 0d f4 3d 47 13 0b 3e 7d 89 2d 3e
       0.053121533 0.1191673 0.13581572 0.16946979
000130 5b c2 25 bd f4 13 b5 bd 71 5e 09 be f8 95 cc 3d
       -0.040468555 -0.088416964 -0.13414933 0.09989542
000140 4c bc ee 3d d3 80 ad 3d 95 24 67 3d 1f db 17 bd
       0.116570085 0.08471837 0.05643137 -0.037074205
000150 ca 3d d2 3c b0 a9 4f 3d 2c 30 d4 bd 6c cf d7 bd
       0.025664229 0.050698936 -0.103607506 -0.105376095
000160 34 de c1 3c df 62 07 bb 39 56 90 bc 92 d1 21 be
       0.023665525 -0.0020658297 -0.01761924 -0.15802601
000170 f6 be cb 3d 15 10 50 bd fd 96 15 be af 38 53 3e
       0.09948532 -0.050796587 -0.14608379 0.20627092
000180 46 18 21 bd 76 88 ab 3d e4 99 e0 3d 12 50 b7 bd
       -0.03932979 0.08375637 0.10966852 -0.08950819
000190 3e 78 04 bc 18 12 9e 3c c8 c3 7d bb 3d a8 c0 3c
       -0.008085309 0.019295737 -0.003872143 0.023517722
0001a0 48 38 0f 3d a3 b2 c7 bd f7 d3 2c bd d8 f4 8e 3c
       0.034965783 -0.09750869 -0.042194333 0.017450735
0001b0 a8 d6 86 bd 40 a5 39 3d 5d cc 97 bd 81 f9 07 3d
       -0.06583911 0.04532361 -0.07412026 0.03319693
0001c0 74 9a 06 3b 68 14 1f bc f9 5c c5 bd 1f c3 28 3d
       0.0020538839 -0.009709455 -0.09636874 0.041201707
0001d0 96 cd 0c bd 54 e7 bb bb 05 1d 3b 3e 90 22 09 bc
       -0.03437575 -0.0057343636 0.18272789 -0.008370057
0001e0 31 7f 4e 3e 23 fb 53 3c b2 2a 14 3e 07 81 ef 3d
       0.20165707 0.012938294 0.14469412 0.11694532
0001f0 49 c2 87 bd 1f 02 7a bd e9 39 3f bd ec 32 22 bc
       -0.06628854 -0.06103718 -0.046686087 -0.009899836
000200 00 4f 74 be e4 1f b5 bc fc e3 62 3d 8f 6a 03 be
       -0.23858261 -0.022109933 0.055393204 -0.12833618
000210 f9 eb 9d bd ac 4a 6b bd b8 53 7e 3d d5 f9 70 3d
       -0.07711024 -0.05744426 0.06209156 0.05883201
000220 3d 08 d2 3d fd 49 b2 bd 69 04 31 be 9a 41 ae 3d
       0.102554776 -0.087055184 -0.17286839 0.08508606
000230 1e 6e 6c bd 03 a5 79 bc 88 d9 d3 3d 41 b6 2a be
       -0.057722203 -0.015237096 0.10344225 -0.16671087
000240 89 8a e1 bd 1d e2 c0 bc 5c 7e 9c bd 54 68 4f be
       -0.110127516 -0.02354532 -0.07641289 -0.20254642
000250 fe 03 b1 3b 03 a3 b0 bd dc 8a 9c bd a8 78 ef bc
       0.0054020872 -0.08624842 -0.07643673 -0.029232338
000260 7f 23 ce 3d 7e da 6e bd ac 2c 30 3d 04 2d 22 3e
       0.10065364 -0.05831384 0.043011352 0.15837485
000270 c9 56 58 bc 99 bc 96 bc d2 10 18 3d 38 6f 0c be
       -0.013204285 -0.018400477 0.037125416 -0.13714302
000280 8e 49 88 3c 16 28 22 bd ad 09 ef bd 0c 43 10 3d
       0.016636636 -0.03958901 -0.116717674 0.03522019
000290 5b 29 3f bd fb e5 d4 bd 8c 4c 5e bc d7 cb 41 3d
       -0.0466703 -0.10395428 -0.013568055 0.047313537
0002a0 ba ab 97 3b 2d 06 93 3d 62 1f 86 3d 4b 1c bc 3d
       0.0046286257 0.07178912 0.065489545 0.09185084
0002b0 f1 67 29 3d f5 79 1b be bd d2 80 3d ed bb 0e bd
       0.041358892 -0.15183242 0.06290195 -0.03484719
0002c0 9f 16 a6 bd 5e 2c 59 be c9 6c c1 3d d1 82 95 bd
       -0.081097834 -0.21208331 0.09444577 -0.07300342
0002d0 2d 26 e1 3c 83 6a 2c 3e 1a 19 2e bd b6 3c f2 bc
       0.027484024 0.16837506 -0.042504407 -0.029569965
0002e0 4e 84 f4 bc d8 d7 2c bc 9b c1 90 bd f6 7b b1 bc
       -0.029848244 -0.010549508 -0.07068177 -0.021665554
0002f0 ec d0 00 be da d7 20 be ed 43 07 be af a8 4d bd
       -0.12579697 -0.15707341 -0.13209505 -0.050209697
000300 73 9d b5 bd 2f 5f 91 3e 41 ee 7e bd 52 64 67 be
       -0.08867922 0.28392932 -0.062238935 -0.22596863
000310 34 30 e2 bc 8a 88 d7 bd 57 ee 47 be bd 12 6f bd
       -0.027610876 -0.1052409 -0.19524513 -0.05836748
000320 00 22 28 3d 75 c8 c0 3c 2b bb 85 be c5 e2 18 3d
       0.04104805 0.023533085 -0.2611936 0.03732564
000330 f8 30 74 bd d6 ff c4 3c 28 7f 8d bb 28 f7 ea bb
       -0.059617013 0.024047773 -0.0043181367 -0.0071705766
000340 b6 54 30 3e 94 45 01 be f2 91 e8 3a 11 b2 b2 bc
       0.17219815 -0.12624198 0.001774369 -0.021813424
000350 6f ca 17 be 50 42 98 3d ae 5c 23 be 29 65 28 3e
       -0.14823316 0.07434523 -0.15953323 0.1644484
000360 7e d2 df 3d fb 91 76 3b 69 31 1e bc 0d 8d 49 bd
       0.1092882 0.0037623632 -0.009655335 -0.049206782
000370 53 70 d1 bc 8c a9 33 be 87 6f b3 3d eb 3e d2 bb
       -0.025566256 -0.17545146 0.087615065 -0.006416192
000380 3e 11 c9 3d 73 a3 01 be 97 03 2c be 5c da 99 bc
       0.09817742 -0.12660007 -0.16798244 -0.01878088
000390 ee 48 d2 bd 66 59 26 be 0d bc 92 3d ca 18 ae 3c
       -0.102678165 -0.1624504 0.07164774 0.021252055
0003a0 31 47 b6 bd 4b 4e 5e be 71 9a 97 3d bd f2 ba bb
       -0.089002974 -0.21709554 0.07402504 -0.005705206
0003b0 3b 4e b1 bb 4f cf 98 bd 43 a7 4c 3c c2 4c 18 3d
       -0.005410937 -0.07461416 0.01249105 0.037182577
0003c0 dd 15 7b be d6 ae 97 3c e3 86 35 be 26 9f f3 3d
       -0.24520059 0.018515985 -0.17727236 0.118955895
0003d0 67 86 8f 3c ff c1 f5 bc bc 23 58 bd 32 c3 ad bd
       0.017520143 -0.029999731 -0.052768454 -0.08484496
0003e0 5a 2e 2d 3e ea 63 24 3d e7 03 3c be d5 28 78 3c
       0.16912213 0.040134348 -0.18360864 0.015146454
0003f0 82 6d db bd d7 87 02 3d fb 24 b0 3d 14 3a 6a bd
       -0.10714246 0.03186783 0.086008035 -0.057184294
