results/HideAndSeek6/Hide/Hide-499965.pt (torch, 972639 bytes, 36 tensors)

network_body._body_endoder.seq_layers.0.weight f4 [128, 179]
0.09508107 0.06896755 0.12040414 -0.029343752 0.06707013 -0.064798556 -0.12584628 -0.08664651
-0.038720116 0.023860363 0.0025954184 0.042003106 0.067161284 0.19428746 -0.10516195 -0.045686245
-0.013605578 0.056417778 -0.059985027 -0.004908237 0.19557983 -0.06585209 0.008299871 0.029884346
-0.07220668 -0.016013477 0.06873372 -0.01200583 0.22052662 0.1781304 0.14618796 0.013611708
-0.045804452 0.055430345 -0.0012430204 0.017373953 0.01992745 0.09581939 -0.16148357 -0.10664102
0.124252215 -0.18750885 0.12850483 0.037902843 -0.14089361 0.03624419 0.028238147 -0.046178363
0.1270174 0.0036929315 0.071972735 -0.03113493 0.18436262 -0.007719945 0.04434293 -0.124662295
0.008380671 -0.024501687 0.13199472 -0.040950444 0.11915767 -0.05710651 -0.04232125 0.043915153
-0.04181969 -0.03425596 -0.19460759 -0.09502223 -0.041272458 0.11544778 0.17480381 -0.098717146
0.065363884 0.017967256 -0.07367893 -0.053460103 0.035177384 -0.10670895 -0.006960384 0.07138624
-0.02959335 0.09879638 -0.1918109 -0.051694185 -0.07937085 -0.017912706 0.012606847 -0.013877929
0.054492373 0.06788012 0.10365486 -0.034672055 0.092764154 0.17867824 0.02425165 0.092113644
-0.009624319 -0.087584175 0.23401296 0.10783009 -0.08241598 -0.084677435 0.058548305 -0.013788668
-0.06797796 0.04187654 -0.040180624 -0.065119945 -0.06382746 0.18794593 0.014882541 0.0047235163
-0.026688885 -0.0138688525 -0.053394854 -0.05425583 0.0052930936 -0.023164608 -0.17358725 -0.012401278
0.051008843 -0.08471934 -0.1363669 0.017490031 -0.010364349 -0.020427182 -0.230278 0.09030554
0.10640443 -0.08000487 0.22797619 0.074264474 0.03916515 0.07597038 -0.06928412 -0.002285174
0.107357286 -0.057135068 -0.10260474 -0.030052517 -0.13459529 -0.041037988 -0.018545974 0.02912362
0.073222965 0.0048004314 0.09584144 0.12859848 -0.13705523 -0.0015066952 -0.0052402765 -0.11381366
-0.1875239 -0.26830435 -0.02487796 0.13549282 0.09372978 -0.06273147 0.06467887 0.076872475
-0.04137859 0.06683248 -0.0806469 -0.030201111 0.008939041 0.05900395 -0.016906524 0.1164405
0.051902965 0.104411565 -0.02115872 -0.033429015 0.28822672 -0.029115254 0.2428858 -0.013792484
-0.020496627 0.08350679 -0.05823233 0.15202837 0.03495153 -0.003798218 -0.07171659 -0.032028366
-0.017654477 -0.057547133 0.102869704 0.04045059 -0.1397131 -0.028364282 -0.0045752106 0.05684461
-0.075857215 -0.016107034 0.079963915 0.089335 0.009424974 0.1107387 0.09593294 -0.12473564
-0.09781539 -0.0644541 0.028125966 0.11035867 0.027315734 0.0568861 -0.119488396 -0.12978548
0.0055940184 -0.10400642 0.017382564 0.07661628 0.047096003 -0.21530838 -0.17924954 0.029415613
-0.023636729 -0.03202822 0.07679698 0.19550881 -0.044198092 -0.14393364 0.11590995 0.17437294
0.15655732 -0.04739086 0.06552541 0.13449726 0.10693848 -0.007028757 0.11398371 0.018157072
0.062482256 -0.107879415 -0.069053754 0.070610575 0.09964375 -0.09051259 0.096328564 -0.010430637
-0.06004634 -0.06586326 0.03898423 0.025603173 0.09588262 0.022627184 0.13253313 -0.16733976
0.02233431 -0.11087315 -0.076477885 0.18822993 0.112030216 0.05130335 0.016109169 0.07292591
00000000: ddb9 c23d dc3e 8d3d 7296 f63d 4f62 f0bc
00000010: 105c 893d 1bb5 84bd d9dd 00be ba73 b1bd
00000020: fc98 1ebd cf76 c33c e517 2a3b 730b 2c3d
00000030: db8b 893d 4bf3 463e 265f d7bd 8021 3bbd
00000040: eee9 5ebc 5416 673d dcb2 75bd 47d5 a0bb
00000050: 1446 483e 76dd 86bd 2ffc 073c 04d0 f43c
00000060: 19e1 93bd b22e 83bc 44c4 8c3d 1ab4 44bc
00000070: bbd1 613e d167 363e 4cb2 153e a403 5f3c
00000080: 739d 3bbd ee0a 633d d8ec a2ba d253 8e3c
00000090: e43e a33c f53c c43d f35b 25be 9b66 dabd
000000a0: f277 fe3d 5202 40be c596 033e 0340 1b3d
000000b0: 6a46 10be ca74 143d b053 e73c 8625 3dbd
000000c0: d910 023e 1c05 723b 7166 933d ae0e ffbc
000000d0: 8ec9 3c3e 98f7 fcbb efa0 353d f24e ffbd
000000e0: 154f 093c c3b7 c8bc a029 073e a7bb 27bd
000000f0: f008 f43d 84e8 69bd 0c59 2dbd 60e0 333d
00000100: 204b 2bbd fa4f 0cbd 3647 47be 049b c2bd
00000110: 4f0d 29bd e36f ec3d c5ff 323e 372c cabd
00000120: 80dd 853d 1130 933c fbe4 96bd fbf8 5abd
00000130: 2916 103d 398a dabd ef13 e4bb f332 923d
00000140: c16d f2bc c255 ca3d 146a 44be 48bd 53bd
00000150: 2f8d a2bd abbd 92bc f38c 4e3c 4160 63bc
00000160: 6533 5f3d bb04 8b3d 0049 d43d 4904 0ebd
00000170: 22fb bd3d 6ef7 363e 65ab c63c 14a6 bc3d
00000180: 52af 1dbc 555f b3bd 18a1 6f3e 06d6 dc3d
00000190: b6c9 a8bd 5d6b adbd 59d0 6f3d dee9 61bc
000001a0: 0738 8bbd bc86 2b3d 7094 24bd 9b5d 85bd
000001b0: f9b7 82bd e674 403e e7d5 733c bac7 9a3b
000001c0: a6a2 dabc 2f3a 63bc 90b4 5abd 5c3b 5ebd
000001d0: b071 ad3b b4c3 bdbc dbc0 31be bb2e 4bbc
000001e0: a6ee 503d 5581 adbd c4a3 0bbe 4147 8f3c
000001f0: 3bcf 29bc e856 a7bc ffcd 6bbe 1cf2 b83d
00000200: 91ea d93d 98d9 a3bd 9772 693e f917 983d
00000210: a36b 203d 5c96 9b3d d5e4 8dbd dcc2 15bb
00000220: 23de db3d 7606 6abd 6f22 d2bd b230 f6bc
00000230: 59d3 09be 7317 28bd baed 97bc a894 ee3c
00000240: ecf5 953d f04c 9d3b 8448 c43d 52af 033e
00000250: 3558 0cbe 4d7c c5ba a0b6 abbb 2317 e9bd
00000260: 4406 40be 305f 89be ddcc cbbc a1be 0a3e
00000270: 66f5 bf3d 5b79 80bd 5b76 843d 516f 9d3d
00000280: 997c 29bd 78df 883d 342a a5bd 5268 f7bc
00000290: 0e75 123c 20ae 713d 8d7f 8abc 5b78 ee3d
000002a0: 3498 543d bbd5 d53d 0d55 adbc ddec 08bd
000002b0: 7492 933e 1d83 eebc 0eb7 783e dff9 61bc
000002c0: 8be8 a7bc 9c05 ab3d 0685 6ebd 53ad 1b3e
000002d0: 5629 0f3d 86eb 78bb 26e0 92bd 2d30 03bd
000002e0: 1fa0 90bc 8bb6 6bbd 5aad d23d 85af 253d
000002f0: f310 0fbe 365c e8bc a6eb 95bb e5d5 683d
00000300: 075b 9bbd e6f2 83bc 1fc4 a33d 45f5 b63d
00000310: 356b 1a3c f9ca e23d 7d78 c43d 6675 ffbd
00000320: 6f53 c8bd 8300 84bd 6d68 e63c ba03 e23d
00000330: 3fc5 df3c 6601 693d 55b6 f4bd 7ce6 04be
00000340: 074e b73b 5101 d5bd e165 8e3c ffe8 9c3d
00000350: bde7 403d cd79 5cbe 318d 37be 03f9 f03c
00000360: d0a1 c1bc 0630 03bd bc47 9d3d 7633 483e
00000370: 0f09 35bd 5763 13be 3262 ed3d d28e 323e
00000380: 9050 203e eb1c 42bd 3032 863d a6b9 093e
00000390: 9002 db3d 7d51 e6bb 4b70 e93d 24be 943c
000003a0: 65ed 7f3d e2ef dcbd 0e6c 8dbd 479c 903d
000003b0: 0612 cc3d aa5e b9bd e947 c53d 43e5 2abc
000003c0: 27f3 75bd 51e3 86bd eead 1f3d bfbd d13c
000003d0: 1b5e c43d a55c b93c c4b6 073e 1d5b 2bbe
000003e0: 71f6 b63c 7611 e3bd 70a0 9cbd 59bf 403e
000003f0: 1970 e53d 7623 523d 60f7 833c 2e5a 953d

network_body._body_endoder.seq_layers.0.bias f4 [128]
0.019175902 -0.029337173 0.03384194 0.024704803 0.03193095 -0.024379574 -0.0042087976 -0.013266998
-0.019854859 0.0058995294 0.016282128 0.003570922 0.05509032 -0.020915149 -0.055895187 0.034778703
0.027119683 0.017824622 0.008210957 0.0030444728 0.018306296 0.021118341 0.041631572 0.005801126
0.015044836 -0.01615407 -0.0028396605 -0.019764597 0.016455932 0.00889556 -0.0030047349 0.014269439
0.031871535 0.010218799 0.013123698 0.019865222 0.011831231 -0.017490717 0.023618674 0.04032119
-0.031327058 0.006589137 -0.00040591895 0.0014549997 -0.021473 0.039112248 -0.0051190564 -0.016718473
-0.039375488 0.017783323 0.024082076 0.0012824932 0.06957667 -0.021095337 0.05446232 0.052511092
-0.020035064 0.018988056 0.02650433 -0.014166397 -0.007781678 -0.012268035 0.0019386548 0.049661648
0.004589822 0.025502587 0.024330549 -0.008360891 0.02094567 -0.05784357 0.029846843 0.008091821
0.023995426 0.010770112 0.019681213 0.0026632454 -0.005593223 -0.026123708 0.019084878 0.026802192
0.026101608 -0.00028901393 -0.004102117 -0.011725371 0.032385714 0.012890956 -0.023247039 0.011242562
0.06869448 0.011395026 0.022265911 -0.012227125 -0.008027662 0.002188093 -0.00893226 0.011772242
-0.006117214 0.01195752 -0.03091427 0.018848674 0.01509401 0.018746398 0.020763738 0.012150291
-0.012793194 -0.017743273 0.0149755115 0.030510686 -0.0063399654 0.022215035 0.007420009 -0.017045975
0.0034630639 0.00974637 0.015641928 -0.013266369 -0.026153535 0.024252051 0.02584549 0.00264111
0.00084852177 0.010878698 0.001825928 0.029536145 0.03592202 0.0026190258 -0.018765753 -0.0011640439
00000000: c816 9d3c 8354 f0bc d99d 0a3d ba61 ca3c
00000010: 07ca 023d acb7 c7bc f4e9 89bb d35d 59bc
00000020: a8a6 a2bc d750 c13b 1962 853c 2106 6a3b
00000030: 63a6 613d 3f56 abbc 5af2 64bd 1d74 0e3d
00000040: 192a de3c f104 923c 4087 063c c785 473b
00000050: 16f7 953c 5f00 ad3c de85 2a3d 5f17 be3b
00000060: 9e7e 763c 8a55 84bc 9919 3abb 5de9 a1bc
00000070: 97ce 863c afbe 113c 16eb 44bb 5dca 693c
00000080: ba8b 023d c06c 273c c704 573c 64bc a23c
00000090: c8d7 413c b148 8fbc f37b c13c d527 253d
000000a0: cd50 00bd b0e9 d73b 85d1 d4b9 b0b5 be3a
000000b0: 25e8 afbc 2a34 203d c2bd a7bb 2ef5 88bc
000000c0: 3148 21bd 55ae 913c c647 c53c 5519 a83a
000000d0: 377e 8e3d 21d0 acbc e213 5f3d df15 573d
000000e0: 9320 a4bc d78c 9b3c 9c1f d93c 2d1a 68bc
000000f0: 72fd febb deff 48bc 761a fe3a 036a 4b3d
00000100: 3866 963b cdea d03c dc50 c73c 1efc 08bc
00000110: 4196 ab3c 61ed 6cbd 5e81 f43c 8f93 043c
00000120: 0e92 c43c 2075 303c 7f3a a13c d889 2e3b
00000130: 5b47 b7bb 6301 d6bc e457 9c3c 4590 db3c
00000140: 0ad3 d53c cb86 97b9 0d6b 86bb c51b 40bc
00000150: e2a6 043d 9734 533c 9370 bebc b932 383c
00000160: b1af 8c3d 34b2 3a3c 0067 b63c 4754 48bc
00000170: 7486 03bc 1c66 0f3b 9d58 12bc 5de0 403c
00000180: e972 c8bb 79e9 433c ec3f fdbc 8968 9a3c
00000190: de4c 773c 0c92 993c b718 aa3c 0412 473c
000001a0: 8b9a 51bc 575a 91bc d95b 753c 8cf1 f93c
000001b0: 7cbf cfbb 4efc b53c 8c23 f33b 00a4 8bbc
000001c0: 92f4 623b 3daf 1f3c 8023 803c 2f5b 59bc
000001d0: f03f d6bc 3dac c63c ecb9 d33c 7916 2d3b
000001e0: 556f 5e3a 913c 323c fa53 ef3a c9f5 f13c
000001f0: f822 133d f6a3 2b3b a3ba 99bc d592 98ba

network_body._body_endoder.seq_layers.2.weight f4 [128, 128]
0.17191872 0.079634205 0.16429102 -0.18864734 0.010468847 0.02200846 0.029770283 0.16051838
0.14284112 0.03428961 -0.027010754 -0.17621289 -0.19391426 -0.024291242 -0.12440025 0.11679617
-0.045602147 -0.2525614 0.09153528 0.21188167 -0.09079804 -0.054773916 0.084188834 0.018479906
0.050041445 -0.0008544493 0.10350821 0.026496507 -0.07882048 0.12187367 0.12009129 -0.18161911
0.119880915 0.01629467 0.044203795 -0.15895317 0.0010565604 0.06979294 0.20629366 0.09837927
0.028614117 0.025038276 0.08598269 0.034737743 -0.0514728 0.15422498 -0.13057236 -0.0023841066
-0.1357694 -0.00019360971 -0.13822679 -0.08461565 0.040702906 -0.050549693 -0.0047054295 -0.030857228
0.15257105 0.08075331 0.045579176 -0.053772066 -0.067302845 0.18544082 0.057843633 -0.22866148
-0.02082323 0.011339912 -0.09946734 0.108056605 0.15527534 -0.027929861 -0.0513107 0.20285732
0.053121533 0.1191673 0.13581572 0.16946979 -0.040468555 -0.088416964 -0.13414933 0.09989542
0.116570085 0.08471837 0.05643137 -0.037074205 0.025664229 0.050698936 -0.103607506 -0.105376095
0.023665525 -0.0020658297 -0.01761924 -0.15802601 0.09948532 -0.050796587 -0.14608379 0.20627092
-0.03932979 0.08375637 0.10966852 -0.08950819 -0.008085309 0.019295737 -0.003872143 0.023517722
0.034965783 -0.09750869 -0.042194333 0.017450735 -0.06583911 0.04532361 -0.07412026 0.03319693
0.0020538839 -0.009709455 -0.09636874 0.041201707 -0.03437575 -0.0057343636 0.18272789 -0.008370057
0.20165707 0.012938294 0.14469412 0.11694532 -0.06628854 -0.06103718 -0.046686087 -0.009899836
-0.23858261 -0.022109933 0.055393204 -0.12833618 -0.07711024 -0.05744426 0.06209156 0.05883201
0.102554776 -0.087055184 -0.17286839 0.08508606 -0.057722203 -0.015237096 0.10344225 -0.16671087
-0.110127516 -0.02354532 -0.07641289 -0.20254642 0.0054020872 -0.08624842 -0.07643673 -0.029232338
0.10065364 -0.05831384 0.043011352 0.15837485 -0.013204285 -0.018400477 0.037125416 -0.13714302
0.016636636 -0.03958901 -0.116717674 0.03522019 -0.0466703 -0.10395428 -0.013568055 0.047313537
0.0046286257 0.07178912 0.065489545 0.09185084 0.041358892 -0.15183242 0.06290195 -0.03484719
-0.081097834 -0.21208331 0.09444577 -0.07300342 0.027484024 0.16837506 -0.042504407 -0.029569965
-0.029848244 -0.010549508 -0.07068177 -0.021665554 -0.12579697 -0.15707341 -0.13209505 -0.050209697
-0.08867922 0.28392932 -0.062238935 -0.22596863 -0.027610876 -0.1052409 -0.19524513 -0.05836748
0.04104805 0.023533085 -0.2611936 0.03732564 -0.059617013 0.024047773 -0.0043181367 -0.0071705766
0.17219815 -0.12624198 0.001774369 -0.021813424 -0.14823316 0.07434523 -0.15953323 0.1644484
0.1092882 0.0037623632 -0.009655335 -0.049206782 -0.025566256 -0.17545146 0.087615065 -0.006416192
0.09817742 -0.12660007 -0.16798244 -0.01878088 -0.102678165 -0.1624504 0.07164774 0.021252055
-0.089002974 -0.21709554 0.07402504 -0.005705206 -0.005410937 -0.07461416 0.01249105 0.037182577
-0.24520059 0.018515985 -0.17727236 0.118955895 0.017520143 -0.029999731 -0.052768454 -0.08484496
0.16912213 0.040134348 -0.18360864 0.015146454 -0.10714246 0.03186783 0.086008035 -0.057184294
00000000: 760b 303e 4217 a33d e83b 283e c52c 41be
00000010: 8785 2b3c 164b b43c cfe0 f33c ee5e 243e
00000020: f144 123e 4373 0c3d a845 ddbc 2771 34be
00000030: 7691 46be 6dfe c6bc 8fc5 febd d532 ef3d
00000040: 51c9 3abd ba4f 81be d976 bb3d 82f7 583e
00000050: 53f4 b9bd 9d5a 60bd 326b ac3d 2c63 973c
00000060: 42f8 4c3d 1ffd 5fba 1dfc d33d 340f d93c
00000070: a26c a1bd e798 f93d 6cf2 f53d 5cfa 39be
00000080: 2084 f53d 667c 853c 0a0f 353d 9fc4 22be
00000090: 497c 8a3a 9aef 8e3d a53e 533e 127b c93d
000000a0: 2768 ea3c 121d cd3c b117 b03d 2a49 0e3d
000000b0: 25d5 52bd 27ed 1d3e c3b4 05be ac3e 1cbb
000000c0: 2207 0bbe b603 4bb9 538b 0dbe f84a adbd
000000d0: 17b8 263d 320d 4fbd 0130 9abb 4cc8 fcbc
000000e0: 963b 1c3e fe61 a53d 3bb1 3a3d 1940 5cbd
000000f0: 13d6 89bd 33e4 3d3e 72ed 6c3d 3c26 6abe
00000100: 7a95 aabc 0acb 393c 88b5 cbbd c84c dd3d
00000110: 8000 1f3e 2acd e4bc 2b2b 52bd d4b9 4f3e
00000120: f795 593d fc0d f43d 4713 0b3e 7d89 2d3e
00000130: 5bc2 25bd f413 b5bd 715e 09be f895 cc3d
00000140: 4cbc ee3d d380 ad3d 9524 673d 1fdb 17bd
00000150: ca3d d23c b0a9 4f3d 2c30 d4bd 6ccf d7bd
00000160: 34de c13c df62 07bb 3956 90bc 92d1 21be
00000170: f6be cb3d 1510 50bd fd96 15be af38 533e
00000180: 4618 21bd 7688 ab3d e499 e03d 1250 b7bd
00000190: 3e78 04bc 1812 9e3c c8c3 7dbb 3da8 c03c
000001a0: 4838 0f3d a3b2 c7bd f7d3 2cbd d8f4 8e3c
000001b0: a8d6 86bd 40a5 393d 5dcc 97bd 81f9 073d
000001c0: 749a 063b 6814 1fbc f95c c5bd 1fc3 283d
000001d0: 96cd 0cbd 54e7 bbbb 051d 3b3e 9022 09bc
000001e0: 317f 4e3e 23fb 533c b22a 143e 0781 ef3d
000001f0: 49c2 87bd 1f02 7abd e939 3fbd ec32 22bc
00000200: 004f 74be e41f b5bc fce3 623d 8f6a 03be
00000210: f9eb 9dbd ac4a 6bbd b853 7e3d d5f9 703d
00000220: 3d08 d23d fd49 b2bd 6904 31be 9a41 ae3d
00000230: 1e6e 6cbd 03a5 79bc 88d9 d33d 41b6 2abe
00000240: 898a e1bd 1de2 c0bc 5c7e 9cbd 5468 4fbe
00000250: fe03 b13b 03a3 b0bd dc8a 9cbd a878 efbc
00000260: 7f23 ce3d 7eda 6ebd ac2c 303d 042d 223e
00000270: c956 58bc 99bc 96bc d210 183d 386f 0cbe
00000280: 8e49 883c 1628 22bd ad09 efbd 0c43 103d
00000290: 5b29 3fbd fbe5 d4bd 8c4c 5ebc d7cb 413d
000002a0: baab 973b 2d06 933d 621f 863d 4b1c bc3d
000002b0: f167 293d f579 1bbe bdd2 803d edbb 0ebd
000002c0: 9f16 a6bd 5e2c 59be c96c c13d d182 95bd
000002d0: 2d26 e13c 836a 2c3e 1a19 2ebd b63c f2bc
000002e0: 4e84 f4bc d8d7 2cbc 9bc1 90bd f67b b1bc
000002f0: ecd0 00be dad7 20be ed43 07be afa8 4dbd
00000300: 739d b5bd 2f5f 913e 41ee 7ebd 5264 67be
00000310: 3430 e2bc 8a88 d7bd 57ee 47be bd12 6fbd
00000320: 0022 283d 75c8 c03c 2bbb 85be c5e2 183d
00000330: f830 74bd d6ff c43c 287f 8dbb 28f7 eabb
00000340: b654 303e 9445 01be f291 e83a 11b2 b2bc
00000350: 6fca 17be 5042 983d ae5c 23be 2965 283e
00000360: 7ed2 df3d fb91 763b 6931 1ebc 0d8d 49bd
00000370: 5370 d1bc 8ca9 33be 876f b33d eb3e d2bb
00000380: 3e11 c93d 73a3 01be 9703 2cbe 5cda 99bc
00000390: ee48 d2bd 6659 26be 0dbc 923d ca18 ae3c
000003a0: 3147 b6bd 4b4e 5ebe 719a 973d bdf2 babb
000003b0: 3b4e b1bb 4fcf 98bd 43a7 4c3c c24c 183d
000003c0: dd15 7bbe d6ae 973c e386 35be 269f f33d
000003d0: 6786 8f3c ffc1 f5bc bc23 58bd 32c3 adbd
000003e0: 5a2e 2d3e ea63 243d e703 3cbe d528 783c
000003f0: 826d dbbd d787 023d fb24 b03d 143a 6abd

network_body._body_endoder.seq_layers.2.bias f4 [128]
0.015440149 -0.059461206 -0.040750965 0.042778213 0.02560825 0.01234594 -0.008390659 0.019877806
0.008345781 0.051781144 0.009693254 -0.0023292452 -0.0033682513 0.025718657 -0.015902298 0.010791887
0.006543538 0.008500734 0.007195472 -0.0009444833 0.014801766 0.026239568 -0.0012244867 0.0024689871
-0.0026817 0.0112496475 0.015701184 0.0621082 0.011867331 0.01890903 0.033890955 -0.03009379
-0.023898281 0.014051012 -0.008225915 -0.01518837 -0.010405736 0.018759182 -0.008666197 -0.018199705
0.0021671953 -0.016555274 -0.005847741 0.024088513 0.0028657813 0.02696264 -0.023012655 0.027083663
-0.019250887 0.0172023 0.002841199 0.0039573736 0.01517952 0.00451439 -0.0031437704 0.051090453
-0.049153715 0.026803412 -0.01206159 0.014294456 -0.0002890432 0.0027039158 0.023892289 0.028054638
0.023291158 -0.0041722152 -0.010662958 0.0041803946 -0.00010162648 -0.017605495 0.025456095 -0.013137737
0.0012944733 -0.012823048 0.011560955 -0.00065339723 0.015509614 0.009704362 0.013429031 -0.014532265
0.051468745 0.023917502 -0.026186388 0.011712005 0.0135507295 0.025295697 0.0010088918 0.010413235
-0.0012371032 0.017166484 0.0065699695 -0.009143619 0.015853586 0.053032346 0.0010107016 -0.0032297599
0.050009403 0.04096662 0.01664367 0.0141867325 0.022183683 0.025623757 -0.028386386 0.023532422
0.009386501 0.010238795 -0.017300867 0.02415931 0.011619712 0.044848606 0.0094985375 -0.014469358
0.0030426574 -0.049953517 -0.024723856 0.007926851 0.023368455 0.0273641 -0.03502555 0.024011334
-0.015573052 -0.024897533 0.027692454 0.027167201 0.0029162683 0.01690468 -0.0018592695 0.017177572
00000000: aef8 7c3c 988d 73bd 7cea 26bd 3538 2f3d
00000010: 65c8 d13c a046 4a3c f978 09bc c8d6 a23c
00000020: bebc 083c 7718 543d 74d0 1e3c 40a6 18bb
00000030: e1bd 5cbb efaf d23c 8945 82bc 74d0 303c
00000040: 2d6b d63b aa46 0b3c fec7 eb3b 3497 77ba
00000050: 1b83 723c 5df4 d63c f57e a0ba bbce 213b
00000060: 76bf 2fbb 7150 383c c59f 803c 2b65 7e3d
00000070: 326f 423c 1ce7 9a3c 3ed1 0a3d 4087 f6bc
00000080: 54c6 c3bc 3736 663c fdc5 06bc a4d8 78bc
00000090: d27c 2abc dbac 993c aafc 0dbc 8c17 95bc
000000a0: 8107 0e3b ed9e 87bc 689e bfbb 4655 c53c
000000b0: d5cf 3b3b c1e0 dc3c 0985 bcbc 8fde dd3c
000000c0: 09b4 9dbc d6eb 8c3c 6933 3a3b dbac 813b
000000d0: 85b3 783c 73ed 933b b707 4ebb 3944 513d
000000e0: 6855 49bd d492 db3c fa9d 45bc 4b33 6a3c
000000f0: b98a 97b9 2e34 313b c3b9 c33c d7d2 e53c
00000100: 19cd be3c 14b7 88bb b0b3 2ebc b1fb 883b
00000110: 4d20 d5b8 6639 90bc 4d89 d03c aa3f 57bc
00000120: 51ab a93a c317 52bc 296a 3d3c bf48 2bba
00000130: 091c 7e3c 0bff 1e3c 7005 5c3c bd18 6ebc
00000140: e4d0 523d a3ee c33c d684 d6bc b6e3 3f3c
00000150: e103 5e3c ec38 cf3c cb3c 843a 469c 2a3c
00000160: 4c26 a2ba baa0 8c3c e648 d73b 1ecf 15bc
00000170: 61df 813c 7238 593d 8579 843a 61aa 53bb
00000180: a9d6 4c3d 9dcc 273d 4e58 883c 786f 683c
00000190: 8eba b53c eae8 d13c 918a e8bc 11c7 c03c
000001a0: d7c9 193c 9ec0 273c 8cba 8dbc bfe9 c53c
000001b0: 9b60 3e3c 2cb3 373d c19f 1b3c e310 6dbc
000001c0: 5267 473b 0f9c 4cbd af89 cabc 9fdf 013c
000001d0: 346f bf3c ad2a e03c f376 0fbd 6bb3 c43c
000001e0: 1d26 7fbc e9f5 cbbc 49db e23c c08d de3c
000001f0: dd1e 3f3b af7b 8a3c bbb2 f3ba fbb7 8c3c

action_model._continuous_distribution.log_sigma f4 [1, 3]
-0.53706354 -0.37925252 -0.6014891
00000000: ff7c 09bf 632d c2be 31fb 19bf

action_model._continuous_distribution.mu.weight f4 [3, 128]
-0.018056039 0.042610362 0.012746312 -0.07985827 0.05477608 0.019133268 0.015702568 -0.031968553
-0.059642084 -0.07666524 -0.040841363 -0.045350663 0.014847847 -0.016820103 0.039182212 -0.029574757
-0.0055214036 -0.026421657 -0.0038771646 -0.02591141 0.020970138 -0.030177379 0.061783794 -0.0448337
0.03405019 0.04994395 -0.053252377 0.024974482 0.030562112 0.07523923 -0.072488725 0.03520763
0.014750066 -0.002975561 0.026431218 -0.009019079 0.054658547 -0.022723017 -0.009977272 0.019120654
0.0314807 0.020567948 -0.015240889 -0.060612444 0.017566033 -0.057184666 0.020721823 0.0001207865
0.002390539 -0.024770102 -0.0010817972 -0.060633224 -0.01511814 0.040794346 0.028989635 -0.06530994
0.00019891145 0.008531017 0.0027099617 0.032058116 0.05079214 0.0014069263 -0.03355249 -0.04534343
0.03825102 0.012890855 0.06478291 -0.036121696 -0.017152516 0.033475555 0.05581848 0.018826103
0.017255263 0.041896325 -0.042181965 0.023322795 -0.013167292 -0.08010021 0.0332271 0.030143082
-0.08849414 -0.057835147 0.042014316 0.02815024 0.014201853 0.03946939 -0.013227618 0.022349788
0.014728109 0.05035925 0.053629376 0.03406591 0.0368285 -0.09886848 0.05570988 0.051016204
-0.047003 -0.09271943 0.0488788 0.04232051 -0.086843185 0.04997967 0.0064186295 -0.030183943
-0.033259258 0.013266485 0.02603662 0.009892979 -0.006222754 0.049673393 0.06429742 0.040784635
-0.046498507 0.029889358 0.033125423 -0.039852373 -0.06501433 -0.086770564 -0.018233445 0.048281882
0.028313061 0.03496469 0.020760128 0.04415582 0.030633967 0.058323357 -0.017234871 0.049585547
-0.0944311 -0.024310678 -0.009332011 -0.121084854 0.042939626 0.09134537 0.0049520265 -0.067794986
0.0071186544 -0.023017187 0.03846285 -0.10570645 0.00026056604 -0.029977195 -0.017742079 -0.073946625
0.018069746 0.06861417 0.0523211 -0.12414861 0.018476872 -0.0067679067 0.00672422 -0.051617876
0.00762232 0.038930994 0.0158123 -0.08066898 -0.04936208 0.007701036 -0.055626377 0.054496508
-0.023754865 -0.089762636 0.07414061 0.017703922 0.05022582 -0.008685259 0.029814897 0.019051561
-0.040212274 -0.029839441 -0.016635546 -0.11563006 0.06449195 -0.009775975 0.002815493 0.09908011
-0.03697984 -0.09633006 0.017226398 0.0007034757 -0.07859358 0.06871716 -0.019578932 -0.046139814
0.02583074 -0.017516587 0.042945456 -0.0216466 -0.012901139 -0.049509425 -0.05112494 0.0037577068
0.06452837 0.0047062906 0.04361868 -0.009828255 -0.1390494 0.03685677 -0.07328063 -0.054473296
0.047884554 0.015796192 0.05114669 -0.022625135 -0.12316061 -0.00047858027 0.054741792 -0.015770653
-0.122766174 0.024072045 0.004961038 -0.08716912 0.06696071 0.059488613 -0.06715435 0.008705378
-0.019513212 -0.002774774 0.016453557 0.006246294 -0.061415005 -0.07829248 -0.0021267745 -0.019066224
-0.057150602 -0.068913214 -0.06331036 0.020424739 -0.05317107 0.083756335 0.004852102 -0.11581721
-0.07507373 0.06685398 -0.016252737 -0.0020673685 0.10905534 -0.009501782 0.04742247 0.041422665
-0.06901794 0.072793156 -0.010131985 -0.019515537 0.01832271 -0.12598202 -0.009729354 0.014994292
0.03321024 0.009599217 0.07817033 0.036867175 -0.044055797 0.06682814 -0.019275634 0.05398589
00000000: 42ea 93bc 3488 2e3d e8d5 503c bc8c a3bd
00000010: e25c 603d 5fbd 9c3c aca2 803c 75f1 02bd
00000020: 424b 74bd aa02 9dbd 4649 27bd 9ec1 39bd
00000030: 6244 733c 50ca 89bc 877d 203d c346 f2bc
00000040: e4ec b4bb 3b72 d8bc 0718 7ebb 2a44 d4bc
00000050: 91c9 ab3c 8d36 f7bc 0111 7d3d 8ba3 37bd
00000060: 3678 0b3d 0792 4c3d 2a1f 5abd 4997 cc3c
00000070: 655d fa3c 0717 9a3d f874 94bd e035 103d
00000080: 43aa 713c a101 43bb 4886 d83c c2c4 13bc
00000090: a4e1 5f3d 9f25 babc b677 23bc eba2 9c3c
000000a0: e8f1 003d 1d7e a83c ecb4 79bc c144 78bd
000000b0: a4e6 8f3c 783a 6abd d0c0 a93c c24e fd38
000000c0: 97aa 1c3b abea cabc 17cb 8dba 8b5a 78bd
000000d0: 13b2 77bc f917 273d ac7b ed3c 38c1 85bd
000000e0: e392 5039 aec5 0b3c 9d99 313b 5f4f 033d
000000f0: 6b0b 503d 9d68 b83a 566e 09bd 08ba 39bd
00000100: 1aad 1c3d 2a34 533c e7ac 843d 58f4 13bd
00000110: 6f83 8cbc aa1d 093d eba1 643d 3339 9a3c
00000120: e95a 8d3c 7b9b 2b3d ffc6 2cbd 720f bf3c
00000130: a0bb 57bc 940b a4bd 2419 083d a0ee f63c
00000140: 6a3c b5bd 8ce4 6cbd 3417 2c3d 559b e63c
00000150: e4ae 683c a8aa 213d a7b8 58bc e716 b73c
00000160: 2b4e 713c 8045 4e3d 7aaa 5b3d b288 0b3d
00000170: 7bd9 163d 8f7b cabd 0b30 643d 5ef6 503d
00000180: 3886 40bd afe3 bdbd 2335 483d 4558 2d3d
00000190: d7da b1bd 7cb7 4c3d 5e53 d23b 5144 f7bc
000001a0: dc3a 08bd ac5b 593c c04a d53c 2916 223c
000001b0: 3ee8 cbbb 5476 4b3d 5eae 833d ca0d 273d
000001c0: 3875 3ebd 87da f43c 86ae 073d 3e3c 23bd
000001d0: 3c26 85bd c4b4 b1bd 4e5e 95bc 39c3 453d
000001e0: cbf0 e73c 2337 0f3d 2511 aa3c bcdc 343d
000001f0: 16f4 fa3c 79e4 6e3d 2530 8dbc 371a 4b3d
00000200: 1865 c1bd 3027 c7bc 4be5 18bc 56fb f7bd
00000210: 76e1 2f3d 4813 bb3d 9c44 a23b 19d8 8abd
00000220: 9a43 e93b 8a8e bcbc 398b 1d3d a07c d8bd
00000230: 959c 8839 bc92 f5bc d657 91bc 5471 97bd
00000240: 0107 943c 9685 8c3d a64e 563d a041 febd
00000250: cf5c 973c 51c5 ddbb d856 dc3b 446d 53bd
00000260: a8c4 f93b 1b76 1f3d cc88 813c c735 a5bd
00000270: e42f 4abd f958 fc3b 7cd8 63bd bb37 5f3d
00000280: 9099 c2bc 79d5 b7bd 08d7 973d d107 913c
00000290: 97b9 4d3d 9e4c 0ebc 5f3e f43c 0512 9c3c
000002a0: a0b5 24bd d871 f4bc 4547 88bc 74cf ecbd
000002b0: 5b14 843d 692b 20bc 2284 383b 83ea ca3d
000002c0: 2c78 17bd b248 c5bd 601e 8d3c 7569 383a
000002d0: acf5 a0bd 95bb 8c3d ff63 a0bc 1afd 3cbd
000002e0: fd9a d33c f27e 8fbc 93e7 2f3d 3654 b1bc
000002f0: 4d5f 53bc 65ca 4abd 6368 51bd dc43 763b
00000300: 7327 843d 3a37 9a3b 80a9 323d b006 21bc
00000310: f762 0ebe 20f7 163d 2814 96bd 641f 5fbd
00000320: 9822 443d 0467 813c 317f 513d 5958 b9bc
00000330: a13b fcbd f5e9 fab9 ee38 603d 7531 81bc
00000340: d56c fbbd bd32 c53c 3490 a23b b985 b2bd
00000350: b222 893d 55aa 733d 3888 89bd 00a1 0e3c
00000360: 2cda 9fbc fcd8 35bb 9cc9 863c b6ad cc3b
00000370: 4d8e 7bbd cf57 a0bd 5b61 0bbb c530 9cbc
00000380: c016 6abd 5f22 8dbd dda8 81bd c851 a73c
00000390: e8c9 59bd 7188 ab3d 62fe 9e3b 9331 edbd
000003a0: 41c0 99bd bdea 883d 7624 85bc b07c 07bb
000003b0: 6858 df3d 5dad 1bbc 103e 423d d0aa 293d
000003c0: 4759 8dbd 9414 953d a000 26bc 0cdf 9fbc
000003d0: 8219 963c 6e01 01be de67 1fbc 9eaa 753c
000003e0: 7607 083d 0946 1d3c c417 a03d 0902 173d
000003f0: da73 34bd 31dd 883d efe7 9dbc 4f20 5d3d

action_model._continuous_distribution.mu.bias f4 [3]
-0.011488875 0.0096083535 0.003156015
00000000: d63b 3cbc 5b6c 1d3c 25d5 4e3b

exp_avg f4 [128, 179]
-3.6323734e-05 0.0 -0.00020472493 -0.0002288748 1.8847162e-06 0.0 4.4600623e-05 -0.0001482852
-8.870511e-06 0.0 -0.00011965852 -0.0002828505 6.1159193e-07 0.0 -8.8811445e-05 -0.0001527846
-6.331525e-05 0.0 0.00010920215 -0.00023433637 -1.0422316e-06 0.0 8.736579e-05 -7.0697046e-05
-7.3743586e-06 0.0 -6.6352506e-05 -0.0003799727 1.955594e-06 0.0 -6.5791287e-06 1.3692087e-05
-6.80065e-06 0.0 -1.880426e-05 -0.00026624426 8.613207e-06 0.0 7.19462e-05 0.00014158897
1.28770835e-05 0.0 -4.9497794e-06 -0.00021521634 1.0708223e-05 0.0 -0.00030540713 -0.00047091002
-2.726674e-05 0.0 -0.00013453719 -0.0003031529 -7.5861647e-07 0.0 -7.099744e-05 -0.00038019786
2.6231687e-06 0.0 -0.00015325837 -0.00021532203 -2.2501965e-05 0.0 -0.0001317776 -0.00036683315
5.858923e-06 0.0 2.3620012e-05 -0.00012454053 1.5007543e-05 0.0 7.598563e-05 -0.00024223902
1.1054393e-05 0.0 -6.4120686e-06 -5.2664265e-05 -9.4660675e-07 0.0 0.00015447762 -0.00020503609
2.1131198e-05 0.0 -3.967187e-06 4.378421e-05 -2.5289139e-05 0.0 0.000100287 -0.00027829508
8.7258155e-07 0.0 2.6148931e-05 -0.0002079023 -1.12208145e-05 0.0 -0.00012134548 -0.00030327702
-5.5836503e-05 0.0 0.00015639 -0.00011776707 -4.7151143e-08 0.0 -0.0001506048 -0.0003310113
-3.0634215e-05 0.0 -4.869258e-05 -0.00027342627 1.6104517e-05 0.0 -0.00011827225 -0.0002762437
-5.756444e-06 0.0 -9.563429e-05 -0.00029396886 1.8729212e-05 0.0 -7.626259e-05 -0.00015761508
9.1148337e-07 0.0 -7.2955016e-05 -0.00028306412 3.0907406e-06 0.0 1.4227694e-05 -6.88585e-05
-1.3982799e-05 0.0 -5.242904e-05 -0.00021020712 -2.847557e-05 0.0 0.00019035155 3.8687584e-05
2.0946685e-05 0.0 -5.7653382e-05 -8.1084494e-05 6.1601168e-06 0.0 1.2123805e-05 7.585461e-05
1.773094e-05 0.0 3.6942365e-05 9.490218e-05 -6.553846e-06 0.0 -8.1320126e-05 -7.118096e-05
5.5255236e-06 0.0 -8.7216495e-07 6.5128945e-05 -1.6894424e-05 0.0 0.00013901258 7.441212e-05
-5.566697e-06 0.0 2.8126611e-05 -4.3250508e-05 -9.809228e-07 0.0 0.00010105894 0.0002360272
-0.0068699587 -0.00018853824 -0.001916426 0.0 0.00035437878 0.0 -0.00020881722 0.00026364904
-0.00019139842 -0.002856156 -2.9724715e-05 -8.328462e-06 0.0 2.654826e-05 4.197552e-05 6.9546486e-06
0.0 -6.304903e-05 -5.9219496e-05 -2.3122495e-06 0.0 4.167586e-05 5.978318e-05 1.7034428e-06
0.0 -9.150505e-05 -9.743845e-05 7.542059e-06 0.0 -1.2797233e-05 3.398353e-05 4.370854e-06
0.0 -8.731093e-05 -6.0773367e-05 5.2327982e-06 0.0 6.4183832e-06 0.00013922913 8.440461e-06
0.0 -1.7903554e-05 -7.4768424e-05 9.705425e-07 0.0 -2.1411688e-06 7.412007e-05 -1.5365483e-06
0.0 -0.000104564366 -0.0001527843 8.247193e-06 0.0 -2.7384802e-05 6.791238e-05 -1.2452261e-05
0.0 3.4886532e-05 3.1286145e-05 -2.498149e-07 0.0 3.6387813e-05 5.742726e-05 -8.856498e-06
0.0 -4.8965925e-05 9.0866015e-05 3.5229677e-06 0.0 6.1751874e-05 7.8610174e-05 -1.3176542e-05
0.0 1.6735072e-05 0.00019043036 3.8023338e-06 0.0 -8.477879e-05 -3.9265746e-05 -7.102019e-06
0.0 -5.5401655e-05 0.00017116724 8.664682e-06 0.0 -3.94138e-05 -3.921953e-05 -8.1213475e-06
00000000: 505a 18b8 0000 0000 6eab 56b9 1cfe 6fb9
00000010: 5bf6 fc35 0000 0000 8e11 3b38 017d 1bb9
00000020: 8ed2 14b7 0000 0000 2ef1 fab8 8d4b 94b9
00000030: 472c 2435 0000 0000 4840 bab8 ce34 20b9
00000040: 1ec8 84b8 0000 0000 7503 e538 31b8 75b9
00000050: cee2 8bb5 0000 0000 2738 b738 3043 94b8
00000060: 4271 f7b6 0000 0000 bb26 8bb8 1337 c7b9
00000070: d93c 0336 0000 0000 49c2 dcb6 11b7 6537
00000080: 2431 e4b6 0000 0000 d7bd 9db7 b396 8bb9
00000090: 7181 1037 0000 0000 d2e1 9638 8077 1439
000000a0: a70a 5837 0000 0000 4816 a6b6 b2ab 61b9
000000b0: 78a7 3337 0000 0000 0d1f a0b9 79e4 f6b9
000000c0: e1ba e4b7 0000 0000 8d12 0db9 7ef0 9eb9
000000d0: baa3 4bb5 0000 0000 76e4 94b8 4b55 c7b9
000000e0: b209 3036 0000 0000 fbb3 20b9 11c8 61b9
000000f0: 9ac2 bcb7 0000 0000 c82d 0ab9 8353 c0b9
00000100: c497 c436 0000 0000 9723 c637 1897 02b9
00000110: e8c8 7b37 0000 0000 795a 9f38 8b01 7eb9
00000120: 4276 3937 0000 0000 4027 d7b6 d3e3 5cb8
00000130: 521a 7eb5 0000 0000 45fb 2139 f5fe 56b9
00000140: e742 b137 0000 0000 e01d 85b6 f0a4 3738
00000150: 0324 d4b7 0000 0000 2c51 d238 22e8 91b9
00000160: 593b 6a35 0000 0000 675a db37 5900 5ab9
00000170: 0841 3cb7 0000 0000 dc7a feb8 2701 9fb9
00000180: fd31 6ab8 0000 0000 9ffc 2339 b7f9 f6b8
00000190: 3b83 4ab3 0000 0000 abeb 1db9 968b adb9
000001a0: 3d7d 00b8 0000 0000 423b 4cb8 a75a 8fb9
000001b0: 3018 8737 0000 0000 ee08 f8b8 cdd4 90b9
000001c0: 7a27 c1b6 0000 0000 458f c8b8 d51f 9ab9
000001d0: ad1c 9d37 0000 0000 2bef 9fb8 7a45 25b9
000001e0: a9ac 7435 0000 0000 6dff 98b8 3968 94b9
000001f0: 856a 4f36 0000 0000 7bb3 6e37 2068 90b8
00000200: aa97 6ab7 0000 0000 41e7 5bb8 0b6b 5cb9
00000210: d2de eeb7 0000 0000 1b99 4739 7a44 2238
00000220: aab6 af37 0000 0000 d9d0 71b8 e80b aab8
00000230: 00b3 ce36 0000 0000 5967 4b37 2214 9f38
00000240: e7bc 9437 0000 0000 90f2 1a38 3806 c738
00000250: 1ce9 dbb6 0000 0000 698a aab8 fd46 95b8
00000260: e367 b936 0000 0000 b81e 6ab5 d695 8838
00000270: 80b8 8db7 0000 0000 e8c3 1139 b40d 9c38
00000280: 90c9 bab6 0000 0000 70f1 eb37 e167 35b8
00000290: 40a8 83b5 0000 0000 9bef d338 127e 7739
000002a0: 641d e1bb 59b2 45b9 9630 fbba 0000 0000
000002b0: eacb b939 0000 0000 f2f5 5ab9 603a 8a39
000002c0: 1fb2 48b9 592e 3bbb 5759 f9b7 79ba 0bb7
000002d0: 0000 0000 f4b3 de37 df0e 3038 fa5b e936
000002e0: 0000 0000 3139 84b8 7362 78b8 252c 1bb6
000002f0: 0000 0000 1dcd 2e38 b3bf 7a38 d9a1 e435
00000300: 0000 0000 66e6 bfb8 df57 ccb8 cb11 fd36
00000310: 0000 0000 b2b3 56b7 8a89 0e38 5aa9 9236
00000320: 0000 0000 b31a b7b8 e8e6 7eb8 6595 af36
00000330: 0000 0000 7e5d d736 09fe 1139 819b 0d37
00000340: 0000 0000 972f 96b7 fecc 9cb8 9643 8235
00000350: 0000 0000 00b1 0fb6 e970 9b38 663b ceb5
00000360: 0000 0000 9149 dbb8 b934 20b9 6d5d 0a37
00000370: 0000 0000 6ab8 e5b7 2e6c 8e38 0eea 50b7
00000380: 0000 0000 2153 1238 3e39 0338 4c1e 86b4
00000390: 0000 0000 1e9f 1838 0dde 7038 5f96 14b7
000003a0: 0000 0000 c360 4db8 528f be38 206c 6c36
000003b0: 0000 0000 c980 8138 84db a438 d110 5db7
000003c0: 0000 0000 4b62 8c37 43ae 4739 992b 7f36
000003d0: 0000 0000 44cb b1b8 46b1 24b8 e14d eeb6
000003e0: 0000 0000 135f 68b8 5b7b 3339 875e 1137
000003f0: 0000 0000 3f50 25b8 a67f 24b8 ec40 08b7

exp_avg_sq f4 [128, 179]
3.8671757e-08 0.0 3.6962913e-07 1.0545899e-06 2.2817096e-08 0.0 2.925203e-07 8.1799254e-07
3.796968e-08 0.0 3.410395e-07 1.2420119e-06 1.2961331e-08 0.0 2.2327934e-07 6.248437e-07
5.0851636e-08 0.0 2.5892e-07 1.3173832e-06 6.5669354e-09 0.0 1.351559e-07 4.3692958e-07
4.5533664e-08 0.0 2.3583819e-07 1.4386343e-06 5.411538e-09 0.0 8.315279e-08 2.9581227e-07
3.294416e-08 0.0 1.8734052e-07 1.4680024e-06 4.3045927e-09 0.0 3.781476e-08 1.9693502e-07
2.5313122e-08 0.0 2.0089936e-07 1.4876271e-06 3.0513075e-08 0.0 3.2662808e-07 1.0450627e-06
1.9964379e-08 0.0 3.680559e-07 9.0502186e-07 4.823166e-08 0.0 2.8763444e-07 1.167627e-06
1.3682835e-08 0.0 2.823124e-07 6.905285e-07 4.634183e-08 0.0 2.6540425e-07 1.2924625e-06
7.3480444e-09 0.0 1.2244334e-07 4.2225048e-07 4.3934268e-08 0.0 2.5784468e-07 1.4209224e-06
4.501234e-09 0.0 5.1498493e-08 2.6806882e-07 4.627096e-08 0.0 1.9187912e-07 1.4459779e-06
3.3050662e-09 0.0 3.1270385e-08 1.8844003e-07 2.8537885e-08 0.0 1.7587682e-07 1.4763729e-06
3.3580545e-08 0.0 4.0139093e-07 1.0998633e-06 2.3291319e-08 0.0 3.3792676e-07 8.8488434e-07
3.9991708e-08 0.0 3.533976e-07 1.251524e-06 1.0484923e-08 0.0 2.354937e-07 6.5539507e-07
5.5314022e-08 0.0 2.322331e-07 1.2828141e-06 5.7537983e-09 0.0 1.4089093e-07 4.2265262e-07
4.5501583e-08 0.0 1.9715834e-07 1.3982601e-06 4.3531494e-09 0.0 7.081341e-08 2.8240598e-07
4.1045553e-08 0.0 1.851032e-07 1.4582822e-06 3.4074152e-09 0.0 3.032121e-08 1.8717515e-07
3.3691254e-08 0.0 2.1850451e-07 1.5130374e-06 1.4546006e-09 0.0 1.8671554e-07 4.6444023e-07
4.911906e-09 0.0 1.671494e-07 7.900965e-07 9.019603e-10 0.0 3.583359e-08 1.7259154e-07
1.9228015e-09 0.0 2.1731263e-07 5.118043e-07 1.7913316e-09 0.0 1.5180599e-07 7.83918e-07
1.1017286e-09 0.0 3.2102047e-08 1.9389523e-07 2.4535591e-09 0.0 2.2051087e-07 5.1342124e-07
2.6011762e-09 0.0 1.4141901e-07 7.914132e-07 1.0904231e-09 0.0 3.586853e-08 1.856381e-07
0.00033376983 1.9165889e-06 0.00041242345 0.0 1.628369e-06 0.0 1.4540077e-06 0.00011880761
1.9059936e-06 0.0003257553 3.6018545e-07 3.2666119e-09 0.0 8.1920405e-08 2.2832688e-07 2.0129034e-09
0.0 8.572311e-08 1.9815951e-07 2.4016074e-09 0.0 7.6298335e-08 2.675217e-07 2.1138293e-09
0.0 7.6782335e-08 1.688043e-07 2.8319174e-09 0.0 5.436775e-08 2.986727e-07 2.0875008e-09
0.0 6.090585e-08 1.3366133e-07 3.6467742e-09 0.0 4.6720196e-08 3.3688875e-07 1.9775153e-09
0.0 4.01178e-08 9.947975e-08 3.9747867e-09 0.0 4.2563432e-08 3.744837e-07 2.2820161e-09
0.0 3.1018708e-08 8.1127716e-08 2.9326337e-09 0.0 4.3637336e-08 4.224444e-07 3.1326433e-09
0.0 7.5536015e-08 2.2832941e-07 3.2534047e-09 0.0 8.944498e-08 2.0974205e-07 3.6424939e-09
0.0 6.13149e-08 2.580531e-07 3.091848e-09 0.0 8.3596014e-08 1.770354e-07 2.8497782e-09
0.0 5.1883028e-08 2.8592135e-07 2.1459026e-09 0.0 6.294481e-08 1.3694154e-07 2.1560471e-09
0.0 4.9487696e-08 3.344723e-07 2.2366469e-09 0.0 4.622564e-08 1.099633e-07 2.9170315e-09
00000000: 0c18 2633 0000 0000 7171 c634 6f8b 8d35
00000010: 53ff c332 0000 0000 af0b 9d34 0594 5b35
00000020: 1b14 2333 0000 0000 1d18 b734 34b3 a635
00000030: 89ac 5e32 0000 0000 8fbe 6f34 efba 2735
00000040: f767 5a33 0000 0000 b201 8b34 f1d0 b035
00000050: 60a3 e131 0000 0000 5f1f 1134 2593 ea34
00000060: cb90 4333 0000 0000 b53a 7d34 1917 c135
00000070: 64f0 b931 0000 0000 bb91 b233 21d0 9e34
00000080: 7d7e 0d33 0000 0000 c527 4934 2e08 c535
00000090: 99e7 9331 0000 0000 c569 2233 1675 5334
000000a0: 2570 d932 0000 0000 ccb6 5734 7aaa c735
000000b0: 7b0d 0333 0000 0000 6c5b af34 1544 8c35
000000c0: 227e ab32 0000 0000 3899 c534 a1f0 7235
000000d0: 4527 4f33 0000 0000 2d6c 9a34 5cb7 9c35
000000e0: bf11 6b32 0000 0000 b990 9734 c25c 3935
000000f0: 6209 4733 0000 0000 e27c 8e34 ac78 ad35
00000100: 157a fc31 0000 0000 f878 0334 aab1 e234
00000110: 3db2 3c33 0000 0000 e76d 8a34 86b6 be35
00000120: 46a9 9a31 0000 0000 312f 5d33 19eb 8f34
00000130: 75bb 4633 0000 0000 5507 4e34 6c13 c235
00000140: 571f 6331 0000 0000 274e 0633 0056 4a34
00000150: 7923 f532 0000 0000 a7d8 3c34 c927 c635
00000160: 333a 1033 0000 0000 c07e d734 049f 9335
00000170: 2712 c832 0000 0000 4d6c b534 ca88 6d35
00000180: 59c3 2b33 0000 0000 99ba bd34 0afa a735
00000190: 2e21 3432 0000 0000 04dc 7c34 68ee 2f35
000001a0: 6992 6d33 0000 0000 c05b 7934 282d ac35
000001b0: f2b2 c531 0000 0000 ce47 1734 efe8 e234
000001c0: 856d 4333 0000 0000 79b2 5334 daab bb35
000001d0: b592 9531 0000 0000 1512 9833 959d 9734
000001e0: 104a 3033 0000 0000 c8c0 4634 32ba c335
000001f0: e227 6a31 0000 0000 863a 0233 50fa 4834
00000200: edb3 1033 0000 0000 109e 6a34 9213 cb35
00000210: 35eb c730 0000 0000 fa7b 4834 2e58 f934
00000220: 95c5 a831 0000 0000 ad79 3334 0517 5435
00000230: d0ed 7730 0000 0000 73e7 1933 9a51 3934
00000240: 4822 0431 0000 0000 7156 6934 ec62 0935
00000250: e132 f630 0000 0000 1d00 2334 6f6e 5235
00000260: a16b 9730 0000 0000 93e0 0933 8431 5034
00000270: 789b 2831 0000 0000 91c5 6c34 0ad2 0935
00000280: 60c0 3231 0000 0000 f6d8 1734 8071 5435
00000290: dadd 9530 0000 0000 de0d 1a33 d053 4734
000002a0: d4fd ae39 bf9e 0036 8a3a d839 0000 0000
000002b0: 558e da35 0000 0000 5327 c335 5a28 f938
000002c0: 71d1 ff35 23ca aa39 835f c134 d87a 6031
000002d0: 0000 0000 38ec af33 042a 7534 5f53 0a31
000002e0: 0000 0000 c716 b833 acc5 5434 8609 2531
000002f0: 0000 0000 74d9 a333 e79f 8f34 e142 1131
00000300: 0000 0000 89e3 a433 9340 3534 9e9b 4231
00000310: 0000 0000 f981 6933 4359 a034 b473 0f31
00000320: 0000 0000 58cb 8233 8c84 0f34 bb9a 7a31
00000330: 0000 0000 66a9 4833 a3dd b434 d1e4 0731
00000340: 0000 0000 fd4d 2c33 92a1 d533 9892 8831
00000350: 0000 0000 fdce 3633 a60c c934 a7d1 1c31
00000360: 0000 0000 6e39 0533 6f38 ae33 7087 4931
00000370: 0000 0000 c26b 3b33 51cc e234 0b46 5731
00000380: 0000 0000 5d36 a233 b62a 7534 8092 5f31
00000390: 0000 0000 e614 c033 7535 6134 6e4f 7a31
000003a0: 0000 0000 39ac 8333 8c8a 8a34 5e78 5431
000003b0: 0000 0000 6585 b333 1f17 3e34 d4d5 4331
000003c0: 0000 0000 fed5 5e33 bb80 9934 1e77 1331
000003d0: 0000 0000 462c 8733 340a 1334 9529 1431
000003e0: 0000 0000 4c8c 5433 8691 b334 82b3 1931
000003f0: 0000 0000 a189 4633 f724 ec33 f674 4831

exp_avg f4 [128]
-0.00026379127 7.405073e-05 -0.00024510498 3.6892132e-05 -0.0002950423 0.00015225867 3.86792e-05 -1.5567566e-05
4.8647753e-06 -6.4371976e-05 -3.8535694e-05 0.00014856215 0.00030029833 6.1590916e-05 -2.6145577e-05 0.0002123541
-0.00018329051 0.00016098749 -0.00031368635 -0.00014412786 9.072304e-05 0.00030438774 1.9089694e-05 0.00013300202
-0.0001478503 1.099009e-06 6.0111353e-05 -3.4800963e-05 0.00018709834 0.00022131152 -5.821782e-05 -0.00027440506
0.0001010192 -0.00014443308 -9.0988644e-05 0.00020704769 -0.0003293464 4.447435e-05 6.9427755e-05 4.6077817e-05
-3.3026037e-05 -0.0004709522 -0.00053270144 0.00014821149 -8.53523e-05 0.00040274742 -8.12923e-05 2.6364764e-06
-1.1667137e-05 -0.00037942777 -9.734467e-05 -8.319393e-05 0.00025318167 -9.0112975e-05 -8.028992e-06 0.00024820727
-7.825847e-05 0.0001085829 -0.00019519795 -3.904254e-05 -1.6988712e-05 2.0726855e-05 1.528703e-05 0.00017940585
-0.00023759487 0.00014579663 0.00013455685 -0.00022480616 -9.201115e-05 -2.501971e-05 0.00021111904 5.6344226e-05
6.84979e-05 0.000105816325 -0.00024102838 0.0004286299 -0.00012610479 -1.803918e-05 -2.0928092e-05 -0.000563844
-0.0003212944 -0.00029289548 7.684e-05 0.00021995018 0.00013337565 0.00016008441 -0.0001588452 -0.00013654407
3.3247707e-05 4.1359417e-05 -0.00010231643 -0.00012961231 -1.2393466e-05 1.1548144e-05 -2.6531172e-05 -0.00014055894
-6.11091e-05 1.6619722e-05 3.8592618e-05 9.215181e-05 -1.3418474e-05 -3.2972173e-05 -0.0004470372 0.00011440079
-2.0465632e-05 0.00012066854 0.00021333262 0.00022089531 0.00013648749 0.0003268056 -1.7291015e-05 -9.65867e-05
1.3242368e-05 0.00020330252 0.00013693518 8.5994165e-05 -0.00015888088 0.00038494501 0.00055405754 -3.2108826e-05
-2.0233827e-05 -9.486419e-06 -0.0001824806 -0.00049277936 -0.00013980686 -0.00012560848 -1.6113881e-05 8.012557e-05
00000000: 774d 8ab9 af4b 9b38 6f81 80b9 a0bc 1a38
00000010: e8af 9ab9 a0a7 1f39 7a3b 2238 1897 82b7
00000020: 1a3c a336 71ff 86b8 63a1 21b8 59c7 1b39
00000030: 5c71 9d39 5f2a 8138 3353 dbb7 5fab 5e39
00000040: ac31 40b9 c0ce 2839 4576 a4b9 0721 17b9
00000050: 9042 be38 3b96 9f39 ce22 a037 7576 0b39
00000060: 4308 1bb9 a981 9335 1320 7c38 40f7 11b8
00000070: d42f 4439 dc0f 6839 e92e 74b8 06de 8fb9
00000080: 45da d338 f672 17b9 28d1 beb8 f11a 5939
00000090: 20ac acb9 f889 3a38 be99 9138 ae43 4138
000000a0: 7085 0ab8 22ea f6b9 fda4 0bba 3869 1b39
000000b0: 2bff b2b8 d827 d339 797b aab8 52ee 3036
000000c0: f9bd 43b7 efed c6b9 8625 ccb8 6778 aeb8
000000d0: 78bd 8439 09fb bcb8 42b4 06b7 d121 8239
000000e0: b21e a4b8 00b7 e338 0dae 4cb9 9cc1 23b8
000000f0: fb82 8eb7 95de ad37 a63c 8037 e41e 3c39
00000100: e322 79b9 fce0 1839 d417 0d39 f2b9 6bb9
00000110: 1cf6 c0b8 6be1 d1b7 d65f 5d39 2753 6c38
00000120: 88a6 8f38 b5e9 dd38 90bc 7cb9 bbb9 e039
00000130: ff3a 04b9 d852 97b7 bc8e afb7 eece 13ba
00000140: 6873 a8b9 c48f 99b9 2925 a138 6da2 6639
00000150: c1da 0b39 55dc 2739 af8f 26b9 452d 0fb9
00000160: 7473 0b38 5679 2d38 b792 d6b8 8ae8 07b9
00000170: 88ed 4fb7 e7be 4137 428f deb7 0163 13b9
00000180: b327 80b8 956a 8b37 82de 2138 a041 c138
00000190: e81f 61b7 9a4b 0ab8 5160 eab9 75ea ef38
000001a0: 9cad abb7 6e0f fd38 0ab2 5f39 22a0 6739
000001b0: 151e 0f39 1b57 ab39 2c0c 91b7 978e cab8
000001c0: 8a2b 5e37 9b2d 5539 4296 0f39 c457 b438
000001d0: 4399 26b9 72d2 c939 2c3e 113a 97ac 06b8
000001e0: d0bb a9b7 dc27 1fb7 4358 3fb9 dd2d 01ba
000001f0: 1e99 12b9 c5b5 03b9 4c2c 87b7 1609 a838

exp_avg_sq f4 [128]
3.866843e-06 1.4606801e-06 2.4427804e-06 2.9865346e-06 3.151157e-06 4.3498853e-06 1.1178765e-06 7.8282807e-07
2.3011403e-07 6.1198875e-06 8.9118527e-07 1.8985805e-06 1.1543128e-05 7.451411e-07 2.5741303e-07 5.801322e-06
9.641129e-07 1.3983084e-05 3.3526987e-06 1.622566e-06 3.9166407e-06 6.1810424e-06 7.867549e-06 3.7403336e-07
1.4611749e-06 6.837465e-07 9.951993e-07 1.4261946e-06 2.4281862e-06 3.2767093e-06 1.6654355e-06 5.1461034e-06
1.1851282e-06 1.1650826e-06 2.567304e-06 2.9610972e-06 1.2894357e-05 4.172373e-07 5.5870287e-06 2.6497326e-06
2.936096e-07 5.479897e-06 1.1859395e-05 1.9748686e-06 4.2880936e-07 5.385009e-06 2.4746141e-06 1.1372185e-06
3.6898886e-08 4.5144293e-06 1.8673787e-06 1.3634447e-06 8.550839e-06 5.6519946e-07 1.21975045e-05 2.8106158e-06
1.5746441e-06 4.8852035e-06 2.3668215e-06 1.019958e-06 6.869527e-07 6.357445e-07 3.3195424e-06 9.141514e-06
3.6500528e-06 5.1374527e-06 3.398721e-06 3.662374e-06 2.8377242e-06 1.3969218e-07 6.124362e-06 7.883633e-06
1.97636e-06 1.0333973e-06 1.3461123e-06 5.7635093e-06 1.8248224e-06 1.135047e-06 1.9422166e-06 8.5108295e-06
8.213395e-06 1.7578303e-06 2.855754e-07 4.6684877e-06 2.935998e-06 4.239855e-06 1.1919045e-06 1.2697349e-06
4.1449935e-06 2.6197865e-06 1.3744653e-06 5.520451e-07 8.506958e-07 9.567024e-07 1.01158275e-05 1.7069688e-06
1.926973e-06 4.5511197e-06 1.7826757e-07 4.7886203e-07 9.392053e-07 1.3775549e-06 1.103929e-05 1.0893257e-06
8.9420325e-08 6.304098e-07 3.882159e-06 1.9777456e-06 6.349108e-07 2.7765673e-06 1.2470263e-05 1.3443218e-06
1.4878265e-06 3.6255642e-06 4.715342e-06 4.3038875e-07 1.6524533e-06 4.745705e-06 1.1178366e-05 5.42948e-07
5.702413e-07 2.639599e-06 9.3880095e-07 1.0387022e-05 5.0774097e-06 2.3701105e-05 1.8411193e-06 2.3344264e-06
00000000: eebf 8136 960c c435 a6ee 2336 466c 4836
00000010: 7778 5336 3bf5 9136 f209 9635 8923 5235
00000020: 4315 7734 6f59 cd36 c939 6f35 bbd2 fe35
00000030: 5ba9 4137 b505 4835 9432 8a34 faa8 c236
00000040: ab66 8135 e398 6a37 edfe 6036 f1c6 d935
00000050: b06b 8336 c066 cf36 defe 0337 c1ce c834
00000060: 961d c435 b48a 3735 ca92 8535 ac6b bf35
00000070: ecf3 2236 70e5 5b36 ee87 df35 b1ac ac36
00000080: b210 9f35 ef5f 9c35 f249 2c36 43b7 4636
00000090: d754 5837 a800 e034 3678 bb36 0fd2 3136
000000a0: 65a1 9d34 f5df b736 b7f7 4637 fc87 0436
000000b0: 1c37 e634 e0b0 b436 8c11 2636 88a2 9835
000000c0: c17a 1e33 a77a 9736 a5a2 fa35 9aff b635
000000d0: 9375 0f37 36b8 1735 e2a3 4c37 039e 3c36
000000e0: 5c58 d335 94eb a336 afd5 1e36 7de5 8835
000000f0: 0867 3835 08a8 2a35 4ec5 5e36 815e 1937
00000100: 6ef3 7436 6262 ac36 9515 6436 1bc7 7536
00000110: bb6f 3e36 4bfe 1534 de7f cd36 f243 0437
00000120: 9ba1 0436 43b3 8a35 11ac b435 2b64 c136
00000130: 6cec f435 eb57 9835 0757 0236 bcc9 0e37
00000140: 43cc 0937 97ee eb35 2f51 9934 01a6 9c36
00000150: 1008 4536 1444 8e36 87f9 9f35 c26b aa35
00000160: 3915 8b36 97cf 2f36 457a b835 4030 1435
00000170: 5f5b 6435 0b68 8035 26b7 2937 001b e535
00000180: 2551 0136 d2b5 9836 d169 3f34 268b 0035
00000190: b21d 7c35 6de4 b835 6435 3937 f234 9235
000001a0: 5807 c033 6e39 2935 7e43 8236 69b9 0436
000001b0: bd6e 2a35 1055 3a36 5f37 5137 8c6e b435
000001c0: 54b1 c735 b84e 7336 7b38 9e36 2e10 e734
000001d0: ddc9 dd35 4c3d 9f36 b78a 3b37 1abf 1135
000001e0: af12 1935 f723 3136 e901 7c35 eb43 2e37
000001f0: 9e5e aa36 bcd1 c637 611c f735 24a9 1c36
