results/ppo/Hide/Hide-3999972.onnx (onnx, 75719 bytes, 7 tensors)

action_model._continuous_distribution.log_sigma f4 [1, 3]
00000000: 829e c7be 199a acbe f6b9 9fbe
-0.3898812 -0.33711317 -0.31196564

action_model._continuous_distribution.mu.bias f4 [3]
00000000: 7295 8bbd e7ea c5bc c3d3 3ebc
-0.06815614 -0.024159862 -0.011647168

action_model._continuous_distribution.mu.weight f4 [3, 128]
00000000: 4940 e6bb d2b1 c33b e2bd 473b 003e 36bd
00000010: fbd6 02bd e72f bfbc fc1c 9cbd 7cce d6bc
00000020: 1855 a03c 94e9 7dbc 5756 b7bc 43a1 143d
00000030: c1b5 ff3c f264 05bc 5adb a13c d170 013c
00000040: 4e4f 4e3d 77be 9e3c 6aba a83c 0be6 9e3d
00000050: 01c0 7b3d a59f d9bd f121 fe3c 9f27 2a3c
00000060: 0e94 04bd b3d2 a53c c477 253d fbd6 31bb
00000070: 6726 0a3d 9b45 18bc 6f1d 0b3d fb9f 8c3c
00000080: 90d2 94bb 09ce e7bb 2b91 edbc a841 603b
00000090: 6a45 093d 8949 033d 8a85 383c 7bbb 80bb
000000a0: 90c9 f03b 97f0 453d ead8 52bc 67bb c53b
000000b0: 101e 193d 65b8 193c 8137 313c 1603 acbc
000000c0: 3499 583c de2e 52bc b7b2 8dbd e4d4 0dbd
000000d0: 7ec7 8d3b e695 f8bc 94aa 903d f83d 0c3b
000000e0: 7920 803c e3c1 1d3d c709 08bd 2e78 a2bc
000000f0: 64c2 193c 3da5 48bd 9cfc 993c b2a6 b6bc
00000100: 181f 0f3b 5b4a 3a3d 3753 87ba 5aa9 873b
00000110: c79f 8fbc eb4a 413c 2623 0cbd 2986 b03d
00000120: dbf3 b2b9 b8ac 453d 862d 7bba 5dad 863b
00000130: 0d14 8abc cece e83c f1dc 803c 0acf 033d
00000140: 01e1 123d 0937 b1ba 5dec 1f3b c2dd 3fbd
00000150: a49e ffbb 04ad ebbc f1db 2dbd 6907 06bc
00000160: 509e 573c 8dab b73c 1879 e23b ae2d 293c
00000170: 950a a1bd 5587 dc3c a7fa 263d 0be8 99bc
00000180: 64c9 d13b d4e7 7ebb 0679 50bd f4e7 88bd
00000190: c1ac 6bbd 08a7 a53d aeee 8a3c c8fa c1bc
000001a0: ef1b 4abd ae23 2d3c 7c2f 3a3c d5cd d53b
000001b0: b2da b43c 2804 bbbc a2a9 6b3c 9ebe cd3c
000001c0: cea3 8d3d 7e32 c53c b4d0 0b3d 1b29 893d
000001d0: 9fd3 a63c 750c 8dbc fd35 313d a11c ad3d
000001e0: fb9a da3c 812b 073d a16d 013d 76f9 b43c
000001f0: 1d42 74bd f358 5fb9 dc06 7bbb b0f7 173c
00000200: d276 c93c 3246 f03c d657 9fbc 128f 3b3b
00000210: aece 203c cfae 793c 6300 cd3d 8134 7ebd
00000220: ac9e 3b3d aadc d0bb 57d2 10bd 6536 053c
00000230: ac85 80bb f953 343d 85f7 db3c cdf4 76bb
00000240: 77a3 c73c 9636 31bc a6eb 07bc aae3 37bc
00000250: 48ae 66bc a8c7 98bd 743a 4abc 7a1a 71bc
00000260: 6e16 9bbd 30ff bdbd c995 45bd b26c 01bd
00000270: b7bb 47bb 7604 2fbd f297 3fbd cd14 193d
00000280: 2d03 10bd 5885 03bd 1516 003d 19b4 bebc
00000290: 0f2d da3c cac5 bd3c 1cf5 1cbd 64ef 453d
000002a0: 1df1 80bc 51b7 4bbc 8863 e9bc 3ae6 be3c
000002b0: 7f01 bc3c d6c6 f139 aa6c 89bb 4035 afbd
000002c0: 5816 293b 26a6 9a3d 9496 303c 39d1 ed3c
000002d0: 68da 52bc c5a9 163c ff98 873d f085 bfbd
000002e0: 3d3a 963b 7a3a 153b 59d9 0ebc ae91 e5bb
000002f0: 060a 85bb 8e61 47bc dddb 7b3c e1b0 c33c
00000300: 407f 03bd cf71 3abc 202d 90bc 4871 11bc
00000310: 473d 16bd f2bb a0bc dc3c a1bb 4019 e93b
00000320: c653 20bd 9a07 473b 7cc1 33bd 3320 423d
00000330: d794 043d 3d20 ffbc 7dde 73bb 3c6d ba3c
00000340: 0720 6f3d cfcc 043c c40f b03b c4b1 00bc
00000350: 348a 65bd ddec 98bd 054d edbc 298a 0ebd
00000360: 5808 393c ee42 e1bb bb8a d2bc eae9 b43b
00000370: 741f d03c 6050 b9bb 0f3b ed3c 8b24 6cbc
00000380: 959d d7bc aa07 a43d 174a 113d b0ac 2abb
00000390: 19e3 323d 5bb8 ffbc 0701 06bd 2b28 1c3d
000003a0: e71b 4d3c 37a4 6abd e088 a13b 2360 043c
000003b0: cf1a d8bb 1c73 fabb c4b8 99bc f14c 643d
000003c0: 6b0b 523d e7e8 3bba 3814 81bd 8533 3b3d
000003d0: 4505 92bb 709e 143d 8422 8a3d b8ef 6d3d
000003e0: 9b28 f1bb 0681 47bc c7e8 893d 44e9 adbb
000003f0: 6c35 573c 7719 403c 3e74 753d 4962 b63c
-0.0070267064 0.0059721256 0.003047817 -0.04449272 -0.031943303 -0.023338271 -0.07622716 -0.026221506
0.019571826 -0.015497584 -0.022380037 0.036286604 0.031214597 -0.008141743 0.019757915 0.007900433
0.0503686 0.01937793 0.020596702 0.07758721 0.061462406 -0.10626153 0.031022044 0.010385423
-0.03236776 0.02024207 0.04039742 -0.0027136195 0.03372803 -0.009293939 0.033963617 0.017166128
-0.0045417026 -0.007074122 -0.028999886 0.0034218822 0.033513464 0.03205255 0.011262307 -0.0039285994
0.007348247 0.048325147 -0.012869099 0.006034303 0.037382185 0.009382342 0.010816456 -0.020997565
0.01322012 -0.012828557 -0.06918853 -0.034626856 0.00432676 -0.030344915 0.07063785 0.002139924
0.015640484 0.038514983 -0.03321245 -0.019832697 0.009384725 -0.04898571 0.018797211 -0.022296283
0.0021838602 0.045481067 -0.0010324483 0.0041400613 -0.017532242 0.011797647 -0.034213208 0.08619339
-0.00034132492 0.04826042 -0.00095816737 0.004110022 -0.016855264 0.028418925 0.015730353 0.03217987
0.03585911 -0.001352043 0.0024402358 -0.046842344 -0.007800894 -0.028769024 -0.04244608 -0.008180478
0.013160303 0.022420669 0.006911408 0.010325832 -0.078633465 0.02692 0.040766384 -0.018787405
0.0064021815 -0.0038895505 -0.050896667 -0.066848665 -0.057537798 0.08088499 0.016959514 -0.023679152
-0.049343046 0.010567589 0.01136386 0.006524781 0.022076938 -0.02282913 0.014383705 0.025115307
0.06916009 0.024071928 0.03413458 0.06697293 0.02036458 -0.017217854 0.043264378 0.08452726
0.026685229 0.033000473 0.03159869 0.022091608 -0.059633363 -0.00021300073 -0.003830365 0.009275362
0.02459279 0.029330347 -0.019451063 0.0028619212 0.009814901 0.0152394315 0.100098394 -0.06206179
0.04580562 -0.0063739615 -0.035356846 0.008130644 -0.003922185 0.044025395 0.026851425 -0.0037682534
0.024369938 -0.010816237 -0.008295929 -0.011223713 -0.014079638 -0.074599564 -0.012343038 -0.014715785
-0.075726375 -0.09277189 -0.04823855 -0.0315978 -0.0030476877 -0.042728864 -0.046775766 0.037373353
-0.03515928 -0.03210959 0.03127106 -0.023279237 0.026632814 0.023165602 -0.038319692 0.048324004
-0.015739972 -0.012433843 -0.028489843 0.02330314 0.022949932 0.00046115246 -0.004193862 -0.085550785
0.0025800671 0.075512215 0.010778088 0.02903043 -0.012869455 0.00919575 0.066209786 -0.093517184
0.0045845793 0.002277045 -0.008718812 -0.0070058918 -0.004060033 -0.012169255 0.015372244 0.023888053
-0.032103777 -0.011379673 -0.017599642 -0.008877106 -0.036679532 -0.01962087 -0.004920585 0.0071136057
-0.039142393 0.003036952 -0.043885693 0.04739399 0.032368507 -0.031143302 -0.003721147 0.022757165
0.058380153 0.008105471 0.005372973 -0.007854883 -0.056040004 -0.07467053 -0.02896739 -0.03479973
0.011293493 -0.0068744337 -0.025700917 0.005521049 0.025405623 -0.0056553334 0.028958825 -0.014413009
-0.026320258 0.08009274 0.03547105 -0.0026042871 0.04367361 -0.031215837 -0.032715824 0.038124245
0.0125188595 -0.057285514 0.004929647 0.008079561 -0.0065949927 -0.0076431166 -0.01876486 0.05573744
0.05128042 -0.0007168189 -0.063026845 0.04570343 -0.0044561946 0.03628391 0.067448646 0.05808994
-0.007359577 -0.012176758 0.06733852 -0.0053073484 0.013135295 0.011724821 0.05992531 0.022263663

network_body._body_endoder.seq_layers.0.bias f4 [128]
00000000: 72ef a0bd 9472 753c 76f6 803d 34ba bdbc
00000010: a846 b0bc f19e 99bb 5a8f 203d c913 0cbd
00000020: 4427 a5bc 3747 1ebd 039a 893c 81ee 48bd
00000030: fc6a 81bd 12e9 593d eefe c1bc 1814 0b3d
00000040: fd05 76bd c448 19bd 1c73 19bd 8297 b3bd
00000050: 45a8 e5ba 5bf8 81bd 01e9 7c3d 442c 4c3c
00000060: 61a0 70bc ad0f 7c3d 6465 a43b 1cbf 133c
00000070: 75d4 c63c 3b8d d3bb 64fd f8bc c517 b33c
00000080: 5760 e73c ebdc d8bd 9345 713b 4021 2fbd
00000090: 2ed5 ebbc e610 f23c 3b31 38bd 42cd 143d
000000a0: 88e1 103d 3f4f 293d c87a 083d 8987 f03c
000000b0: 646a 8a3d 6de5 c03a a68b 95bc c2ac 10bd
000000c0: 7cb8 53bd 4fef f5bc 1f8a 033d f263 32bd
000000d0: ed36 193d 08ce a6bb e46d 183d 9b0c 34bd
000000e0: 39e7 8bbb db8c 193d c1c5 86bd c82d 13bd
000000f0: fd51 803b 9cd0 d0bc a00c 9ebd 22d6 5b3d
00000100: 4b2c d63b d7a5 69bc 50b2 ab3d 0525 d33c
00000110: 9108 04bd 0a57 043d 10c1 05bd d9b0 40bd
00000120: 1626 1ebc 9b7d a93b f612 6bbd 4520 193d
00000130: 3063 a7bd c09c 20bd da64 40bc edd5 6a3d
00000140: 9501 02bd 73d3 66bd fff1 ff3c 3c22 953c
00000150: 576b 193a 9ec3 68ba 90db 423d d1e2 4f3d
00000160: f8a5 67bc f07f b63c a1e3 223d 9cce 8f3d
00000170: 055a 95bd cce4 093d d1e2 27bb 687c 8f3a
00000180: 3da5 30bc 4644 1abc c772 e3bc ece4 91bc
00000190: 0013 96bd fd9f 253d 2ca7 86bd 72bc 39bd
000001a0: 0108 1dbd d765 553d 2c7d 9739 edeb 09bd
000001b0: 4ce2 c83c f6e8 b53d 8e57 433c a8c5 fd3a
000001c0: 32d2 5cbd 2abb 0a3d 8048 05bd 7fef db3c
000001d0: faef 1dbd fa3c 683d 6620 a4bd 5be5 e4bb
000001e0: 889f 55bd 9399 a9ba 9dbe 1f3d ba09 be3c
000001f0: e870 07bd de0b 293d f8cf 10bc 91c9 6d3c
-0.078581706 0.014980931 0.06297009 -0.023160078 -0.021518067 -0.0046881367 0.03919921 -0.034198556
-0.020160325 -0.038642135 0.016797071 -0.04905558 -0.06319234 0.05320079 -0.02368113 0.03395471
-0.060064305 -0.03742291 -0.037463292 -0.08769132 -0.0017521462 -0.06346198 0.061745647 0.012461726
-0.014686675 0.061538387 0.0050169695 0.009017732 0.02427123 -0.006456045 -0.030394264 0.02186192
0.02824418 -0.10589012 0.003681515 -0.04275632 -0.028788175 0.029549073 -0.044968825 0.03632856
0.035371333 0.04133534 0.03332022 0.029361503 0.06758574 0.0014716812 -0.018255066 -0.035321005
-0.05168961 -0.030021338 0.032114144 -0.043552347 0.037405897 -0.005090479 0.037214175 -0.043957334
-0.0042695072 0.037487846 -0.06580687 -0.035932332 0.0039160238 -0.025490098 -0.07717252 0.05367101
0.006536042 -0.014260731 0.0838362 0.025774488 -0.032234732 0.03230957 -0.032654822 -0.047043655
-0.009652635 0.005172444 -0.05739113 0.03738429 -0.081732154 -0.03921199 -0.011742795 0.05733292
-0.03173979 -0.056353997 0.031243322 0.0182048 0.00058524817 -0.0008879247 0.047572672 0.05075342
-0.014138691 0.022277802 0.039767865 0.070218295 -0.072925605 0.033665463 -0.002561737 0.001094711
-0.010781583 -0.009415692 -0.027764691 -0.017809354 -0.07327843 0.04043578 -0.06574854 -0.04534573
-0.03833771 0.052099075 0.00028894225 -0.033672262 0.02452197 0.088823244 0.01192273 0.0019361274
-0.053911395 0.0338699 -0.032539845 0.0268476 -0.038558938 0.056698777 -0.08013992 -0.006985349
-0.052154094 -0.0012939445 0.039000142 0.023197997 -0.03306666 0.041271083 -0.008838646 0.014513389

network_body._body_endoder.seq_layers.0.weight f4 [128, 11]
00000000: 3e35 6f3e fb52 373e 6610 933e 0f94 d93e
00000010: 0696 f1be d205 703e e8b4 3abd 10a1 2abe
00000020: 0e55 b2be 673c 3e3e 5d50 a13d 9e39 93bd
00000030: 84c6 a8be 4c0b 2cbc 1120 8dbe 3a20 333d
00000040: 37a5 183e d75b b3be a633 203e ac86 063f
00000050: ffb5 b6bd 90c6 d6be 6de4 b03d 65e5 213e
00000060: 2b8d 013e bb13 a03e 98c9 22bf f829 14be
00000070: 257d 14be c0c2 c53e 2f6e 373e 4305 453e
00000080: 5d83 adbe 701e 59be 8c86 41be 37ca 923e
00000090: d934 e73d 30db e33d 586a c4bb 7923 073b
000000a0: a284 dfbe cb02 413d 530a adbe 22b8 c0be
000000b0: 5dff a7bd 3b4a 2fbe 6b26 00bf 48ea e63d
000000c0: 1803 583c fe92 12be 38ca c7bd 039b 4c3e
000000d0: 412d 0cbf 7e5f 1fbe ef25 473e 6a8c 0e3f
000000e0: 0f2f 81be 7398 c8bd ddcc 52bc 1191 51be
000000f0: 6660 fabc d41a 273e 1734 92be 4d8c 7dbe
00000100: a599 973e c487 0f3e fd94 1c3e b45d 22bd
00000110: 5384 443e b0e4 093c 35a3 b53e 2d2b 103f
00000120: 008a 023f fe7d cc3e e7cc c63d 4b62 863e
00000130: 1c4a a33e 123c 853d 5a02 8fbe 9abc 54be
00000140: 596a 54be 82f9 0ebf c4d0 1a3e d279 0f3d
00000150: d8b5 103e 79ec bcbe e9b9 b93b 7813 1bbf
00000160: 9b61 bebe c16f b1be 7bab 86bd a47f 913d
00000170: 9368 d23e 20e1 bc3d 4b12 d93c b9a9 cf3d
00000180: b390 72be eee4 663d 39b7 a2be 9a5a e63d
00000190: 2c92 5ebe 2ec8 f63e 4d9c 8bbd 850f 8cbe
000001a0: ff80 14b9 68f3 973e 0d3a a4ba 466d 0fbe
000001b0: 5b56 44be 816e 4cbe e1a0 33be f2f4 85be
000001c0: 83aa 5fbe 50ff f4be de22 f3bd 87b6 bfbe
000001d0: 73f4 d9bd b346 583e 3503 d4bb 3181 1bbf
000001e0: 51c7 d43d 291c 83bc 7efb e13d 65c9 043e
000001f0: 40c3 adbe 88f4 b03e ef9e 7f3e e8f4 c23c
00000200: efff a3bd 536c f3bd 5634 20be 9604 23be
00000210: 6e60 7bbe 76d7 81be 0380 65bc 616e 2d3e
00000220: 32b5 69be bcf5 07be 96f8 07bd b6f0 a9bc
00000230: 232b 30bf 3765 c73a e442 46be e578 8abd
00000240: 53f2 423e c159 15be e8ad a2be 98ed 253e
00000250: 13be 25bc f25e cb3e 639d 733e b1cb 7b3e
00000260: 73bb ed3e c955 893d 146a 973d 5542 d6bb
00000270: b3b1 d5be 519f 803a 5715 b8bd 1664 7d3e
00000280: e8c7 e3bd 0afd 943d ac58 c2bd 3bae 2f3e
00000290: cf6e 67be 4eea 9bbd 1add 593e 978c 8cbc
000002a0: 666b 643e 7070 8fbe b398 333d fc8b eebd
000002b0: 94be 9fbd 3c9d 6bbe edf9 d6bd 3784 253c
000002c0: 8380 34bf 12f0 f63c 5c6d 99be 5be0 d5bd
000002d0: a885 a3bd 1b2e fbbe 3702 02be b901 d73d
000002e0: e2fe d03e 5346 113e a7be 94be e7fb ef3e
000002f0: 33a3 bc3e 45ef 5e3e dbad 24be a921 64bf
00000300: 59ff c13e 074b 9c3e a1da babe 11eb 4fbe
00000310: a2ad 243d 8434 b43e bdbd eb3d dfdb 80be
00000320: 3d64 c83e d450 5abe d452 f4bd b90c e8bd
00000330: ad9f 14bd 6f57 03be 815f 483e 33a2 22be
00000340: 6294 ddbe 61ad 0c3f b898 25be 24b7 6c3e
00000350: 8089 a93d 825c 253f 4829 5fbd d661 563e
00000360: 51f3 083e d989 ca3c ff25 c13d 2072 5e3e
00000370: 25fe 66be 88cd c23d 080a 143e 1c3a f23d
00000380: ddad 04bf 2a43 19be d69a c23e d62f 39be
00000390: 0428 b23d e8e6 b1bd a3aa 973e a1ce fb3b
000003a0: 4f79 51be 4a10 6bbc 51c3 293e cf33 f9bd
000003b0: 1e6d edbe fc47 6fbe 862f e0bd 9523 40be
000003c0: b873 ff3c a05a 57bf 2cb4 80bc ff3a ae3e
000003d0: 655e a43e 5e1c dabd f672 42be ca79 ae3e
000003e0: e086 c23d 0bba 5fbe 0752 2b3e 6458 a7be
000003f0: e15f 133f 41f9 9bbe 0fdc e2b8 d538 fabd
0.23360154 0.17902748 0.2872345 0.42495772 -0.4718477 0.2343972 -0.045582682 -0.16663003
-0.34830517 0.18577729 0.07876656 -0.07188724 -0.32963955 -0.01050074 -0.27563527 0.043731906
0.14906774 -0.35031006 0.15644702 0.5254924 -0.08921432 -0.41948366 0.08637319 0.15810163
0.12651508 0.31265053 -0.6358886 -0.14469135 -0.14500864 0.38625145 0.17913125 0.19240288
-0.33889285 -0.21203017 -0.18898982 0.28669903 0.11289377 0.11125791 -0.0059941225 0.0020620509
-0.43655878 0.047121804 -0.3379694 -0.37640482 -0.082030036 -0.1711816 -0.5005862 0.11275154
0.013184331 -0.14313886 -0.09755367 0.19981007 -0.5475655 -0.15563771 0.19448064 0.55683005
-0.25231215 -0.097947024 -0.012866226 -0.20465495 -0.030563544 0.16318828 -0.28555366 -0.24760552
0.2960941 0.14016634 0.1529121 -0.039640144 0.19191103 0.00841634 0.3547608 0.5631588
0.5099182 0.39939874 0.09707051 0.26246867 0.31892478 0.06505598 -0.27931482 -0.20775071
-0.20743693 -0.5584947 0.151187 0.035028286 0.14131868 -0.36899164 0.005667914 -0.6057658
-0.37183842 -0.34655574 -0.06575676 0.07104424 0.4109541 0.09222627 0.02649798 0.10139794
-0.23688011 0.056370668 -0.31780413 0.112477496 -0.21735448 0.481996 -0.068169214 -0.2735559
-0.00014162435 0.29677892 -0.0012529508 -0.14006528 -0.19173567 -0.19964029 -0.17541839 -0.2616344
-0.21842389 -0.47851038 -0.11871885 -0.37443945 -0.10642328 0.2112072 -0.006470109 -0.60744005
0.10389579 -0.016004639 0.110342965 0.12967451 -0.33938026 0.34561563 0.24962972 0.023798421
-0.080078 -0.118858956 -0.15644965 -0.15919718 -0.24548504 -0.25359696 -0.014007571 0.16936637
-0.22823027 -0.13277334 -0.033196054 -0.020744663 -0.6881582 0.001521266 -0.19361454 -0.0676134
0.19037752 -0.1458502 -0.31773305 0.16203916 -0.010116118 0.39720875 0.23790507 0.24589421
0.46432075 0.06705815 0.0739328 -0.006538669 -0.41737136 0.0009813105 -0.08988445 0.24745211
-0.111221135 0.07274826 -0.09489569 0.17156307 -0.22600864 -0.076130494 0.2127575 -0.017156882
0.22306594 -0.2801547 0.043846797 -0.11647794 -0.07800022 -0.23009199 -0.10496888 0.010102323
-0.70508593 0.030143771 -0.29966247 -0.10443183 -0.07984477 -0.49058613 -0.12696157 0.104983754
0.4081946 0.14186983 -0.29051706 0.46871874 0.3684326 0.21770962 -0.16081946 -0.8911386
0.37890127 0.3052599 -0.36494926 -0.20304514 0.04020465 0.35196316 0.11510799 -0.25167748
0.39138976 -0.21319896 -0.11929861 -0.11330552 -0.03628509 -0.12826322 0.19567682 -0.15882187
-0.4327727 0.54952055 -0.16171539 0.23116738 0.08278179 0.6459428 -0.05448273 0.20935759
0.13374068 0.024723934 0.09431075 0.21723223 -0.22557886 0.09511858 0.14456952 0.1182749
-0.51827794 -0.14967027 0.38008755 -0.18084654 0.086990386 -0.0868662 0.29622373 0.007684544
-0.20456432 -0.014347145 0.16578414 -0.12168085 -0.46372312 -0.23367304 -0.109465644 -0.18763573
0.031183109 -0.8412266 -0.015710913 0.34029385 0.32103267 -0.10649942 -0.18989167 0.34077293
0.094983816 -0.21848314 0.1673051 -0.32684624 0.57568175 -0.30463603 -0.00010817509 -0.12217871

network_body._body_endoder.seq_layers.2.bias f4 [128]
00000000: 221c 60bb f401 93bd 8289 803d 7d23 763d
00000010: 6b2d 383d 26db 463c 3a75 ac3d 05ab 013d
00000020: a60d ba3b bee1 45bc 3caa 573d 4c1f 33bc
00000030: c7d6 a0bc 3f11 31bd 79a2 22bd b6be 99bb
00000040: 326c 53bd 1b70 6fbc 0cbc 933c 82b5 9f3c
00000050: 48d2 b63b 812f 5e3d ab92 85bd 0c0c 90bc
00000060: 238f 803d dd02 573c eeb5 dfbc eda7 cd3c
00000070: cb0a 033c 61ea f23c 8030 14bc 2d3d 83bd
00000080: 7bce a53c df87 783c 09da 5a3d c18e c5bb
00000090: 7851 88bd e914 2ebd 7249 e8bb def2 08bd
000000a0: b81e debc c903 5ebd 44c8 243d 3b3b 36bd
000000b0: c4f9 32bd bc4a 5abc 1f8b d6bc f86d ee3c
000000c0: 2db4 0bbd c34d c83c ab93 753d c9ca f93a
000000d0: f820 8a3c 0983 043d 2243 5bbc 60e9 343d
000000e0: 237d c0bc e93e 08bd 091c 153d 87e0 6c3c
000000f0: a1f6 d3bb 11c0 8e3d 8d12 d3bc 2291 1cbb
00000100: 05d9 d63c 6c79 e13b a84e 5f3b 20aa 37bd
00000110: ba9d 033c 545a ee3b 9608 3a3d 7771 93bc
00000120: e463 a33d 89e1 1abd 8def 1d3d fa43 e3bc
00000130: a816 8b3c 954a 26bd 97d9 58bd 3da5 11bd
00000140: 1f2e 12bd 3b12 8e3b 1fcc 8ebd 5dfa c33c
00000150: 6469 3f3d 917a 713d 96d0 333d e4c4 333d
00000160: 2d5b c4bc 6e3b 27bd 2156 bcbc a4a3 b4bd
00000170: c194 9d3d 355b 41bd 8849 89bd ea1d 0e3c
00000180: 9d4a 7e3c bb49 2b3c 54fc 4b3d 9ec8 393d
00000190: e51b ed3c aada 863d 97cb 43bc d854 713c
000001a0: ceed 413d d61e 3e3d a899 ffbc 35ac 09bc
000001b0: f1ff dabb eca4 993c 8cf8 debc ccec 7cbd
000001c0: 7889 86bc a5df 28bd d2d5 013d 27d0 a7bb
000001d0: 7149 05bd aced 893c 1911 66bc b72c 043c
000001e0: b530 40bd 065a 42bc def3 09bd 6569 0cbd
000001f0: 0aae 393d 6dbc 49bb 6e96 1dbd e75e 47bd
-0.0034196456 -0.07178107 0.062762275 0.060092438 0.04496519 0.01213721 0.08420797 0.031657238
0.0056778966 -0.012077747 0.052652583 -0.010932755 -0.019633664 -0.043229338 -0.039705727 -0.004691924
-0.051616855 -0.01461413 0.018034004 0.01949573 0.0055792667 0.054244522 -0.06522115 -0.01758387
0.06277301 0.013123241 -0.02730843 0.025104487 0.007998179 0.029652776 -0.009044766 -0.06408153
0.02024006 0.015169113 0.05343059 -0.0060289805 -0.06656164 -0.04250041 -0.0070888335 -0.03343474
-0.027114257 -0.05420283 0.04023005 -0.04449008 -0.043695226 -0.013323482 -0.026189385 0.029105172
-0.034107376 0.024451142 0.05995528 0.0019057627 0.016861424 0.032351527 -0.013382705 0.044167876
-0.02349717 -0.03326312 0.03640369 0.014457828 -0.0064686094 0.069702275 -0.025765682 -0.0023890217
0.02622653 0.0068809297 0.0034073982 -0.04483998 0.00803321 0.0072739515 0.045418344 -0.01799844
0.07978037 -0.037812743 0.03855853 -0.027742375 0.016978577 -0.04059847 -0.052941885 -0.035557974
-0.035688516 0.0043356693 -0.06972527 0.023923093 0.046731368 0.05895478 0.043900095 0.04388894
-0.023969257 -0.04082816 -0.022990288 -0.088202745 0.07694388 -0.047206122 -0.06703478 0.008674124
0.015520719 0.01045459 0.049801186 0.04535734 0.028943965 0.065846756 -0.011950395 0.014729701
0.04734593 0.046416126 -0.031201199 -0.008402874 -0.0066833426 0.018755399 -0.027218126 -0.061749265
-0.016422972 -0.04122891 0.031698056 -0.0051212492 -0.032540742 0.016836964 -0.014042162 0.0080673015
-0.04692145 -0.011862284 -0.033679835 -0.0342802 0.045331992 -0.0030782477 -0.03847354 -0.04867449

network_body._body_endoder.seq_layers.2.weight f4 [128, 128]
00000000: b29c f7bc 7262 e7bb b42d 02be 9975 2fbe
00000010: 9095 5e3e 0cf2 b43d 3c6d 193e 8d71 e13c
00000020: f77e 0cbe f54c f03d a0af 1bbb d19e 143d
00000030: 594d afbc b18b 27be 1f90 383e f68c 64be
00000040: 5f73 623e bc03 f23d c5f6 2d3e 7b65 cc3d
00000050: eb5d 033e cbbf 9cbd 71ef a43c 83a6 093d
00000060: dad4 ee3d 4372 163d a784 56bd 1df5 13be
00000070: 0823 05bd 7cd3 503a 1401 07bc eb72 3ab9
00000080: 6c3e bd3d 4f9b cfbd 8d09 843d 3fed 483c
00000090: c8c0 8d3d 1564 f93d 0f55 743e 79ac 22bd
000000a0: 1a89 64bb bb02 a83d 6672 89bd 3d04 92bd
000000b0: c21a ffbd 1fb6 11bc 3fe3 a2bd c5a0 29bb
000000c0: 7f99 b33a 9430 09be 9595 373d 5eba 0a3d
000000d0: 52ed 083d 8da7 833c 0894 1cbc 1c39 8c3d
000000e0: 68d6 08be 444e bb3d 4813 b83d 26cc 8fbd
000000f0: f3dd 3c3e 656c b53d fc04 72bb 3b74 2cbd
00000100: 2e9e 9fbd 1550 02be 9d65 b2bd 7ee1 163d
00000110: 0102 ae3b 5134 053e 1629 3c3d cd55 1bbc
00000120: 1776 8abd 5a0e 08bc 295b d73d 0f31 42be
00000130: b64f 2abe 3d4c 4a3d bc0a b7bd 1d0b e839
00000140: 2a40 44bc 90dc 87bd a28e 85bd 4934 a23c
00000150: e418 ccbc 71e4 48bc e517 5b3d 737c 6ebd
00000160: fd5a 35bd f86a 50bd 95f5 05be b427 4dbc
00000170: 11d7 73bd fcc1 a5bd 42ce e13d 7d44 873d
00000180: 32d1 2bbe ae18 c43d 0894 73bb 9e81 103d
00000190: 1839 083e 697c b4bd a133 aabd 63e2 273d
000001a0: 74df 923d d7bc 46bd 5374 2ebd 6017 9fbd
000001b0: 9b89 d03d 2725 3a3e 724b 31be 82ce b6bc
000001c0: c24d 963d 3efc d23c 7c4d b13d 2da2 00be
000001d0: 3c47 d7bd a9d0 04be 8c16 83bc 15da 81bd
000001e0: 08e4 2ebe 8d72 f6bd fe95 35be 1f30 01be
000001f0: 2648 ff3a 923a 093e 0fd6 0abc 7ead 4fbe
00000200: 2f46 2e3e f478 6f3d 31af 863d eb0e cd3c
00000210: 6c4a ea3d e930 8a3c d5ea 5cbd 22c8 1a3e
00000220: 0bf5 8fbe 3ffa a43d 0244 ed3d a43e 85bd
00000230: a5d6 88bd f3ad 3fbd 0ccd 5a3d cf4d b6bd
00000240: 0ac8 a6bd b573 d53d 1289 b03d 1560 e33d
00000250: 89dd 81bd c15f fc3d c3cc 333d 97ff ba3b
00000260: f2f3 4d3d 2495 bdbd 4956 4d3d c8c6 b93d
00000270: f1ce 87bd 3c5d 4a3c 1867 2f3c 4cf5 bdbd
00000280: 3533 15be 7029 05bd e802 b53d ca41 a8bd
00000290: dee3 193e d4f8 d53c 4ab8 023d 0a71 003c
000002a0: 1a59 4cbd ac8b 8fbe 29a2 9abd 69bd 6bbe
000002b0: 0632 403d 8032 f9bc ff2b 663c 2675 1ebe
000002c0: 920a 29be 6678 8ebe 668d eebd 249f e8bd
000002d0: deed e2bc fb98 17bb fa61 99bb 18d6 b2bd
000002e0: 8c14 233e 7703 53bd 3e80 563d 1b43 323e
000002f0: 25ed cd3d 09ac 93bd e88f 513c dfc4 93bd
00000300: 242d 923b 4daf 9ebd e778 a7be 7fb5 1dbe
00000310: 9910 14bd 1e3c 663d f5f6 d2bd f7c0 40be
00000320: 8f0d acbd d9a3 34bd 4b87 94b9 f499 4abd
00000330: f6e0 c6bd be93 883d ba23 c1bd a601 bd3c
00000340: 7f43 ccbd 6dbb 7ebe 71c5 c73c 064d c73d
00000350: 76d8 723d 54d9 12bd 3738 cf3b 8888 c7bd
00000360: 2f37 5c3e 8f45 74be 6d11 dd3c 7ec0 c53d
00000370: 3f01 cb3c 59b2 be3d 4cf6 36bc 93a2 193e
00000380: 37d2 973c 6b0c b73d 5903 d33c 5eed 07be
00000390: 0107 1cbe 218f 09bc bece 89bd 49a0 7e3d
000003a0: 956f d1bb bce3 1fbd ea6e 07be 859b 813d
000003b0: 2c0d d0bd 91f8 4eba 08c7 0cbe be09 f83d
000003c0: 411d df3c 871d a33d 589a 113e 3872 863b
000003d0: 468f 1a3e 295d d4bd 7996 d83d b8d8 42bd
000003e0: eb93 8cbd 3d0a 7d3d 2bb2 09bd 7efc 36bc
000003f0: 47ee c2bd 7866 8dbd 2e37 0abe 6351 d63d
-0.030226085 -0.007061296 -0.12712747 -0.17134704 0.21736741 0.08835229 0.14983076 0.027519966
-0.13720308 0.117334284 -0.0023755804 0.03628427 -0.021399187 -0.16361882 0.18023728 -0.22319397
0.22114323 0.118171185 0.16988666 0.09980293 0.12828796 -0.07653769 0.020133706 0.033606064
0.11661692 0.036730062 -0.0523726 -0.14448972 -0.03250411 0.0007966084 -0.008240003 -0.00017781153
0.09240422 -0.10137045 0.06447134 0.012263595 0.06921536 0.12177292 0.23860572 -0.039715264
-0.0034871758 0.08203646 -0.06711273 -0.07129715 -0.124562755 -0.008893519 -0.079535 -0.002588318
0.0013702362 -0.13397437 0.044820387 0.03386914 0.03342945 0.016071105 -0.009556778 0.0684683
-0.1336304 0.09145787 0.089880526 -0.0702136 0.18444042 0.08858565 -0.003692924 -0.042103034
-0.07793842 -0.12725861 -0.087107874 0.03683614 0.0053102975 0.13008238 0.04593762 -0.009480906
-0.06760805 -0.008304203 0.10515434 -0.18964027 -0.1663197 0.049389113 -0.08937594 0.00044258768
-0.0119781885 -0.06633866 -0.06521346 0.019800322 -0.024914213 -0.012261496 0.053489584 -0.058224153
-0.044276226 -0.050883263 -0.13081963 -0.012521673 -0.059531275 -0.0809364 0.11025669 0.0660486
-0.1677902 0.0957502 -0.003716709 0.035279863 0.1330303 -0.08812792 -0.08310629 0.040987384
0.071715266 -0.048519935 -0.042591404 -0.0776813 0.10182496 0.18178235 -0.17313936 -0.022315267
0.0733905 0.025755044 0.08657357 -0.12561865 -0.10511634 -0.12970223 -0.016001962 -0.06340424
-0.17079175 -0.120335676 -0.17732999 -0.12616013 0.0019476458 0.13401249 -0.008473887 -0.20281026
0.1701896 0.05846496 0.06576384 0.025031528 0.11439976 0.016869025 -0.05393489 0.15115407
-0.2811664 0.08055543 0.11585237 -0.065060884 -0.06681565 -0.04679675 0.053418204 -0.089015596
-0.08143623 0.1042246 0.08619894 0.111023106 -0.063410826 0.12322951 0.043896448 0.005706738
0.050281473 -0.09256962 0.050131116 0.09071118 -0.06631268 0.01235133 0.010705732 -0.09275302
-0.14570315 -0.03251022 0.08838445 -0.08215673 0.1502833 0.026119627 0.031914033 0.007839451
-0.04988966 -0.2803625 -0.07550461 -0.23021473 0.046922706 -0.030419588 0.014048575 -0.15474376
-0.16507939 -0.27826232 -0.11648063 -0.11358479 -0.027701315 -0.0023131955 -0.004680869 -0.087322414
0.15925807 -0.051516976 0.052368395 0.17408411 0.10054997 -0.072105475 0.012790658 -0.072152846
0.0044609476 -0.0774828 -0.3270943 -0.15401267 -0.03614864 0.056209676 -0.103010096 -0.1882361
-0.084010236 -0.04410157 -0.0002832956 -0.049463227 -0.09710877 0.066688046 -0.094306424 0.023072075
-0.09973811 -0.24876185 0.02438614 0.09731488 0.059288464 -0.03585179 0.00632384 -0.09742838
0.21505426 -0.2385466 0.026985848 0.096558556 0.024780868 0.09311361 -0.01116712 0.15003423
0.018532855 0.089379154 0.025758432 -0.13274142 -0.15237047 -0.008395941 -0.06728886 0.06216458
-0.0063914754 -0.039035544 -0.13225904 0.06328491 -0.10158762 -0.00078953156 -0.137478 0.12111233
0.027235629 0.07964616 0.14219034 0.0041029714 0.15093717 -0.103693314 0.105755754 -0.04756996
-0.068641506 0.061777342 -0.03361718 -0.011168597 -0.09518104 -0.0690431 -0.13497612 0.10464742
