results/ppo/Hide/Hide-779134.onnx (onnx, 75719 bytes, 7 tensors)

action_model._continuous_distribution.log_sigma f4 [1, 3]
0	0xbc86c340	-0.016450524
1	0xbd1f4cf4	-0.038891748
2	0xbce57394	-0.028009214

action_model._continuous_distribution.mu.bias f4 [3]
0	0xbb837241	-0.004011423
1	0xbcefda63	-0.02927894
2	0xba052a97	-0.0005079894

action_model._continuous_distribution.mu.weight f4 [3, 128]
0	0xbc803029	-0.015647965
1	0xbcc46640	-0.023974538
2	0x3c7f2e41	0.015574993
3	0x3d82dd27	0.06389838
4	0xbceeb0e1	-0.029137077
5	0xbcfa331e	-0.030541953
6	0xbc55806a	-0.013031105
7	0xbcea4afb	-0.028600207
8	0x3c5a3735	0.013318826
9	0xbbdd8818	-0.0067606084
10	0xbbc1d3a3	-0.0059151216
11	0x3bbab6ae	0.0056980466
12	0x3c67fbfa	0.014159197
13	0xbbfaa52b	-0.007649084
14	0xbc99a336	-0.018754583
15	0x391ca87b	0.00014940083
16	0xbb0afab7	-0.0021206567
17	0xbc8411cd	-0.01612177
18	0xbca1b697	-0.019740386
19	0xbd15956d	-0.036519457
20	0xbc807bbe	-0.015684005
21	0xbd2fcfb1	-0.04292268
22	0xbd0ac4f7	-0.033879247
23	0x3c49238c	0.012276541
24	0xbc990311	-0.01867822
25	0x3d40dc47	0.047085073
26	0x3af991e8	0.0019040676
27	0xbce66e1c	-0.028128676
28	0x3c44d804	0.012014393
29	0xbd2ef942	-0.04271818
30	0x3be86815	0.0070924857
31	0x3ce2c270	0.027680606
32	0x3cb712f1	0.0223479
33	0x3be690a2	0.0070362845
34	0xbc8f4a4d	-0.017491484
35	0xbc8015c8	-0.015635386
36	0x3cfc83a3	0.030824488
37	0xbc8a06a5	-0.016848871
38	0xbbdac95b	-0.0066768355
39	0xbc1554c7	-0.009114451
40	0x3c8796ca	0.016551394
41	0x3c7dbd03	0.015486958
42	0xbb02f7d1	-0.0019984136
43	0xbcaa6c19	-0.020803498
44	0xbce0b044	-0.0274278
45	0xbd01bf43	-0.031676542
46	0x3ca9cefe	0.020728584
47	0x3c981e35	0.018569091
48	0x3ceaa6ae	0.028643932
49	0xbc821eb9	-0.01588379
50	0xbc85e206	-0.016343128
51	0xbc4367e1	-0.011926622
52	0x3ccc9304	0.024972446
53	0xbc2e9e5a	-0.010657871
54	0xbb07b27d	-0.0020705753
55	0xbc4de6cf	-0.012567236
56	0xbbc846c6	-0.0061119525
57	0x3c8c0842	0.017093781
58	0xbc61bce6	-0.013777947
59	0xbc54b278	-0.012982003
60	0xbc03682d	-0.008020443
61	0x3c68268b	0.014169346
62	0xbb77a95d	-0.0037790157
63	0x39b7fe41	0.00035093914
64	0x3bc99295	0.006151507
65	0x3b520532	0.0032046554
66	0xbd084807	-0.033271816
67	0x3cc4813f	0.02398741
68	0x3cea3828	0.02859123
69	0xbcbc8737	-0.023013694
70	0xba215fc5	-0.00061559334
71	0xbc7ec4af	-0.015549823
72	0xbc9b6aa9	-0.018971758
73	0xbd2e123f	-0.04249787
74	0x3cefd681	0.029277088
75	0x3ce15e60	0.027510822
76	0x3a729755	0.00092541176
77	0x3c3e0060	0.011596769
78	0xbcea3778	-0.028590903
79	0x3d1c3ea3	0.038145673
80	0x3c1c2fc4	0.009532873
81	0x3c8803c8	0.016603366
82	0xbd093078	-0.03349349
83	0xbcd326d1	-0.025775345
84	0x3ca7575c	0.020427398
85	0xbc19a91b	-0.009378697
86	0xbc752679	-0.014962786
87	0xbb56e737	-0.0032791623
88	0x3b70f64b	0.0036767896
89	0xbb888c81	-0.00416714
90	0x3bb4c8dd	0.005517109
91	0x3c729760	0.014806598
92	0xbb7e8dcf	-0.0038841849
93	0xbac5b1a9	-0.0015082854
94	0xbcb3f7ab	-0.021968683
95	0xbcc5a965	-0.024128625
96	0x3b41a454	0.002954741
97	0x3cdf8200	0.027283669
98	0x3cc8b050	0.024498135
99	0x3caf1519	0.021372365
100	0x3c6eb96f	0.014570578
101	0xba82780f	-0.0009953993
102	0xba17e702	-0.0005794616
103	0x3d070e07	0.032972362
104	0xbc6b6981	-0.014368416
105	0xbca1a12b	-0.019730171
106	0x3c4e5f8e	0.012596024
107	0xbb953b27	-0.0045541706
108	0xbb7f8a10	-0.0038992204
109	0x3ca1e7b0	0.019763798
110	0x3b1b32fc	0.0023681512
111	0x3ad010eb	0.0015874183
112	0xbbc27a59	-0.005934995
113	0xbab401ae	-0.0013733411
114	0x3b459b20	0.0030152276
115	0x3cb251f3	0.021767592
116	0xbb4b1387	-0.003098698
117	0xbc857ccc	-0.01629486
118	0x3bdf6b32	0.0068181986
119	0x3bfeb6d5	0.00777326
120	0xbbbd1a85	-0.0057709836
121	0xbc417d5f	-0.011809676
122	0x3d0c46d7	0.034247246
123	0xbce904f3	-0.028444743
124	0xbcc5e4e6	-0.024156999
125	0xbc202082	-0.0097733755
126	0x3b713f68	0.0036811475
127	0x3bc2f9fc	0.0059502106
128	0xbd017233	-0.03160305
129	0x3c33d954	0.010977108
130	0xbbc5213c	-0.0060159247
131	0xbb56ddec	-0.0032786084
132	0x3a69a925	0.0008913449
133	0xbb844645	-0.004036697
134	0xbc7ecad7	-0.0155512905
135	0x3b31a53b	0.0027106542
136	0xb92e9734	-0.0001665026
137	0x396c167c	0.0002251509
138	0x3ca72512	0.020403419
139	0x3c9d4dc2	0.019202117
140	0x3d4eb83b	0.050468665
141	0xbc190c1a	-0.009341264
142	0xbd08bb6d	-0.03338187
143	0xbc32b1cc	-0.010906648
144	0x3c4d5509	0.012532481
145	0x3c5d942e	0.013524098
146	0x3c687095	0.014186998
147	0xbc45314e	-0.012035681
148	0x3cec7e24	0.028868742
149	0xbca0265e	-0.019549545
150	0xbd123d0e	-0.035702758
151	0xbbfafad8	-0.0076592974
152	0x3a758650	0.00093660224
153	0x3bb82daa	0.005620678
154	0x3c01430d	0.007889521
155	0xbc51ea7e	-0.012812255
156	0xbccd3443	-0.025049334
157	0xbcb90cff	-0.022589205
158	0x3cd3b4b6	0.025843006
159	0x3d056905	0.032570858
160	0x3d6d0223	0.057863366
161	0x3cfae7a0	0.030628026
162	0xbc783744	-0.015149895
163	0x3aeb2391	0.0017939677
164	0xbd28b396	-0.04118689
165	0xbc9beaf5	-0.019032935
166	0xbc80bec2	-0.01571596
167	0xbb9c0a3f	-0.0047619636
168	0xbcd7ffea	-0.026367147
169	0x3cc53d79	0.024077164
170	0x3d2968f5	0.04135986
171	0x3cb53aa9	0.022122698
172	0xbc85eab7	-0.016347272
173	0x3bb16b19	0.0054143784
174	0x3c894521	0.016756596
175	0x39ade085	0.0003316441
176	0x3c626d39	0.013819986
177	0x3d2f5691	0.042807166
178	0xbc947354	-0.018121399
179	0x3d42fdbc	0.04760526
180	0x3cea61d5	0.028611103
181	0xbcccf52b	-0.025019249
182	0x3c2bd991	0.010488884
183	0x3d25cfcf	0.040481385
184	0x3d3653aa	0.044513382
185	0x3d1d907d	0.038467873
186	0x3bc2da87	0.0059464606
187	0xbd15dd0a	-0.036587752
188	0xbafeaf35	-0.0019430878
189	0xbcd532be	-0.026025172
190	0x3d49bf17	0.049254503
191	0x3c250852	0.0100727845
192	0xbc284550	-0.010270432
193	0x3d8c1725	0.06840352
194	0x3c7ecf45	0.015552347
195	0xbca07376	-0.019586306
196	0x3bebbddb	0.0071942634
197	0x3c883fa4	0.016631909
198	0xbcc2065b	-0.023684671
199	0xbbe24427	-0.006905097
200	0x3c271f43	0.0102003245
201	0x3c6c1f79	0.014411801
202	0xbc92d39f	-0.017923174
203	0x3d5363ab	0.051608723
204	0x3c0cb05a	0.008586967
205	0xbbebacef	-0.007192246
206	0xbd27d9bd	-0.040979136
207	0x3b95ac98	0.004567694
208	0xbd1565c6	-0.03647401
209	0xbc1c8431	-0.009553001
210	0xbac00e5c	-0.0014652717
211	0xbb16cfeb	-0.0023012112
212	0xbc6dfb39	-0.014525228
213	0xbb952179	-0.0045511094
214	0xbcc9fb0b	-0.02465584
215	0x3bd73949	0.006568108
216	0xbccd0dcc	-0.025030993
217	0x3c0278cc	0.0079633705
218	0xbbbd0267	-0.0057681086
219	0x3cd13110	0.02553609
220	0x3b99921a	0.004686606
221	0x3c190732	0.009340094
222	0x3c06b17a	0.008221025
223	0x3d526b67	0.051371958
224	0x3d86e3ca	0.06586416
225	0x3b00c1be	0.001964673
226	0xbcae32f5	-0.021264533
227	0x3c967541	0.018366458
228	0xbd28bb18	-0.04119405
229	0xbbb80d73	-0.0056168376
230	0xbd118d46	-0.03553512
231	0xbb797b7c	-0.0038067987
232	0x3be5e928	0.00701632
233	0xbc7bbeb6	-0.015365293
234	0x3c8200b0	0.015869468
235	0xbcb10c80	-0.021612406
236	0x3d7d55d8	0.061849445
237	0x3af14584	0.0018407558
238	0xbc820967	-0.015873624
239	0xbd0a3abb	-0.033747416
240	0x3b8f1f5a	0.004367751
241	0xbceaf2ac	-0.028680168
242	0x3c88efee	0.01671597
243	0x3ce15ca9	0.027510004
244	0xbd1f5f41	-0.0389092
245	0x3b19ef45	0.0023488563
246	0xbc70be4e	-0.01469381
247	0xbc2265bd	-0.009911952
248	0x3ba88732	0.0051430697
249	0x3ac378d4	0.0014913329
250	0x3bc40f5e	0.005983277
251	0xbc7eee23	-0.015559706
252	0xbb614af1	-0.0034376944
253	0xbc5bc165	-0.013412808
254	0xbb2f3dce	-0.002673972
255	0xbc463bef	-0.01209925

network_body._body_endoder.seq_layers.0.bias f4 [128]
0	0xbccf3f2a	-0.025298674
1	0xbb44ae21	-0.0030011015
2	0xbc5f9dc4	-0.013648454
3	0xbce28db9	-0.02765547
4	0x3c1ca5ca	0.009561012
5	0xbbc46229	-0.005993147
6	0x3cea5b23	0.02860791
7	0x3b9ec8c6	0.0048457114
8	0x3c744755	0.014909585
9	0xbc002281	-0.007820726
10	0xbd04cefd	-0.032423962
11	0x3bc2371c	0.0059269797
12	0xbbb653e5	-0.0055642
13	0x3bf006a7	0.007325012
14	0xbc85e288	-0.01634337
15	0xbc1bdfdc	-0.009513821
16	0xbc2b7808	-0.010465629
17	0xbb0ad712	-0.002118532
18	0xba7a6164	-0.00095512555
19	0xbb62fcee	-0.003463562
20	0xbaa4b52b	-0.0012566199
21	0x3b2cdd8c	0.002637717
22	0x398ac515	0.0002646825
23	0x3c173445	0.009228771
24	0x3ce0b89b	0.027431777
25	0xbc89a35b	-0.016801527
26	0xbc0edb51	-0.008719281
27	0x3c8aefd3	0.01696006
28	0xbc2c9dfb	-0.010535712
29	0xbbc104bd	-0.0058904574
30	0xbc82adc5	-0.015952
31	0x3bc18e3c	0.0059068482
32	0x3bfe5b89	0.0077623767
33	0xbc84b715	-0.016200582
34	0x3b683797	0.0035433525
35	0x3c944c7b	0.018102875
36	0xbbc1790e	-0.0059043234
37	0x3cfbd5aa	0.030741531
38	0x3bb7eb2b	0.005612751
39	0x3c6cca7d	0.014452574
40	0x3b7ccfa7	0.003857592
41	0x3c2ed804	0.010671619
42	0xbc83ccbc	-0.016088836
43	0xbb843af2	-0.004035347
44	0xbc49ec07	-0.01232434
45	0xbc2ddf43	-0.010612312
46	0xbccfe23f	-0.025376437
47	0x3ca4face	0.020139124
48	0xbc39d0fb	-0.011341329
49	0x3c1f4bf2	0.009722697
50	0xbc1dedb9	-0.009639197
51	0x3b64a86e	0.003489043
52	0xbca0225d	-0.019547636
53	0xbc355b3a	-0.011069113
54	0xb988d484	-0.00026098278
55	0xbcd0e2de	-0.025498804
56	0x3bb0991d	0.0053893463
57	0x3cd307f3	0.025760626
58	0xbc7a9fa3	-0.015296849
59	0xbba5d368	-0.005060602
60	0xba9b6643	-0.0011856038
61	0x3cef73ba	0.029229987
62	0xbc428a3c	-0.011873778
63	0x3c894d3d	0.016760463
64	0xbc0353d5	-0.008015593
65	0xbae135e7	-0.0017182202
66	0x3c50cf2e	0.012744708
67	0x3c002bae	0.007822914
68	0x3c524b30	0.012835309
69	0xbc0e2be1	-0.008677454
70	0x3d09a697	0.033606138
71	0xbc34cd69	-0.011035302
72	0xbc15c3d8	-0.009140931
73	0x3b656df5	0.0035008166
74	0xba846b24	-0.0010102731
75	0xba284f05	-0.0006420466
76	0x3c598708	0.013276823
77	0x3ac68650	0.0015146229
78	0x3c3dcf35	0.011585047
79	0xbb524e65	-0.0032090184
80	0xbc497366	-0.01229558
81	0x3bd8ff2d	0.006622216
82	0xbb3857d7	-0.0028128529
83	0x3c060ec2	0.0081822295
84	0xbbb1cf5c	-0.0054263305
85	0xbb8c2dc5	-0.004277917
86	0x3cb8443d	0.022493476
87	0xbbb68a18	-0.0055706613
88	0x3bea2ecf	0.0071466933
89	0x3c80ead9	0.015736984
90	0xbc27dd2d	-0.0102456035
91	0x3be06e02	0.0068490515
92	0x3b37dc3f	0.002805486
93	0x3cba5235	0.022744277
94	0x3bb3e26a	0.005489637
95	0x3cb503b0	0.022096485
96	0x3b5279ea	0.0032116123
97	0xbc112edf	-0.008861273
98	0xbc2f0678	-0.010682695
99	0xbbf2ec7a	-0.007413444
100	0x3cddf555	0.027094522
101	0x3ca4bb70	0.020108908
102	0x3ae47af3	0.0017431661
103	0xbc2232a2	-0.009899767
104	0x3c817c4a	0.015806336
105	0x3b19a557	0.0023444497
106	0x3bc53e1c	0.006019367
107	0x39a04266	0.0003056705
108	0xbc8493f3	-0.016183829
109	0x3ad33aa0	0.0016115494
110	0x3bc8dc30	0.006129764
111	0x3c1e5b6e	0.009665353
112	0x3ab6c7f7	0.0013945092
113	0xbc8c7cd7	-0.017149372
114	0xbbaaf307	-0.0052169594
115	0x3ca4bca2	0.020109478
116	0xba480ab8	-0.0007630992
117	0x3c319051	0.01083763
118	0x3c0426db	0.0080659045
119	0xbbedffc5	-0.007263156
120	0x3cd96cb0	0.026541084
121	0x3b2209f7	0.0024725178
122	0xbc240e8c	-0.010013234
123	0x3a12269e	0.00055752124
124	0x3be79ea1	0.0070684706
125	0xbc5c9ae3	-0.013464662
126	0xb9db3e9e	-0.00041817588
127	0x3c02701a	0.007961297

network_body._body_endoder.seq_layers.0.weight f4 [128, 11]
0	0x3efeeaf6	0.49788636
1	0xbd04f579	-0.032460663
2	0x3daefece	0.08544694
3	0x3ed1c9c7	0.40974256
4	0xbe4efc4c	-0.20213431
5	0x3e9f281b	0.31085286
6	0x3e4aabae	0.19792053
7	0xbeaaa0bc	-0.33325756
8	0xbe9fd348	-0.31215882
9	0xbe98b678	-0.29826713
10	0x3e6738e0	0.2258029
11	0xbe75c558	-0.24001062
12	0x3deb9ded	0.11504731
13	0xbea30dee	-0.31846565
14	0x3d7149aa	0.058908142
15	0x3e935223	0.28773603
16	0x3e23bc0b	0.15989701
17	0x3eaf7636	0.34269875
18	0xbee7fa0f	-0.45307967
19	0xbd995050	-0.074860215
20	0x3f23fbae	0.6405591
21	0x3d8a0c73	0.06740656
22	0x3e3a3882	0.18185619
23	0xbe94099e	-0.28913587
24	0xbeb2aacb	-0.3489593
25	0xbd8c7ab7	-0.068593435
26	0x3ec4db81	0.38448718
27	0xbe3193ff	-0.17341612
28	0xbea3b3e9	-0.31973198
29	0xbeb1871d	-0.34673396
30	0x3d278d8e	0.04090648
31	0x3d9ead35	0.0774788
32	0x3d0dcfb9	0.034621928
33	0x3e364d9a	0.1780304
34	0xbea49600	-0.3214569
35	0x3e7d2098	0.24719465
36	0xbd20adbe	-0.039228193
37	0x3d3d4384	0.046206966
38	0x3f16d111	0.5891276
39	0xbcc57d19	-0.024107503
40	0x3e0478ff	0.12936781
41	0x3e77818e	0.24170515
42	0x3e9e75d0	0.3094926
43	0x3e87503a	0.26428396
44	0xbec9c427	-0.39407465
45	0x3ebf5c71	0.37375215
46	0x3f0212a3	0.5080969
47	0xbad1e2b0	-0.0016012993
48	0xbcb18005	-0.02166749
49	0x3dca8ecf	0.0989052
50	0x3ee1d6ab	0.4410909
51	0xbee4f03b	-0.4471453
52	0x3ed35148	0.4127295
53	0xbec511c1	-0.38490108
54	0x3e2f6ff3	0.17132549
55	0xbf16cca1	-0.5890599
56	0xbe0dd642	-0.13851264
57	0x3e867ed2	0.2626863
58	0xbf2032d3	-0.6257755
59	0xbbab2c8d	-0.0052238167
60	0x3c51f228	0.012814082
61	0x3e835178	0.25648093
62	0x3eb7fec7	0.35936567
63	0xbe2717ef	-0.16317724
64	0xbe2b6908	-0.16739285
65	0x3e1e3546	0.1545001
66	0x3e73d8a3	0.23813109
67	0xbe6ab71f	-0.22921418
68	0x3e850b8e	0.25985378
69	0x3d7f030f	0.062258776
70	0xbde94e8f	-0.11391937
71	0x3daa989c	0.08329889
72	0x3e879975	0.26484266
73	0xbc9ca1a9	-0.019120054
74	0x3df85a86	0.12126641
75	0x3e792e27	0.24334012
76	0x3ee03516	0.437905
77	0xbf0ab085	-0.541756
78	0x3e84ca8c	0.2593578
79	0xbeebb132	-0.46033627
80	0x3e036afa	0.12833777
81	0x3f0c9fc2	0.5493127
82	0x3d400a29	0.04688469
83	0xbeb0e80f	-0.34552047
84	0xbd150554	-0.036382034
85	0xbe6a9e80	-0.22912025
86	0xbe2cd718	-0.16878927
87	0xbe37e257	-0.17957436
88	0xbd6c68bc	-0.05771707
89	0x3d767b9f	0.060176488
90	0xbf72ea34	-0.94888616
91	0x3efcc531	0.49369195
92	0x3e319237	0.17340933
93	0x3f21028d	0.6289452
94	0x3d3a406f	0.045471605
95	0x3f05787b	0.52136964
96	0xbed8e751	-0.4236398
97	0x3d9c0fa4	0.07620171
98	0x3ce4819a	0.02789383
99	0xbe636df2	-0.2220991
100	0xbe9e1eeb	-0.30882964
101	0xbedcb0f4	-0.43103755
102	0x3cdc5a2a	0.026898462
103	0x3da427d9	0.08015413
104	0xbec9f09a	-0.39441377
105	0xbef9fba0	-0.48824787
106	0xbe945538	-0.28971267
107	0xbdb85455	-0.0900046
108	0x3ea5f535	0.3241364
109	0xbe2bae41	-0.16765691
110	0x3e41b71f	0.18917511
111	0x3ee4c1d5	0.44679132
112	0xbdc86437	-0.097847395
113	0xbc152cc2	-0.009104909
114	0x3e8b7986	0.27241153
115	0x3f143520	0.5789356
116	0xbeed9319	-0.4640129
117	0xbd41b749	-0.047293935
118	0xbd99a79b	-0.07502671
119	0xbeaba02c	-0.3352064
120	0xbe0a404b	-0.13501088
121	0x3e7372ab	0.23774211
122	0xbe3c1440	-0.183671
123	0x3f0a5dcd	0.5404938
124	0x3ed7ad77	0.4212453
125	0xbec029fc	-0.37532032
126	0xbe9a7e0b	-0.30174288
127	0x3ea0463c	0.31303585
128	0xbece584b	-0.40301737
129	0xbecda739	-0.40166643
130	0xbe321fee	-0.17394993
131	0xbe1c7cc1	-0.15281965
132	0xbb1d6698	-0.002401745
133	0x3ea3089d	0.3184251
134	0x3f31d57c	0.69466376
135	0x3ea48309	0.32131222
136	0x3e614826	0.22000179
137	0x3a4910e8	0.0007670061
138	0xbdd080fd	-0.101808526
139	0xbefd8e67	-0.49522707
140	0x3e2eee79	0.17083158
141	0xbdfa8169	-0.12231714
142	0x3dbe9193	0.0930511
143	0xbea1bdbf	-0.31590077
144	0x3d9c8bcc	0.07643852
145	0xbf038bd2	-0.51385224
146	0x3dedd818	0.11613482
147	0xbe845c85	-0.25851837
148	0x3e0d98fe	0.13827893
149	0x3d008dff	0.031385418
150	0xbe336b0a	-0.17521301
151	0xbe62b3ab	-0.2213885
152	0xbdde9cdd	-0.10869763
153	0xbeafaee7	-0.34313127
154	0x3e1459eb	0.14487426
155	0xbe9822a1	-0.2971392
156	0xbe0d904e	-0.13824579
157	0xbdb0eb75	-0.0863866
158	0x3d5ee6f3	0.05441947
159	0xbe2d610c	-0.16931552
160	0xbe5bf008	-0.21478283
161	0xbe31a7e4	-0.17349201
162	0x3eaef11c	0.34168327
163	0xbe00c21c	-0.12574047
164	0xbebbb8fc	-0.3666457
165	0x3cf11dc8	0.029433146
166	0xbe93be85	-0.28856292
167	0x3edabe6c	0.42723405
168	0x3ef1ffd7	0.47265503
169	0xbe89c6e8	-0.26909566
170	0xbede6a7e	-0.43440622
171	0x3e718f5b	0.23589842
172	0xbe6302aa	-0.22168985
173	0xbeb9847b	-0.36233887
174	0xbd36b754	-0.04460843
175	0x3f1a88ad	0.603648
176	0x3dcdaffe	0.100433335
177	0xbde51c7c	-0.111870736
178	0xbe45b9eb	-0.19309203
179	0x3e88b8e3	0.26703557
180	0x3c8c7d6c	0.01714965
181	0x3eae0a9f	0.33992478
182	0x3e3797e1	0.17929031
183	0xbe664951	-0.22488905
184	0x3e8aebe9	0.2713311
185	0xbe75eefa	-0.24016944
186	0x3ded117a	0.11575599
187	0xbe4cc2ab	-0.19996135
188	0x3ef1b7a4	0.4721042
189	0x3ddecfcc	0.10879478
190	0x3e2aa801	0.16665651
191	0xbef98cea	-0.4874032
192	0x3e513e0d	0.20433827
193	0xbd89b4ab	-0.06723913
194	0xbe36efa1	-0.17864849
195	0xbdd24405	-0.1026688
196	0xbe8d2c6f	-0.27572963
197	0x3dbb74d0	0.091531396
198	0xbd9dad11	-0.076990254
199	0xbf0c09f3	-0.5470268
200	0x3e844f56	0.2584178
201	0xbe827aeb	-0.25484404
202	0xbe2a77f3	-0.1664732
203	0xbeffb10b	-0.4993976
204	0xbea60e80	-0.32432938
205	0x3eb1dd8a	0.34739333
206	0xbec809e0	-0.39070034
207	0xbd36319f	-0.044480916
208	0x3ec1fc30	0.37887716
209	0x3dd4dfcd	0.10394249
210	0xbed02bc1	-0.40658382
211	0x3e13ac81	0.14421274
212	0xbee2315f	-0.44178292
213	0xbf01eeb4	-0.5075486
214	0x3defb796	0.11704938
215	0xbc4f6b87	-0.012659914
216	0xbf035b5e	-0.5131129
217	0xbd1f375b	-0.03887115
218	0x3dcf2674	0.10114756
219	0x3e92ee2d	0.2869734
220	0xbf1ca040	-0.6118202
221	0xbde46bd3	-0.11153378
222	0x3ea032e2	0.3128882
223	0xbd923a5c	-0.071400374
224	0x3dcb3fa7	0.0992425
225	0xbe5bfe40	-0.21483707
226	0xbe5fb341	-0.21845724
227	0xbe48fb8c	-0.19627208
228	0x3ea5b683	0.32365808
229	0x3dcfe256	0.10150592
230	0xbe1509aa	-0.14554468
231	0xbeb069d0	-0.3445573
232	0xbe94162a	-0.2892316
233	0xbd68cbb7	-0.056834903
234	0xbeeaf903	-0.45893106
235	0x3eaa87eb	0.33306822
236	0xbe6f8b9c	-0.233931
237	0xbf276787	-0.65392345
238	0xbec906db	-0.39263043
239	0xbe61a2df	-0.22034787
240	0x3e6dff5d	0.23241945
241	0xbc86ac5e	-0.016439613
242	0xbf10770b	-0.56431645
243	0x3f13b3e0	0.5769634
244	0xbdc712b1	-0.09720362
245	0xbe81b775	-0.2533528
246	0xbeed1fd1	-0.46313336
247	0xbe981bb8	-0.29708648
248	0x3e6643e6	0.22486839
249	0xbe73a61e	-0.23793837
250	0xbef4839f	-0.4775667
251	0x3f3e5236	0.74344194
252	0x3e261c15	0.1622165
253	0xbdf28bb1	-0.1184305
254	0x3e0e3532	0.1388748
255	0x3e98010e	0.29688305

network_body._body_endoder.seq_layers.2.bias f4 [128]
0	0x3cb1d3c2	0.02170742
1	0x3b3afa32	0.0028530476
2	0x3ba14720	0.004921809
3	0x3c867929	0.016415196
4	0xbbbf6d3e	-0.00584188
5	0x3adb580a	0.0016734612
6	0x3c12cc49	0.008959838
7	0xbbc26aa1	-0.0059331213
8	0x3bb8c913	0.0056392043
9	0xbbaa59d2	-0.0051986957
10	0xbc677681	-0.014127375
11	0xbcd2ee82	-0.025748495
12	0xbc9ff03c	-0.019523732
13	0x3ac1bcf8	0.0014781049
14	0x3cc79187	0.024361385
15	0x3c235689	0.009969362
16	0xbc05c65a	-0.0081649665
17	0xbbaaa985	-0.0052081966
18	0xbc6a61bc	-0.014305528
19	0x3be443b6	0.0069660796
20	0xbc6f6ca9	-0.014613309
21	0x3c02f638	0.007993273
22	0x3ca285af	0.019839136
23	0x3b61d5b6	0.0034459657
24	0x3aa6de07	0.0012730964
25	0xbc192701	-0.009347678
26	0xbb770d1c	-0.0037697023
27	0xb8cfa9b3	-9.902138e-05
28	0x3c8021db	0.015641144
29	0x3c8bf39f	0.017083941
30	0xbbd97e55	-0.0066373744
31	0x3ae83eb3	0.0017718881
32	0xbc33257b	-0.010934229
33	0xbc9011a1	-0.017586531
34	0x3c0640ab	0.008194129
35	0xbbf3dd0a	-0.0074421214
36	0x3ca9343e	0.020654794
37	0x3cc1ce27	0.023657871
38	0x3ce85baf	0.02836403
39	0x3b33072f	0.0027317514
40	0x3c044294	0.008072514
41	0xbc758a39	-0.014986568
42	0xbb355901	-0.0027671459
43	0xbbd94581	-0.0066306
44	0x3c0d862f	0.008637949
45	0xbba24d19	-0.0049530384
46	0xbcb17ef0	-0.021666974
47	0xba0e47be	-0.00054275605
48	0xb9cd77b9	-0.00039189847
49	0xbb8c1ab4	-0.004275644
50	0x3b5aed76	0.0033405698
51	0x3b25c7e8	0.0025296155
52	0xbc5a9e81	-0.013343454
53	0x3cd2f753	0.025752699
54	0xbca01e59	-0.01954572
55	0xbc9d02f2	-0.019166443
56	0x3b84ef0a	0.004056816
57	0xbce61bb1	-0.028089376
58	0xbc010ed8	-0.007877074
59	0x3c2bf193	0.0104946075
60	0xbbd57068	-0.006513644
61	0x3c9e265c	0.0193054
62	0x3c2aaf90	0.010417834
63	0xbc5cae2a	-0.013469258
64	0x3c811bfe	0.015760418
65	0x38f0c079	0.000114799426
66	0xbc296bf7	-0.010340682
67	0x3c218a40	0.0098596215
68	0xbb39d556	-0.0028355918
69	0xbb042982	-0.0020166342
70	0x3cb8af65	0.022544572
71	0x3a963081	0.0011458547
72	0xbb80c67d	-0.0039299116
73	0xbc09e542	-0.008416476
74	0x3bdd4bb4	0.0067534093
75	0xbb896a38	-0.0041935705
76	0xbcdc0d06	-0.026861679
77	0x3c1927ea	0.009347895
78	0x3ced1fdc	0.028945856
79	0xbb9d1322	-0.0047935406
80	0x3cb65275	0.022256115
81	0x3c0f0a2c	0.0087304525
82	0x3bde1af4	0.0067781154
83	0x3acbaa1f	0.0015538371
84	0x369b7cec	4.633903e-06
85	0x3bf3c57c	0.0074393135
86	0x3c5df766	0.013547754
87	0xbb0c4b89	-0.0021407327
88	0x3c388aac	0.011263531
89	0xbc9183cb	-0.01776304
90	0x3c542bf9	0.012949937
91	0xbce17852	-0.027523194
92	0xbc218a84	-0.009859685
93	0xbcd3eeb4	-0.025870658
94	0xbc472089	-0.012153753
95	0xbcb91cb0	-0.022596687
96	0x3c06751b	0.008206631
97	0x3bcd1d01	0.006259561
98	0x3bb93455	0.0056519904
99	0xba7f00d6	-0.00097276026
100	0x3c3c7583	0.011502626
101	0x3b512733	0.0031914234
102	0x3c554abd	0.013018307
103	0x3a4df1aa	0.000785614
104	0xbbe6e452	-0.007046261
105	0x3c5adea9	0.01335875
106	0xbc609d23	-0.013709339
107	0x3c97132d	0.01844176
108	0xbbd1d7e2	-0.006403909
109	0xbc40e4aa	-0.011773268
110	0xb8b0dafa	-8.4331215e-05
111	0x3c9f5879	0.019451367
112	0xbc2bec69	-0.010493376
113	0x3c05524d	0.008137298
114	0xbc082f48	-0.008312054
115	0xbc462bb1	-0.012095378
116	0x3d4bbe99	0.049742315
117	0xbb308d55	-0.002693971
118	0x3c152356	0.009102663
119	0x3ba1f089	0.004942004
120	0xbc8afdbf	-0.016966699
121	0xbc289f56	-0.010291895
122	0xbbba8f2c	-0.005693337
123	0x3bdaaee2	0.0066736797
124	0x3b57278f	0.0032829975
125	0x3cc9705c	0.02458971
126	0x3bac0f76	0.0052508665
127	0x3c64f193	0.013973611

network_body._body_endoder.seq_layers.2.weight f4 [128, 128]
0	0xbe012852	-0.12613037
1	0x3d8e3d8c	0.06945333
2	0xbbecde92	-0.007228681
3	0xbe26838d	-0.1626112
4	0xbd6c7288	-0.057726413
5	0x3da96e80	0.08273029
6	0xbd2806f0	-0.04102224
7	0x3df1a61a	0.117992595
8	0xbb8e5244	-0.004343303
9	0xba29d839	-0.0006479058
10	0xbc96acf3	-0.018393015
11	0xbdb5b9ec	-0.088733524
12	0x3c871f64	0.01649446
13	0xbc4aabe1	-0.012370081
14	0xbcf6f822	-0.030147616
15	0x3d694127	0.0569469
16	0xbc9e7637	-0.019343479
17	0x3d59fe4c	0.053221032
18	0x3be07500	0.006849885
19	0x3cb3297e	0.021870371
20	0x3dae74ae	0.08518349
21	0x3dc7cba3	0.097556375
22	0xbd22f5ac	-0.039785072
23	0xbde8d7cb	-0.11369284
24	0xbd649940	-0.055810213
25	0xbdd2c550	-0.102915406
26	0xbcbedc9c	-0.023298554
27	0x3c41a640	0.011819422
28	0x3de2245b	0.110420905
29	0xbbea2ee4	-0.007146703
30	0xbdc18b21	-0.09450365
31	0xbde39826	-0.111130044
32	0x3db54df1	0.08852757
33	0xbc871229	-0.016488152
34	0xbdaa61c2	-0.08319427
35	0xbe28b00c	-0.16473407
36	0xbe0fe811	-0.1405337
37	0x3df77772	0.12083329
38	0xbb2627aa	-0.0025353231
39	0x3dbfc0c4	0.09362939
40	0x3bdbf9ae	0.0067131137
41	0x3dcfd854	0.10148683
42	0xbd111611	-0.035421435
43	0xbd252822	-0.040321477
44	0xbde6a078	-0.11261076
45	0x3dd532b1	0.10410059
46	0x3b333b28	0.0027348492
47	0x3d993716	0.0748121
48	0xbc99ab60	-0.018758476
49	0xbdb24dfe	-0.08706282
50	0x3dcd572d	0.10026393
51	0x3c9a4bee	0.018835034
52	0xbd1897eb	-0.037254255
53	0xbdf34c5a	-0.11879797
54	0xbdce312d	-0.10067973
55	0x3c5b0183	0.01336706
56	0xbd2c53dd	-0.042072166
57	0xbd97a8a4	-0.074052125
58	0xbda288d3	-0.079362534
59	0xbd63b916	-0.055596434
60	0x3d5f7481	0.054554466
61	0x3e122a7f	0.14274023
62	0xbc5bccaa	-0.013415495
63	0xbd04f32f	-0.03245848
64	0x3dd864a9	0.105660744
65	0x3cee21ef	0.029068915
66	0x3be202e6	0.006897318
67	0x3e769dec	0.2408368
68	0xbc343d9b	-0.011001016
69	0xbdab4175	-0.08362094
70	0x3e74efe4	0.23919636
71	0x3daaddce	0.08343087
72	0x3d0bc777	0.03412577
73	0xbdb67cab	-0.08910497
74	0x3e3b3dba	0.18285266
75	0xbd4ed156	-0.050492607
76	0xbdb79102	-0.08963205
77	0x3ddcb9b5	0.10777608
78	0xbd4aa508	-0.049473792
79	0x3dc48286	0.09595208
80	0x3c4a5d66	0.0123513695
81	0x3df02736	0.11726229
82	0x3d7de769	0.061988268
83	0xbd9c2f48	-0.07626206
84	0x3d5df1df	0.054185744
85	0xbe25c71d	-0.16189237
86	0xbdfe72fa	-0.12424274
87	0xbdd492e1	-0.103795774
88	0xbe579747	-0.21053801
89	0x3d4f1a73	0.050562333
90	0x3d019561	0.0316366
91	0xbce36354	-0.027757324
92	0xbcb6fe5f	-0.02233809
93	0x3d417ba4	0.047237054
94	0x3abb3546	0.0014282844
95	0x3e090bc8	0.133834
96	0xbd8d832b	-0.06909784
97	0xbe4be7d6	-0.19912657
98	0xbc939b6f	-0.018018452
99	0xbbee7649	-0.0072772843
100	0x3e1aa636	0.15102467
101	0x3c131896	0.00897803
102	0x3d7ad413	0.061237406
103	0xbdb47df4	-0.08813086
104	0xbb7b52e4	-0.0038348967
105	0xbd135b0c	-0.0359755
106	0x3de7ed88	0.11324602
107	0xbd3241af	-0.043519672
108	0xbda866eb	-0.08222755
109	0xbd68be80	-0.0568223
110	0x3cf90bba	0.0304011
111	0x3dc39efe	0.0955181
112	0xbd666011	-0.05624396
113	0xbd735bee	-0.059413843
114	0xbd42da8c	-0.047571704
115	0x3e4af106	0.19818506
116	0xbdd37c29	-0.10326416
117	0x3e4a41d5	0.19751675
118	0x3cb0338d	0.021508956
119	0xbd89bc1e	-0.06725334
120	0x3b9e648e	0.0048337644
121	0x3d93f9ec	0.07225403
122	0x3deb0669	0.11475832
123	0xbd8e0204	-0.06933978
124	0x3d95a9ba	0.073077634
125	0xbe37f32f	-0.17963861
126	0x3d35515a	0.044267036
127	0x3d9947bd	0.07484386
128	0xbe03e1bc	-0.1287908
129	0xbd81ba05	-0.063343085
130	0x39e2cfbb	0.0004326085
131	0x3d1e86c4	0.03870274
132	0x3d1e1992	0.038598605
133	0x3c32adfb	0.010905738
134	0x3d3ad396	0.04561194
135	0xbd54cbf5	-0.05195232
136	0xbba11e8a	-0.0049169706
137	0x3c871d8a	0.016493578
138	0xbe4d4154	-0.20044452
139	0x3da91c5f	0.082573645
140	0x3d210106	0.039307617
141	0x3dcbbedd	0.09948514
142	0xbdd2d6d8	-0.102948844
143	0x3c82bc02	0.01595879
144	0xbd0a2e76	-0.033735715
145	0xbe5bb255	-0.21454747
146	0x3cc6897f	0.024235485
147	0xbc954445	-0.01822103
148	0xbd46363e	-0.048391573
149	0x3d211f86	0.039336704
150	0x3ca31d7b	0.019911518
151	0xbda7726e	-0.081761226
152	0xbdbc0930	-0.0918144
153	0x3c82274f	0.015887884
154	0xba206fb3	-0.000612016
155	0xbcbdfb37	-0.023191078
156	0x3caf9a9f	0.021436034
157	0xbd9aa4eb	-0.07550987
158	0x3d0d83ce	0.034549527
159	0x3df19b1c	0.11797163
160	0xbc71b394	-0.014752287
161	0x3b008092	0.0019607884
162	0xbb5b6e9a	-0.0033482672
163	0x3d6df43d	0.058094252
164	0xbd592018	-0.053009123
165	0x3d595131	0.053055946
166	0xbc866cec	-0.01640936
167	0x3c8c220b	0.017106077
168	0x3d4916bb	0.049093943
169	0xbd24b21c	-0.04020892
170	0x3e779116	0.2417644
171	0x3de1b050	0.11019957
172	0x3d0d1061	0.03443945
173	0xbd35c183	-0.044374
174	0xbd8c744f	-0.068581216
175	0xbd53b5cf	-0.051687058
176	0x3a7eafd3	0.0009715531
177	0x3d123c5a	0.035702087
178	0x3dc88433	0.0979084
179	0x3c57107d	0.01312649
180	0xbd8ccd79	-0.06875128
181	0x3de5c10a	0.1121846
182	0xbe3ccc7f	-0.18437384
183	0x3dda9fcf	0.10675012
184	0xbd7f8c82	-0.062389858
185	0x3d0514f2	0.032490678
186	0x3ded0eda	0.11575098
187	0xbcf8493a	-0.030308355
188	0x3d4bb309	0.049731288
189	0x3e049ba0	0.12949991
190	0x3d48d89f	0.04903471
191	0x3c5a89a9	0.013338485
192	0xbc994d76	-0.018713694
193	0x3e1a8554	0.15089923
194	0x3d59e63f	0.053198095
195	0x3c897259	0.016778158
196	0xbcc2567e	-0.023722883
197	0xbd98a3ab	-0.07453092
198	0xbde9d832	-0.11418189
199	0xbde630d6	-0.112397835
200	0x3c627ac1	0.013823212
201	0x3ce90b86	0.028447878
202	0x3de08db7	0.1096453
203	0x3dd446e9	0.103650875
204	0xbdb818ad	-0.089890815
205	0x3dde4e88	0.108548224
206	0xbbab4bc3	-0.0052275374
207	0xbe012786	-0.12612733
208	0xbd7fb57a	-0.06242893
209	0xbe0545cc	-0.13014907
210	0x3de70ce6	0.11281757
211	0xbdc4c889	-0.096085615
212	0x3b7e8e1e	0.0038842033
213	0xbe0d3a82	-0.1379185
214	0x3de2097a	0.11036964
215	0xbd1ab564	-0.037770644
216	0xbd2ed83d	-0.04268669
217	0x3e049bf8	0.12950122
218	0x3d89387f	0.06700229
219	0xbd47ed55	-0.04881032
220	0xbe2aae62	-0.16668084
221	0x3ddcf590	0.10789025
222	0xbd5815f9	-0.05275533
223	0xbe121ee4	-0.14269596
224	0xbdd89e0d	-0.10577021
225	0xbd98a523	-0.07453372
226	0xbd678072	-0.05651898
227	0x3ca6c5ad	0.020357931
228	0xbda1f80b	-0.079086386
229	0xbce5f1ad	-0.028069342
230	0xbe04f77c	-0.12985033
231	0xbde26e0c	-0.11056146
232	0xbd28dfac	-0.041228935
233	0x3e29d71b	0.16585962
234	0x3bac433d	0.005257039
235	0x3db6592c	0.08903727
236	0xbbac5b48	-0.005259905
237	0xbd2b147a	-0.041767575
238	0x3ce85517	0.028360886
239	0xbe1a39b1	-0.1506107
240	0x3dac3d93	0.08410182
241	0xbde1eaf7	-0.11031144
242	0xbd60e2d7	-0.05490383
243	0xbdadcbfd	-0.08486173
244	0x3db07217	0.08615511
245	0x3e06646f	0.1312425
246	0xbe0df824	-0.1386419
247	0xbe1b90a0	-0.15191889
248	0xbddfde4a	-0.1093107
249	0x3d096fb5	0.033553798
250	0xbd860027	-0.06542998
251	0x3ce9956e	0.028513636
252	0xbe0a6289	-0.1351415
253	0xbce6a0dc	-0.028152876
254	0xbe29d7a4	-0.16586167
255	0x3c9c162c	0.019053541
