results/ppo/Hide/Hide-2999968.pt (torch, 456095 bytes, 36 tensors)

network_body._body_endoder.seq_layers.0.weight f4 [128, 11]
00000000: f3a0 6c3e 82e2 373e 3d7e 933e 0f94 d93e
00000010: afb8 ebbe d205 703e 25e2 03bd 5a3f 23be
00000020: 710d b2be 2a34 423e 9de7 873d 0c3b b7bd
00000030: 9e42 abbe 1e48 2dbc 1120 8dbe 881b 4d3e
00000040: 37a5 183e b579 a4be df5f 163e 79f7 043f
00000050: 3503 aabd 5cbd c8be 05df 8d3d 32d9 133e
00000060: f45f 153e bb13 a03e d744 fcbe f829 14be
00000070: e4d9 17be 07d3 bf3e 5699 293e 5aa7 5a3e
00000080: 0a44 a1be f49b 5bbe cc51 3cbe 4dcf 8e3e
00000090: d934 e73d aef2 e43d 586a c4bb 2cd0 3b3b
000000a0: edb4 dabe a3be 583d a4b9 afbe f062 bebe
000000b0: 561f 92bd e9de 2abe 863e 01bf 48ea e63d
000000c0: 84e9 4ebd fe92 12be 2fd2 d9bd 32a8 5a3e
000000d0: 1024 0bbf bc46 25be 0e10 513e 00a0 0c3f
000000e0: 906c 81be bfb6 bbbd ddcc 52bc 5f51 35be
000000f0: 6660 fabc 0893 363e 84dd 93be ca43 7ebe
00000100: fac8 9b3e fe55 fb3d 4cf1 063e 32f6 78bd
00000110: c8af 5c3e b0e4 093c 1549 8f3e 2d2b 103f
00000120: ba31 e93e 0986 c33e 2908 963d 1aee 9b3e
00000130: 9d41 9b3e 5cea 543d 3105 8fbe 6317 57be
00000140: 596a 54be 6782 d6be c4d0 1a3e 89b1 163d
00000150: 6fb2 0d3e 17d9 bcbe c168 b03b 3b46 1bbf
00000160: 26eb b8be b059 b4be 2eed 89bd a47f 913d
00000170: e7d9 d33e 20e1 bc3d 4482 0abc 520a c53d
00000180: a4b9 7abe a578 303d b8c6 a4be b262 f73d
00000190: 6937 5bbe 326a f43e 4d9c 8bbd b677 81be
000001a0: ff80 14b9 6775 a83e 2fe1 313c a425 0cbe
000001b0: d3fc 4dbe 29f2 51be 6c10 38be 54d2 89be
000001c0: bc56 5cbe 50ff f4be 005d 79bd 87b6 bfbe
000001d0: 0a93 c0bd 017d 533e b492 86bc 45f1 19bf
000001e0: b682 d33d aa7c b7bc b912 ee3d 658e 043e
000001f0: 40c3 adbe 054a b43e ef9e 7f3e 0f73 aa3c
00000200: fafb abbd 8a00 e7bd 2494 20be 3ca4 17be
00000210: 5003 79be f0a1 80be d7d9 cebc 616e 2d3e
00000220: 4bfe 58be bcf5 07be 7aa6 71bd 0eff aebc
00000230: 394a 2fbf 60e2 31bc 693c 46be e947 61bd
00000240: d0da 403e 8e43 14be e8ad a2be 43f6 2b3e
00000250: 13be 25bc bc2f bf3e 0def 793e fe33 7a3e
00000260: 3f9f ef3e dc86 8b3d 2a34 9d3d af10 a7ba
00000270: db55 d6be 519f 803a 952b 11be 1664 7d3e
00000280: f9f7 fabd 7e7f 9f3d 33cc b7bd 9c36 2c3e
00000290: a664 76be 4e2f babd 6b69 4d3e b3cc f7ba
000002a0: 666b 643e 38ef 6ebe b398 333d f097 e9bd
000002b0: 4d41 c9bd 7ca2 77be 5696 aebd f25e 213c
000002c0: 9e04 34bf 8251 e23c 88f1 a3be 5be0 d5bd
000002d0: de2e a0bd 1b2e fbbe 39b4 02be f13f b53d
000002e0: caea cf3e 7039 0e3e 3162 9abe e271 ed3e
000002f0: e65c bd3e fc73 613e dbad 24be 0c09 5cbf
00000300: 59ff c13e c5d0 ab3e 6351 b9be 7f76 4ebe
00000310: 2eaa 443d 538b ad3e 271b db3d 2f1f 83be
00000320: 518e c93e d450 5abe e9fb e8bd b90c e8bd
00000330: a3df 1dbd 392f 04be 42e3 413e a1f7 12be
00000340: 87f1 e1be db22 0c3f 6d40 1dbe 926e 723e
00000350: 8089 a93d ef34 163f 4829 5fbd 9e77 4f3e
00000360: 4158 073e b57a 0b3d 57e5 ca3d 983b 523e
00000370: 5391 5abe 949e b13d ac24 173e 1c3a f23d
00000380: bf8e ffbe 2a43 19be 237f c33e 448d 3cbe
00000390: 583d a13d e7f2 98bd 4445 953e ee99 873b
000003a0: ed9c 44be 1739 b8bb 51c3 293e b591 16be
000003b0: 1e6d edbe ad81 64be 4108 cbbd ce79 2bbe
000003c0: e85e c43c c0e5 54bf 093f fdba 2164 ab3e
000003d0: 9919 a43e 5e1c dabd 61bb 4cbe ca79 ae3e
000003e0: 68dc ca3d 0c24 57be 288c 253e 4127 a9be
000003f0: 72e6 153f 9415 9cbe f3ce a7bb c969 f5bd
0.23108272 0.179575 0.2880725 0.42495772 -0.4603934 0.2343972 -0.03219809 -0.15942135
-0.3477588 0.18965212 0.066359736 -0.08946809 -0.33449262 -0.010576276 -0.27563527 0.20030034
0.14906774 -0.32124105 0.1468501 0.51940113 -0.08301393 -0.3920697 0.06927303 0.14438322
0.14587384 0.31265053 -0.4927127 -0.14469135 -0.14829212 0.3746569 0.165624 0.21352902
-0.31497222 -0.2144621 -0.18390578 0.27892533 0.11289377 0.111791 -0.0059941225 0.0028658016
-0.4271616 0.05291618 -0.3432132 -0.37184858 -0.07134883 -0.16686596 -0.5048603 0.11275154
-0.050515667 -0.14313886 -0.106357925 0.21353224 -0.543519 -0.16140264 0.2041628 0.5493164
-0.2527814 -0.091657154 -0.012866226 -0.17706822 -0.030563544 0.17829525 -0.2887994 -0.24830547
0.3042677 0.12272261 0.13177985 -0.060781665 0.2155143 0.00841634 0.27985445 0.5631588
0.4554575 0.38188198 0.07325775 0.30455095 0.30323496 0.051981315 -0.27933648 -0.21005015
-0.20743693 -0.41896364 0.151187 0.036790404 0.13837598 -0.36884376 0.0053835814 -0.6065404
-0.36116904 -0.35224676 -0.067346916 0.07104424 0.41377184 0.09222627 -0.008453909 0.09621109
-0.24484879 0.043083806 -0.3218286 0.120793715 -0.21407856 0.4773727 -0.068169214 -0.25286645
-0.00014162435 0.3290207 0.010856911 -0.13686234 -0.20115976 -0.20502533 -0.17975014 -0.2691828
-0.21517462 -0.47851038 -0.060879707 -0.37443945 -0.094030455 0.20653154 -0.016427375 -0.60133773
0.103276655 -0.022398312 0.11624665 0.12944944 -0.33938026 0.35212722 0.24962972 0.020806817
-0.0839767 -0.112794 -0.15681511 -0.14808744 -0.2431767 -0.25123549 -0.025250359 0.16936637
-0.21190755 -0.13277334 -0.058996655 -0.021361854 -0.6847263 -0.010857195 -0.19358982 -0.05500022
0.1883347 -0.14478895 -0.31773305 0.1679316 -0.010116118 0.37341106 0.24407597 0.24433896
0.46801183 0.06812832 0.07675965 -0.0012746061 -0.41862378 0.0009813105 -0.14176781 0.24745211
-0.12254328 0.07787989 -0.08974495 0.16817707 -0.24061832 -0.09091054 0.20059745 -0.001890561
0.22306594 -0.23333442 0.043846797 -0.11405933 -0.09826908 -0.24183077 -0.08524768 0.009849297
-0.70319545 0.027626757 -0.3202021 -0.10443183 -0.07821439 -0.49058613 -0.12764062 0.088500865
0.40608817 0.13889098 -0.3015304 0.46375948 0.36984938 0.22016901 -0.16081946 -0.85951304
0.37890127 0.33557716 -0.36194906 -0.2016239 0.04801386 0.33895358 0.10698538 -0.2560973
0.3936639 -0.21319896 -0.11376173 -0.11330552 -0.038543355 -0.12908639 0.18934348 -0.14352275
-0.44129583 0.54740685 -0.15356608 0.23674992 0.08278179 0.5867452 -0.05448273 0.20260474
0.1321726 0.03405257 0.09907024 0.20530546 -0.213445 0.086728245 0.14760083 0.1182749
-0.49913594 -0.14967027 0.38182935 -0.18413264 0.078730285 -0.07468205 0.29154408 0.004138223
-0.19200487 -0.00562204 0.16578414 -0.1470402 -0.46372312 -0.22315092 -0.09913684 -0.16745684
0.023971036 -0.8316307 -0.0019321154 0.3347483 0.3205078 -0.10649942 -0.19993354 0.34077293
0.099053204 -0.21009845 0.16166747 -0.3303776 0.58554757 -0.30485213 -0.005121106 -0.119830675

network_body._body_endoder.seq_layers.0.bias f4 [128]
00000000: 4573 a0bd 2e27 0f3c cf28 483d b527 90bc
00000010: 445a 96bc c306 b4bb 625f 783c 70b2 0dbd
00000020: e7d5 e4bc 4183 10bd 9ead db3b ea57 30bd
00000030: 3644 71bd c10f 513d 3715 94bc fe57 b43c
00000040: 7eed 7fbd a198 13bd d92a 33bd af74 a0bd
00000050: f6cc 27bc 0eca 2dbd caa8 653d b289 113c
00000060: a746 5abc 7c51 6c3d a32e b53b 7390 aa3c
00000070: 4323 213c 4075 81bc e129 d9bc 8951 793c
00000080: b127 d43c cc0a d5bd 199b 003c dff2 1bbd
00000090: f5d4 bdbc d0b1 a63c 9060 5dbd 3b63 0e3d
000000a0: 56e6 d53c 0a3a 0b3d 5d3a e33c 6a7a e73c
000000b0: 2da5 5b3d 8e03 283c 523e 97bc da93 1abd
000000c0: 3945 51bd 0707 abbc a60d b63c 7d0a 17bd
000000d0: 94c4 173d feb6 d5bb 8a3c 9c3c 5000 4bbd
000000e0: 778b 5dbc 1985 033d 8720 80bd be22 eabc
000000f0: 11d5 033c be0d 0cbd 8a67 83bd adc1 403d
00000100: 604e ea3b 343f 33bc 8d66 9c3d 5284 d03c
00000110: 8fbe 71bc 9af8 9c3c e608 14bd bf19 2bbd
00000120: 6e12 76bc cf1e 663c e258 62bd b59a 1d3d
00000130: fd39 9cbd 77e1 22bd 67fe 363a 70f9 373d
00000140: 12b9 03bd 0012 1cbd 29d0 ea3c 1c26 f83c
00000150: 1584 b93b 27c1 7ebc 2834 2f3d e99e 5a3d
00000160: 639b 72bc 026f 303c e943 0c3d 50e7 7f3d
00000170: 7b5d 95bd 9009 ff3c 2cdd 3ebc 7b30 3e3b
00000180: c702 25bc 28d9 0ebc 49cb ddbc 75cd 0abc
00000190: 9181 80bd 331e 4b3d c114 7dbd 4a7b 1dbd
000001a0: bc11 16bd a76d 4e3d ef3c 123c d379 06bd
000001b0: 85d4 eb3c 5a1e a53d e1cc 673c a775 913c
000001c0: 9fd0 70bd 6087 a23c 2b94 d9bc a551 043d
000001d0: 2536 12bd 6a40 5a3d 3adc a4bd 78d8 cdbb
000001e0: 9f15 4dbd ded2 94bb 9b8d 0b3d 7e97 8d3c
000001f0: fe6d 03bd dcb3 123d 4ed6 45bb 8cfd 843c
-0.07834486 0.0087373685 0.048867043 -0.017597059 -0.018353589 -0.00549397 0.01515946 -0.034594
-0.027934028 -0.035281423 0.0067040464 -0.04305259 -0.05890294 0.051040415 -0.018076522 0.022014614
-0.06248235 -0.03603423 -0.043742035 -0.07834756 -0.010241738 -0.042429022 0.056069173 0.008882927
-0.013322509 0.057694897 0.005529241 0.020820832 0.009835067 -0.01580298 -0.026509227 0.015217193
0.025897833 -0.1040245 0.007849478 -0.038073417 -0.023172835 0.02034846 -0.054047167 0.034762602
0.02611081 0.033990897 0.02773779 0.028256614 0.05362432 0.010254754 -0.018462334 -0.03773866
-0.051091406 -0.020877374 0.022223305 -0.036875237 0.037052706 -0.0065220585 0.019071836 -0.049560845
-0.013522021 0.032109354 -0.06256204 -0.02858102 0.008046404 -0.034192793 -0.06416233 0.047059704
0.0071504563 -0.010940362 0.076367475 0.02545372 -0.014754905 0.019161511 -0.0361413 -0.0417726
-0.015019042 0.014045431 -0.055260547 0.03847762 -0.07628248 -0.0397658 0.0006980658 0.044915617
-0.03215892 -0.038103104 0.028663712 0.03029161 0.0056614974 -0.015548981 0.04277435 0.053374205
-0.014807555 0.010768654 0.03424445 0.062476456 -0.072932206 0.03113249 -0.011649411 0.0029020596
-0.010071463 -0.008718766 -0.027074473 -0.008471836 -0.06274713 0.049589347 -0.06178737 -0.038447656
-0.036638007 0.05039754 0.0089256605 -0.032831024 0.02878786 0.0806243 0.014147968 0.017756296
-0.058792707 0.019839942 -0.02655991 0.032304425 -0.035696167 0.053284086 -0.080498174 -0.0062819086
-0.050069448 -0.004541739 0.034070592 0.017284151 -0.03208732 0.03581606 -0.003018755 0.016234182

network_body._body_endoder.seq_layers.2.weight f4 [128, 128]
00000000: f52c fdbc 62de 82bc 6982 9dbd 3520 29be
00000010: 4556 553e edbc d53d 65c8 0c3e a214 123d
00000020: 9f7d 06be e72f e73d 82c3 24bc 6c6f 203d
00000030: 9884 9cbc dfbe 1bbe 9f29 313e 607d 55be
00000040: 8545 683e e32e f83d c520 2c3e 8b3b a53d
00000050: 3c8d 043e 265e 9abd 36ea c13c 63dd fd3c
00000060: 615b eb3d 7368 173d 1501 3bbd af09 15be
00000070: 7e5f 56bc a967 863c 1eda c23b 6035 edbb
00000080: a253 e43d 6ae4 c4bd ed8a 753d cabf 8d3b
00000090: 7936 8c3d 446b d33d 2765 783e e76c 3abd
000000a0: 615b 35bc 5bd6 913d c3f1 5bbd 44ad a1bd
000000b0: 936e 97bd e156 57bb abe8 a2bd 8f18 fabb
000000c0: 2f60 8d3b bbec 14be 3810 de3c 754f be3c
000000d0: 8e84 dd3c 8c19 f73c 42ac 29bd 4f4c 9e3d
000000e0: fa55 09be e865 b83d 793a 9c3d 30db a2bd
000000f0: 74c7 283e 543f 8b3d 87bd 1d3b 2901 adbc
00000100: 6e33 9fbd 2044 08be 41cf a5bd cd5c 083d
00000110: 20af 09bc ec4d 073e 937d 3f3d 50a1 94bb
00000120: 6742 b4bd dccb afbc fecf c53d 9cbc 4dbe
00000130: 0c0c 2bbe e939 4f3d 9f33 adbd 66a9 1e3c
00000140: 3cf3 6cbc e96a 86bd 178a 91bd bb2c 673c
00000150: 9e6e bebc 50cf 20bd 8e39 633d d2c7 89bd
00000160: b1f8 31bd a7ca 01bd c0c7 0dbe 6fd2 a0bb
00000170: 1ba8 60bd 8b5b 92bd 4b76 e73d 9121 913d
00000180: e50c 27be c524 a53d 2ce9 9bbb 8a3d 253d
00000190: 7b76 103e 17f0 bebd 1558 a1bd fb34 3e3d
000001a0: a0db a43d 2271 47bd 95cb 32bd c95b a2bd
000001b0: b7ab ba3d 6d8f 4a3e 32ec 35be 15ad 24bd
000001c0: ce1d a03d 85aa f33c 3a8a b23d 7682 f7bd
000001d0: f3f0 d4bd 7dcc 0dbe 23e4 81bc 2ebc 82bd
000001e0: 0aa9 32be f9e2 f0bd 5efa 27be 3d05 f7bd
000001f0: f284 823c 7e4c ff3d 9770 1bbb b38b 4cbe
00000200: 0541 2f3e 837e 843d c925 963d f0af d13c
00000210: 28a1 b73d 1af5 673c 8e3d 3ebd 4f08 f03d
00000220: e0ed 8bbe 46bd a93d 3cfa f33d 0653 7cbd
00000230: 4a92 81bd d525 37bd 80c4 423c 69cd b9bd
00000240: c3ce a4bd ac6e d03d 792e b53d 9ea4 f53d
00000250: a330 89bd 4160 e93d c298 2b3d e64a d2bb
00000260: 0f39 263d 9843 96bd e3dc 6a3d 806f c93d
00000270: fc86 77bd 13af c63c 892a 523c 45f0 c5bd
00000280: 5979 08be 7a92 03bd 4a4b a83d 2b4a fcbd
00000290: ce68 1c3e 6373 ff3c 6283 ed3c c904 6ebc
000002a0: 97c1 9bbd 8f78 81be d808 8bbd c915 53be
000002b0: 7cab 3b3d 2782 cabc 1b9a ee3b d3ec 1ebe
000002c0: 0152 21be e4fb 8dbe 111b f5bd c578 0fbe
000002d0: 9505 0fbd f7c2 cb38 c230 613c e165 a5bd
000002e0: 1faa 2c3e 0c86 43bd 72c0 ee3b 12a7 093e
000002f0: 3623 7c3d 8af9 87bd 630a 563c 161e 71bd
00000300: b690 ebbc 601e 99bd 5cdc 9dbe 9d74 1bbe
00000310: aa7d cbbc 5908 623d 65f0 dbbd c0eb 44be
00000320: 676e a9bd 8b65 1dbd 58e2 e4bc daa0 28bd
00000330: 7d80 d5bd 495a 823d 6a8a 8abd feaf c33c
00000340: c0cf c5bd e2ca 79be b06f d53c 4d63 4c3d
00000350: f67c 723d 0b8f 1abd 23bf a73b 205d c1bd
00000360: 709e 5f3e 0b4f 6fbe e4ad d93c f062 c33d
00000370: fa78 ba3c 9ba3 c83d 7e46 41bc 7f2e 173e
00000380: 0fa4 a13c 6b70 5a3d 143e 70bb 82d1 08be
00000390: d9df 1cbe 2552 acbb 7ae5 87bd 5797 783d
000003a0: 3c09 e6ba 5b7d 21bd 6af8 fdbd 396a 853d
000003b0: 4a07 d1bd 2984 d938 e520 0bbe afca b03d
000003c0: dc90 ea3c 21cd 9c3d 18a8 0c3e 2fd0 103c
000003d0: 373e 143e c884 82bd 1c6c d73d 183d 5bbd
000003e0: ce93 94bd 4464 463d 928a 66bc 59fc fbbc
000003f0: bf86 b4bd 9cd8 4bbd a18b 23be 8b28 cc3d
-0.030905226 -0.015975181 -0.076908894 -0.16516192 0.2083369 0.10436425 0.1374832 0.03566421
-0.13133858 0.112884335 -0.010056378 0.03916876 -0.019106194 -0.1520953 0.17301033 -0.20848608
0.2268277 0.12118318 0.16809376 0.080679975 0.12944502 -0.07537489 0.02367125 0.030989354
0.114920385 0.036964845 -0.04565533 -0.14554475 -0.013084291 0.01640685 0.0059464118 -0.007239029
0.11148764 -0.09613879 0.059946943 0.0043258416 0.06846327 0.10323194 0.24257337 -0.045514014
-0.01106915 0.07120963 -0.05369736 -0.07894376 -0.07394137 -0.003285818 -0.07954534 -0.007632322
0.0043144445 -0.1454343 0.027107343 0.023231247 0.027040746 0.030163549 -0.041424043 0.077293985
-0.13411704 0.09003812 0.0762834 -0.07951963 0.16482335 0.06799188 0.0024069266 -0.021118717
-0.07773481 -0.13307238 -0.08096171 0.033291627 -0.008403569 0.13213319 0.046750616 -0.0045358315
-0.08801728 -0.021459512 0.09658812 -0.2009148 -0.16703814 0.050592337 -0.084571116 0.009683942
-0.0144622885 -0.0656336 -0.07106417 0.014109786 -0.023246106 -0.03926021 0.05547481 -0.06727566
-0.04345006 -0.031687405 -0.1384573 -0.004907898 -0.054847818 -0.07146367 0.113018595 0.070864804
-0.16313513 0.08063654 -0.004758021 0.04034189 0.14107697 -0.09323137 -0.078781284 0.046437245
0.08049703 -0.048691876 -0.043651182 -0.07927663 0.09114783 0.19781275 -0.17765883 -0.040204126
0.07818185 0.029744396 0.08717771 -0.1208543 -0.1039752 -0.13847537 -0.015855854 -0.06383549
-0.17447296 -0.117620416 -0.16404101 -0.12061546 0.015932534 0.124657616 -0.0023718232 -0.19975166
0.17114647 0.06469443 0.07331426 0.025596589 0.08966285 0.014157558 -0.046445422 0.11720335
-0.27329922 0.08288054 0.11912963 -0.061602615 -0.063267305 -0.044713814 0.01188767 -0.09072382
-0.08047249 0.10177359 0.088467546 0.11994289 -0.0669873 0.11395312 0.041893728 -0.00641762
0.04058176 -0.07337111 0.05733956 0.0983572 -0.060431466 0.024253404 0.012827524 -0.096649684
-0.1332754 -0.032122113 0.08217485 -0.12318834 0.15274355 0.03118295 0.028993312 -0.014527508
-0.07605284 -0.2528729 -0.06788796 -0.20613779 0.045817837 -0.024720265 0.0072815544 -0.15520029
-0.15753938 -0.2773124 -0.11968053 -0.14010914 -0.034917433 9.716109e-05 0.013744535 -0.080760725
0.16861771 -0.04773526 0.007286125 0.13442639 0.061557017 -0.06639393 0.013064 -0.058866583
-0.028755527 -0.07476497 -0.30832183 -0.15181203 -0.024840195 0.055183742 -0.10739211 -0.19230556
-0.08273011 -0.038426917 -0.02793996 -0.041169025 -0.10424898 0.06364877 -0.06764682 0.02388763
-0.09658766 -0.243938 0.026054233 0.049899388 0.059201203 -0.037734073 0.005119221 -0.0944159
0.21837783 -0.23369996 0.026572175 0.09540355 0.022762764 0.0979683 -0.011796592 0.1476383
0.01973155 0.053329866 -0.0036658095 -0.13361171 -0.15319766 -0.005258816 -0.06635566 0.060691204
-0.001755036 -0.03942619 -0.12400897 0.06514401 -0.102064684 0.00010371983 -0.13586767 0.08632409
0.028633527 0.07656313 0.13735998 0.008838697 0.14476858 -0.06372982 0.10518667 -0.05352506
-0.07254754 0.048435465 -0.014071124 -0.030759977 -0.08814763 -0.04976712 -0.15971233 0.099686705

network_body._body_endoder.seq_layers.2.bias f4 [128]
00000000: 1671 32bc 81af 8fbd 0655 4d3d 0227 5f3d
00000010: 0fa8 2a3d bd43 9a3a a093 9a3d fe13 163d
00000020: 8140 953b 6d3c 3abc 361c 463d 47ef 02bc
00000030: 2213 8bbc 1868 f2bc 1045 15bd 9a8f 143c
00000040: b54c 2fbd cb48 0ebc 3870 1d3c cab2 8f3c
00000050: 2718 7d3c 6517 6c3d 7b6d 73bd 52f9 eabc
00000060: 761c 883d 8636 953c 3517 64bc 1330 c83c
00000070: c384 353c c901 103d 9042 cbbb 3579 97bd
00000080: 008c a53c 82db 8a3c fd8b 473d b033 5dbc
00000090: ce93 38bd 0f86 25bd 2c0c f7ba fbb3 08bd
000000a0: f1a8 c2bc 0627 68bd 6d9d 143d dc7c 57bd
000000b0: 79de 15bd d92e 04bd 3b1b 98bc 9d3b 9c3c
000000c0: 1f46 d8bc 5cc6 193c ed86 683d 9805 ac3b
000000d0: 020c 5a3c 0cf2 f53c c312 14ba 69dc 083d
000000e0: 0f3d fabc 7628 96bc c9fa 113d 11fd d03b
000000f0: 6097 e5bc deec 803d dd41 71bc d384 313b
00000100: 3293 883c 0b84 26ba cdb4 c53b d3ba 37bd
00000110: cef7 553c f765 b73b 1ee0 2c3d b5af 85bc
00000120: 5089 833d 8803 00bd 37e7 fb3c 87c9 c7bc
00000130: ec4d 8c3c c821 14bd 29c5 45bd 588d 9cbc
00000140: a56b 09bd eea0 b83b ad56 82bd f620 433c
00000150: 9dc0 503d 7ec7 723d 35f7 343d 90c2 273d
00000160: ed2b e9bc 7d3d 1dbd 72bc b4bc 70ab aabd
00000170: 750c 8b3d fb56 2abd 7147 96bd 222c 3dbb
00000180: bccb 8c3c c68c e4b6 5bd2 373d 0c80 1e3d
00000190: c9c5 a73c 9da7 3f3d c73b 46bc efb5 0b3c
000001a0: df34 333d dfd7 173d 9547 98bc c1f0 66bc
000001b0: da94 bcbb cb2a c33c 0410 80bc 2621 66bd
000001c0: 661c 8ebc fd5e 0bbd ff43 003d e3b8 fe3b
000001d0: 57e1 cdbc 0269 873c ff8c 10bc e8eb 213b
000001e0: 4e08 5ebd 9cdb 68bc 80a9 edbc 7439 cdbc
000001f0: 8e68 273d 5f9b b2bc 9990 14bd c736 40bd
-0.01089122 -0.070158966 0.050129913 0.05448056 0.04166418 0.0011769455 0.075476885 0.03664016
0.0045548086 -0.011366946 0.048366748 -0.0079916185 -0.016976897 -0.029590651 -0.036442816 0.00906744
-0.042797763 -0.008684347 0.009609275 0.017541308 0.015447653 0.0576395 -0.05943058 -0.028683338
0.066460535 0.018214475 -0.013921549 0.024436986 0.011079016 0.035157952 -0.006203003 -0.07396165
0.020208359 0.016950373 0.048717488 -0.013501093 -0.045062833 -0.04041105 -0.0018848232 -0.033374768
-0.023762198 -0.05667784 0.036282945 -0.05260931 -0.03658912 -0.03227124 -0.018567672 0.019071395
-0.026400624 0.0093856715 0.0567693 0.0052496903 0.013308527 0.030022644 -0.00056485477 0.033413325
-0.030546693 -0.01832984 0.035639558 0.006377824 -0.028026283 0.06295179 -0.014725176 0.0027087226
0.01667175 -0.00063520734 0.006033516 -0.044855904 0.0130595695 0.005596872 0.042205922 -0.016319135
0.06422675 -0.031253368 0.0307499 -0.024388088 0.017127 -0.03616503 -0.04828373 -0.019110367
-0.033549923 0.0056344187 -0.06364188 0.011909714 0.05096494 0.05927228 0.044181067 0.040957034
-0.028463328 -0.038388718 -0.022062514 -0.0833348 0.06789485 -0.041586857 -0.07337845 -0.0028865417
0.017186992 -6.8113177e-06 0.044878345 0.038696334 0.020480053 0.046790708 -0.012099213 0.008527263
0.043751594 0.037071105 -0.01858882 -0.014095486 -0.005755049 0.023824116 -0.015632637 -0.056183957
-0.017347526 -0.034026135 0.031314846 0.007773505 -0.025131864 0.016529564 -0.008822679 0.0024707261
-0.05420714 -0.014212515 -0.029011488 -0.02505181 0.040871195 -0.021802602 -0.03627071 -0.04692724

action_model._continuous_distribution.log_sigma f4 [1, 3]
00000000: df27 82be 189d 83be 9d61 37be
-0.25421044 -0.2570579 -0.1790833

action_model._continuous_distribution.mu.weight f4 [3, 128]
00000000: e85a 21bc a4fe 593b a95c a7bb cb75 2bbd
00000010: 5314 fbbc 1e00 8bbc ea4e a7bd 1186 f6bc
00000020: 7b28 8b3c b4a1 79bc 1925 ccbc 8027 d53c
00000030: f155 113d b854 60bc 46c2 953c 0a48 7e3c
00000040: 5c5a 103d 36f4 c63c c8ab ab3b e654 903d
00000050: 6736 533d c67e d1bd 5fd0 1f3d b74f 973c
00000060: 78dd 1ebd d491 a63c 0243 c33c 90ed d739
00000070: dbfb 263d c908 6cbc f34d f43c 4ce6 163c
00000080: 66a7 d5bb c935 89bb f00c d6bc a876 433c
00000090: 0303 bc3c 0865 b03c 6a2b 023c c211 9d3a
000000a0: 8486 d73a d2be 2e3d 0dfc 4cbc b656 383c
000000b0: 700e 523d c2e5 e13b f806 b73b f9e3 cbbc
000000c0: 82a9 143c 8a38 01bc e039 9bbd 7a77 2abd
000000d0: b805 83bb 18f8 13bd e61c 673d b9f8 09ba
000000e0: 0c6f 933c 64db ef3c 4391 11bd 025f 9cbc
000000f0: 1b45 bf3a 9ab6 48bd 63f4 ac3c 31f7 c7bc
00000100: 210b abbb 75a0 2d3d 0c13 30bc f31c 013c
00000110: 1b2e f8bb e593 2e3c 208d 0bbd 9481 ab3d
00000120: c3cd 6cbc edb4 3a3d 635e 07bb 1aea 24bb
00000130: 92b5 b5bc 2b86 d03c c3d8 433c 3230 d23c
00000140: 5eb7 133d 3a1e 21ba a8f1 873b f8f5 25bd
00000150: 6fda f9bb eee4 c2bc 1958 30bd f7ab b9bc
00000160: c7e2 943a 5dbd 8e3c 2187 593c e331 8b3c
00000170: 805c 9cbd b1f2 ab3c cab6 083d 05e0 e8bc
00000180: 4d3c 663b 03f6 7bbb 315c 48bd d79c 83bd
00000190: f5b3 86bd ceb2 a13d 6779 cd3c 50aa 04bd
000001a0: 2bd3 41bd 8ab6 5b3b ea43 493b c2a4 a83b
000001b0: b2d8 b23c 2379 08bd ba34 4a3c 9af3 ca3c
000001c0: b5c9 813d 879c 063d 0575 f63c ce8f 7f3d
000001d0: 3d52 893c a509 abbc 5cdb 323d 8df7 993d
000001e0: b227 cc3c 33df ad3c 61cb de3c c1ca ce3c
000001f0: c8aa 70bd 280d 003c 7f9d dabb 5fbd bf3b
00000200: b770 ba3c 3de4 bb3c bafe b1bc a846 613b
00000210: 2d70 383c 880a 493c 94fd b73d ce89 73bd
00000220: 7e89 2e3d 4c9d 22bc 8e5b 15bd 99b2 b43b
00000230: 244b 373c 9926 473d dc1e a43c 87ca 423b
00000240: 6740 863c fa4b 993a 59f0 3dbc 35fd 9ebc
00000250: 01af 7dbc d7bc a4bd 7556 a9b9 4a00 2fbb
00000260: dc7f 95bd ee76 b9bd 77c6 42bd b65e a4bc
00000270: f7c4 29ba 31f3 23bd bb77 29bd 3e4d f13c
00000280: 66da 0bbd ec33 f1bc d0ed f63c 6d7d fe3b
00000290: 6f8f 543c a10f 6e3c 247f efbc 2226 333d
000002a0: 0987 0cbc a570 28bc 1169 c6bc 3400 ca3c
000002b0: a84e c83c 60c3 983b 7688 10bc 84f7 a5bd
000002c0: 5a2a 313c bfb6 713d cbb1 823b 11c6 e23c
000002d0: 6620 15bc baa3 c73a 6d3e 4c3d 6a06 c4bd
000002e0: 46c6 24bc 88da cc3a 6ff6 fbbb 1287 bdbb
000002f0: 4d5a 9abb b962 5dbc 8d8b af3c 54f0 af3c
00000300: b181 02bd a173 613b cd7f 58bc c245 acbb
00000310: 3485 08bd cbf8 88bc a623 78ba a312 103c
00000320: a5e0 2cbd 31fa ff3b 4940 22bd e0f6 113d
00000330: efef ed3c 8cec fabc f239 bfbb ee4e c23c
00000340: a33f 543d e83e 073c b62a f73b b6af d4bb
00000350: fa88 4dbd ff79 82bd ed7e 16bd b9e8 36bd
00000360: 91eb 34bb e606 0bbb f5a7 bebc 620d 6a3a
00000370: 4a0f c63c a504 00bc 7c90 ac3c de2b 6bbc
00000380: 4d5a aabc 38e1 793d b058 0c3d d433 12bb
00000390: 43d2 153d 88e5 49bc 6fbd a3bc b631 093d
000003a0: c7c6 573c 49b1 55bd 280f 183b 1a87 693b
000003b0: 60a3 3dbb 5945 65bc 2bd7 7dbc a556 243d
000003c0: 6c3e 083d 3529 1b3c 6665 71bd de0a 1b3d
000003d0: 70d3 53bc 9a37 ea3c 0c20 723d 2cf4 173d
000003e0: 3141 3fbc 1b17 65bc 1a9e 653d 6c99 be3a
000003f0: b92b 5e3c cdde be3c 7507 463d 5a24 c03c
-0.009848334 0.003326335 -0.0051074815 -0.041860383 -0.03064934 -0.01696783 -0.081693485 -0.030093225
0.016987076 -0.015236307 -0.024920033 0.026019812 0.03548235 -0.0136920735 0.018281113 0.015520105
0.035242423 0.02428637 0.005238984 0.07047443 0.051565554 -0.10229258 0.039017078 0.018470628
-0.038785428 0.020333208 0.023835663 0.00041184993 0.04076753 -0.014406391 0.029822325 0.0092101805
-0.0065201996 -0.00418732 -0.026129216 0.011930145 0.022950655 0.02153255 0.007944921 0.0011983442
0.0016443287 0.04266245 -0.012511265 0.011251142 0.0512833 0.0068938443 0.0055855475 -0.02488898
0.009073617 -0.007887015 -0.07579398 -0.041617848 -0.0039984845 -0.036125273 0.056424044 -0.0005263198
0.017997287 0.029279418 -0.035538923 -0.019088272 0.0014592739 -0.049002267 0.021112626 -0.024409862
-0.0052198325 0.042389352 -0.010746729 0.007880437 -0.0075738556 0.010655378 -0.034070134 0.083743244
-0.014453354 0.0455827 -0.0020655624 -0.002516395 -0.022181306 0.025454601 0.0119535355 0.025657747
0.036063544 -0.00061461667 0.0041486807 -0.040517777 -0.0076249163 -0.023790803 -0.043052766 -0.022665007
0.0011359089 0.01742428 0.013276846 0.016991561 -0.076348305 0.020989748 0.033377446 -0.028427133
0.0035131157 -0.0038446195 -0.048916046 -0.06426399 -0.06577293 0.078954324 0.025082303 -0.032388985
-0.047320526 0.003352555 0.0030710646 0.005146594 0.021831844 -0.03331865 0.012341673 0.024774361
0.06337301 0.03286412 0.030085096 0.062393002 0.016762847 -0.020878622 0.04366623 0.0751792
0.024921272 0.021224594 0.027196588 0.025243165 -0.05875662 0.007815637 -0.006671607 0.005851432
0.022758825 0.02293598 -0.021727908 0.003437439 0.011257214 0.012270577 0.08983913 -0.059457593
0.04261159 -0.009925198 -0.036464266 0.0055144546 0.0111873485 0.048620794 0.020034246 0.0029722766
0.016388131 0.0011695616 -0.011592948 -0.019407848 -0.015483619 -0.08043831 -0.00032298607 -0.0026703053
-0.07299778 -0.09055887 -0.047552552 -0.020064693 -0.00064761884 -0.040026847 -0.04137395 0.029455777
-0.034143828 -0.029443704 0.030142695 0.0077664168 0.01297365 0.014530093 -0.02923543 0.04373754
-0.008577117 -0.010280763 -0.024220021 0.0246583 0.024451569 0.0046619624 -0.008821597 -0.081038505
0.01081332 0.05901217 0.0039884797 0.027682336 -0.009101963 0.001523129 0.04986422 -0.09571536
-0.010057038 0.0015629092 -0.0076892893 -0.005783924 -0.0047104717 -0.013512307 0.021428848 0.021476902
-0.031861965 0.0034401196 -0.013214064 -0.005257339 -0.033330157 -0.016720196 -0.0009465761 0.008793506
-0.042206425 0.0078118076 -0.03961209 0.03563583 0.029045073 -0.030630372 -0.005835765 0.023719277
0.0518185 0.008254744 0.0075429333 -0.006490673 -0.05017946 -0.06370925 -0.03674214 -0.044655535
-0.0027606229 -0.0021213829 -0.023273448 0.0008928386 0.024177212 -0.007813607 0.02106499 -0.0143537205
-0.020795012 0.0610058 0.034264266 -0.0022308724 0.036577474 -0.012322791 -0.01998779 0.033494674
0.013169951 -0.052171025 0.0023202393 0.0035633505 -0.002893649 -0.013993585 -0.015493195 0.040121693
0.033262655 0.009470274 -0.05893459 0.03785216 -0.012928829 0.028590966 0.059112594 0.037098095
-0.011673258 -0.01398256 0.05605898 0.0014541573 0.013560229 0.023299599 0.048346955 0.023454834

action_model._continuous_distribution.mu.bias f4 [3]
00000000: 998d 7cbd 3e19 babc a133 c9bb
-0.061658476 -0.022717115 -0.006140188

exp_avg f4 [128, 11]
00000000: 1cad 0cb8 8be1 a336 dcab 7939 0000 0000
00000010: 5101 9337 0000 0000 f7d1 2938 7d2c 4d38
00000020: b8d9 ac36 a196 e438 8a46 8a37 c349 80b8
00000030: 3541 7a38 5d3f 63ba 0000 0000 4a9d 41b8
00000040: 0000 0000 a4ee 00b6 f680 8039 b150 6e38
00000050: 1b2d ddb9 ff36 e8b7 eab1 9e3a 4192 c138
00000060: 2bde 33bb 0000 0000 299b 8238 0000 0000
00000070: ec06 51b9 a954 783a 5c69 ba38 5dc3 e7ba
00000080: 5d9d b4b7 f4ca 0eb9 1cb8 dbb5 e41a 03ba
00000090: 0000 0000 a4a3 4638 0000 0000 734e 28b6
000000a0: 403a 2bb9 327a e9b5 6460 acb9 c7a2 0b38
000000b0: 20fc 933a d11d 5f38 49d0 4bba 0000 0000
000000c0: fb6b d433 0000 0000 0094 77b8 f704 493a
000000d0: 28df 5338 7f66 e839 0f43 31b8 4861 2bb8
000000e0: addf 71b6 79ca 233b 0000 0000 0be9 39b9
000000f0: 0000 0000 fe49 5139 ba1a edb8 d2b6 2db6
00000100: 74db 383a 77ca 7738 351d d836 2541 4138
00000110: 2f3a 80b9 0000 0000 b3b3 84b7 0000 0000
00000120: dd6a 88b8 ed1a 4bb9 3c12 4038 c2b5 beb8
00000130: 5257 4637 84cb abb8 b196 07b8 1c73 1639
00000140: 0000 0000 ec5e f5b8 0000 0000 ad33 e938
00000150: 3616 18ba 78cd fcb7 af0a 023a 8250 e636
00000160: 2d80 e439 8121 19b8 65c8 1038 0000 0000
00000170: e43f 49b8 0000 0000 e479 25b7 7bf4 103a
00000180: 1c70 1bb8 29c9 e2b8 b626 d6b7 e164 c739
00000190: 05cc d937 c00d e639 0000 0000 16b3 88b7
000001a0: 0000 0000 3756 cd38 c600 ee39 715f d037
000001b0: 8bb7 f238 0242 3c38 371b 223a 6df2 7038
000001c0: ae2b bfb9 0000 0000 009e 23b7 0000 0000
000001d0: a5d1 01b9 5d85 363a 3487 5b38 b29b 94b9
000001e0: 0789 80b8 c55f 013a c647 cab7 6148 efb9
000001f0: 0000 0000 525a 1f38 0000 0000 3a5f 9438
00000200: 58f2 8339 e42b c9b7 fa45 61b9 282f 3f38
00000210: 60ae 2a3a 2bb6 57b8 0242 fcb9 0000 0000
00000220: f1e8 c0b7 0000 0000 ad59 f9b7 7e91 073a
00000230: c472 67b8 2200 b6b9 1212 39b8 e64f a839
00000240: b4f3 a437 5f92 c9b9 0000 0000 e7cd 7e38
00000250: 0000 0000 aef5 6eb8 0abd a838 9e83 a537
00000260: 35d9 d7b9 2b97 4938 ae9a 5aba 47a9 39b9
00000270: 1cf2 083b 0000 0000 a5a5 59b9 0000 0000
00000280: 5d56 df38 4ef3 24bb 2108 32b9 af17 293b
00000290: 7a49 23b9 a42c 92ba cefa 8238 0613 d5b7
000002a0: 0000 0000 765c fd36 0000 0000 f747 a135
000002b0: 57c4 6fb8 0441 8238 caa6 50ba 166c aa38
000002c0: 0e41 00b7 2e6b 94b7 96f3 31b9 0000 0000
000002d0: 80ce 1fb7 0000 0000 d207 e937 6756 4639
000002e0: b682 99b7 d7ed 88b9 07c7 eeb7 7879 1b3a
000002f0: 7b12 a137 063b 4f39 0000 0000 373e 13b8
00000300: 0000 0000 8393 8638 8194 c539 98c2 9f37
00000310: 04fb 8f36 5477 2238 357f 8a38 21ea 3bb5
00000320: f6ac 6738 0000 0000 8923 6138 0000 0000
00000330: 61b7 6b38 4499 ae39 39d8 2eb5 1720 37b8
00000340: 0e37 b937 61a1 44ba 769a 23b8 aa22 ad3a
00000350: 0000 0000 7889 d0b8 0000 0000 93da 0939
00000360: 166a 52ba 1f1c 1bb8 2bc8 6b3a 5d17 bbb7
00000370: 03ce ccb9 8713 5538 e636 283a 0000 0000
00000380: d0a9 6bb8 0000 0000 13f5 c637 0a97 f7b8
00000390: deae 4838 4a5c 4939 b74b 9738 0be6 86b9
000003a0: 2bd4 3ab6 0b8c 27b9 0000 0000 7b6b 7ab7
000003b0: 0000 0000 128d 67b8 9653 6fb9 3533 64b6
000003c0: d714 ffb7 ccf6 40b7 34aa b3ba 4dc3 1538
000003d0: 11ab 07ba 0000 0000 9e16 1139 0000 0000
000003e0: 9353 8db8 851b 38b9 74b2 1438 3ca1 4aba
000003f0: 7700 9f37 773b 61ba 2e13 9a38 f38f 48b9
-3.353982e-05 4.884035e-06 0.00023810513 0.0 1.7524379e-05 0.0 4.0488285e-05 4.891724e-05
5.1513452e-06 0.00010899944 1.648373e-05 -6.117255e-05 5.9665374e-05 -0.00086688047 0.0 -4.6161273e-05
0.0 -1.9212393e-06 0.00024510146 5.681877e-05 -0.0004218601 -2.7682165e-05 0.0012107466 9.230199e-05
-0.0027445655 0.0 6.227784e-05 0.0 -0.00019934372 0.00094730646 8.888796e-05 -0.0017682124
-2.153095e-05 -0.00013617781 -1.6370354e-06 -0.00050012604 0.0 4.735928e-05 0.0 -2.5079614e-06
-0.0001632953 -1.7395416e-06 -0.00032878213 3.329178e-05 0.0011290349 5.3195112e-05 -0.00077748724 0.0
9.891661e-08 0.0 -5.9027225e-05 0.00076682813 5.051415e-05 0.00044326854 -4.226254e-05 -4.0860177e-05
-3.6041995e-06 0.002499251 0.0 -0.0001772979 0.0 0.00019959357 -0.00011306019 -2.5885424e-06
0.0007051744 5.907795e-05 6.440702e-06 4.6075456e-05 -0.00024457413 0.0 -1.5819305e-05 0.0
-6.50489e-05 -0.00019369619 4.579335e-05 -9.093761e-05 1.18220505e-05 -8.191823e-05 -3.232685e-05 0.00014347996
0.0 -0.00011700191 0.0 0.00011119931 -0.00058016495 -3.013642e-05 0.00049606984 6.8639065e-06
0.00043583047 -3.6509246e-05 3.4518907e-05 0.0 -4.7981637e-05 0.0 -9.863146e-06 0.00055295945
-3.705929e-05 -0.00010813989 -2.5528814e-05 0.00038031398 2.596342e-05 0.00043879263 0.0 -1.6295857e-05
0.0 9.7912205e-05 0.00045395474 2.4839976e-05 0.00011573647 4.4884167e-05 0.0006183865 5.7446236e-05
-0.00036462903 0.0 -9.752344e-06 0.0 -0.00012380497 0.00069626217 5.2339587e-05 -0.00028344762
-6.129039e-05 0.000493523 -2.4113699e-05 -0.0004563956 0.0 3.799267e-05 0.0 7.074927e-05
0.00025166827 -2.3981505e-05 -0.0002148374 4.5581866e-05 0.0006510969 -5.142965e-05 -0.00048114365 0.0
-2.2996655e-05 0.0 -2.9724872e-05 0.00051715213 -5.5181576e-05 -0.00034713844 -4.4124266e-05 0.00032102986
1.9663807e-05 -0.00038446762 0.0 6.075008e-05 0.0 -5.697243e-05 8.0460755e-05 1.9730822e-05
-0.00041169827 4.806292e-05 -0.0008339089 -0.00017706036 0.0020896262 0.0 -0.0002075644 0.0
0.00010649555 -0.0025169435 -0.00016978431 0.002580147 -0.00015572264 -0.001115222 6.245599e-05 -2.5400437e-05
0.0 7.5507514e-06 0.0 1.2016379e-06 -5.7164896e-05 6.210993e-05 -0.0007959424 8.126364e-05
-7.644541e-06 -1.7692884e-05 -0.00016970778 0.0 -9.525218e-06 0.0 2.7779406e-05 0.00018914939
-1.8299888e-05 -0.00026117146 -2.846449e-05 0.0005930881 1.9201301e-05 0.00019763046 0.0 -3.5105473e-05
0.0 6.417094e-05 0.00037685412 1.9044892e-05 4.290954e-06 3.8734943e-05 6.604047e-05 -7.000363e-07
5.5235774e-05 0.0 5.3677275e-05 0.0 5.619915e-05 0.00033302058 -6.5134697e-07 -4.3660486e-05
2.2079355e-05 -0.0007500854 -3.900608e-05 0.0013209183 0.0 -9.9438184e-05 0.0 0.00013146763
-0.00080266723 -3.698107e-05 0.0008994366 -2.2303017e-05 -0.00039063403 5.0801344e-05 0.0006416872 0.0
-5.6186516e-05 0.0 2.371756e-05 -0.00011806011 4.7846574e-05 0.00019203234 7.214344e-05 -0.00025729867
-2.7839658e-06 -0.00015978531 0.0 -1.4926186e-05 0.0 -5.5206074e-05 -0.00022823954 -3.4004454e-06
-3.0408073e-05 -1.1501554e-05 -0.0013707341 3.5706256e-05 -0.0005175332 0.0 0.00013836703 0.0
-6.738971e-05 -0.00017557859 3.5452147e-05 -0.0007729714 1.8954493e-05 -0.000859193 7.346865e-05 -0.00019127112

exp_avg_sq f4 [128, 11]
00000000: 7424 6e36 ff58 ac32 cbd0 9636 0000 0000
00000010: 57b1 e232 0000 0000 ab72 a632 2bd6 4536
00000020: 0a96 ac32 30b2 8b35 41a1 0f33 1a47 2437
00000030: e6b2 d633 94d2 f636 0000 0000 d78f 3133
00000040: 0000 0000 772f 1933 ac98 1e37 d582 2433
00000050: 65e8 0937 0299 4d33 5f4e 4c38 b033 6434
00000060: fe62 2a38 0000 0000 329e 5f34 0000 0000
00000070: 34e3 4934 f2b2 6338 c40c 6434 0bfa 0238
00000080: c253 9c34 8277 0537 c736 6133 cf4e d736
00000090: 0000 0000 72ee 2033 0000 0000 1f8e fc32
000000a0: 9fee ca35 f525 1133 49e3 e436 dcd9 3933
000000b0: 6142 a636 f542 c233 cd2a 9536 0000 0000
000000c0: 89e1 da32 0000 0000 0ade de32 08f4 9536
000000d0: 644b e032 9ae9 d436 f412 0c33 b242 4d38
000000e0: 7042 cc34 e41a dc37 0000 0000 d8a2 5534
000000f0: 0000 0000 a3b8 2434 d8af 3838 1f21 3b34
00000100: f5c7 6e37 0361 8834 b60d b536 9eb9 0534
00000110: d30c 3437 0000 0000 f30c 6033 0000 0000
00000120: 81e1 4133 2993 b736 3096 3733 cc8e 3036
00000130: b7d0 9233 484c 3837 0c46 8533 718f 4037
00000140: 0000 0000 b6fa 4833 0000 0000 e8c7 3933
00000150: 1fc4 4537 19e1 5833 ce9f 8037 2412 7d33
00000160: b5fe 7d36 545c 2c33 19c9 5d36 0000 0000
00000170: 5067 9b32 0000 0000 16e3 9032 4d86 ac35
00000180: 83be 8b32 f4e7 2f36 054a b332 0420 d636
00000190: 8ce7 4b34 095b 2b37 0000 0000 fd1d 5f33
000001a0: 0000 0000 b2c7 3633 0ca9 e436 6740 4033
000001b0: b657 5d36 86db 8f33 1267 9b37 ab63 af34
000001c0: e156 ae37 0000 0000 936b 8c33 0000 0000
000001d0: 3c49 a033 b741 a037 d2c5 b833 725b c637
000001e0: b3e5 ca33 0686 0137 45e6 0733 6b12 b036
000001f0: 0000 0000 74d1 1433 0000 0000 0a26 df32
00000200: 0d51 2336 a9c8 0733 f77a 9236 016d 2f33
00000210: 6cbc e336 241f a233 796a cc36 0000 0000
00000220: 1e69 ed32 0000 0000 340c e232 f183 f435
00000230: 8201 d932 6201 7f36 1012 0233 5916 8e36
00000240: 6cf6 0b33 e1ed f936 0000 0000 731b 1e33
00000250: 0000 0000 dcc4 1133 377c 9836 d8e0 0b33
00000260: 85a4 2236 2ff2 5533 3f90 5938 38fc bb34
00000270: 2719 8538 0000 0000 8ecb 4f34 0000 0000
00000280: 31a1 8034 eb62 6e38 b24b 7834 4410 9938
00000290: ce3d 9234 79d2 cd36 dc34 0433 7cb4 d736
000002a0: 0000 0000 3379 0333 0000 0000 355d 0733
000002b0: 5ae5 1636 ccfc 0333 7326 c936 9020 2e33
000002c0: 774d 5436 d5b6 6a32 ddc4 2636 0000 0000
000002d0: f47c 7f32 0000 0000 6f82 7032 e894 9d35
000002e0: bab1 6a32 e499 df35 bb21 a632 427e 0437
000002f0: f11f 4933 d6cb 1237 0000 0000 06e8 7a33
00000300: 0000 0000 3bc5 2633 3f0a ee36 fec1 3233
00000310: 7d36 6e36 6541 9833 fd7e a036 04d9 0534
00000320: f58f 9d36 0000 0000 87da f432 0000 0000
00000330: a40c bd32 1090 6a36 21a0 d732 3ee9 e635
00000340: f6fd 1033 a823 9937 cd75 1d34 9bb9 7237
00000350: 0000 0000 3e54 bb33 0000 0000 ca02 9e33
00000360: dc49 9e37 d480 ae33 151f 4637 ee73 f333
00000370: 2872 d836 f783 4333 2923 3437 0000 0000
00000380: bfb9 5533 0000 0000 1976 3333 1466 2836
00000390: 82e4 4333 9c7a 9436 4265 9733 c83b ca35
000003a0: c04e 1533 3cdb a135 0000 0000 1673 d731
000003b0: 0000 0000 7609 ea31 9d70 8b35 3ce8 ea31
000003c0: f876 4c35 dca1 4f31 ae58 5237 de43 8033
000003d0: f1cb 1637 0000 0000 8a27 9c33 0000 0000
000003e0: 6a46 6033 6d6b e536 fe3c 8033 7169 3637
000003f0: f1c5 be33 5fe4 4637 0c9d 3933 cb94 f636
3.5485982e-06 2.0063906e-08 4.494655e-06 0.0 2.6390508e-08 0.0 1.9377088e-08 2.947995e-06
2.0091665e-08 1.0408166e-06 3.344144e-08 9.791716e-06 9.997693e-08 7.355886e-06 0.0 4.1341846e-08
0.0 3.5666258e-08 9.453081e-06 3.8303217e-08 8.219945e-06 4.786944e-08 4.871038e-05 2.1252959e-07
4.0623352e-05 0.0 2.0826045e-07 0.0 1.880224e-07 5.4287673e-05 2.1238799e-07 3.1227286e-05
2.9118206e-07 7.955243e-06 5.2436715e-08 6.416674e-06 0.0 3.7469768e-08 0.0 2.940129e-08
1.5119621e-06 3.3794965e-08 6.821389e-06 4.327181e-08 4.954913e-06 9.0460084e-08 4.4455287e-06 0.0
2.5481102e-08 0.0 2.5945173e-08 4.468955e-06 2.6111316e-08 6.345287e-06 3.2613528e-08 4.8937924e-05
3.80463e-07 2.6238566e-05 0.0 1.9896413e-07 0.0 1.534086e-07 4.4032786e-05 1.7427782e-07
1.4232462e-05 2.540256e-07 5.3958165e-06 1.2454117e-07 1.0731822e-05 0.0 5.216584e-08 0.0
4.514141e-08 5.4709567e-06 4.2744603e-08 2.6309162e-06 6.83662e-08 1.0985015e-05 6.2060366e-08 1.1477489e-05
0.0 4.679415e-08 0.0 4.3255483e-08 1.1787778e-05 5.0496144e-08 1.5333204e-05 5.892265e-08
3.7848197e-06 4.0130843e-08 3.304862e-06 0.0 1.8091356e-08 0.0 1.6867073e-08 1.2854085e-06
1.6268364e-08 2.6212047e-06 2.0872003e-08 6.381424e-06 1.8990085e-07 1.021359e-05 0.0 5.1948508e-08
0.0 4.25568e-08 6.814609e-06 4.4762057e-08 3.298262e-06 6.6988875e-08 1.8525436e-05 3.2668808e-07
2.0782873e-05 0.0 6.538826e-08 0.0 7.463902e-08 1.9104087e-05 8.604151e-08 2.3646022e-05
9.44814e-08 7.720204e-06 3.1641566e-08 5.247353e-06 0.0 3.464943e-08 0.0 2.5977915e-08
2.433607e-06 3.1614636e-08 4.365454e-06 4.08445e-08 6.7870624e-06 7.549377e-08 6.092069e-06 0.0
2.7638233e-08 0.0 2.6315412e-08 1.8217817e-06 2.526281e-08 3.7998766e-06 3.028441e-08 4.2345314e-06
3.258758e-08 7.448471e-06 0.0 3.6812207e-08 0.0 3.3939486e-08 4.5444135e-06 3.2567954e-08
2.4235644e-06 4.9813192e-08 5.187117e-05 3.5014978e-07 6.346619e-05 0.0 1.935243e-07 0.0
2.395914e-07 5.6835746e-05 2.3124338e-07 7.298638e-05 2.7239588e-07 6.1339783e-06 3.078172e-08 6.4285105e-06
0.0 3.0611044e-08 0.0 3.1516908e-08 2.2485242e-06 3.073073e-08 5.994743e-06 4.0542147e-08
3.1635552e-06 1.3662164e-08 2.4850517e-06 0.0 1.4871365e-08 0.0 1.3999496e-08 1.1740749e-06
1.3661003e-08 1.6659583e-06 1.9340282e-08 7.89721e-06 4.682801e-08 8.749737e-06 0.0 5.8418685e-08
0.0 3.8829267e-08 7.0941455e-06 4.162029e-08 3.549648e-06 7.089947e-08 4.783155e-06 1.246554e-07
4.6957234e-06 0.0 2.8504713e-08 0.0 2.2008244e-08 3.4952573e-06 2.5102112e-08 1.7204218e-06
3.375859e-08 1.8255625e-05 1.466462e-07 1.4467539e-05 0.0 8.7231896e-08 0.0 7.357956e-08
1.8869461e-05 8.12594e-08 1.18089565e-05 1.1336657e-07 6.450591e-06 4.5521997e-08 1.0737022e-05 0.0
4.9761862e-08 0.0 4.1784094e-08 2.5093368e-06 4.5609802e-08 4.4250173e-06 7.049904e-08 1.5067571e-06
3.476339e-08 1.205924e-06 0.0 6.2704073e-09 0.0 6.811372e-09 1.0389082e-06 6.8366983e-09
7.6169044e-07 3.021447e-09 1.2537623e-05 5.9728094e-08 8.9881805e-06 0.0 7.271508e-08 0.0
5.2218105e-08 6.837238e-06 5.971559e-08 1.0872595e-05 8.88357e-08 1.1854891e-05 4.3216502e-08 7.348693e-06

exp_avg f4 [128]
00000000: a6ae f236 c552 b838 8738 0a39 5381 20b6
00000010: d42e aa38 cd0b d3b5 68d3 9138 8280 3bb8
00000020: 7241 5cb8 5d7f 2638 8d8a a938 4fae 19b8
00000030: 92e6 a7b8 246e f537 31e2 8bb9 38ff c838
00000040: 4ee2 e4b7 6de4 ef37 d5c9 8bb5 565d 69b8
00000050: bfd4 a638 e7a0 c2b6 7186 6538 a9f8 e738
00000060: 829d c037 e637 6638 f220 b4b8 cbbb f5b6
00000070: 03aa 93b8 2937 5238 7205 0fb8 931a 5238
00000080: 5027 0e39 8b89 0bb9 3c25 cfb8 4246 f4b8
00000090: 84e7 3bb7 2a11 3438 f11b e1b7 0e2c 0039
000000a0: d06b d238 0009 2238 f3f1 ab38 9d68 8738
000000b0: 0b87 5b38 7bdf 6ab8 33ca 9f37 4742 6536
000000c0: c5ac 0eb9 ac02 6c38 4e46 cfb8 a725 fcb8
000000d0: 2f00 5539 ebd5 68b7 41e7 e3b7 6760 3bb8
000000e0: c35d 5138 5ba2 5e39 ddf0 5bb9 468c 9ab8
000000f0: 6cf5 0ab9 1760 afb6 3272 34b8 c6e2 d738
00000100: 358c ddb8 6cc1 3db8 15a0 7a39 a8d6 2639
00000110: 67c6 cd38 8990 b338 15f8 7ab8 c00d 9838
00000120: 90e5 f338 6d02 c1b7 45a4 1bb8 df4c b536
00000130: 0ae3 07b9 5040 34b8 3d8f b5b7 220a d436
00000140: 05bf dbb5 536d a7b8 ae90 be38 32b6 2eb9
00000150: 8b1c 16b8 31a0 12b6 648d 8cb7 1dd1 3239
00000160: 5872 8938 14b3 b738 2caf 0037 0f8c 3b39
00000170: ba84 8fb7 7258 8cb6 d12a b136 a419 f236
00000180: dc15 c835 3696 86b9 44a3 56b7 fdd4 0c38
00000190: f812 bfb8 7591 fb38 5bec 2fb8 08bd e5b8
000001a0: 3e28 9cb8 f531 adb4 f53c 0f39 abc0 48b7
000001b0: 00da 1039 5a79 8839 8fd2 7c38 2505 e2b8
000001c0: 2284 71b8 f60a 7d37 37a0 0cb7 2d6a 48b8
000001d0: 18f4 bab7 063a 2c38 c2bd 1db8 4cf9 7139
000001e0: c1e6 70b8 73ff 1939 d16a c938 be2b bd38
000001f0: 48c2 98b8 1ab6 d537 8dc5 6db7 3311 6138
7.2324938e-06 8.789221e-05 0.00013181764 -2.3917135e-06 8.114954e-05 -1.572416e-06 6.953516e-05 -4.4703957e-05
-5.2513038e-05 3.96961e-05 8.084355e-05 -3.664038e-05 -8.0061276e-05 2.9257564e-05 -0.00026680672 9.584281e-05
-2.72851e-05 2.859739e-05 -1.0415048e-06 -5.5638455e-05 7.955124e-05 -5.800382e-06 5.4723063e-05 0.00011061255
2.2961529e-05 5.4888333e-05 -8.5892054e-05 -7.323431e-06 -7.0411734e-05 5.0119274e-05 -3.4098928e-05 5.009265e-05
0.0001355682 -0.00013307312 -9.8774646e-05 -0.00011647913 -1.11999725e-05 4.293133e-05 -2.6835101e-05 0.00012223443
0.00010033662 3.863219e-05 8.198982e-05 6.4567874e-05 5.2339437e-05 -5.599808e-05 1.9048433e-05 3.4162238e-06
-0.00013606537 5.6269273e-05 -9.8836244e-05 -0.0001202331 0.00020313331 -1.3878084e-05 -2.7168195e-05 -4.4674056e-05
4.9916805e-05 0.00021232052 -0.00020975196 -7.36942e-05 -0.00013252132 -5.2265927e-06 -4.3021697e-05 0.00010294239
-0.00010564217 -4.524125e-05 0.00023901493 0.0001591096 9.812117e-05 8.562307e-05 -5.983569e-05 7.250486e-05
0.00011629902 -2.3008522e-05 -3.7107868e-05 5.4031693e-06 -0.00012959182 -4.297524e-05 -2.1643582e-05 6.319272e-06
-1.6372366e-06 -7.983544e-05 9.086855e-05 -0.00016661806 -3.578937e-05 -2.184894e-06 -1.675514e-05 0.00017053304
6.553967e-05 8.759476e-05 7.67018e-06 0.00017885886 -1.7108734e-05 -4.1826215e-06 5.2799955e-06 7.215147e-06
1.4907523e-06 -0.00025670388 -1.2793407e-05 3.3576962e-05 -9.111123e-05 0.00011995706 -4.1943375e-05 -0.00010954781
-7.446155e-05 -3.226011e-07 0.00013660251 -1.1965788e-05 0.00013814121 0.00026030355 6.027758e-05 -0.00010777478
-5.7581936e-05 1.5082527e-05 -8.381953e-06 -4.77826e-05 -2.2286593e-05 4.1062034e-05 -3.7608443e-05 0.00023076421
-5.7435365e-05 0.0001468638 9.604323e-05 9.02037e-05 -7.2841125e-05 2.5476376e-05 -1.4172297e-05 5.36602e-05

exp_avg_sq f4 [128]
00000000: faf2 4b33 b127 c233 baa4 0635 e0b3 ab33
00000010: c8de 8333 cc12 dd34 c3bf d833 da1a 0034
00000020: f698 2433 0c09 e333 7b52 5a34 a4a8 a033
00000030: a6b4 7f33 5efc a333 3e7d 1235 5ae6 9b33
00000040: 4645 0a33 a47b d333 8000 7f33 1b5c 4e34
00000050: 1a2e e733 4b4c 8932 219e 1734 fc31 db33
00000060: b2e6 b133 ead3 b033 eee0 7634 621b 9133
00000070: a6b2 9833 44f5 0d33 eabe 1433 0953 9134
00000080: 55ec 1a34 0aa3 de33 ca81 5d34 29d6 2734
00000090: c6f6 c533 3788 1b34 a3b1 b533 f69a 1934
000000a0: db67 2534 412f 0335 5a7b 8633 b5ef c234
000000b0: daba ba33 5ca9 d533 616d 6a33 6c9e ea33
000000c0: b5d1 c134 f4ef 9e33 b23a 8333 7d89 e233
000000d0: 906b b834 aa04 df33 741f 0134 b5aa 8733
000000e0: 9c0d 4533 ecde a134 aca3 8e34 c624 1534
000000f0: 7bb4 2a34 621b ce33 db19 5433 7ead 0d34
00000100: 514e 6834 a5bb 5233 bf42 9134 59b2 7634
00000110: d51d 8033 21f9 6734 46ab 0534 b603 2833
00000120: 8f8d 6e34 8f78 8f33 492e d833 8cf0 b933
00000130: 1818 0d34 4907 0a33 5a4b 2033 2f5c 2c34
00000140: 160a 0734 c55b b533 2a47 2e35 9fb2 c833
00000150: b663 1a35 57be 8c33 b24c 1434 f3ab c834
00000160: b8a1 d733 f3dc c934 6214 b733 4248 fd34
00000170: 0921 5433 5c38 7634 9298 8233 1ab3 1e33
00000180: a7f0 8833 3f57 6834 3297 9a33 5f61 2734
00000190: 6cc8 6e33 f506 4f34 0d4a 3333 1966 8d33
000001a0: 6659 b633 4143 f333 25b4 a133 bb45 9034
000001b0: d02c be34 3e9e 3d35 5217 9634 68d0 8c34
000001c0: bfc6 3233 12a5 8433 58bb ae33 c896 6634
000001d0: c4d5 d233 4e2a 5034 b24b 2834 498d 4f34
000001e0: 8876 5033 b81b 1e34 02ff 9334 7e73 2034
000001f0: 0f86 d733 4ee2 0734 8b10 0433 cd76 eb33
4.7485607e-08 9.041049e-08 5.01586e-07 7.995527e-08 6.1406865e-08 4.1178134e-07 1.0093165e-07 1.1930697e-07
3.8323343e-08 1.0572157e-07 2.0332838e-07 7.481256e-08 5.9536113e-08 7.636184e-08 5.457149e-07 7.259651e-08
3.2193633e-08 9.847943e-08 5.937227e-08 1.9218753e-07 1.07651616e-07 1.5983593e-08 1.4120498e-07 1.0207074e-07
8.284168e-08 8.2341856e-08 2.2992364e-07 6.7570696e-08 7.1105475e-08 3.305219e-08 3.463257e-08 2.706877e-07
1.4428345e-07 1.0367337e-07 2.0629446e-07 1.5630998e-07 9.218415e-08 1.4485055e-07 8.460781e-08 1.430561e-07
1.5404605e-07 4.8870066e-07 6.262299e-08 3.6309726e-07 8.695288e-08 9.949392e-08 5.458185e-08 1.0925291e-07
3.6101633e-07 7.4010956e-08 6.1108395e-08 1.0548954e-07 3.4350933e-07 1.0385095e-07 1.2025504e-07 6.317479e-08
4.5880014e-08 3.0150784e-07 2.6568648e-07 1.3890084e-07 1.5898142e-07 9.5976034e-08 4.9383612e-08 1.3194764e-07
2.1635175e-07 4.9065097e-08 2.705692e-07 2.2975418e-07 5.965891e-08 2.1604184e-07 1.2448899e-07 3.9118923e-08
2.2216976e-07 6.680886e-08 1.0066703e-07 8.658489e-08 1.3140414e-07 3.2137255e-08 3.7321435e-08 1.6052284e-07
1.2576524e-07 8.445162e-08 6.492361e-07 9.345717e-08 5.751457e-07 6.5538806e-08 1.3811476e-07 3.7378013e-07
1.0041134e-07 3.759993e-07 8.525309e-08 4.7177497e-07 4.939014e-08 2.2931039e-07 6.081349e-08 3.6950134e-08
6.376768e-08 2.1638424e-07 7.198686e-08 1.558851e-07 5.5595976e-08 1.9280908e-07 4.1744034e-08 6.5843956e-08
8.491297e-08 1.1327803e-07 7.529915e-08 2.6872826e-07 3.5422863e-07 7.063826e-07 2.7956645e-07 2.6228668e-07
4.1624613e-08 6.176755e-08 8.136584e-08 2.1475273e-07 9.817771e-08 1.93869e-07 1.5673757e-07 1.9329777e-07
4.8536577e-08 1.472498e-07 2.7566426e-07 1.4943177e-07 1.0036103e-07 1.2655184e-07 3.074869e-08 1.096465e-07
