results/ppo/Hide/Hide-779134.pt (torch, 456095 bytes, 36 tensors)

network_body._body_endoder.seq_layers.0.weight f4 [128, 11]
0.49788636 -0.032460663 0.08544694 0.40974256 -0.20213431 0.31085286 0.19792053 -0.33325756
-0.31215882 -0.29826713 0.2258029 -0.24001062 0.11504731 -0.31846565 0.058908142 0.28773603
0.15989701 0.34269875 -0.45307967 -0.074860215 0.6405591 0.06740656 0.18185619 -0.28913587
-0.3489593 -0.068593435 0.38448718 -0.17341612 -0.31973198 -0.34673396 0.04090648 0.0774788
0.034621928 0.1780304 -0.3214569 0.24719465 -0.039228193 0.046206966 0.5891276 -0.024107503
0.12936781 0.24170515 0.3094926 0.26428396 -0.39407465 0.37375215 0.5080969 -0.0016012993
-0.02166749 0.0989052 0.4410909 -0.4471453 0.4127295 -0.38490108 0.17132549 -0.5890599
-0.13851264 0.2626863 -0.6257755 -0.0052238167 0.012814082 0.25648093 0.35936567 -0.16317724
-0.16739285 0.1545001 0.23813109 -0.22921418 0.25985378 0.062258776 -0.11391937 0.08329889
0.26484266 -0.019120054 0.12126641 0.24334012 0.437905 -0.541756 0.2593578 -0.46033627
0.12833777 0.5493127 0.04688469 -0.34552047 -0.036382034 -0.22912025 -0.16878927 -0.17957436
-0.05771707 0.060176488 -0.94888616 0.49369195 0.17340933 0.6289452 0.045471605 0.52136964
-0.4236398 0.07620171 0.02789383 -0.2220991 -0.30882964 -0.43103755 0.026898462 0.08015413
-0.39441377 -0.48824787 -0.28971267 -0.0900046 0.3241364 -0.16765691 0.18917511 0.44679132
-0.097847395 -0.009104909 0.27241153 0.5789356 -0.4640129 -0.047293935 -0.07502671 -0.3352064
-0.13501088 0.23774211 -0.183671 0.5404938 0.4212453 -0.37532032 -0.30174288 0.31303585
-0.40301737 -0.40166643 -0.17394993 -0.15281965 -0.002401745 0.3184251 0.69466376 0.32131222
0.22000179 0.0007670061 -0.101808526 -0.49522707 0.17083158 -0.12231714 0.0930511 -0.31590077
0.07643852 -0.51385224 0.11613482 -0.25851837 0.13827893 0.031385418 -0.17521301 -0.2213885
-0.10869763 -0.34313127 0.14487426 -0.2971392 -0.13824579 -0.0863866 0.05441947 -0.16931552
-0.21478283 -0.17349201 0.34168327 -0.12574047 -0.3666457 0.029433146 -0.28856292 0.42723405
0.47265503 -0.26909566 -0.43440622 0.23589842 -0.22168985 -0.36233887 -0.04460843 0.603648
0.100433335 -0.111870736 -0.19309203 0.26703557 0.01714965 0.33992478 0.17929031 -0.22488905
0.2713311 -0.24016944 0.11575599 -0.19996135 0.4721042 0.10879478 0.16665651 -0.4874032
0.20433827 -0.06723913 -0.17864849 -0.1026688 -0.27572963 0.091531396 -0.076990254 -0.5470268
0.2584178 -0.25484404 -0.1664732 -0.4993976 -0.32432938 0.34739333 -0.39070034 -0.044480916
0.37887716 0.10394249 -0.40658382 0.14421274 -0.44178292 -0.5075486 0.11704938 -0.012659914
-0.5131129 -0.03887115 0.10114756 0.2869734 -0.6118202 -0.11153378 0.3128882 -0.071400374
0.0992425 -0.21483707 -0.21845724 -0.19627208 0.32365808 0.10150592 -0.14554468 -0.3445573
-0.2892316 -0.056834903 -0.45893106 0.33306822 -0.233931 -0.65392345 -0.39263043 -0.22034787
0.23241945 -0.016439613 -0.56431645 0.5769634 -0.09720362 -0.2533528 -0.46313336 -0.29708648
0.22486839 -0.23793837 -0.4775667 0.74344194 0.1622165 -0.1184305 0.1388748 0.29688305
00000000: f6ea fe3e 79f5 04bd cefe ae3d c7c9 d13e
00000010: 4cfc 4ebe 1b28 9f3e aeab 4a3e bca0 aabe
00000020: 48d3 9fbe 78b6 98be e038 673e 58c5 75be
00000030: ed9d eb3d ee0d a3be aa49 713d 2352 933e
00000040: 0bbc 233e 3676 af3e 0ffa e7be 5050 99bd
00000050: aefb 233f 730c 8a3d 8238 3a3e 9e09 94be
00000060: cbaa b2be b77a 8cbd 81db c43e ff93 31be
00000070: e9b3 a3be 1d87 b1be 8e8d 273d 35ad 9e3d
00000080: b9cf 0d3d 9a4d 363e 0096 a4be 9820 7d3e
00000090: bead 20bd 8443 3d3d 11d1 163f 197d c5bc
000000a0: ff78 043e 8e81 773e d075 9e3e 3a50 873e
000000b0: 27c4 c9be 715c bf3e a312 023f b0e2 d1ba
000000c0: 0580 b1bc cf8e ca3d abd6 e13e 3bf0 e4be
000000d0: 4851 d33e c111 c5be f36f 2f3e a1cc 16bf
000000e0: 42d6 0dbe d27e 863e d332 20bf 8d2c abbb
000000f0: 28f2 513c 7851 833e c7fe b73e ef17 27be
00000100: 0869 2bbe 4635 1e3e a3d8 733e 1fb7 6abe
00000110: 8e0b 853e 0f03 7f3d 8f4e e9bd 9c98 aa3d
00000120: 7599 873e a9a1 9cbc 865a f83d 272e 793e
00000130: 1635 e03e 85b0 0abf 8cca 843e 32b1 ebbe
00000140: fa6a 033e c29f 0c3f 290a 403d 0fe8 b0be
00000150: 5405 15bd 809e 6abe 18d7 2cbe 57e2 37be
00000160: bc68 6cbd 9f7b 763d 34ea 72bf 31c5 fc3e
00000170: 3792 313e 8d02 213f 6f40 3a3d 7b78 053f
00000180: 51e7 d8be a40f 9c3d 9a81 e43c f26d 63be
00000190: eb1e 9ebe f4b0 dcbe 2a5a dc3c d927 a43d
000001a0: 9af0 c9be a0fb f9be 3855 94be 5554 b8bd
000001b0: 35f5 a53e 41ae 2bbe 1fb7 413e d5c1 e43e
000001c0: 3764 c8bd c22c 15bc 8679 8b3e 2035 143f
000001d0: 1993 edbe 49b7 41bd 9ba7 99bd 2ca0 abbe
000001e0: 4b40 0abe ab72 733e 4014 3cbe cd5d 0a3f
000001f0: 77ad d73e fc29 c0be 0b7e 9abe 3c46 a03e
00000200: 4b58 cebe 39a7 cdbe ee1f 32be c17c 1cbe
00000210: 9866 1dbb 9d08 a33e 7cd5 313f 0983 a43e
00000220: 2648 613e e810 493a fd80 d0bd 678e fdbe
00000230: 79ee 2e3e 6981 fabd 9391 be3d bfbd a1be
00000240: cc8b 9c3d d28b 03bf 18d8 ed3d 855c 84be
00000250: fe98 0d3e ff8d 003d 0a6b 33be abb3 62be
00000260: dd9c debd e7ae afbe eb59 143e a122 98be
00000270: 4e90 0dbe 75eb b0bd f3e6 5e3d 0c61 2dbe
00000280: 08f0 5bbe e4a7 31be 1cf1 ae3e 1cc2 00be
00000290: fcb8 bbbe c81d f13c 85be 93be 6cbe da3e
000002a0: d7ff f13e e8c6 89be 7e6a debe 5b8f 713e
000002b0: aa02 63be 7b84 b9be 54b7 36bd ad88 1a3f
000002c0: feaf cd3d 7c1c e5bd ebb9 45be e3b8 883e
000002d0: 6c7d 8c3c 9f0a ae3e e197 373e 5149 66be
000002e0: e9eb 8a3e faee 75be 7a11 ed3d abc2 4cbe
000002f0: a4b7 f13e cccf de3d 01a8 2a3e ea8c f9be
00000300: 0d3e 513e abb4 89bd a1ef 36be 0544 d2bd
00000310: 6f2c 8dbe d074 bb3d 11ad 9dbd f309 0cbf
00000320: 564f 843e eb7a 82be f377 2abe 0bb1 ffbe
00000330: 800e a6be 8add b13e e009 c8be 9f31 36bd
00000340: 30fc c13e cddf d43d c12b d0be 81ac 133e
00000350: 5f31 e2be b4ee 01bf 96b7 ef3d 876b 4fbc
00000360: 5e5b 03bf 5b37 1fbd 7426 cf3d 2dee 923e
00000370: 40a0 1cbf d36b e4bd e232 a03e 5c3a 92bd
00000380: a73f cb3d 40fe 5bbe 41b3 5fbe 8cfb 48be
00000390: 83b6 a53e 56e2 cf3d aa09 15be d069 b0be
000003a0: 2a16 94be b7cb 68bd 03f9 eabe eb87 aa3e
000003b0: 9c8b 6fbe 8767 27bf db06 c9be dfa2 61be
000003c0: 5dff 6d3e 5eac 86bc 0b77 10bf e0b3 133f
000003d0: b112 c7bd 75b7 81be d11f edbe b81b 98be
000003e0: e643 663e 1ea6 73be 9f83 f4be 3652 3e3f
000003f0: 151c 263e b18b f2bd 3235 0e3e 0e01 983e

network_body._body_endoder.seq_layers.0.bias f4 [128]
-0.025298674 -0.0030011015 -0.013648454 -0.02765547 0.009561012 -0.005993147 0.02860791 0.0048457114
0.014909585 -0.007820726 -0.032423962 0.0059269797 -0.0055642 0.007325012 -0.01634337 -0.009513821
-0.010465629 -0.002118532 -0.00095512555 -0.003463562 -0.0012566199 0.002637717 0.0002646825 0.009228771
0.027431777 -0.016801527 -0.008719281 0.01696006 -0.010535712 -0.0058904574 -0.015952 0.0059068482
0.0077623767 -0.016200582 0.0035433525 0.018102875 -0.0059043234 0.030741531 0.005612751 0.014452574
0.003857592 0.010671619 -0.016088836 -0.004035347 -0.01232434 -0.010612312 -0.025376437 0.020139124
-0.011341329 0.009722697 -0.009639197 0.003489043 -0.019547636 -0.011069113 -0.00026098278 -0.025498804
0.0053893463 0.025760626 -0.015296849 -0.005060602 -0.0011856038 0.029229987 -0.011873778 0.016760463
-0.008015593 -0.0017182202 0.012744708 0.007822914 0.012835309 -0.008677454 0.033606138 -0.011035302
-0.009140931 0.0035008166 -0.0010102731 -0.0006420466 0.013276823 0.0015146229 0.011585047 -0.0032090184
-0.01229558 0.006622216 -0.0028128529 0.0081822295 -0.0054263305 -0.004277917 0.022493476 -0.0055706613
0.0071466933 0.015736984 -0.0102456035 0.0068490515 0.002805486 0.022744277 0.005489637 0.022096485
0.0032116123 -0.008861273 -0.010682695 -0.007413444 0.027094522 0.020108908 0.0017431661 -0.009899767
0.015806336 0.0023444497 0.006019367 0.0003056705 -0.016183829 0.0016115494 0.006129764 0.009665353
0.0013945092 -0.017149372 -0.0052169594 0.020109478 -0.0007630992 0.01083763 0.0080659045 -0.007263156
0.026541084 0.0024725178 -0.010013234 0.00055752124 0.0070684706 -0.013464662 -0.00041817588 0.007961297
00000000: 2a3f cfbc 21ae 44bb c49d 5fbc b98d e2bc
00000010: caa5 1c3c 2962 c4bb 235b ea3c c6c8 9e3b
00000020: 5547 743c 8122 00bc fdce 04bd 1c37 c23b
00000030: e553 b6bb a706 f03b 88e2 85bc dcdf 1bbc
00000040: 0878 2bbc 12d7 0abb 6461 7aba eefc 62bb
00000050: 2bb5 a4ba 8cdd 2c3b 15c5 8a39 4534 173c
00000060: 9bb8 e03c 5ba3 89bc 51db 0ebc d3ef 8a3c
00000070: fb9d 2cbc bd04 c1bb c5ad 82bc 3c8e c13b
00000080: 895b fe3b 15b7 84bc 9737 683b 7b4c 943c
00000090: 0e79 c1bb aad5 fb3c 2beb b73b 7dca 6c3c
000000a0: a7cf 7c3b 04d8 2e3c bccc 83bc f23a 84bb
000000b0: 07ec 49bc 43df 2dbc 3fe2 cfbc cefa a43c
000000c0: fbd0 39bc f24b 1f3c b9ed 1dbc 6ea8 643b
000000d0: 5d22 a0bc 3a5b 35bc 84d4 88b9 dee2 d0bc
000000e0: 1d99 b03b f307 d33c a39f 7abc 68d3 a5bb
000000f0: 4366 9bba ba73 ef3c 3c8a 42bc 3d4d 893c
00000100: d553 03bc e735 e1ba 2ecf 503c ae2b 003c
00000110: 304b 523c e12b 0ebc 97a6 093d 69cd 34bc
00000120: d8c3 15bc f56d 653b 246b 84ba 054f 28ba
00000130: 0887 593c 5086 c63a 35cf 3d3c 654e 52bb
00000140: 6673 49bc 2dff d83b d757 38bb c20e 063c
00000150: 5ccf b1bb c52d 8cbb 3d44 b83c 188a b6bb
00000160: cf2e ea3b d9ea 803c 2ddd 27bc 026e e03b
00000170: 3fdc 373b 3552 ba3c 6ae2 b33b b003 b53c
00000180: ea79 523b df2e 11bc 7806 2fbc 7aec f2bb
00000190: 55f5 dd3c 70bb a43c f37a e43a a232 22bc
000001a0: 4a7c 813c 57a5 193b 1c3e c53b 6642 a039
000001b0: f393 84bc a03a d33a 30dc c83b 6e5b 1e3c
000001c0: f7c7 b63a d77c 8cbc 07f3 aabb a2bc a43c
000001d0: b80a 48ba 5190 313c db26 043c c5ff edbb
000001e0: b06c d93c f709 223b 8c0e 24bc 9e26 123a
000001f0: a19e e73b e39a 5cbc 9e3e dbb9 1a70 023c

network_body._body_endoder.seq_layers.2.weight f4 [128, 128]
-0.12613037 0.06945333 -0.007228681 -0.1626112 -0.057726413 0.08273029 -0.04102224 0.117992595
-0.004343303 -0.0006479058 -0.018393015 -0.088733524 0.01649446 -0.012370081 -0.030147616 0.0569469
-0.019343479 0.053221032 0.006849885 0.021870371 0.08518349 0.097556375 -0.039785072 -0.11369284
-0.055810213 -0.102915406 -0.023298554 0.011819422 0.110420905 -0.007146703 -0.09450365 -0.111130044
0.08852757 -0.016488152 -0.08319427 -0.16473407 -0.1405337 0.12083329 -0.0025353231 0.09362939
0.0067131137 0.10148683 -0.035421435 -0.040321477 -0.11261076 0.10410059 0.0027348492 0.0748121
-0.018758476 -0.08706282 0.10026393 0.018835034 -0.037254255 -0.11879797 -0.10067973 0.01336706
-0.042072166 -0.074052125 -0.079362534 -0.055596434 0.054554466 0.14274023 -0.013415495 -0.03245848
0.105660744 0.029068915 0.006897318 0.2408368 -0.011001016 -0.08362094 0.23919636 0.08343087
0.03412577 -0.08910497 0.18285266 -0.050492607 -0.08963205 0.10777608 -0.049473792 0.09595208
0.0123513695 0.11726229 0.061988268 -0.07626206 0.054185744 -0.16189237 -0.12424274 -0.103795774
-0.21053801 0.050562333 0.0316366 -0.027757324 -0.02233809 0.047237054 0.0014282844 0.133834
-0.06909784 -0.19912657 -0.018018452 -0.0072772843 0.15102467 0.00897803 0.061237406 -0.08813086
-0.0038348967 -0.0359755 0.11324602 -0.043519672 -0.08222755 -0.0568223 0.0304011 0.0955181
-0.05624396 -0.059413843 -0.047571704 0.19818506 -0.10326416 0.19751675 0.021508956 -0.06725334
0.0048337644 0.07225403 0.11475832 -0.06933978 0.073077634 -0.17963861 0.044267036 0.07484386
-0.1287908 -0.063343085 0.0004326085 0.03870274 0.038598605 0.010905738 0.04561194 -0.05195232
-0.0049169706 0.016493578 -0.20044452 0.082573645 0.039307617 0.09948514 -0.102948844 0.01595879
-0.033735715 -0.21454747 0.024235485 -0.01822103 -0.048391573 0.039336704 0.019911518 -0.081761226
-0.0918144 0.015887884 -0.000612016 -0.023191078 0.021436034 -0.07550987 0.034549527 0.11797163
-0.014752287 0.0019607884 -0.0033482672 0.058094252 -0.053009123 0.053055946 -0.01640936 0.017106077
0.049093943 -0.04020892 0.2417644 0.11019957 0.03443945 -0.044374 -0.068581216 -0.051687058
0.0009715531 0.035702087 0.0979084 0.01312649 -0.06875128 0.1121846 -0.18437384 0.10675012
-0.062389858 0.032490678 0.11575098 -0.030308355 0.049731288 0.12949991 0.04903471 0.013338485
-0.018713694 0.15089923 0.053198095 0.016778158 -0.023722883 -0.07453092 -0.11418189 -0.112397835
0.013823212 0.028447878 0.1096453 0.103650875 -0.089890815 0.108548224 -0.0052275374 -0.12612733
-0.06242893 -0.13014907 0.11281757 -0.096085615 0.0038842033 -0.1379185 0.11036964 -0.037770644
-0.04268669 0.12950122 0.06700229 -0.04881032 -0.16668084 0.10789025 -0.05275533 -0.14269596
-0.10577021 -0.07453372 -0.05651898 0.020357931 -0.079086386 -0.028069342 -0.12985033 -0.11056146
-0.041228935 0.16585962 0.005257039 0.08903727 -0.005259905 -0.041767575 0.028360886 -0.1506107
0.08410182 -0.11031144 -0.05490383 -0.08486173 0.08615511 0.1312425 -0.1386419 -0.15191889
-0.1093107 0.033553798 -0.06542998 0.028513636 -0.1351415 -0.028152876 -0.16586167 0.019053541
00000000: 5228 01be 8c3d 8e3d 92de ecbb 8d83 26be
00000010: 8872 6cbd 806e a93d f006 28bd 1aa6 f13d
00000020: 4452 8ebb 39d8 29ba f3ac 96bc ecb9 b5bd
00000030: 641f 873c e1ab 4abc 22f8 f6bc 2741 693d
00000040: 3776 9ebc 4cfe 593d 0075 e03b 7e29 b33c
00000050: ae74 ae3d a3cb c73d acf5 22bd cbd7 e8bd
00000060: 4099 64bd 50c5 d2bd 9cdc bebc 40a6 413c
00000070: 5b24 e23d e42e eabb 218b c1bd 2698 e3bd
00000080: f14d b53d 2912 87bc c261 aabd 0cb0 28be
00000090: 11e8 0fbe 7277 f73d aa27 26bb c4c0 bf3d
000000a0: aef9 db3b 54d8 cf3d 1116 11bd 2228 25bd
000000b0: 78a0 e6bd b132 d53d 283b 333b 1637 993d
000000c0: 60ab 99bc fe4d b2bd 2d57 cd3d ee4b 9a3c
000000d0: eb97 18bd 5a4c f3bd 2d31 cebd 8301 5b3c
000000e0: dd53 2cbd a4a8 97bd d388 a2bd 16b9 63bd
000000f0: 8174 5f3d 7f2a 123e aacc 5bbc 2ff3 04bd
00000100: a964 d83d ef21 ee3c e602 e23b ec9d 763e
00000110: 9b3d 34bc 7541 abbd e4ef 743e cedd aa3d
00000120: 77c7 0b3d ab7c b6bd ba3d 3b3e 56d1 4ebd
00000130: 0291 b7bd b5b9 dc3d 08a5 4abd 8682 c43d
00000140: 665d 4a3c 3627 f03d 69e7 7d3d 482f 9cbd
00000150: dff1 5d3d 1dc7 25be fa72 febd e192 d4bd
00000160: 4797 57be 731a 4f3d 6195 013d 5463 e3bc
00000170: 5ffe b6bc a47b 413d 4635 bb3a c80b 093e
00000180: 2b83 8dbd d6e7 4bbe 6f9b 93bc 4976 eebb
00000190: 36a6 1a3e 9618 133c 13d4 7a3d f47d b4bd
000001a0: e452 7bbb 0c5b 13bd 88ed e73d af41 32bd
000001b0: eb66 a8bd 80be 68bd ba0b f93c fe9e c33d
000001c0: 1160 66bd ee5b 73bd 8cda 42bd 06f1 4a3e
000001d0: 297c d3bd d541 4a3e 8d33 b03c 1ebc 89bd
000001e0: 8e64 9e3b ecf9 933d 6906 eb3d 0402 8ebd
000001f0: baa9 953d 2ff3 37be 5a51 353d bd47 993d
00000200: bce1 03be 05ba 81bd bbcf e239 c486 1e3d
00000210: 9219 1e3d fbad 323c 96d3 3a3d f5cb 54bd
00000220: 8a1e a1bb 8a1d 873c 5441 4dbe 5f1c a93d
00000230: 0601 213d ddbe cb3d d8d6 d2bd 02bc 823c
00000240: 762e 0abd 55b2 5bbe 7f89 c63c 4544 95bc
00000250: 3e36 46bd 861f 213d 7b1d a33c 6e72 a7bd
00000260: 3009 bcbd 4f27 823c b36f 20ba 37fb bdbc
00000270: 9f9a af3c eba4 9abd ce83 0d3d 1c9b f13d
00000280: 94b3 71bc 9280 003b 9a6e 5bbb 3df4 6d3d
00000290: 1820 59bd 3151 593d ec6c 86bc 0b22 8c3c
000002a0: bb16 493d 1cb2 24bd 1691 773e 50b0 e13d
000002b0: 6110 0d3d 83c1 35bd 4f74 8cbd cfb5 53bd
000002c0: d3af 7e3a 5a3c 123d 3384 c83d 7d10 573c
000002d0: 79cd 8cbd 0ac1 e53d 7fcc 3cbe cf9f da3d
000002e0: 828c 7fbd f214 053d da0e ed3d 3a49 f8bc
000002f0: 09b3 4b3d a09b 043e 9fd8 483d a989 5a3c
00000300: 764d 99bc 5485 1a3e 3fe6 593d 5972 893c
00000310: 7e56 c2bc aba3 98bd 32d8 e9bd d630 e6bd
00000320: c17a 623c 860b e93c b78d e03d e946 d43d
00000330: ad18 b8bd 884e de3d c34b abbb 8627 01be
00000340: 7ab5 7fbd cc45 05be e60c e73d 89c8 c4bd
00000350: 1e8e 7e3b 823a 0dbe 7a09 e23d 64b5 1abd
00000360: 3dd8 2ebd f89b 043e 7f38 893d 55ed 47bd
00000370: 62ae 2abe 90f5 dc3d f915 58bd e41e 12be
00000380: 0d9e d8bd 23a5 98bd 7280 67bd adc5 a63c
00000390: 0bf8 a1bd adf1 e5bc 7cf7 04be 0c6e e2bd
000003a0: acdf 28bd 1bd7 293e 3d43 ac3b 2c59 b63d
000003b0: 485b acbb 7a14 2bbd 1755 e83c b139 1abe
000003c0: 933d ac3d f7ea e1bd d7e2 60bd fdcb adbd
000003d0: 1772 b03d 6f64 063e 24f8 0dbe a090 1bbe
000003e0: 4ade dfbd b56f 093d 2700 86bd 6e95 e93c
000003f0: 8962 0abe dca0 e6bc a4d7 29be 2c16 9c3c

network_body._body_endoder.seq_layers.2.bias f4 [128]
0.02170742 0.0028530476 0.004921809 0.016415196 -0.00584188 0.0016734612 0.008959838 -0.0059331213
0.0056392043 -0.0051986957 -0.014127375 -0.025748495 -0.019523732 0.0014781049 0.024361385 0.009969362
-0.0081649665 -0.0052081966 -0.014305528 0.0069660796 -0.014613309 0.007993273 0.019839136 0.0034459657
0.0012730964 -0.009347678 -0.0037697023 -9.902138e-05 0.015641144 0.017083941 -0.0066373744 0.0017718881
-0.010934229 -0.017586531 0.008194129 -0.0074421214 0.020654794 0.023657871 0.02836403 0.0027317514
0.008072514 -0.014986568 -0.0027671459 -0.0066306 0.008637949 -0.0049530384 -0.021666974 -0.00054275605
-0.00039189847 -0.004275644 0.0033405698 0.0025296155 -0.013343454 0.025752699 -0.01954572 -0.019166443
0.004056816 -0.028089376 -0.007877074 0.0104946075 -0.006513644 0.0193054 0.010417834 -0.013469258
0.015760418 0.000114799426 -0.010340682 0.0098596215 -0.0028355918 -0.0020166342 0.022544572 0.0011458547
-0.0039299116 -0.008416476 0.0067534093 -0.0041935705 -0.026861679 0.009347895 0.028945856 -0.0047935406
0.022256115 0.0087304525 0.0067781154 0.0015538371 4.633903e-06 0.0074393135 0.013547754 -0.0021407327
0.011263531 -0.01776304 0.012949937 -0.027523194 -0.009859685 -0.025870658 -0.012153753 -0.022596687
0.008206631 0.006259561 0.0056519904 -0.00097276026 0.011502626 0.0031914234 0.013018307 0.000785614
-0.007046261 0.01335875 -0.013709339 0.01844176 -0.006403909 -0.011773268 -8.4331215e-05 0.019451367
-0.010493376 0.008137298 -0.008312054 -0.012095378 0.049742315 -0.002693971 0.009102663 0.004942004
-0.016966699 -0.010291895 -0.005693337 0.0066736797 0.0032829975 0.02458971 0.0052508665 0.013973611
00000000: c2d3 b13c 32fa 3a3b 2047 a13b 2979 863c
00000010: 3e6d bfbb 0a58 db3a 49cc 123c a16a c2bb
00000020: 13c9 b83b d259 aabb 8176 67bc 82ee d2bc
00000030: 3cf0 9fbc f8bc c13a 8791 c73c 8956 233c
00000040: 5ac6 05bc 85a9 aabb bc61 6abc b643 e43b
00000050: a96c 6fbc 38f6 023c af85 a23c b6d5 613b
00000060: 07de a63a 0127 19bc 1c0d 77bb b3a9 cfb8
00000070: db21 803c 9ff3 8b3c 557e d9bb b33e e83a
00000080: 7b25 33bc a111 90bc ab40 063c 0add f3bb
00000090: 3e34 a93c 27ce c13c af5b e83c 2f07 333b
000000a0: 9442 043c 398a 75bc 0159 35bb 8145 d9bb
000000b0: 2f86 0d3c 194d a2bb f07e b1bc be47 0eba
000000c0: b977 cdb9 b41a 8cbb 76ed 5a3b e8c7 253b
000000d0: 819e 5abc 53f7 d23c 591e a0bc f202 9dbc
000000e0: 0aef 843b b11b e6bc d80e 01bc 93f1 2b3c
000000f0: 6870 d5bb 5c26 9e3c 90af 2a3c 2aae 5cbc
00000100: fe1b 813c 79c0 f038 f76b 29bc 408a 213c
00000110: 56d5 39bb 8229 04bb 65af b83c 8130 963a
00000120: 7dc6 80bb 42e5 09bc b44b dd3b 386a 89bb
00000130: 060d dcbc ea27 193c dc1f ed3c 2213 9dbb
00000140: 7552 b63c 2c0a 0f3c f41a de3b 1faa cb3a
00000150: ec7c 9b36 7cc5 f33b 66f7 5d3c 894b 0cbb
00000160: ac8a 383c cb83 91bc f92b 543c 5278 e1bc
00000170: 848a 21bc b4ee d3bc 8920 47bc b01c b9bc
00000180: 1b75 063c 011d cd3b 5534 b93b d600 7fba
00000190: 8375 3c3c 3327 513b bd4a 553c aaf1 4d3a
000001a0: 52e4 e6bb a9de 5a3c 239d 60bc 2d13 973c
000001b0: e2d7 d1bb aae4 40bc fada b0b8 7958 9f3c
000001c0: 69ec 2bbc 4d52 053c 482f 08bc b12b 46bc
000001d0: 99be 4b3d 558d 30bb 5623 153c 89f0 a13b
000001e0: bffd 8abc 569f 28bc 2c8f babb e2ae da3b
000001f0: 8f27 573b 5c70 c93c 760f ac3b 93f1 643c

action_model._continuous_distribution.log_sigma f4 [1, 3]
-0.016450524 -0.038891748 -0.028009214
00000000: 40c3 86bc f44c 1fbd 9473 e5bc

action_model._continuous_distribution.mu.weight f4 [3, 128]
-0.015647965 -0.023974538 0.015574993 0.06389838 -0.029137077 -0.030541953 -0.013031105 -0.028600207
0.013318826 -0.0067606084 -0.0059151216 0.0056980466 0.014159197 -0.007649084 -0.018754583 0.00014940083
-0.0021206567 -0.01612177 -0.019740386 -0.036519457 -0.015684005 -0.04292268 -0.033879247 0.012276541
-0.01867822 0.047085073 0.0019040676 -0.028128676 0.012014393 -0.04271818 0.0070924857 0.027680606
0.0223479 0.0070362845 -0.017491484 -0.015635386 0.030824488 -0.016848871 -0.0066768355 -0.009114451
0.016551394 0.015486958 -0.0019984136 -0.020803498 -0.0274278 -0.031676542 0.020728584 0.018569091
0.028643932 -0.01588379 -0.016343128 -0.011926622 0.024972446 -0.010657871 -0.0020705753 -0.012567236
-0.0061119525 0.017093781 -0.013777947 -0.012982003 -0.008020443 0.014169346 -0.0037790157 0.00035093914
0.006151507 0.0032046554 -0.033271816 0.02398741 0.02859123 -0.023013694 -0.00061559334 -0.015549823
-0.018971758 -0.04249787 0.029277088 0.027510822 0.00092541176 0.011596769 -0.028590903 0.038145673
0.009532873 0.016603366 -0.03349349 -0.025775345 0.020427398 -0.009378697 -0.014962786 -0.0032791623
0.0036767896 -0.00416714 0.005517109 0.014806598 -0.0038841849 -0.0015082854 -0.021968683 -0.024128625
0.002954741 0.027283669 0.024498135 0.021372365 0.014570578 -0.0009953993 -0.0005794616 0.032972362
-0.014368416 -0.019730171 0.012596024 -0.0045541706 -0.0038992204 0.019763798 0.0023681512 0.0015874183
-0.005934995 -0.0013733411 0.0030152276 0.021767592 -0.003098698 -0.01629486 0.0068181986 0.00777326
-0.0057709836 -0.011809676 0.034247246 -0.028444743 -0.024156999 -0.0097733755 0.0036811475 0.0059502106
-0.03160305 0.010977108 -0.0060159247 -0.0032786084 0.0008913449 -0.004036697 -0.0155512905 0.0027106542
-0.0001665026 0.0002251509 0.020403419 0.019202117 0.050468665 -0.009341264 -0.03338187 -0.010906648
0.012532481 0.013524098 0.014186998 -0.012035681 0.028868742 -0.019549545 -0.035702758 -0.0076592974
0.00093660224 0.005620678 0.007889521 -0.012812255 -0.025049334 -0.022589205 0.025843006 0.032570858
0.057863366 0.030628026 -0.015149895 0.0017939677 -0.04118689 -0.019032935 -0.01571596 -0.0047619636
-0.026367147 0.024077164 0.04135986 0.022122698 -0.016347272 0.0054143784 0.016756596 0.0003316441
0.013819986 0.042807166 -0.018121399 0.04760526 0.028611103 -0.025019249 0.010488884 0.040481385
0.044513382 0.038467873 0.0059464606 -0.036587752 -0.0019430878 -0.026025172 0.049254503 0.0100727845
-0.010270432 0.06840352 0.015552347 -0.019586306 0.0071942634 0.016631909 -0.023684671 -0.006905097
0.0102003245 0.014411801 -0.017923174 0.051608723 0.008586967 -0.007192246 -0.040979136 0.004567694
-0.03647401 -0.009553001 -0.0014652717 -0.0023012112 -0.014525228 -0.0045511094 -0.02465584 0.006568108
-0.025030993 0.0079633705 -0.0057681086 0.02553609 0.004686606 0.009340094 0.008221025 0.051371958
0.06586416 0.001964673 -0.021264533 0.018366458 -0.04119405 -0.0056168376 -0.03553512 -0.0038067987
0.00701632 -0.015365293 0.015869468 -0.021612406 0.061849445 0.0018407558 -0.015873624 -0.033747416
0.004367751 -0.028680168 0.01671597 0.027510004 -0.0389092 0.0023488563 -0.01469381 -0.009911952
0.0051430697 0.0014913329 0.005983277 -0.015559706 -0.0034376944 -0.013412808 -0.002673972 -0.01209925
00000000: 2930 80bc 4066 c4bc 412e 7f3c 27dd 823d
00000010: e1b0 eebc 1e33 fabc 6a80 55bc fb4a eabc
00000020: 3537 5a3c 1888 ddbb a3d3 c1bb aeb6 ba3b
00000030: fafb 673c 2ba5 fabb 36a3 99bc 7ba8 1c39
00000040: b7fa 0abb cd11 84bc 97b6 a1bc 6d95 15bd
00000050: be7b 80bc b1cf 2fbd f7c4 0abd 8c23 493c
00000060: 1103 99bc 47dc 403d e891 f93a 1c6e e6bc
00000070: 04d8 443c 42f9 2ebd 1568 e83b 70c2 e23c
00000080: f112 b73c a290 e63b 4d4a 8fbc c815 80bc
00000090: a383 fc3c a506 8abc 5bc9 dabb c754 15bc
000000a0: ca96 873c 03bd 7d3c d1f7 02bb 196c aabc
000000b0: 44b0 e0bc 43bf 01bd fece a93c 351e 983c
000000c0: aea6 ea3c b91e 82bc 06e2 85bc e167 43bc
000000d0: 0493 cc3c 5a9e 2ebc 7db2 07bb cfe6 4dbc
000000e0: c646 c8bb 4208 8c3c e6bc 61bc 78b2 54bc
000000f0: 2d68 03bc 8b26 683c 5da9 77bb 41fe b739
00000100: 9592 c93b 3205 523b 0748 08bd 3f81 c43c
00000110: 2838 ea3c 3787 bcbc c55f 21ba afc4 7ebc
00000120: a96a 9bbc 3f12 2ebd 81d6 ef3c 605e e13c
00000130: 5597 723a 6000 3e3c 7837 eabc a33e 1c3d
00000140: c42f 1c3c c803 883c 7830 09bd d126 d3bc
00000150: 5c57 a73c 1ba9 19bc 7926 75bc 37e7 56bb
00000160: 4bf6 703b 818c 88bb ddc8 b43b 6097 723c
00000170: cf8d 7ebb a9b1 c5ba abf7 b3bc 65a9 c5bc
00000180: 54a4 413b 0082 df3c 50b0 c83c 1915 af3c
00000190: 6fb9 6e3c 0f78 82ba 02e7 17ba 070e 073d
000001a0: 8169 6bbc 2ba1 a1bc 8e5f 4e3c 273b 95bb
000001b0: 108a 7fbb b0e7 a13c fc32 1b3b eb10 d03a
000001c0: 597a c2bb ae01 b4ba 209b 453b f351 b23c
000001d0: 8713 4bbb cc7c 85bc 326b df3b d5b6 fe3b
000001e0: 851a bdbb 5f7d 41bc d746 0c3d f304 e9bc
000001f0: e6e4 c5bc 8220 20bc 683f 713b fcf9 c23b
00000200: 3372 01bd 54d9 333c 3c21 c5bb ecdd 56bb
00000210: 25a9 693a 4546 84bb d7ca 7ebc 3ba5 313b
00000220: 3497 2eb9 7c16 6c39 1225 a73c c24d 9d3c
00000230: 3bb8 4e3d 1a0c 19bc 6dbb 08bd ccb1 32bc
00000240: 0955 4d3c 2e94 5d3c 9570 683c 4e31 45bc
00000250: 247e ec3c 5e26 a0bc 0e3d 12bd d8fa fabb
00000260: 5086 753a aa2d b83b 0d43 013c 7eea 51bc
00000270: 4334 cdbc ff0c b9bc b6b4 d33c 0569 053d
00000280: 2302 6d3d a0e7 fa3c 4437 78bc 9123 eb3a
00000290: 96b3 28bd f5ea 9bbc c2be 80bc 3f0a 9cbb
000002a0: eaff d7bc 793d c53c f568 293d a93a b53c
000002b0: b7ea 85bc 196b b13b 2145 893c 85e0 ad39
000002c0: 396d 623c 9156 2f3d 5473 94bc bcfd 423d
000002d0: d561 ea3c 2bf5 ccbc 91d9 2b3c cfcf 253d
000002e0: aa53 363d 7d90 1d3d 87da c23b 0add 15bd
000002f0: 35af feba be32 d5bc 17bf 493d 5208 253c
00000300: 5045 28bc 2517 8c3d 45cf 7e3c 7673 a0bc
00000310: dbbd eb3b a43f 883c 5b06 c2bc 2744 e2bb
00000320: 431f 273c 791f 6c3c 9fd3 92bc ab63 533d
00000330: 5ab0 0c3c efac ebbb bdd9 27bd 98ac 953b
00000340: c665 15bd 3184 1cbc 5c0e c0ba ebcf 16bb
00000350: 39fb 6dbc 7921 95bb 0bfb c9bc 4939 d73b
00000360: cc0d cdbc cc78 023c 6702 bdbb 1031 d13c
00000370: 1a92 993b 3207 193c 7ab1 063c 676b 523d
00000380: cae3 863d bec1 003b f532 aebc 4175 963c
00000390: 18bb 28bd 730d b8bb 468d 11bd 7c7b 79bb
000003a0: 28e9 e53b b6be 7bbc b000 823c 800c b1bc
000003b0: d855 7d3d 8445 f13a 6709 82bc bb3a 0abd
000003c0: 5a1f 8f3b acf2 eabc eeef 883c a95c e13c
000003d0: 415f 1fbd 45ef 193b 4ebe 70bc bd65 22bc
000003e0: 3287 a83b d478 c33a 5e0f c43b 23ee 7ebc
000003f0: f14a 61bb 65c1 5bbc ce3d 2fbb ef3b 46bc

action_model._continuous_distribution.mu.bias f4 [3]
-0.004011423 -0.02927894 -0.0005079894
00000000: 4172 83bb 63da efbc 972a 05ba

exp_avg f4 [128, 11]
-0.00015532394 2.1994296e-05 -0.00039444532 0.0 2.5359064e-05 0.0 5.8604805e-05 -9.405357e-05
2.3026592e-05 -0.00011138634 3.3339733e-05 0.00014344825 1.7763241e-06 0.00036669715 0.0 6.733997e-06
0.0 -4.646084e-05 -0.00016318013 1.8953567e-06 0.0001015123 1.4136755e-05 -0.0003616795 5.8758455e-05
-0.0005420907 0.0 3.0821946e-05 0.0 -2.6642023e-05 2.5643127e-05 6.04837e-05 0.00027920122
9.770037e-06 0.00028309115 2.2766764e-05 2.0017895e-05 0.0 -1.0904322e-05 0.0 1.890818e-05
0.00044648536 2.2438357e-05 -5.4106866e-05 -3.899675e-05 0.00016271131 9.9239505e-06 0.0003996949 0.0
2.3844175e-05 0.0 -0.0001553728 -0.00078089884 9.531382e-06 0.00040978513 3.1525112e-06 0.00022434251
1.6911701e-05 -0.00012500059 0.0 2.0261596e-05 0.0 -4.155677e-06 0.0003218306 1.6964068e-05
-0.00017151184 6.9733433e-06 -0.0006823946 -1.2891783e-05 -9.292106e-05 0.0 -4.0718385e-07 0.0
-3.0794115e-05 1.4993424e-05 -1.5037677e-05 0.00038523405 4.2695865e-05 0.00035262565 -5.607918e-05 0.0005344117
0.0 -4.1818465e-05 0.0 7.26919e-06 0.00013621939 -5.7213314e-05 0.00016671032 -4.352455e-05
-0.00034635264 -6.0969942e-05 0.00028927633 0.0 7.84844e-05 0.0 -5.5968692e-05 2.8785089e-05
-6.242032e-05 4.155235e-05 -5.7472635e-06 -0.00023705733 5.3722615e-05 -0.00014750149 0.0 6.88104e-05
0.0 -4.1004492e-05 -0.0012467415 5.654928e-05 0.0005490437 -6.37508e-06 -0.0001817102 1.2207119e-05
0.00014827974 0.0 -1.3690574e-05 0.0 -6.0697444e-06 -0.00011795217 1.2341263e-05 5.9509166e-05
6.587217e-06 -0.00025964962 1.111411e-05 4.999877e-06 0.0 2.6345193e-05 0.0 1.8508263e-05
-0.00032129738 1.1115689e-05 -0.0002318526 -1.13639835e-05 -0.0002493455 -8.027562e-08 -0.0002875205 0.0
3.0629777e-05 0.0 -3.5166322e-05 -0.00010751022 -4.6923205e-06 -0.00037977714 -2.2010376e-05 0.00027318305
-2.4027175e-05 0.0005711843 0.0 1.6200089e-05 0.0 6.165033e-06 0.00050009735 -2.3162855e-05
-0.00012471376 2.5489902e-05 0.00035890038 1.5884969e-05 -0.00019681723 0.0 -3.5778492e-05 0.0
5.2173426e-05 -0.00016356903 1.631967e-05 0.00019135232 -1.4452011e-05 -0.0001902988 1.2851442e-05 -7.678496e-05
0.0 1.815112e-05 0.0 -4.288346e-05 -0.00035127584 1.1957246e-05 -7.874094e-05 4.5159615e-07
-0.00039103348 4.0701042e-07 -0.00025347032 0.0 2.441428e-05 0.0 4.0096427e-05 0.000143946
9.222184e-07 6.416548e-05 2.29319e-05 3.664111e-05 -1.938769e-05 -9.2264534e-05 0.0 1.5320153e-05
0.0 2.674351e-05 0.00022205242 -1.911686e-05 9.522595e-05 1.6045389e-06 -7.6121076e-05 -1.4193876e-06
-0.00030526434 0.0 -3.9876973e-05 0.0 -5.6371243e-07 5.5789747e-05 -3.114236e-06 -6.632563e-05
1.0744516e-05 0.00035221427 8.5376105e-06 -0.00012970259 0.0 4.909442e-06 0.0 2.5018873e-05
-0.00025031797 1.1568439e-05 -0.00015726384 2.547177e-06 -3.1543143e-05 1.16718265e-05 -3.7502676e-05 0.0
-3.3821536e-05 0.0 -1.7468768e-05 0.00018323916 1.3603191e-05 0.00019502219 2.0001638e-05 0.0002202105
-3.4809154e-06 0.0006970737 0.0 4.088511e-06 0.0 -1.9271292e-05 -5.7217705e-05 -9.545435e-07
0.0002754448 -3.224219e-06 -0.00014957966 3.8176502e-05 -8.0715625e-05 0.0 -5.5113687e-05 0.0
-4.815896e-05 -0.00058649824 4.361194e-05 0.00063576055 4.9213217e-05 0.00015629196 1.544433e-05 0.00010415408
00000000: 74de 22b9 6480 b837 8ecd ceb9 0000 0000
00000010: 2dba d437 0000 0000 6ece 7538 a03e c5b8
00000020: 3b29 c137 1698 e9b8 44d6 0b38 996a 1639
00000030: 086a ee35 4241 c039 0000 0000 98f4 e136
00000040: 0000 0000 f2de 42b8 551b 2bb9 f663 fe35
00000050: 00e3 d438 e72c 6d37 cd9f bdb9 6973 7638
00000060: 171b 0eba 0000 0000 d046 0138 0000 0000
00000070: 4f7d dfb7 321c d737 e1af 7d38 c161 9239
00000080: fde9 2337 da6b 9439 41fb be37 1aec a737
00000090: 0000 0000 b5f1 36b7 0000 0000 029d 9e37
000000a0: 4016 ea39 013a bc37 cef0 62b8 7190 23b8
000000b0: 7c9d 2a39 0b7f 2637 248e d139 0000 0000
000000c0: fa04 c837 0000 0000 92eb 22b9 3cb5 4cba
000000d0: f9e8 1f37 6ed8 d639 bb8f 5336 7c3d 6b39
000000e0: 9add 8d37 9712 03b9 0000 0000 72f7 a937
000000f0: 0000 0000 fe70 8bb6 5fbb a839 0f4e 8e37
00000100: dcd7 33b9 90fc e936 bae2 32ba c949 58b7
00000110: 9dde c2b8 0000 0000 ec9a dab4 0000 0000
00000120: ee28 01b8 448c 7b37 554a 7cb7 3df9 c939
00000130: 5614 3338 9de0 b839 9036 6bb8 c317 0c3a
00000140: 0000 0000 3c66 2fb8 0000 0000 dee9 f336
00000150: 1dd6 0e39 54f8 6fb8 f6ce 2e39 218e 36b8
00000160: aa96 b5b9 fab9 7fb8 03aa 9739 0000 0000
00000170: fe97 a438 0000 0000 edbf 6ab8 8277 f137
00000180: a7e7 82b8 7f48 2e38 9ed8 c0b6 9892 78b9
00000190: 3854 6138 a1aa 1ab9 0000 0000 4d4e 9038
000001a0: 0000 0000 3dfc 2bb8 b469 a3ba 542f 6d38
000001b0: b3ed 0f3a 85e9 d5b6 7689 3eb9 2dcd 4c37
000001c0: 8a7b 1b39 0000 0000 91b0 65b7 0000 0000
000001d0: b5aa cbb6 175d f7b8 520d 4f37 7b99 7938
000001e0: c307 dd36 9521 88b9 bd76 3a37 9ec4 a736
000001f0: 0000 0000 dfff dc37 0000 0000 3142 9b37
00000200: ce73 a8b9 857d 3a37 751d 73b9 f0a7 3eb7
00000210: 96ba 82b9 fd63 acb3 59be 96b9 0000 0000
00000220: 7978 0038 0000 0000 8d7f 13b8 1c77 e1b8
00000230: ba72 9db6 d31c c7b9 eca2 b8b7 023a 8f39
00000240: f78d c9b7 88bb 153a 0000 0000 6de5 8737
00000250: 0000 0000 3bdd ce36 f718 033a da4d c2b7
00000260: 98c5 02b9 26d3 d537 cb2a bc39 b640 8537
00000270: b960 4eb9 0000 0000 dd10 16b8 0000 0000
00000280: cad4 5a38 ba83 2bb9 39e6 8837 bfa5 4839
00000290: ea76 72b7 f28a 47b9 869c 5737 9d07 a1b8
000002a0: 0000 0000 3c43 9837 0000 0000 c4dd 33b8
000002b0: 722b b8b9 fb9b 4837 b821 a5b8 e772 f234
000002c0: a003 cdb9 1683 da34 36e4 84b9 0000 0000
000002d0: 44cd cc37 0000 0000 362d 2838 36f0 1639
000002e0: 5e8e 7735 9490 8638 e15d c037 18af 1938
000002f0: bfa2 a2b7 257e c1b8 0000 0000 c783 8037
00000300: 0000 0000 4057 e037 bed6 6839 255d a0b7
00000310: 0bb4 c738 895b d735 31a3 9fb8 c981 beb5
00000320: e30b a0b9 0000 0000 9341 27b8 0000 0000
00000330: 0652 17b5 c9ff 6938 2bfe 50b6 4d18 8bb8
00000340: 5843 3437 66a9 b839 c23c 0f37 c600 08b9
00000350: 0000 0000 c9bb a436 0000 0000 9fdf d137
00000360: 1c3d 83b9 1116 4237 31e7 24b9 2bf0 2a36
00000370: 314d 04b8 1dd2 4337 314c 1db8 0000 0000
00000380: 99db 0db8 0000 0000 e589 92b7 e323 4039
00000390: 4339 6437 df7e 4c39 31c9 a737 4ee8 6639
000003a0: ac99 69b6 d3bb 363a 0000 0000 0b30 8936
000003b0: 0000 0000 c9a8 a1b7 0bfd 6fb8 dd1d 80b5
000003c0: 9369 9039 a95f 58b6 7cd8 1cb9 b51f 2038
000003d0: df45 a9b8 0000 0000 df29 67b8 0000 0000
000003e0: 4afe 49b8 3bbf 19ba f7eb 3638 2ba9 263a
000003f0: 4a6a 4e38 4ee2 2339 728e 8137 4c6d da38

exp_avg_sq f4 [128, 11]
2.9041396e-06 2.0440403e-08 2.8055888e-06 0.0 2.3146663e-08 0.0 2.4578037e-08 2.0714226e-06
2.0466713e-08 2.540116e-06 7.649972e-09 1.1808828e-06 6.7031767e-09 1.1473e-06 0.0 7.3706508e-09
0.0 7.047805e-09 1.1578649e-06 6.693083e-09 8.4180266e-07 2.0281548e-09 3.249814e-06 1.9326922e-08
3.619597e-06 0.0 2.0371903e-08 0.0 2.1571115e-08 2.022491e-06 1.9288512e-08 2.1362805e-06
6.215199e-09 4.3908453e-06 2.3578979e-08 1.8705822e-06 0.0 2.8492227e-08 0.0 2.6778032e-08
2.3809102e-06 2.3534307e-08 2.8645159e-06 9.3006305e-09 3.8081464e-06 2.3392602e-08 3.126893e-06 0.0
2.2638957e-08 0.0 2.6487548e-08 3.944981e-06 2.3368441e-08 2.679057e-06 8.91832e-09 9.972823e-07
6.040601e-09 9.216876e-07 0.0 7.3921322e-09 0.0 6.483982e-09 9.3118945e-07 6.049946e-09
8.7000257e-07 2.2763025e-09 3.4702882e-06 2.4091076e-08 3.3471513e-06 0.0 3.0600322e-08 0.0
2.7117316e-08 2.6930468e-06 2.4119364e-08 3.9778906e-06 1.0816e-08 1.19155e-06 8.4337595e-09 1.4836481e-06
0.0 8.346433e-09 0.0 9.447954e-09 1.1606193e-06 8.409849e-09 1.1077237e-06 3.221879e-09
3.686507e-06 1.9864865e-08 2.4342276e-06 0.0 2.2135191e-08 0.0 2.264092e-08 2.0882815e-06
1.9862117e-08 2.519308e-06 7.1678072e-09 5.293667e-06 3.5213393e-08 6.5205586e-06 0.0 3.7903252e-08
0.0 3.933771e-08 4.5593033e-06 3.5106016e-08 4.651718e-06 1.0951789e-08 7.1411046e-07 3.8098653e-09
5.9255314e-07 0.0 3.790444e-09 0.0 4.1234633e-09 3.968977e-07 3.8110413e-09 3.9481745e-07
1.5323478e-09 8.9278416e-07 5.862423e-09 7.382465e-07 0.0 7.1828614e-09 0.0 5.986725e-09
7.2229415e-07 5.8656706e-09 9.270177e-07 1.8257413e-09 2.0025211e-06 1.2359318e-08 1.780032e-06 0.0
1.4454621e-08 0.0 1.2502932e-08 1.4283515e-06 1.2344359e-08 1.7649957e-06 4.795717e-09 3.1006896e-06
2.044152e-08 3.8106796e-06 0.0 2.2012722e-08 0.0 2.229535e-08 2.5346908e-06 2.0327418e-08
2.4862172e-06 5.8583423e-09 2.2856066e-06 1.27636754e-08 2.1657806e-06 0.0 1.45980215e-08 0.0
1.4737219e-08 2.005426e-06 1.2759603e-08 1.4046619e-06 3.2026297e-09 5.912119e-07 2.902733e-09 4.0157613e-07
0.0 3.6816217e-09 0.0 3.1753344e-09 4.4278198e-07 2.9122642e-09 3.3488857e-07 1.1912726e-09
2.1184537e-06 1.31923e-08 1.995225e-06 0.0 1.5142025e-08 0.0 1.6975811e-08 1.7855073e-06
1.31486315e-08 1.7616513e-06 4.7714193e-09 1.1121084e-06 5.4394405e-09 1.0046076e-06 0.0 6.1592e-09
0.0 6.5727144e-09 1.0387243e-06 5.435577e-09 5.3411105e-07 1.921119e-09 9.834415e-07 6.4781878e-09
1.2439588e-06 0.0 8.098385e-09 0.0 6.8732326e-09 6.8231583e-07 6.4952435e-09 9.782945e-07
3.0674134e-09 2.0046955e-06 1.0949681e-08 1.4353867e-06 0.0 1.2091064e-08 0.0 1.1177138e-08
1.7214575e-06 1.0944782e-08 1.5814707e-06 3.872039e-09 2.1567976e-06 1.1307411e-08 1.8793013e-06 0.0
1.3373331e-08 0.0 1.1674949e-08 1.7688875e-06 1.1344225e-08 1.4491109e-06 4.2797392e-09 9.938403e-07
6.7671904e-09 1.0667304e-06 0.0 7.425593e-09 0.0 6.66745e-09 8.2610643e-07 6.7856805e-09
1.146385e-06 2.159954e-09 5.1608768e-06 3.3027643e-08 4.7265894e-06 0.0 3.6902353e-08 0.0
3.3346627e-08 4.556914e-06 3.310229e-08 5.5982323e-06 1.0235508e-08 6.6937326e-07 4.256286e-09 8.557469e-07
00000000: bde4 4236 ec94 af32 a647 3c36 0000 0000
00000010: 0dd4 c632 0000 0000 ad1f d332 c502 0b36
00000020: c7ce af32 dc76 2a36 ef6c 0332 d37e 9e35
00000030: c451 e631 eefc 9935 0000 0000 ee40 fd31
00000040: 0000 0000 2629 f231 ef67 9b35 fbf8 e531
00000050: 3df8 6135 ad5f 0b31 6117 5a36 5a04 a632
00000060: 34e8 7236 0000 0000 4afe ae32 0000 0000
00000070: 624b b932 21ba 0736 e3af a532 055d 0f36
00000080: 788d d531 1355 9336 b98a ca32 b710 fb35
00000090: 0000 0000 12bf f432 0000 0000 8405 e632
000000a0: bac7 1f36 7d28 ca32 023c 4036 9bc8 1f32
000000b0: 758f 7f36 e0f0 c832 9dd7 5136 0000 0000
000000c0: 9877 c232 0000 0000 bc86 e332 215f 8436
000000d0: bfbb c832 d9c9 3336 3037 1932 5cda 8535
000000e0: b08d cf31 e469 7735 0000 0000 e2fd fd31
000000f0: 0000 0000 b5c9 de31 daf6 7935 e3df cf31
00000100: 1f8a 6935 236d 1c31 19e3 6836 d6f0 ce32
00000110: 9f9f 6036 0000 0000 696d 0333 0000 0000
00000120: 9cef e832 31ba 3436 0b2f cf32 d279 8536
00000130: 45d1 3932 59ed 9f35 11e4 1032 c321 c735
00000140: 0000 0000 0064 0f32 0000 0000 8b50 2232
00000150: 93c6 9b35 e87a 1032 19ad 9435 e567 5d31
00000160: b565 7736 4da3 aa32 b65b 2336 0000 0000
00000170: cd23 be32 0000 0000 e97b c232 6724 0c36
00000180: 429d aa32 6211 2936 b348 f631 41a0 b136
00000190: 893d 1733 2ccb da36 0000 0000 11cb 2233
000001a0: 0000 0000 45f4 2833 1efc 9836 79c7 1633
000001b0: f415 9c36 7a26 3c32 4cb1 3f35 eee7 8231
000001c0: f10f 1f35 0000 0000 193d 8231 0000 0000
000001d0: 5eae 8d31 3415 d534 46f2 8231 4cf7 d334
000001e0: b29a d230 a9a7 6f35 6b6e c931 ea2b 4635
000001f0: 0000 0000 1ecd f631 0000 0000 cab3 cd31
00000200: ade3 4135 fc8a c931 2cd8 7835 90ed fa30
00000210: 0d63 0636 db54 5432 6fe9 ee35 0000 0000
00000220: 1854 7832 0000 0000 7acc 5632 c9b5 bf35
00000230: 1113 5432 cae4 ec35 93c7 a431 7115 5036
00000240: 6197 af32 faba 7f36 0000 0000 7d16 bd32
00000250: 0000 0000 fe83 bf32 a819 2a36 779c ae32
00000260: e3d8 2636 864a c931 6c62 1936 3d47 5b32
00000270: d457 1136 0000 0000 c7ca 7a32 0000 0000
00000280: f92e 7d32 f594 0636 5435 5b32 d187 bc35
00000290: 4215 5c31 c6b3 1e35 6b79 4731 3498 d734
000002a0: 0000 0000 c6ff 7c31 0000 0000 1335 5a31
000002b0: 7eb7 ed34 1821 4831 bcca b334 2eba a330
000002c0: c22a 0e36 59a4 6232 b4e5 0536 0000 0000
000002d0: aa11 8232 0000 0000 34d2 9132 90a5 ef35
000002e0: 4be4 6132 e171 ec35 d9f1 a331 c143 9535
000002f0: d3e5 ba31 0ed6 8635 0000 0000 e5a0 d331
00000300: 0000 0000 35d6 e131 4c6a 8b35 d7c3 ba31
00000310: d55f 0f35 af04 0431 cbfe 8335 be96 de31
00000320: 19f6 a635 0000 0000 1321 0b32 0000 0000
00000330: 9829 ec31 6328 3735 c42c df31 f14d 8335
00000340: 82ca 5231 6888 0636 351d 3c32 83a7 c035
00000350: 0000 0000 10b9 4f32 0000 0000 9305 4032
00000360: d40c e735 a907 3c32 eb42 d435 d10a 8531
00000370: 80bd 1036 8542 4232 4d3c fc35 0000 0000
00000380: 88c0 6532 0000 0000 f892 4832 836a ed35
00000390: 6ee4 4232 127f c235 fc0c 9331 1864 8535
000003a0: d684 e831 942c 8f35 0000 0000 3524 ff31
000003b0: 0000 0000 8317 e531 9ac1 5d35 7a27 e931
000003c0: 7ddd 9935 506e 1431 982b ad36 47da 0d33
000003d0: 1899 9e36 0000 0000 917e 1e33 0000 0000
000003e0: 0139 0f33 98e7 9836 5a2c 0e33 73d8 bb36
000003f0: 3ed8 2f32 fbae 3335 b03e 9231 7bb6 6535

exp_avg f4 [128]
3.4797144e-05 2.9996468e-06 9.1171496e-05 3.3021224e-05 1.505415e-05 2.605297e-05 -1.9575655e-05 -8.832946e-05
-9.299712e-05 8.122295e-05 1.8726041e-05 1.6856153e-05 -2.1248032e-07 -3.4255896e-05 2.4408764e-05 1.9777346e-05
1.2664456e-06 -2.9961153e-05 -1.9117656e-06 1.306373e-05 1.7917773e-05 -5.0281265e-06 5.864573e-05 2.3179184e-05
-2.034016e-05 -5.218651e-05 6.797179e-05 -2.505815e-05 -2.9919573e-05 8.711249e-05 -3.569922e-06 5.0133258e-05
-4.7827354e-05 3.3698325e-05 -1.8771336e-05 -1.8899615e-05 3.172485e-05 9.423051e-06 -1.5627165e-05 3.5117224e-05
1.8842757e-05 4.8317288e-05 -2.9908568e-05 -2.7260798e-05 3.5395453e-05 6.254084e-05 -3.9018487e-06 4.749194e-05
-5.4795368e-05 -1.5285521e-05 6.2654515e-05 -9.675288e-06 -2.9384166e-05 2.3543103e-05 1.1238667e-05 -4.5513298e-05
5.8030764e-05 4.559183e-05 7.3187166e-06 5.2608968e-05 -2.0686759e-05 -2.244135e-05 5.6777135e-05 -1.5523192e-05
-2.0776515e-05 1.5809526e-05 -7.642362e-05 -1.3932062e-05 1.7387842e-05 1.3013983e-05 -3.4854453e-05 9.235057e-06
3.1773178e-07 1.8187304e-05 -2.1306869e-05 0.00010265878 -1.7846141e-05 -4.5243956e-05 -3.942538e-05 1.0274298e-05
7.298054e-05 1.5054109e-05 -3.865632e-05 -2.5637286e-05 2.1385922e-05 9.840505e-06 -1.7485758e-06 -1.1101622e-06
-6.540956e-05 -5.540154e-05 -6.3170955e-06 -5.8455837e-05 -8.040829e-05 -2.8585124e-05 -1.2525098e-05 -8.983436e-05
-8.260412e-06 -1.15323655e-05 -6.039982e-05 3.15397e-06 -1.920087e-05 -2.0208532e-05 -3.058645e-05 4.7631045e-05
-2.605193e-06 4.4689878e-05 5.1461688e-05 -2.3550376e-05 6.906781e-06 6.5635386e-06 3.547017e-05 7.632116e-05
-5.181489e-05 -1.5572736e-05 4.2298507e-05 8.986576e-06 -4.106039e-05 4.3108656e-05 7.3129495e-06 2.3612465e-05
-5.0071256e-05 1.0071747e-05 1.550077e-05 -4.5344772e-05 1.0370909e-05 4.4676206e-05 -5.7709794e-06 -2.441358e-05
00000000: 26f3 1138 8a4d 4936 5333 bf38 4580 0a38
00000010: 1591 7c37 548c da37 6636 a4b7 853d b9b8
00000020: 7307 c3b8 3d56 aa38 de15 9d37 5066 8d37
00000030: 2526 64b4 fdad 0fb8 6cc1 cc37 87e7 a537
00000040: bdfa a935 1655 fbb7 e24b 00b6 4b2c 5b37
00000050: 204e 9637 47b7 a8b6 60fa 7538 eb70 c237
00000060: 29a0 aab7 d7e2 5ab8 148c 8e38 f833 d2b7
00000070: cbfb fab7 29b0 b638 cb92 6fb6 2d46 5238
00000080: 3b9a 48b8 4d57 0d38 2377 9db7 9d8a 9eb7
00000090: 4c10 0538 b217 1e37 1517 83b7 d54a 1338
000000a0: 8310 9e37 4ba8 4a38 29e4 fab7 1eae e4b7
000000b0: 9475 1438 5c28 8338 a0ec 82b6 1532 4738
000000c0: 14d4 65b8 6839 80b7 6365 8338 0c53 22b7
000000d0: 047e f6b7 6e7e c537 b58d 3c37 88e5 3eb8
000000e0: 0f66 7338 db39 3f38 4c93 f536 73a8 5c38
000000f0: 7a88 adb7 6f40 bcb7 fc23 6e38 cd37 82b7
00000100: 3a49 aeb7 b39e 8437 9e45 a0b8 c0bd 69b7
00000110: 1bdc 9137 a256 5a37 af30 12b8 45f0 1a37
00000120: b994 aa34 f090 9837 27bc b2b7 834a d738
00000130: 4cb4 95b7 54c4 3db8 ae5c 25b8 c65f 2c37
00000140: 210d 9938 e890 7c37 e822 22b8 a70f d7b7
00000150: eb65 b337 a618 2537 9bb0 eab5 e200 95b5
00000160: 7d2c 89b8 f35e 68b8 70f7 d3b6 7a2e 75b8
00000170: dfa0 a8b8 16ca efb7 e322 52b7 7465 bcb8
00000180: 3396 0ab7 227b 41b7 d055 7db8 cba8 5336
00000190: 8e11 a1b7 7e85 a9b7 f349 00b8 72c7 4738
000001a0: e0d4 2eb6 6471 3b38 91d8 5738 0c8e c5b7
000001b0: ccc0 e736 5e3c dc36 cec5 1438 9c0e a038
000001c0: d153 59b8 32a2 82b7 ad69 3138 0dc5 1637
000001d0: 4238 2cb8 91cf 3438 c261 f536 6213 c637
000001e0: 9a03 52b8 d3f9 2837 a607 8237 9430 3eb8
000001f0: b7fe 2d37 b662 3b38 56a4 c1b6 c4cb ccb7

exp_avg_sq f4 [128]
4.8365468e-08 1.5769325e-08 4.5428457e-08 5.5627282e-08 5.533424e-08 1.4281328e-08 5.6957575e-08 1.9894266e-08
4.684888e-08 8.273152e-08 9.016861e-09 1.3864056e-08 2.9241175e-08 4.8069012e-08 3.0148488e-08 6.870614e-09
3.1135382e-08 1.28561695e-08 1.5333972e-08 2.5849296e-08 2.6722685e-08 1.6006403e-08 7.7934125e-08 1.00699005e-08
3.9893827e-08 4.2925155e-08 3.607724e-08 3.0901145e-08 1.5348833e-08 4.63012e-08 2.6411293e-08 3.26504e-08
2.916768e-08 3.2853364e-08 3.185598e-08 8.3088146e-08 1.4256686e-08 2.9533682e-08 2.1862444e-08 5.883123e-08
2.4636547e-08 4.8371447e-08 2.3285839e-08 1.9492918e-08 1.1375769e-08 2.3271642e-08 1.9245054e-08 3.798796e-08
1.1082564e-08 1.4888875e-08 8.50057e-08 1.1956667e-08 4.0674873e-08 6.264073e-08 4.0974026e-08 4.9493238e-08
3.715308e-08 3.256161e-08 2.7488907e-08 1.9212385e-08 1.4524155e-08 4.6064894e-08 3.211293e-08 3.1143824e-08
2.0915058e-08 2.5236378e-08 5.406752e-08 2.161862e-08 4.2814698e-08 1.6235838e-08 4.3302258e-08 2.4775648e-08
7.634293e-09 2.0160456e-08 1.1879224e-08 3.877397e-08 3.2200475e-08 1.092305e-08 2.8218054e-08 1.0442169e-08
2.9610343e-08 4.3730363e-08 6.526029e-09 5.29623e-08 4.1375532e-08 6.592423e-08 4.6728314e-08 1.813341e-08
1.339626e-08 5.332193e-08 4.7863207e-08 1.3007092e-08 1.8008278e-08 2.874664e-08 2.5022718e-08 2.4364025e-08
4.3073094e-08 2.4363764e-08 9.6352615e-08 1.575348e-08 4.9979572e-08 2.7735478e-08 2.9345879e-08 3.3055326e-08
6.2190146e-08 8.0916685e-08 3.622172e-08 9.083321e-09 4.322877e-08 1.2921081e-08 4.7671687e-08 6.566891e-08
1.2474172e-08 7.3208883e-09 1.1502872e-08 9.772039e-09 3.0160535e-08 5.190389e-08 5.720484e-09 2.3214886e-08
3.3178118e-08 7.232623e-08 5.1211224e-08 6.2748576e-08 1.6888585e-08 3.0277448e-08 2.009648e-08 2.6115666e-08
00000000: 65ba 4f33 1d75 8732 1e1d 4333 d8ea 6e33
00000010: a4a8 6d33 f259 7532 84a1 7433 f4e3 aa32
00000020: e336 4933 22aa b133 93e8 1a32 c32e 6e32
00000030: 062e fb32 7074 4e33 9d7c 0133 8f12 ec31
00000040: b7b9 0533 08de 5c32 c3b7 8332 340b de32
00000050: ce8b e532 747e 8932 bd5c a733 e4ff 2c32
00000060: ba57 2b33 b55c 3833 58f3 1a33 2bb8 0433
00000070: 71d8 8332 b5dc 4633 0cdf e232 7f3b 0c33
00000080: 688c fa32 a81a 0d33 05d2 0833 316e b233
00000090: 91ed 7432 41b1 fd32 06cc bb32 9fad 7c33
000000a0: 57a0 d332 f8c0 4f33 1a06 c832 6171 a732
000000b0: 296f 4332 e2e6 c732 5250 a532 3428 2333
000000c0: a265 3e32 f7c9 7f32 618c b633 fa69 4d32
000000d0: 7fb2 2e33 1b85 8633 6bfb 2f33 6492 5433
000000e0: 3e92 1f33 ded9 0b33 bf20 ec32 7b08 a532
000000f0: e985 7932 e3d8 4533 8aec 0933 ffc2 0533
00000100: b3a8 b332 62c7 d832 de37 6833 d9b3 b932
00000110: 42e3 3733 fc76 8b32 56fb 3933 3ad2 d432
00000120: fa27 0332 502d ad32 6115 4c32 6e88 2633
00000130: cc4c 0a33 15a8 3b32 2864 f232 2565 3332
00000140: d559 fe32 0bd2 3b33 8f3b e031 aa78 6333
00000150: e1b4 3133 3b92 8d33 53b2 4833 cac3 9b32
00000160: 6025 6632 1504 6533 2792 4d33 cc75 5f32
00000170: 9fb0 9a32 88ee f632 8af1 d632 0f49 d132
00000180: 5eff 3833 7c48 d132 69ea ce33 4552 8732
00000190: 1fa9 5633 f63e ee32 4514 fc32 b7f8 0d33
000001a0: 658d 8533 6bc4 ad33 3492 1b33 de0c 1c32
000001b0: 89aa 3933 84fb 5d32 93bf 4c33 dd05 8d33
000001c0: fd4d 5632 378b fb31 2b9e 4532 e2e1 2732
000001d0: dc89 0133 eeec 5e33 e98d c431 136a c732
000001e0: ba7f 0e33 c451 9b33 56f3 5b33 65c0 8633
000001f0: 6412 9132 680a 0233 a0a0 ac32 f554 e032
