results/HideAndSeek4/Seek/Seek-4122.onnx (onnx, 161813 bytes, 7 tensors)

action_model._continuous_distribution.log_sigma f4 [1, 3]
00000000: 8966 e1bd e44f b3bd 4edf 62be
-0.11005885 -0.08755472 -0.22155496

action_model._continuous_distribution.mu.bias f4 [3]
00000000: 9052 913b 0204 033c a0e3 c4ba
0.004434891 0.007996561 -0.0015021451

action_model._continuous_distribution.mu.weight f4 [3, 128]
00000000: 2c25 e2bb 2ebd 833d ae96 aa3c dafd 7c3d
00000010: 2168 1e3c 6cb5 6ebd 0c78 54bc fa4b efbc
00000020: 5b33 fdbc 205f 1bbd 5276 97bc 00c5 893c
00000030: 9d6d 763d 6d23 9e3d 9ab8 3bbc b9cc 603b
00000040: c4a3 5b3b 85d4 f93b 2161 ac3c 7763 3b3d
00000050: 67c0 203b 6e33 e53c a85d 333d 48b1 5abd
00000060: ba54 583c 693a a6bc 9e15 00bc 3ae7 cb3b
00000070: aa48 fabb 0b4f 943c 55d9 4a3d 0de3 2b3d
00000080: 80e6 d53c 6aa8 2e3d 84b2 9fbc 3786 163d
00000090: 3db6 f3bc 34be 3fbd eb72 b23d f6bd 05bd
000000a0: 878a 23bd 9047 0cbd 2175 9b3c d567 823b
000000b0: fa0d 50bc a7ee 9c3b 1726 83bc eb26 a63c
000000c0: 0862 41ba 5b57 3f3c defc d5bc 2d89 843a
000000d0: f7c7 e1bc 91cb 36bd 0e3c 443d 8e79 cfbc
000000e0: d860 ad3b 85ab 243c 0fad 723c 6fd5 8b3b
000000f0: c76d 45bd 2628 2dbc bfcd 28bc b9bd 9bbd
00000100: d81e 823c 01a6 333c b02c fbbc aab1 85bc
00000110: 75df d23c 6f4a 923c c382 1ebd 0a62 42ba
00000120: 5305 c43b 8b4e f5bc 7a5e 013c 57e5 1c3c
00000130: 5bd2 003d c568 053b 2e38 43bd 9728 b43c
00000140: 6b0b 463c 2074 e8bb 6e4e 273c 1f1b e1bd
00000150: b9e5 14bd 5f08 81bb a149 c23c cfa0 b1bc
00000160: 0309 b2bb fbe0 c6bc dfa0 e3bb 22b8 c2bb
00000170: cd26 66bb 9fbf 1e3d df1d 6c3c c5b6 8cbd
00000180: fb67 d03c cc50 8fbd a188 753c 798f 2e3d
00000190: f19a 173d 73dc 3abc ff5a ebbc 2966 ff3b
000001a0: 1f8d 7f3d e14a 94bc 70ff ed3c da94 0e3c
000001b0: 1e00 103c 71d3 03bc 6361 b33c 6f6f f53b
000001c0: 261a bfbb 681c 8cba cc48 073d ffc5 b23c
000001d0: 7635 7e3c b555 e2bb 270b d73c 5fd1 22bc
000001e0: 436d 28bd db93 a63c e234 cf3c f984 2a3d
000001f0: a8da 87bd df20 26bd a4fb 0bbd 43c9 edbc
00000200: 6d2b f1bc a0db 25bc 8079 103d c305 4fbd
00000210: 7d30 e63c 6260 6e3a d755 84ba 30ff c83c
00000220: 5b9c 1e3c ba6e 8a3c 101f a93c 4988 2abd
00000230: 76e1 163d 977f 36bd 6645 d8bc 20a9 183d
00000240: d61e 6f3d 32fe 25bc e378 03bd 9766 a23c
00000250: 9623 c6bc 3702 e33c f8f6 49bc 1a1e 50bc
00000260: 5271 c9bc 907b d73c fc21 243d 637d adbd
00000270: ee13 713c d609 e43c 3ece bdbc 6ed9 70bd
00000280: 5e1b bdbc 964d 123c 44e1 c1bc 26dd 923c
00000290: 58fd ec3c 2090 333d ed77 58bd 18e1 113d
000002a0: ac78 96bc dc18 d2bc ce0f 963b 8755 843d
000002b0: 1c06 0dbd 7f6e 5cbd 2788 9f3c 82cf 103d
000002c0: cadc 9ebb bb55 d53c 3dd8 263a 9198 45ba
000002d0: e4e1 973c a1d2 393d 0a15 90bb 95e7 49bb
000002e0: f5cd 2d3c cea3 8abd ed76 4a3d bfc5 0cbb
000002f0: 1042 4c3c b9ce 063d f0ed 743b f99c 96ba
00000300: fdcd 31bd 6fe9 db3c dd2a d0bd 5f1f f03c
00000310: f2e0 21bc cbf0 dc3a 2e74 e73b e7c4 c63c
00000320: 6bfa 3ebd 20a8 983b 09b1 813b b2bc edbc
00000330: 5908 843d 794b 853c 4f61 d13c 3914 11bd
00000340: f8f5 b23b 55a2 5bbc 3732 033c cfe1 3cbc
00000350: 3a48 883d 8c57 543a 1bb0 0bbd 394f 45bd
00000360: 0a9a 96bc 68f3 52bc 6988 963d f0d7 04bd
00000370: c7be e2bc 8f53 87bc 372a 07bc e4b4 963d
00000380: fd18 76bc 7453 82bc c204 fc3b 3fbe cd3b
00000390: 2162 48bd a949 043d 4218 073d 94f1 453c
000003a0: a253 83bc f63e ee3c 4f15 05bd 37cf 003d
000003b0: b7ea b33b f1c6 86bb 07ff ef3b 2079 f23c
000003c0: a40c 053c 067c 643c d768 0cbc c6f3 823d
000003d0: ded3 083d a548 9c3c fd1d 463c f056 203d
000003e0: 6b98 15bd 0208 cbbc 34cf abbc 9805 07bd
000003f0: 1953 bc3c 5aca 043c 6657 33bd ce6b 7e3c
-0.006901404 0.064325675 0.020823803 0.06176553 0.009668381 -0.058278486 -0.0129680745 -0.029211033
-0.030908277 -0.037932515 -0.018489037 0.01681757 0.06016313 0.07721601 -0.011457587 0.0034301712
0.003351436 0.0076242113 0.021042408 0.045749154 0.0024528743 0.027978625 0.04379049 -0.053391725
0.013203794 -0.020291524 -0.007817654 0.0062226327 -0.0076380568 0.018104097 0.04952367 0.04196458
0.026110888 0.04264108 -0.019494303 0.03674909 -0.029749984 -0.04681225 0.08713325 -0.032651864
-0.03992703 -0.034247935 0.01897675 0.003979663 -0.012698645 0.0047891918 -0.016009374 0.02028223
-0.00073769735 0.011678542 -0.026121553 0.0010111682 -0.027561171 -0.04462773 0.047908835 -0.025326516
0.0052910857 0.010050659 0.014811768 0.0042673866 -0.048200395 -0.010568654 -0.01030296 -0.07604546
0.015883848 0.010964871 -0.030660957 -0.016320068 0.025741318 0.017857758 -0.038698923 -0.00074151217
0.00598208 -0.029944679 0.00789606 0.009576163 0.03145061 0.0020356637 -0.047661 0.021992011
0.012087683 -0.0070939213 0.01021157 -0.10991501 -0.036351893 -0.0039377655 0.02371675 -0.021683125
-0.005433203 -0.0242772 -0.0069466676 -0.0059423605 -0.0035118342 0.038756963 0.014411419 -0.06870798
0.025440207 -0.06997833 0.014986188 0.042617295 0.037012998 -0.011405098 -0.028729914 0.007794161
0.062390443 -0.018102111 0.029052466 0.008702481 0.00878909 -0.008046017 0.021897024 0.0074900906
-0.0058319746 -0.0010689618 0.03302841 0.021822928 0.015515676 -0.0069071897 0.026250435 -0.009937613
-0.041119825 0.020334175 0.025293771 0.04163072 -0.06633502 -0.040558692 -0.03417553 -0.029026633
-0.029439652 -0.010123163 0.03527212 -0.050542604 0.028099293 0.00090933417 -0.0010096383 0.024535745
0.009680833 0.016898502 0.020644695 -0.041633878 0.03683611 -0.044555273 -0.02640028 0.037270665
0.058379017 -0.010131406 -0.03209771 0.01982431 -0.02418689 0.027711017 -0.012326948 -0.012702489
-0.024590168 0.026304036 0.040071473 -0.08471181 0.014714224 0.027836721 -0.023169633 -0.058801107
-0.023084339 0.008929631 -0.023666985 0.017927717 0.028929397 0.04383862 -0.052848745 0.035615057
-0.018368088 -0.02564662 0.004579521 0.064616255 -0.034429654 -0.053816315 0.019474102 0.035354145
-0.0048480975 0.026041856 0.00063646195 -0.0007537688 0.01854033 0.045366887 -0.0043970393 -0.00308082
0.010608186 -0.067695245 0.049429823 -0.002148017 0.012466922 0.03291199 0.0037373267 -0.0011490873
-0.043409336 0.026844708 -0.101644255 0.029311834 -0.009880291 0.001685643 0.0070634102 0.024263812
-0.046625536 0.004658714 0.003957872 -0.029020641 0.06446905 0.01627134 0.025559096 -0.035419676
0.0054614507 -0.013405402 0.008007578 -0.011528446 0.06654401 0.00081002037 -0.034103494 -0.048171256
-0.018383998 -0.012875415 0.07350237 -0.032432497 -0.02767886 -0.016519336 -0.008249811 0.07358721
-0.015020606 -0.015908934 0.007690997 0.0062787826 -0.048921708 0.03229681 0.03298212 0.0120815225
-0.01603109 0.029082756 -0.032491025 0.031447615 0.0054906267 -0.004113071 0.007324103 0.029598773
0.00812069 0.013945585 -0.008569918 0.06394152 0.033405177 0.019077608 0.012092111 0.03914541
-0.03652231 -0.024784092 -0.020972826 -0.03296432 0.022988843 0.008104885 -0.04378452 0.015528632

network_body._body_endoder.seq_layers.0.bias f4 [128]
00000000: f669 b23c 7d29 ceba 729d a13c d20d a0ba
00000010: 6cf4 5a3c 0935 4e3c 72ff deba af43 ca3c
00000020: c24f 813c 9528 a8bb eb7c 4e3b ec72 7bbc
00000030: e528 063c 7c2d 643c b75f ce3c 78d0 173c
00000040: bc1c b8bc 3fbc 9b3c 8992 313c 9c65 3cbc
00000050: 2dbd e7bc e01a 2bbb 6d83 4d3a 7568 9a3c
00000060: 6b2d 863c 9df9 863c 12b6 983b 03ea 79bc
00000070: 2030 0a3d 2194 fdbb 6e33 573c d975 2ebb
00000080: d8de 173c 4fe9 2a3c 11b4 263c 96d9 063c
00000090: 646f b63c 053f 853c 16c9 403c ed9f 603c
000000a0: 8607 083c 86c6 fc39 4ef3 693c 7661 b33c
000000b0: 7f0b 353b 93a1 8cba d3e7 8d3c 1fb3 903c
000000c0: 4548 ddbb eec5 fa3b f7cb 043d e3a9 90bb
000000d0: d416 6a3b df94 7f3c 1a8f 183b ddbc 513c
000000e0: 03f9 7c3c b589 39bc 6e2f 383c 5da0 79bc
000000f0: a3b7 08ba 941a 93bb 51be 6d3c 1d85 4dbc
00000100: 1cb6 96bc ef21 c03b 686a de3c a584 c13c
00000110: b9d0 013d 24e2 d2b9 5918 163b 013b 0cbb
00000120: 8e06 193c ec7f c2bc 7753 b53b 350d 9fba
00000130: 65a8 bc3c 28aa 7c3b f1cf f3bc b9a9 4c3c
00000140: dc8d b0bb 0f18 8a3b d38f 123b 7dad 65bc
00000150: 1329 913c 72eb 413c ba13 f53b 2806 b83c
00000160: 607d c33c 8d29 9f3c d20f 333c 77c3 2e3c
00000170: af93 ad3b a289 423c a092 923c edab 9ebb
00000180: e953 5f3c 698c a1b8 9444 ea3c 43f9 743c
00000190: aeb6 2b3b 13c4 5e3c 905a 0a3c 4269 d53c
000001a0: 90af cbbc acf4 43bb cede 73bc 673c 94bc
000001b0: cbcb 1cbb 023a 123d e97f e43c b1c2 833c
000001c0: f81d 33ba d21b 1dbb dd91 473b a2aa 483a
000001d0: a258 91bc a562 8b3b 0ec3 c23b e055 86bc
000001e0: a748 343b 3c08 db3b 35a5 57bb 24a9 65bc
000001f0: aa35 613c 4c90 bcbb dfa3 a83c d348 e83b
0.021779042 -0.0015728917 0.019728396 -0.001221115 0.013363939 0.012585887 -0.0017013384 0.024690477
0.015785102 -0.005131791 0.0031507562 -0.015347224 0.008188461 0.01392686 0.025192125 0.009266011
-0.02247464 0.019010661 0.010838159 -0.011498835 -0.028288448 -0.0026108548 0.00078397134 0.018848637
0.016379079 0.016476447 0.0046603763 -0.015253547 0.0337373 -0.0077386056 0.01313482 -0.0026620536
0.009269439 0.010431602 0.010174767 0.0082305875 0.022269912 0.016265402 0.011766693 0.013710004
0.008302575 0.00048213097 0.0142792 0.021897059 0.002762526 -0.0010729305 0.017322456 0.017663537
-0.006753 0.0076529896 0.03242108 -0.0044147833 0.0035719173 0.0155994585 0.0023278655 0.012801376
0.015440228 -0.011324336 0.011241777 -0.0152359875 -0.0005215352 -0.0044892523 0.014510707 -0.012543944
-0.018397383 0.00586342 0.027150348 0.02362282 0.031693194 -0.0004022281 0.0022902696 -0.0021397474
0.009339942 -0.023742639 0.0055336314 -0.0012134673 0.023029516 0.003855357 -0.02976224 0.012491637
-0.0053880047 0.004214294 0.0022363558 -0.014018414 0.017719781 0.01183592 0.007479158 0.022463873
0.023863494 0.019428993 0.010929065 0.01066672 0.0052971463 0.0118736345 0.017892182 -0.0048422725
0.013630846 -7.703232e-05 0.028597154 0.014952007 0.0026201415 0.013596552 0.008444443 0.026051167
-0.024863988 -0.0029900474 -0.014884664 -0.018095208 -0.002392518 0.03569985 0.027893024 0.016084047
-0.0006832774 -0.002397288 0.0030451932 0.0007654821 -0.017742459 0.0042537027 0.0059436625 -0.01639837
0.0027509124 0.006684331 -0.0032904868 -0.014017377 0.013745705 -0.005754506 0.020585952 0.0070887594

network_body._body_endoder.seq_layers.0.weight f4 [128, 179]
00000000: 24e8 fbbd f4d8 a83d 2270 febd f544 f53d
00000010: da1b d2bd 0f6b babd 1447 d23d 91b7 d93d
00000020: 93e2 4abd 081a babc 626f 8bbc 1e3e 1abc
00000030: 55bd 153b 27d2 92bd 7391 dabd e644 3a3d
00000040: 5849 09be 4567 62bc 5061 ac3d c07c edbd
00000050: 53d4 aebb 6460 67bd 8064 a7bc 1927 f1bd
00000060: 2b0c c0bd d729 64bd 052a 10be 779e e5bd
00000070: 55c0 173d 77a6 da3c e4b6 f3bc 85ab 6d3b
00000080: ce27 debc caaa 0dbe f489 12be ccea a43d
00000090: e285 07bc 5b0a c43d b7bb f1bc a382 293e
000000a0: d556 64bd 295d aa3c 4f8d 2fbd 387b 0f3d
000000b0: 1bcb 15bd d315 793c 200e 133d 1cdf e5bc
000000c0: c1e9 8ebd 6f44 b03d d572 193d 6f40 c73d
000000d0: 2953 68bd 066b 78bc 387f ccbc 388a 9dbd
000000e0: 5d54 adbc 2ff7 9fbb 2492 7abd 5129 8ebd
000000f0: ae33 473e 39ba 7fbc 2fce 27bd 1a04 8abd
00000100: 2349 043e b3fe 2dbe 5dc6 ba3d 1bc9 643d
00000110: 4c0d 36bb e53d 09be 840b bbbd 91ee e13c
00000120: d231 3d3e 1aab b33d 9af9 17bd 24e6 9ebc
00000130: 98aa e2bd 6936 f5ba 82ee 9dbd e461 073e
00000140: fdcf b33d 7dc6 fc3d 6276 c23d bbe9 813d
00000150: 200e bcbc b505 1b3e 9d65 8abc 4e9f dbbd
00000160: 7648 fc3d 3a56 c9bc e4af 8ebd c395 b9bd
00000170: 4daf 903d 7459 81bd 6381 453d 313b c93c
00000180: 5f70 f33c dea0 6d39 96dd c5bd 4c23 e63c
00000190: a713 4cbd c7ba 62bc 20bb f5bb e07d 4f3d
000001a0: 8802 eabc 1609 e93d 4c68 4ebd f157 293d
000001b0: 8fbd 153e bded 01be d269 e5bc f12a 293d
000001c0: 42cc 04be 7edc 8d3d 628c 333e 3841 2a3d
000001d0: c1aa b53c 5947 bd3c c4fd bfbd 3dd2 193d
000001e0: 1646 80bc 7609 9e3d 23cc c43d bae1 9f3d
000001f0: d9bc 95bd 08d5 b63c 2671 a4bc a8a7 163e
00000200: 7d2f 5fbe 8b5a e33c b5cc a4bc 9bf4 853d
00000210: 6990 e93d 525f 3dbd d388 ccbd dbf2 0cbe
00000220: f720 21bd 17c0 283d af30 853b 6ff6 b23d
00000230: a57f 823d 2cb9 0abd 24c6 cc3d 78a6 b93d
00000240: 037d 44bc 1287 78bd ee80 073a 8d17 833d
00000250: 64f2 b63d 49a0 5e3d 0189 2c3d 5fee de3c
00000260: 26ef f43d 8bf6 d1bd 02c8 5bbc 70a9 a53d
00000270: f315 49bb 4270 8abd 4030 5f3e 1a30 58bd
00000280: 85e8 8d3d eee7 903d a985 cbbd 0777 783e
00000290: e251 eb3d b505 32bd a3dc ec3d 5273 613c
000002a0: 59fa f2bd 0e91 ef3d 3421 36bd 64e8 f13b
000002b0: 50d4 c93c 636f 39bd 3989 dc3d ae51 c6bc
000002c0: 9818 52be 517b 2bbd d818 58bd 9e06 0fbd
000002d0: 58c0 ce3c 3dc4 8fbd 2981 d73d fd96 6f3d
000002e0: 2bd9 953d 30b0 cb3d aa16 1a3b 0014 2bbd
000002f0: 902c b1bd 1f5c aa3d 2cdc 2abd 11ee 08be
00000300: 4cfe 86bb 4286 8f3d ba1c cb3d 1f09 933d
00000310: 3649 fa3c 75f5 503a cde8 0dbe 758d 81bd
00000320: 7478 2cbc d3ac 00be 1505 c23d d65d 7a3d
00000330: d579 293c d7d7 4d3e 3de7 e63c dbea bcbd
00000340: 5b5d 49bd ca43 1dbb 7483 d5bd 7af0 2cbd
00000350: d03b 0c3b d7c0 903d 59f8 45bd ef8b 30bc
00000360: b2fb 64bd f2f0 a7bd 24e4 763d eca0 033e
00000370: 0c35 a0bc c530 a4bd 8dbc fabc eb37 c6bd
00000380: 467c 4bbd cfb1 013e b7ff e33b 3925 57bd
00000390: b05b d73d 20fc 143e 666d e23c c3e6 293e
000003a0: 3589 a5bd 7a17 263d 41d4 133d 214d d53d
000003b0: 4820 4a3d f4b9 953c a440 5d3d 3098 913d
000003c0: 3cce 38bd fc47 cf3d 94db 76bd d0ea f1bd
000003d0: eda8 ef3d 564a da3d a3de bdbd 7188 6e3d
000003e0: f924 ebbc 84a8 8b3d dc05 933d 32bd 36be
000003f0: 66b4 583c af3c a43c 705b 913d d182 8f3d
-0.12300137 0.082445055 -0.124237314 0.11976043 -0.102592185 -0.09102451 0.10267463 0.10630716
-0.049532484 -0.02271749 -0.017020885 -0.009414224 0.0022848446 -0.0716899 -0.106722735 0.045475863
-0.13406885 -0.013818567 0.084169984 -0.1159606 -0.0053353696 -0.05648841 -0.020433664 -0.117750354
-0.09377321 -0.055703964 -0.14078529 -0.112118654 0.037048656 0.026690705 -0.029750295 0.0036265564
-0.02711859 -0.13834682 -0.14310437 0.080525964 -0.008271666 0.09572288 -0.029508455 0.1655374
-0.055746872 0.020796375 -0.04285937 0.03502962 -0.03657065 0.015202957 0.035902143 -0.028060488
-0.06978179 0.08606803 0.037463028 0.097290866 -0.056719933 -0.015162235 -0.024963006 -0.07692379
-0.021158392 -0.0048817615 -0.061174527 -0.06941474 0.19453308 -0.015608364 -0.040968116 -0.067390636
0.12918524 -0.16991691 0.09119866 0.05585585 -0.0027778922 -0.13402517 -0.09133056 0.027579578
0.18476036 0.087728694 -0.037103273 -0.019396849 -0.110676944 -0.0018708232 -0.077115074 0.13220936
0.08779905 0.12342546 0.09495236 0.06343409 -0.022955954 0.15138896 -0.016894156 -0.10723744
0.12318508 -0.024577249 -0.06967142 -0.09061768 0.07064686 -0.0631589 0.048219096 0.024564357
0.029716669 0.00022662009 -0.09661405 0.028093003 -0.04982343 -0.0138384765 -0.0074991137 0.050657153
-0.02856566 0.11378686 -0.050392434 0.041343633 0.14623092 -0.12688346 -0.02800456 0.041300718
-0.12968543 0.06926821 0.1753402 0.041566104 0.022176148 0.02310531 -0.09374574 0.037554014
-0.01565842 0.07716648 0.096092485 0.07806726 -0.073114105 0.022318378 -0.020073485 0.14712393
-0.21795459 0.027753135 -0.020117143 0.065407954 0.11404497 -0.046233483 -0.09987035 -0.13764517
-0.03933808 0.041198816 0.0040646414 0.0873841 0.063720025 -0.033868 0.0999873 0.090649545
-0.011992696 -0.060675688 0.00051690533 0.06400976 0.08932951 0.05435208 0.042122845 0.027213274
0.119596764 -0.102521025 -0.013414385 0.08088958 -0.0030683249 -0.06759693 0.2179575 -0.05278025
0.06929115 0.07075487 -0.09937603 0.24264155 0.11490227 -0.043462474 0.115655206 0.013760405
-0.11864156 0.11697589 -0.04446526 0.0073824394 0.024637371 -0.045272242 0.10768361 -0.02420887
-0.20517194 -0.04186565 -0.052758068 -0.03491842 0.025238201 -0.07019851 0.10522682 0.058493603
0.07316812 0.099457145 0.0023512044 -0.04176712 -0.08651078 0.08318352 -0.04171388 -0.13372065
-0.00411967 0.070080295 0.099175885 0.07179474 0.030552488 0.0007971146 -0.13858338 -0.06325809
-0.010526765 -0.12565927 0.094736256 0.061124645 0.010343988 0.20101868 0.028186435 -0.092244826
-0.049161296 -0.0023996704 -0.10425463 -0.042221524 0.0021397956 0.07068031 -0.048332546 -0.01077555
-0.055904098 -0.082002535 0.060276166 0.12854356 -0.019556545 -0.080171145 -0.030607486 -0.09678634
-0.049679063 0.12665485 0.006957974 -0.052525733 0.10515535 0.14549303 0.027640056 0.16591935
-0.08082811 0.040549733 0.036091093 0.10415102 0.049347192 0.018277146 0.054016724 0.071091056
-0.045118555 0.10121152 -0.060268 -0.11812365 0.11702142 0.1065871 -0.0927098 0.05823559
-0.028704153 0.06819251 0.07178852 -0.1784561 0.013226604 0.020048467 0.070975184 0.07007373

network_body._body_endoder.seq_layers.2.bias f4 [128]
00000000: e493 c5bb 12c3 583c 15df 973c ba86 c43b
00000010: 4634 07bc c8d4 7f3c 456f 0abc 1aae 1fbc
00000020: 8799 3e3a 2b11 14bc 70f6 d7bb 1a91 d5bb
00000030: d72b cc3c 8149 a73c 1885 60bc 553b a739
00000040: fb38 c23b cd20 7f3c 938b 583d f5d3 bc3b
00000050: e1a4 2639 0a91 86ba 214c 9abb 15a2 813c
00000060: 232a 8d3b 5cde fdb9 addd 053c 6a4c 5a3b
00000070: 0cfb 233c 3c3c 8e3b 8805 6039 fb7b 5a3c
00000080: c68c b33b c9cc dd3c fa26 c5bb a991 c137
00000090: 410d 7cbb 6fb0 ce3b 83ce eb3c a7c2 323c
000000a0: f47c 9dbb 05c0 a33c f003 163a 4b60 123d
000000b0: a5c4 bf3b 12b8 1bbb 79c9 08bb 7fd3 d03b
000000c0: 3c29 bcbb c24c 823c 2739 01bb a11b a53b
000000d0: 66ce 3d3b 9061 233c eb9c 0cb9 d63c af3a
000000e0: c58d 09bb fb5a 56bb 6d3d 813c 0c0a d63c
000000f0: c272 613c 3b32 133c 7c6c f73b 569f 663c
00000100: 384e 423c e4d5 373c 6663 4d3b 32b4 f43b
00000110: 4195 b33a d723 473c cb11 03bc 0520 933c
00000120: 1f54 10bc 42b5 8e3b 344f 8d3c b003 a73c
00000130: 3acd dabb 2aaf 933c 5550 2e3c 1f42 b2bb
00000140: acc3 543b b024 f0bb aba2 3cbb e6b5 fb3c
00000150: 6f07 8f3c 8723 60bc a9ed d2bb 1128 95bc
00000160: 2035 2e3c daa6 1dbb 86fb 3f3c 747a 233c
00000170: 2139 eebb 776f 013c 86b2 3dbc 323f ae3c
00000180: a49a 233c 3390 cf3c 33b4 b1bc 96cf dc3c
00000190: 23a5 533b ae61 783c 784d 963c 4778 dbbb
000001a0: 4cd2 1b3c 632e 593c c440 f33c ec44 8d3b
000001b0: bc04 233a 6eec 83bc ef05 7d3c aba7 f83b
000001c0: 1214 763c 8cbe 803c c676 ad3c e377 cc3c
000001d0: d352 cb3c e79b 1b3b ac90 df3b 01c7 403c
000001e0: 8882 f83b b827 49ba d4c7 213c 888b fb3b
000001f0: ad69 2b3c 6600 fd3b 6ed8 ba3b b01e 683c
-0.006029593 0.013230102 0.018538991 0.005997506 -0.008252209 0.015614696 -0.00844938 -0.009746099
0.0007270802 -0.009037296 -0.006590657 -0.0065175416 0.024923248 0.020420792 -0.013703607 0.00031896928
0.0059272028 0.015571785 0.052867483 0.005762572 0.00015892416 -0.0010266614 -0.0047087823 0.015824357
0.0043080016 -0.0004842159 0.008170527 0.0033309706 0.010008585 0.0043406766 0.00021364365 0.013335223
0.005479428 0.027075188 -0.0060166093 2.3075221e-05 -0.0038460048 0.0063076536 0.028784996 0.010910667
-0.0048061553 0.019989023 0.00057226326 0.035736363 0.0058522993 -0.0023760838 -0.002087204 0.0063728685
-0.00574222 0.015905742 -0.0019717903 0.005038694 0.0028962134 0.009971991 -0.00013409897 0.0013369571
-0.0020989042 -0.0032708037 0.01577636 0.026127838 0.013760271 0.008984144 0.007550774 0.014076075
0.011859469 0.011220429 0.0031339764 0.00746777 0.0013701097 0.012154541 -0.007999848 0.017959604
-0.0088091185 0.0043551037 0.017249681 0.0203875 -0.006677297 0.01802786 0.01063927 -0.005440011
0.0032465262 -0.0073285922 -0.002878348 0.030726384 0.0174596 -0.013680345 -0.0064370227 -0.018207582
0.010632783 -0.002405575 0.011717683 0.009977926 -0.007269994 0.00790011 -0.011578208 0.021270368
0.0099856 0.025337314 -0.021692371 0.026954453 0.0032294474 0.015160007 0.018347487 -0.006697688
0.009510588 0.013255688 0.029693969 0.0043111946 0.0006218662 -0.01610395 0.015443309 0.007588347
0.015019434 0.01571586 0.0211748 0.02495951 0.024819767 0.0023744048 0.006822666 0.011766196
0.00758392 -0.000767346 0.009874303 0.0076765455 0.010462207 0.0077209948 0.00570207 0.014167473

network_body._body_endoder.seq_layers.2.weight f4 [128, 128]
00000000: f19f 00be a9fc 033d 4340 acbc da69 ee3d
00000010: 31dc a9bd f40a 363e 2c21 793a 6d6f 1f3e
00000020: ea63 ff3c 07ce 013e 4241 f9bc f20b 0d3d
00000030: b527 42bd fb6b 0b3e 462c 83bd 8507 e43d
00000040: 3617 84bd 951c 043d acf7 0dbe 7aad 703d
00000050: 24bc 8b3c 169f aa3d 5c32 153d 1585 7f3d
00000060: e4f1 7ebd d85f 97bd e1c8 ef3b 01e7 123d
00000070: c74f 81be 9127 823b 8874 943a 1ba2 603d
00000080: b246 393e bbd4 f73d 2321 763e ec86 9fbd
00000090: 9fd1 1c3e 7878 a03d 673b 903d d1be 783d
000000a0: 3ce5 78bc 274b b4bd f7ee 08be d3aa df3c
000000b0: 808e 08bd 1bb7 ed3b b1cc 2e3d 1ca8 3cbe
000000c0: f4c1 abbc 54dc 0f3c 1026 c5bd dda7 8cbd
000000d0: e191 98ba 50b3 79bb 7d6d 15bd 6fce 0d3e
000000e0: b6ae 993d 387d 8bbd 3505 1bbd 8cd6 8dbd
000000f0: 13d6 ae3d 410c 92bc b38a b43b 1ad6 8339
00000100: 5cc1 fc3d efce aa3d 8c17 23bc 5858 423d
00000110: 6ee5 033e 6cd4 aebd 2fe4 b3bc 4b1c 0c3e
00000120: 784f e8bd c598 28be ac09 e13c 4391 09bc
00000130: 6844 b8bd 4b19 ce3d a17d 8bbb 593e a33c
00000140: 6223 57be c9e9 a63d 6773 b13c 9bb9 543d
00000150: 1c45 c13d 99d9 f83d 33c5 d8bd a009 4ebd
00000160: 367c 9c3c 6083 05be b2f0 0d3d e5cf f3bd
00000170: b17d e63c c03b 2e3e 612e ab3c bed5 f23d
00000180: 966e ff3d e7a8 363e 0173 643d 97e0 58be
00000190: be58 523d 0bc1 41bd 9550 ba3d 902a 85bd
000001a0: 78b9 9d3d eb38 913d a870 84bc d422 8dbd
000001b0: aefe e9bc aa08 dd3c 0825 0b3d 10e8 c53d
000001c0: 197c 9b3c 8c7f 913b 1e8c 273d 93a8 60be
000001d0: 451a 233e 74f8 78bd 4092 043d e9d8 47bd
000001e0: 7db2 213d a1dd 42be 13fe d3bc 5168 efbd
000001f0: 6d28 79bd 3e64 f8bb ffd8 adbc 67d2 593d
00000200: 142b 133d 61ba 963c c312 03bd ad55 bdbd
00000210: 7b40 32bd 6f71 0f3d d2ba 1a3e b11f 5b3c
00000220: e515 19bd 92ff 97bd 510e 7e3d 4801 fb3d
00000230: 87ed 35bc 8598 fc3d b243 b53c c585 14be
00000240: 0ccb 383e f416 203d d80c e6bc 2ebf e43c
00000250: 319b 51be da82 05be fe93 c63c 168e dbbd
00000260: dc14 9cbc c691 f1bc 7ebf 2c3d 24de 163d
00000270: 8af5 e23a 0590 3ebe bae3 63bd 0ebc ae3c
00000280: b39c 35be 5376 ac3d 0189 073d 9d84 cebd
00000290: f67a 2d3e f397 da3c a095 ec3c d9fd 6fbe
000002a0: 943e b2bd 3a55 37bd 6601 bc3d 79de 35bd
000002b0: ffe1 b1bd a48f ca3c 343f f9bd cec4 043e
000002c0: d1c2 163d 60ec dcbb 1739 7cbd caaf e7bd
000002d0: ef51 61bd d0d7 01bc ba81 a8bd 5236 313d
000002e0: 9b48 833d 939d ae3d 2d52 cf3d 70db cd3d
000002f0: 3bc1 bfbd 5f54 d73d c81c c43b 38ad 52bc
00000300: 906e a0bc ae91 d1bc e504 e2bd 5ab6 e0bc
00000310: 6c81 1f3c 68e9 7dbd 5b9e aabd 65f5 84bc
00000320: a6c3 83bd 0e2b b43d 166e 453d 8522 cc3d
00000330: 3f69 8a3e d5aa 883d c309 bc3d a356 693d
00000340: 8918 f23c 1b90 1c3d 88fd 2abe e88a 9ebd
00000350: 4d1c e63d 2d7d 5dbd 170f 003d 2d21 1fbe
00000360: b67e 843c dfcf 05be 5fb1 9a3d e90b 873d
00000370: 2dc7 55bd 5d57 10bd 3284 b63c efaa 6abe
00000380: f0cc 1dbe 6377 71bd 513c d5bc 28e5 bbbd
00000390: c4ee 0fbe 2b5b 7dbd f49c 323e 930c 003c
000003a0: 4ae0 4cbe 724d 093c 12f9 f93c c35d 2c3d
000003b0: 1968 f0bd 62a7 bf3d dd7f 54bd 6fc1 f33b
000003c0: 1eb8 40be bd88 cd3a 3375 e23b f558 443e
000003d0: 186f 01bd 9cc8 e2bc ccfa 2ebd f736 cfbc
000003e0: 56d8 2cbc b6b7 e4bd 64bf 38bd 2885 173e
000003f0: 9083 c3bd 0969 743c 7918 943c 2476 863d
-0.12561013 0.032223377 -0.021026736 0.11641283 -0.08293951 0.17777616 0.0009503539 0.1556985
0.031175572 0.1267625 -0.030426625 0.03443522 -0.04740115 0.1361541 -0.06404929 0.11134247
-0.0644974 0.03225382 -0.1386401 0.05875919 0.017057486 0.083311245 0.03642498 0.062382776
-0.062242404 -0.073913276 0.007317648 0.035864834 -0.25256178 0.003972002 0.0011326233 0.054842096
0.18093374 0.12101122 0.24036078 -0.07789406 0.15314339 0.078354776 0.0704258 0.06072885
-0.0151913725 -0.08803397 -0.13372408 0.027303135 -0.033339024 0.007254494 0.042675678 -0.18423504
-0.020966507 0.008780558 -0.096264005 -0.06867955 -0.0011640155 -0.0038101263 -0.03648137 0.1384828
0.075040266 -0.06810993 -0.037846763 -0.06925687 0.08536925 -0.017828109 0.0055096983 0.00025145785
0.12341568 0.08340251 -0.0099543445 0.047447532 0.12880489 -0.0853661 -0.021959392 0.13682668
-0.113432825 -0.16464527 0.027470432 -0.0083964495 -0.089974225 0.10063418 -0.0042569195 0.01992719
-0.21009591 0.0815006 0.021661473 0.05193482 0.0943701 0.121508785 -0.10584488 -0.050302148
0.019102197 -0.13038397 0.034653373 -0.11904887 0.028136106 0.1701498 0.020896139 0.11857174
0.124722645 0.17837869 0.05577374 -0.21179424 0.051354162 -0.04730324 0.09097401 -0.06502259
0.07701391 0.07090934 -0.016167 -0.068914086 -0.028563824 0.02698167 0.033970863 0.09663403
0.018980073 0.0044402536 0.04090511 -0.21939306 0.1592799 -0.06078382 0.032366037 -0.048790846
0.03947686 -0.19029857 -0.025877988 -0.11689819 -0.06082957 -0.007580309 -0.021221636 0.05317917
0.035929754 0.01839942 -0.032000314 -0.09244857 -0.043518525 0.035020288 0.15110329 0.013374255
-0.037374396 -0.07421793 0.062025372 0.12256104 -0.011103994 0.12333778 0.022127006 -0.14504154
0.18046206 0.03908439 -0.028082296 0.027923193 -0.20469357 -0.13038197 0.02424049 -0.1072046
-0.019052915 -0.029488456 0.04217481 0.036832944 0.0017315608 -0.18609627 -0.0556371 0.021329906
-0.17735557 0.08421006 0.03308964 -0.10083888 0.16941437 0.026683783 0.02887994 -0.23436679
-0.08703342 -0.044759013 0.09179954 -0.04440162 -0.086856835 0.024726696 -0.12170258 0.129657
0.036806885 -0.0067420453 -0.061577883 -0.11312826 -0.05500978 -0.007924989 -0.082278684 0.043264695
0.06410333 0.08526149 0.10123096 0.1005162 -0.09363028 0.105141394 0.0059848763 -0.012858681
-0.01958397 -0.02558216 -0.1103609 -0.027430702 0.009735446 -0.06199017 -0.08330985 -0.016230294
-0.06433801 0.087972745 0.04820069 0.099675216 0.2703342 0.066732086 0.091815494 0.05696739
0.029552715 0.038223367 -0.16698277 -0.07741338 0.11235867 -0.054074455 0.03126439 -0.1554
0.016173702 -0.13067578 0.07553362 0.065940686 -0.052191902 -0.035239566 0.022279833 -0.22916768
-0.15410209 -0.058951747 -0.026029738 -0.091745675 -0.14055926 -0.061854523 0.17442685 0.007815498
-0.20007434 0.008380281 0.030514274 0.042081606 -0.11738605 0.093580976 -0.051879752 0.0074388306
-0.18820235 0.001568101 0.006910944 0.1917456 -0.031600088 -0.027683549 -0.042719647 -0.025294764
-0.010549625 -0.111678526 -0.0451044 0.14796889 -0.09546578 0.01491762 0.018078076 0.06565502
