results/HideAndSeek2/Hide/Hide-878495.pt (torch, 972639 bytes, 36 tensors)

network_body._body_endoder.seq_layers.0.weight f4 [128, 179]
0.17879355 -0.11896285 0.1101682 0.08833933 0.07027228 0.06249993 0.061273478 -0.16370562
0.079498924 0.054287404 0.034256328 0.059477188 -0.06905053 0.15870187 0.1425008 -0.027859963
0.04134063 0.034103066 0.00074747344 -0.07713692 -0.09287383 0.08605291 0.00404088 0.0653779
0.056676026 -0.015502124 0.028414356 0.11230716 -0.029594377 -0.08999711 0.09468666 -0.11923485
0.01492055 -0.049276866 0.09947618 0.10617475 -0.047453437 -0.01135433 0.019963704 -0.094177745
-0.025351299 -0.1504079 0.13799706 0.14094603 -0.061962713 -0.06119174 -0.0493322 0.06863163
0.013224846 0.035311148 0.034462664 -0.082634576 -0.03282165 -0.054918244 0.112296976 0.06468583
-0.029300924 0.036704775 0.044970818 0.03360427 0.11200194 0.106803104 0.12830232 0.14480266
0.053084742 -0.017523402 -0.022312332 0.10657769 0.18017364 0.03366621 0.121965684 0.10483714
0.045233436 0.11169853 0.067010164 -0.05846502 0.13721356 -0.04129995 0.06508691 0.11644815
-0.07097047 -0.09797115 -0.04130088 -0.04111808 0.0917427 0.16634592 -0.063265964 -0.017376218
0.106892385 0.014117067 0.042613585 -0.2000029 0.013987376 0.015770439 0.016903361 -0.080192074
-0.032396603 0.044938803 -0.09292694 0.03484417 -0.089007504 0.030232545 0.10327878 0.06267169
0.088034324 0.033863347 0.06906663 0.021818152 0.08206821 0.04188235 0.043351755 -0.011703391
0.002622426 0.0033264956 -0.030402 0.16230316 -0.13913423 0.09568612 -0.021304276 0.03819552
0.05918048 -0.03516885 0.06439527 -0.085531384 -0.043980695 0.020347487 0.005693221 -0.019154793
0.04427179 -0.05835012 -0.052791674 -0.017899359 -0.02269229 0.07596079 -0.009207303 -0.00089643104
0.034571517 0.0046598157 0.078003146 -0.011591642 0.0254443 -0.059153154 -0.20818865 0.040932614
0.023811463 0.03925404 -0.09468052 -0.05250144 0.026964476 -0.16514893 -0.1723707 -0.028800642
0.033387348 -0.045783687 0.0773064 -0.019195898 -0.026863687 0.07982806 -0.032322872 0.011022872
-0.11105436 0.08273695 0.093107074 0.045459617 -0.044815693 -0.1748643 -0.10549452 0.04664128
-0.009820544 0.077301286 -0.037074164 -0.3033829 0.011525561 -0.06581807 0.04425093 0.07108089
-0.07946239 -0.058049355 0.0653316 -0.15842746 -0.13638277 -0.10728822 -0.023727745 0.033192925
-0.07104209 -0.103658885 -0.02783457 -0.07417322 0.004725525 -0.097949676 -0.055444457 0.05483195
0.1320703 -0.08809979 -0.18815409 -0.079114065 0.07992855 -0.04782889 0.07735931 0.050100457
0.041715007 0.004715622 0.008113802 0.07372132 0.11293807 -0.025794443 -0.027120132 -0.04910677
0.062082615 0.024269931 0.027888391 -0.14784443 0.022146402 -0.038634777 -0.0628156 -0.05563172
0.09009922 -0.0041537294 -0.038885567 0.11367986 0.23339678 0.0041085044 0.087433085 -0.08537154
0.083588734 -0.1985365 -0.041128967 -0.09681079 0.028351447 0.04002897 -0.03489825 0.04273955
-0.026875503 -0.06758395 -0.06493129 -0.030821776 0.039183136 -0.044358417 -0.13004677 0.007949686
-0.1589401 -0.026504615 -0.16636364 0.024837472 -0.019088788 0.0033590267 -0.03828716 0.09695723
0.08509134 -0.038757127 -0.011678593 0.012026109 -0.073249355 -0.08899929 -0.00677661 -0.14133312
00000000: a815 373e cba2 f3bd de9f e13d 40eb b43d
00000010: eaea 8f3d edff 7f3d e6f9 7a3d 72a2 27be
00000020: 55d0 a23d 785c 5e3d 5d50 0c3d 5a9e 733d
00000030: 5d6a 8dbd be82 223e bbeb 113e 943a e4bc
00000040: cb54 293d a8af 0b3d 18f2 433a f6f9 9dbd
00000050: a234 bebd 823c b03d 5c69 843b d9e4 853d
00000060: 1f25 683d 9ffc 7dbc 39c5 e83c 4c01 e63d
00000070: e86f f2bc 6850 b8bd 14eb c13d 6731 f4bd
00000080: 5375 743c 8ad6 49bd 2bba cb3d 2672 d93d
00000090: 895e 42bd 8307 3abc ec8a a33c 43e0 c0bd
000000a0: 87ad cfbc 8704 1abe 1a4f 0d3e 2854 103e
000000b0: 9dcc 7dbd 31a4 7abd 9010 4abd bd8e 8c3d
000000c0: 06ad 583c 6ca2 103d b928 0d3d 513c a9bd
000000d0: ff6f 06bd f4f1 60bd f5fb e53d 017a 843d
000000e0: 7e08 f0bc bf57 163d 5233 383d a2a4 093d
000000f0: 4661 e53d 96bb da3d af61 033e 2647 143e
00000100: 636f 593d 3d8d 8fbc 5ac8 b6bc 6745 da3d
00000110: 707f 383e 94e5 093d 25c9 f93d dbb4 d63d
00000120: b246 393d 33c2 e43d a03c 893d 0479 6fbd
00000130: b681 0c3e 232a 29bd 494c 853d 5e7c ee3d
00000140: f758 91bd 19a5 c8bd 1d2b 29bd 6f6b 28bd
00000150: 99e3 bb3d 9656 2a3e 9691 81bd 9258 8ebc
00000160: 65ea da3d 454b 673c 958b 2e3d 8fcd 4cbe
00000170: 4f2b 653c 0231 813c eb78 8a3c be3b a4bd
00000180: 4db2 04bd c011 383d 7b50 bebd c3b8 0e3d
00000190: 9149 b6bd 3eaa f73c d383 d33d 045a 803d
000001a0: 574b b43d 4bb4 0a3d ce72 8d3d fbbb b23c
000001b0: 6113 a83d d48c 2b3d 9c91 313d 94bf 3fbc
000001c0: 02dd 2b3b 5601 5a3b 9d0d f9bc cd32 263e
000001d0: 3479 0ebe 16f7 c33d 4e86 aebc e872 1c3d
000001e0: 3b67 723d 360d 10bd abe1 833d 142b afbd
000001f0: 1a25 34bd c6af a63c 338e ba3b 83ea 9cbc
00000200: 5656 353d 8900 6fbd 153c 58bd ada1 92bc
00000210: 2ee5 b9bc 5591 9b3d 3ada 16bc 78fe 6aba
00000220: dd9a 0d3d 5eb1 983b 1dc0 9f3d dfea 3dbc
00000230: 9170 d03c 944a 72bd 682f 55be f5a8 273d
00000240: 4210 c33c d8c8 203d dce7 c1bd c00b 57bd
00000250: 9be4 dc3c cd1c 29be f281 30be 53ef ebbc
00000260: 2cc1 083d ad87 3bbd d152 9e3d b740 9dbc
00000270: 3c11 dcbc e57c a33d fd64 04bd 4799 343c
00000280: 7870 e3bd fd71 a93d ecae be3d dd33 3a3d
00000290: a990 37bd a10f 33be 830d d8bd ed0a 3f3d
000002a0: 59e6 20bc 2350 9e3d 14db 17bd 0155 9bbe
000002b0: b5d5 3c3c a0cb 86bd 7740 353d dc92 913d
000002c0: 2dbd a2bd 29c5 6dbd 93cc 853d cf3a 22be
000002d0: eda7 0bbe edb9 dbbd b060 c2bc 4ef5 073d
000002e0: 847e 91bd 1c4b d4bd 5305 e4bc 21e8 97bd
000002f0: 94d8 9a3b d799 c8bd ba19 63bd 7897 603d
00000300: 703d 073e aa6d b4bd 77ab 40be 8e06 a2bd
00000310: 94b1 a33d 3ae8 43bd 8f6e 9e3d 2336 4d3d
00000320: 5bdd 2a3d 8185 9a3b c1ef 043c 34fb 963d
00000330: 134c e73d de4e d3bc 0a2b debc 2e24 49bd
00000340: 574a 7e3d bcd1 c63c 3276 e43c 8864 17be
00000350: 5f6c b53c 803f 1ebd 77a5 80bd 16de 63bd
00000360: f185 b83d 021c 88bb 7946 1fbd fdd0 e83d
00000370: 91ff 6e3e a2a0 863b 1e10 b33d 46d7 aebd
00000380: 9230 ab3d 274d 4bbe d976 28bd bc44 c6bd
00000390: 4b41 e83c 6bf5 233d 78f1 0ebd ab0f 2f3d
000003a0: 042a dcbc 7469 8abd b2fa 84bd f37d fcbc
000003b0: 7f7e 203d 2cb1 35bd fb2a 05be 663f 023c
000003c0: 32c1 22be 3520 d9bc 3b5b 2abe f477 cb3c
000003d0: 1760 9cbc 1e23 5c3b ffd2 1cbd 8391 c63d
000003e0: 5e44 ae3d cbbf 1ebd 9257 3fbc 2809 453c
000003f0: c203 96bd 4245 b6bd 530e debb a1b9 10be

network_body._body_endoder.seq_layers.0.bias f4 [128]
0.0080038905 -0.06297866 0.023835871 0.00064796954 -0.0011367379 0.0068713673 0.034800168 0.011029927
-0.025978822 0.025048507 0.00063628017 0.020520013 0.0076284367 0.02747761 0.004508222 -0.017082736
-0.0013438677 0.006231181 0.011364946 -0.009142392 0.038309608 -0.0028855798 0.01681175 0.013928992
0.0047485637 -0.033284433 0.0019269609 -0.011182798 0.009062804 0.018647922 -0.010968708 0.0036005706
-0.016275713 0.030760648 0.0024990938 -0.0047900374 0.0035931792 -0.029542455 -0.006194949 -0.01908269
0.009653744 0.02010646 0.01019916 0.003406699 0.034520436 0.0072286497 -0.002718649 -0.008805937
-0.0021116836 -0.010647708 0.014912085 -0.012778837 -0.012559935 -0.022037921 0.0032764429 0.0098444
-0.0047245133 0.00033055092 0.004037268 0.072826855 0.013969748 0.018967446 0.0071388525 0.004793979
0.0018434427 -0.0101797115 0.01884005 -0.026588583 -0.025619041 -0.0145010045 0.017078273 0.05113778
-0.015388393 0.003999161 -0.006394811 0.014005068 0.019460253 0.003313621 -0.0018404577 0.014384107
-2.2158329e-05 -0.027390478 0.026958073 -0.010140114 0.009019236 0.00091553264 -0.015787223 -0.0029016417
-0.016878096 0.024437608 -0.004447206 -0.049043816 -0.003058319 0.026216792 -0.0063461014 -0.011179697
0.017549347 0.0007591667 0.025765045 0.00508627 -0.0016701334 0.004475982 -0.004711402 -0.014230776
-0.0015894389 -0.0034690702 0.0155039355 -0.00014266036 0.00134362 0.043181185 0.013187268 0.023181304
-0.0065894895 0.0501821 -0.020035544 0.0055925087 -0.0077061076 -0.019535305 -0.0028748573 -0.011247154
0.009443431 -0.015873674 -0.01368437 0.031103978 -0.0040792297 -0.020059923 -0.00041350027 -0.010257582
00000000: c022 033c f5fa 80bd 7243 c33c 80dc 293a
00000010: 98fe 94ba 3529 e13b 9f8a 0e3d deb6 343c
00000020: 8ad1 d4bc 8732 cd3c 0acc 263a 9619 a83c
00000030: f7f7 f93b ba18 e13c b5b9 933b 18f1 8bbc
00000040: b824 b0ba ef2e cc3b 0a34 3a3c f9c9 15bc
00000050: 89ea 1c3d ff1b 3dbb ccb8 893c 6d36 643c
00000060: d799 9b3b 4255 08bd 1492 fc3a 0e38 37bc
00000070: 287c 143c 87c3 983c 19b6 33bc 8df7 6b3b
00000080: a554 85bc c1fd fb3c d6c7 233b bff5 9cbb
00000090: 8b7b 6b3b 0503 f2bc 00ff cabb 4d53 9cbc
000000a0: bd2a 1e3c 4eb6 a43c 611a 273c ed42 5f3b
000000b0: 4d65 0d3d 4fde ec3b 5d2b 32bb c746 10bc
000000c0: 2c64 0abb b973 2ebc d151 743c 545e 51bc
000000d0: 30c8 4dbc df88 b4bc 97b9 563b 684a 213c
000000e0: 17d0 9abb cb4d ad39 0f4b 843b 3f26 953d
000000f0: 5fe1 643c 9e61 9b3c 09ed e93b d016 9d3b
00000100: ac9f f13a cec8 26bc 7356 9a3c 4dd0 d9bc
00000110: 06df d1bc 9f95 6dbc bce7 8b3c d975 513d
00000120: 991f 7cbc 650b 833b 908b d1bb 8375 653c
00000130: 1c6b 9f3c 5629 593b 833b f1ba 51ab 6b3c
00000140: a6e0 b9b7 ff61 e0bc 2dd7 dc3c b922 26bc
00000150: 6bc5 133c 5b00 703a 3554 81bc 7829 3ebb
00000160: ef43 8abc 6131 c83c deb9 91bb 2be2 48bd
00000170: 146e 48bb 99c4 d63c f5f2 cfbb 0c2b 37bc
00000180: a6c3 8f3c d102 473a 3711 d33c baaa a63b
00000190: 61e8 daba 42ab 923b 1b62 9abb 3328 69bc
000001a0: b854 d0ba 5759 63bb 3804 7e3c 1997 15b9
000001b0: 681c b03a c1de 303d 690f 583c b8e6 bd3c
000001c0: a5ec d7bb bf8b 4d3d 9521 a4bc 5d41 b73b
000001d0: 8483 fcbb 8108 a0bc 1a68 3cbb fc45 38bc
000001e0: 9fb8 1a3c 8209 82bc 6834 60bc c5cd fe3c
000001f0: 0fab 85bb b554 a4bc 11cb d8b9 6b0f 28bc

network_body._body_endoder.seq_layers.2.weight f4 [128, 128]
0.03622568 0.044582106 0.037615173 0.054052062 -0.058000736 0.0032840825 0.10070048 -0.0134071335
0.07527009 -0.09909769 -0.035150733 -0.04497848 -0.09547261 -0.074270815 0.2054903 -0.08525185
-0.006530177 0.15923779 -0.19325434 -0.12466946 -0.075665526 0.0017119497 0.07737799 -0.044193227
-0.14003213 -0.028807329 0.028716367 0.08964381 -0.17658363 0.07291475 0.08438697 -0.059350792
0.047934603 0.07365949 -0.07341598 0.08292858 -0.087033086 -0.05331043 0.058471918 -0.12869945
0.02802073 -0.0027224885 0.10933882 -0.2778839 -0.025116095 -0.015306372 0.19958854 0.042246208
-0.04120603 0.032022756 0.020199034 -0.048475 -0.032683965 0.08445891 -0.06405425 0.1371826
-0.026911391 0.09038945 -0.046256267 0.047431454 0.07335078 -0.10951507 0.04390685 -0.19450688
-0.055270456 -0.19425821 -0.0037579774 -0.04733516 0.034536745 0.030109882 -0.080006175 0.05411847
-0.012867791 0.016585916 0.026141794 0.16609405 -0.031577114 0.11558601 -0.036628786 -0.057446256
-0.1741687 0.04877566 0.037125573 -0.05064867 -0.13755889 -0.00175648 0.022344694 0.09577792
0.037299886 -0.11755165 0.004480921 -0.019042253 -0.017747708 -0.027622886 0.019391084 0.012932416
-0.170686 0.11270949 -0.022104673 0.07745083 0.17796387 -0.06555318 0.043738388 -0.13861638
0.062400177 0.12584347 0.10661719 -0.042431224 -0.019261584 -0.08076758 -0.0037911185 0.05553004
0.019150555 0.13349022 0.009714831 -0.03357796 0.022009602 0.023865877 0.07490291 -0.056874428
-0.006369578 0.16188264 0.025872333 0.07903871 -0.007859946 -0.056497306 -0.16133812 0.032512363
-0.000663717 0.04669251 0.016173268 -0.022731803 -0.12839165 -0.111828886 -0.15792008 -0.03226255
-0.0609341 -0.02075012 0.02301244 -0.122320354 -0.07537167 0.07642146 0.013973936 -0.06144005
0.025575414 0.10193518 0.05732331 0.13029839 0.06108129 0.04045909 -0.04275561 0.0409011
0.15897466 -0.06602935 -0.0521172 0.07330693 0.07711585 -0.1497492 0.17109749 -0.06593005
0.14341925 0.026831666 0.09908117 0.106213525 0.075238675 0.047168784 0.08087411 0.07428886
0.09871139 -0.022469321 0.03789209 0.12375202 -0.08541565 -0.0672143 -0.10632193 0.08416173
0.0016817173 -0.0070972913 0.08402989 -0.11171953 0.04178091 -0.03839137 0.081007816 0.06915084
-0.12416681 0.002210414 0.08565179 -0.06374864 0.09912658 -0.035074435 -0.07115883 0.034684133
0.029310966 0.17024973 0.0805481 -0.2304972 0.012101857 -0.04431425 -0.09441628 0.08102511
-0.079943374 -0.03845558 -0.05938989 -0.1406662 -0.13464463 0.018772066 -0.086165585 -0.045720447
0.010760079 0.022183022 -0.09364005 -0.0018523496 -0.0836412 -0.023601484 0.04942021 -0.010782274
0.018624743 -0.012979737 -0.23331383 -0.116173886 0.034511164 -0.1423748 -0.15106317 0.020041378
-0.011990697 0.08115157 0.03685215 0.022746392 -0.16017622 -0.07499446 -0.069100566 0.075576335
0.10123165 0.028877806 0.13743834 0.1354295 0.14432167 -0.043905523 -0.05327721 -0.049046505
-0.06619876 -0.18510579 -0.020988382 -0.20865445 -0.04571668 0.063423276 0.11281215 -0.0061632963
0.057244368 0.03835173 -0.062135454 -0.08321179 -0.05927167 -0.0065839235 0.08313381 0.018420942
00000000: 6161 143d ba9b 363d 5e12 1a3d b265 5d3d
00000010: 2e92 6dbd c339 573b 0e3c ce3d 98a9 5bbc
00000020: 3427 9a3d bbf3 cabd 37fa 0fbd 5b3b 38bd
00000030: 2587 c3bd 4c1b 98bd 0d6c 523e 8698 aebd
00000040: 18fb d5bb 3b0f 233e 77e4 45be b452 ffbd
00000050: 87f6 9abd 8063 e03a 5a78 9e3d f503 35bd
00000060: 9564 0fbe 59fd ebbc 963e eb3c 2d97 b73d
00000070: 57d2 34be 5454 953d 13d3 ac3d d119 73bd
00000080: 1357 443d c9da 963d 1e5b 96bd 76d6 a93d
00000090: 673e b2bd 0a5c 5abd 4080 6f3d cac9 03be
000000a0: bb8b e53c c76b 32bb 08ed df3d cc46 8ebe
000000b0: 45c0 cdbc 94c7 7abc f060 4c3e 5c0a 2d3d
000000c0: a7c7 28bd 4b2a 033d 7278 a53c b98d 46bd
000000d0: 9fdf 05bd cbf8 ac3d e02e 83bd 9879 0c3e
000000e0: 4775 dcbc 1b1e b93d 3677 3dbd 7c47 423d
000000f0: ef38 963d 7049 e0bd abd7 333d d02c 47be
00000100: 4663 62bd a0eb 46be 6648 76bb 83e2 41bd
00000110: 6776 0d3d 00a9 f63c 47da a3bd 54ab 5d3d
00000120: 6dd3 52bc 30df 873c 5127 d63c 8f14 2a3e
00000130: 0157 01bd 5cb8 ec3d 1108 16bd c44c 6bbd
00000140: 4859 32be fdc8 473d fc10 183d fb74 4fbd
00000150: 3ddc 0cbe b039 e6ba 380c b73c 3727 c43d
00000160: c4c7 183d ebbe f0bd b1d4 923b 80fe 9bbc
00000170: a463 91bc 6449 e2bc 0dda 9e3c 7ce2 533c
00000180: 50c8 2ebe 3cd4 e63d dc14 b5bc 8a9e 9e3d
00000190: 293c 363e bf40 86bd 0627 333d 74f1 0dbe
000001a0: 5497 7f3d 1cdd 003e 1d5a da3d 5dcc 2dbd
000001b0: 78ca 9dbc 7969 a5bd 6a74 78bb 7873 633d
000001c0: a0e1 9c3c a9b1 083e f42a 1f3c 0b89 09bd
000001d0: 7b4d b43c 5f82 c33c b266 993d 29f5 68bd
000001e0: e5b7 d0bb 90c4 253e 37f2 d33c 0cdf a13d
000001f0: 01c7 00bc b869 67bd d235 25be af2b 053d
00000200: 4bfd 2dba a540 3f3d cd7d 843c 0c38 babc
00000210: 1a79 03be 8b06 e5bd cdb5 21be bc25 04bd
00000220: 0996 79bd 28fc a9bc 9684 bc3c 1883 fabd
00000230: 765c 9abd db82 9c3d f0f2 643c 90a8 7bbd
00000240: 8883 d13c 64c3 d03d d9cb 6a3d f16c 053e
00000250: 6030 7a3d 6eb8 253d 8220 2fbd e987 273d
00000260: 41ca 223e 653a 87bd d878 55bd f221 963d
00000270: eaee 9d3d db57 19be 2e34 2f3e 5606 87bd
00000280: 7fdc 123e 15ce db3c 12eb ca3d 7a86 d93d
00000290: bc16 9a3d 0e34 413d 53a1 a53d c224 983d
000002a0: 3229 ca3d 9511 b8bc bc34 1b3d b371 fd3d
000002b0: 66ee aebd a7a7 89bd 50bf d9bd fc5c ac3d
000002c0: 126d dc3a 6590 e8bb dd17 ac3d 35cd e4bd
000002d0: 7622 2b3d 4540 1dbd 6de7 a53d f59e 8d3d
000002e0: 2b4b febd 98dc 103b 356a af3d a68e 82bd
000002f0: e002 cb3d 36aa 0fbd b8bb 91bd f310 0e3d
00000300: 8d1d f03c f255 2e3e 67f6 a43d 7507 6cbe
00000310: de46 463c dc82 35bd 535d c1bd 7ef0 a53d
00000320: 5ab9 a3bd 9983 1dbd d042 73bd cd0a 10be
00000330: 48e0 09be e0c7 993c 9577 b0bd 5d45 3bbd
00000340: 0b4b 303c 2bb9 b53c 5bc6 bfbd 8aca f2ba
00000350: 144c abbd e657 c1bc d96c 4a3d 23a8 30bc
00000360: eb92 983c f6a8 54bc d2e9 6ebe 93ec edbd
00000370: 945b 0d3d b3ca 11be 4eb0 1abe d12d a43c
00000380: a174 44bc cb32 a63d 48f2 163d a456 ba3c
00000390: 3c05 24be b296 99bd 9984 8dbd c4c7 9a3d
000003a0: 8a52 cf3d 2691 ec3c a3bc 0c3e 08ae 0a3e
000003b0: 0fc9 133e 47d6 33bd 3439 5abd fde4 48bd
000003c0: 3793 87bd 5f8c 3dbe d4ef abbc 83a9 55be
000003d0: 6a41 3bbd 10e4 813d 0e0a e73d 7af5 c9bb
000003e0: 1279 6a3d b416 1d3d bf81 7ebd f16a aabd
000003f0: dac6 72bd f4bd d7bb 0f42 aa3d 84e7 963c

network_body._body_endoder.seq_layers.2.bias f4 [128]
-0.0012000727 0.0028177928 0.0052763117 -0.017031334 -0.002313321 0.012743253 0.03727895 -0.008784706
0.0034649633 -0.0142996805 0.022580275 0.010538245 0.040904198 0.010893249 0.0004672692 0.004446342
-0.016927497 -0.0123769045 -0.0048476807 -0.021625767 0.0013679411 0.021098685 0.010519388 0.006405071
0.028430985 -0.002456636 0.00074883376 -0.0064690686 0.014151773 -0.012201617 0.0067918636 0.04946822
0.0061809584 0.024879798 -0.0056893495 -0.010986468 -0.00090137275 -0.0016873165 0.0022771736 0.016418977
0.008430026 0.016813483 -0.015509465 -0.017122796 -0.026694508 0.03217854 0.015626373 0.02039573
-0.027356671 -0.018449115 -0.032449268 0.03638423 0.010276036 0.024009988 -0.036017407 -0.004340135
-0.0036594032 0.025020305 -0.0037556617 -0.015576618 0.0030665677 -0.020732308 -0.0066121123 -0.002793813
-0.012634853 -0.009912371 -0.014201828 0.0365789 0.023949606 0.012849593 -0.011626889 -0.0029164688
-0.0031820629 0.009149745 0.007360681 -0.039310325 0.020382915 -0.0052960534 0.011886161 -0.018144008
-0.022952456 -0.020171845 -0.0141214235 -0.016889988 0.007286487 0.022571653 0.015724478 0.0246571
-0.001715709 -0.014289644 0.0133673325 0.010113029 0.025051733 -0.01212294 0.012469795 0.0013352174
-0.020809611 0.010765988 0.027963748 -0.0072111753 0.0013664002 -0.019838028 -0.004563269 -0.006027117
-0.0022177973 0.004437135 0.008805104 0.019050546 -0.012483003 0.008102921 -0.004076403 -0.008528097
0.02009183 -0.006266866 0.009641851 0.0066586104 -0.005070854 0.0176356 -0.009181696 0.017481683
0.019262547 0.024280299 0.0017154748 -0.020125132 0.026210401 -0.0058216034 0.02802541 0.00879766
00000000: c24b 9dba b8aa 383b e9e4 ac3b 4c85 8bbc
00000010: 169b 17bb 14c9 503c d0b1 183d baed 0fbc
00000020: 7014 633b 3549 6abc 45fa b83c 9aa8 2c3c
00000030: 298b 273d 9979 323c cffb f439 9fb2 913b
00000040: 89ab 8abc 80c8 4abc 4bd9 9ebb 8528 b1bc
00000050: 7d4c b33a 26d7 ac3c 8359 2c3c a1e1 d13b
00000060: 19e8 e83c 83ff 20bb 624d 443a 7bfa d3bb
00000070: d7dc 673c 4ae9 47bc 488e de3b 309f 4a3d
00000080: a389 ca3b b8d0 cb3c b96d babb 9600 34bc
00000090: 1a4a 6cba f228 ddba a23c 153b 1781 863c
000000a0: 171e 0a3c 6ebc 893c 691b 7ebc 1b45 8cbc
000000b0: 71ae dabc a5cd 033d e102 803c f214 a73c
000000c0: 191b e0bc 9922 97bc 86e9 04bd a107 153d
000000d0: d25c 283c 98b0 c43c fd86 13bd b137 8ebb
000000e0: 99d2 6fbb 62f7 cc3c 8c21 76bb 1235 7fbc
000000f0: 78f8 483b cdd6 a9bc 6baa d8bb 6718 37bb
00000100: 6a02 4fbc 7f67 22bc c9ae 68bc c2d3 153d
00000110: f731 c43c 1987 523c b57e 3ebc 3a22 3fbb
00000120: 288a 50bb d0e8 153c de31 f13b dd03 21bd
00000130: 12fa a63c 848a adbb 2cbe 423c bea2 94bc
00000140: ca06 bcbc 6d3f a5bc 8b5d 67bc df5c 8abc
00000150: 7cc3 ee3b 30e8 b83c 9fd0 803c b0fd c93c
00000160: a4e1 e0ba 1c1f 6abc a802 5b3c 1eb1 253c
00000170: 4b39 cd3c 4c9f 46bc 1c4e 4c3c 7602 af3a
00000180: eb78 aabc d463 303c 3b14 e53c b94b ecbb
00000190: c818 b33a 5c83 a2bc 7a87 95bb 1f7f c5bb
000001a0: 7758 11bb 6365 913b 4843 103c e40f 9c3c
000001b0: 8285 4cbc 1dc2 043c 5993 85bb 6eb9 0bbc
000001c0: 9f97 a43c 485a cdbb dbf8 1d3c 7930 da3b
000001d0: 6829 a6bb 8978 903c d36e 16bc bf35 8f3c
000001e0: 7dcc 9d3c 7ae7 c63c c8d9 e03a 76dd a4bc
000001f0: 32b7 d63c 26c3 bebb 8b95 e53c 0f24 103c

action_model._continuous_distribution.log_sigma f4 [1, 3]
-0.093746714 -0.13369626 -0.033764604
00000000: 47fe bfbd ace7 08be c14c 0abd

action_model._continuous_distribution.mu.weight f4 [3, 128]
0.010259907 -0.04673058 0.058969077 0.017638784 -0.015042655 -0.0008556319 0.032641698 -0.013496723
0.012560895 0.037295017 0.036931966 0.015756223 0.012012395 -0.023877764 -0.070412986 0.02028058
-0.029043514 -0.011016831 -0.018357886 0.011783088 0.049880706 0.0061770235 0.0240975 -0.024309289
-0.0028532078 -0.013888164 0.00035864481 -0.0036357057 0.014439036 0.0025963872 0.06906595 0.01848811
-0.041224904 0.059158873 -0.03176965 -0.010103452 0.009588334 -0.026113855 0.0052443594 0.03587616
0.0068240575 -0.018621216 -0.034272287 0.02242752 -0.025731813 0.017348805 -0.0034966227 -0.0038555535
-0.015282427 0.008601411 0.016391523 -0.0079827765 -0.007149068 0.020897262 -0.006292155 -0.017047813
-0.023257295 0.046249103 0.021295413 0.016566249 0.005427184 -0.0002795753 0.026580766 -0.03298134
0.0133991605 -0.0052121873 -0.0072198096 0.039463546 -0.043497186 -0.021378685 -0.032814886 -0.012125731
0.01496942 0.0129368445 0.059492543 -0.01282946 0.01571331 -0.02724974 0.0077105346 0.016023753
-0.007305201 0.0108809685 0.018515345 0.01624716 -0.008174038 0.03857604 0.024676668 -0.04858414
-0.012987291 -0.015970316 0.03333583 0.022283046 0.013202741 -0.018308533 0.02239031 -0.005452689
-0.0021761928 0.03129895 0.019338723 0.011436443 -0.06457871 -0.0057640183 -0.020099035 -0.028857486
-0.030908877 -0.0064786333 0.01665117 -0.013214788 0.0080003245 -0.028980274 -0.03397565 -0.01083094
0.012785012 -0.05715383 0.014978606 0.028184494 -0.008359668 0.014237014 0.009186691 0.03392151
-0.004166552 -0.023919336 -0.0013181539 -0.0262194 -0.021647412 -0.00048162538 0.04587045 -0.020316035
-0.01564424 0.011176062 0.012276065 0.050235506 0.037781306 -0.031365678 -0.029557675 0.024992848
-0.009666562 0.032212604 -0.035917368 0.024976762 -0.076421015 0.011732563 -0.010325416 0.052716773
0.03559202 0.00968254 0.026177682 0.014521826 0.0206731 -0.04791042 -0.023367979 -0.035508413
-0.047651965 0.0022341358 -0.0070589967 0.005926213 -0.012333839 0.051947173 0.019162111 -0.017865634
-0.015389842 -0.03908437 0.008253114 0.022742197 -0.007842269 -0.005283994 0.0011020415 -0.012945889
-0.023287605 -0.015484049 0.032977834 0.024177948 0.029350122 -0.051331677 0.07509679 -0.036441233
0.053843636 0.021030542 0.029410377 -0.031071963 -0.056159902 -0.012051439 0.021959685 -0.004091533
0.0014834588 -0.04116988 0.052370735 0.048455875 -0.018141592 0.049405787 0.018944947 0.029388912
0.03868754 0.06114818 0.02976737 -0.0079074735 -0.021507272 -0.0011024972 0.02550146 -0.012679013
0.011785745 -0.011240887 0.0101677235 0.04231761 -0.029477848 0.018751547 -0.016694183 0.0149370525
0.03145201 0.007077542 0.0014602073 0.016764877 -0.01342438 -0.02503698 -0.010168081 -0.046404343
-0.007009479 0.028208632 -0.009097507 -0.014765517 -0.032644287 0.03968815 -0.021024546 0.037653577
0.0061656507 -0.011417656 -0.042182375 0.023525741 -0.012112156 0.05291552 0.0043204455 0.012164417
0.0072609717 -0.008664043 0.012180502 -0.05771209 0.012604633 -0.0079614865 0.013624384 0.011083876
-0.031605493 0.011799339 -0.0016328187 0.0011058314 0.045950823 -0.011632754 0.014317075 -0.02009757
-0.04145128 -0.035444412 -0.020411752 0.021098504 -0.02449547 0.025623795 0.018264053 -0.023046358
00000000: 2b19 283c 9168 3fbd 8f89 713d 367f 903c
00000010: 7875 76bc 7c4c 60ba 4db3 053d 5c21 5dbc
00000020: 36cc 4d3c a9c2 183d f945 173d 3213 813c
00000030: a3cf 443c 4d9b c3bc af34 90bd 7523 a63c
00000040: aaec edbc f07f 34bc 4763 96bc da0d 413c
00000050: b64f 4c3d a168 ca3b 1f68 c53c 4624 c7bc
00000060: e2fc 3abb 2f8b 63bc 7e08 bc39 0545 6ebb
00000070: b591 6c3c 2628 2a3b 7372 8d3d 6074 973c
00000080: 72db 28bd 9350 723d e420 02bd f388 25bc
00000090: 6318 1d3c b9ec d5bc e0d8 ab3b e1f2 123d
000000a0: 589c df3b 858b 98bc 1961 0cbd ebb9 b73c
000000b0: 86cb d2bc 151f 8e3c 9827 65bb 74ad 7cbb
000000c0: 2563 7abc efec 0c3c 8447 863c 31ca 02bc
000000d0: bb42 eabb bc30 ab3c 6c2e cebb dba7 8bbc
000000e0: 1586 bebc b36f 3d3d b873 ae3c f1b5 873c
000000f0: 85d6 b13b f693 92b9 e8bf d93c 7117 07bd
00000100: 2788 5b3c ffca aabb 2794 ecbb 87a4 213d
00000110: 1b2a 32bd 5a22 afbc e768 06bd 01ab 46bc
00000120: 4c42 753c 0ff5 533c 74ae 733d a832 52bc
00000130: 33b9 803c d93a dfbc a7a8 fc3b 3f44 833c
00000140: 7860 efbb 1746 323c 7ead 973c c418 853c
00000150: 66ec 05bc e901 1e3d b926 ca3c 2a00 47bd
00000160: a6c8 54bc 2ed4 82bc 278b 083d ef8a b63c
00000170: 4f50 583c c7fb 95bc e26b b73c 78ac b2bb
00000180: 759e 0ebb 5433 003d 3e6c 9e3c eb5f 3b3c
00000190: d841 84bd 17e0 bcbb bba6 a4bc 8966 ecbc
000001a0: 9d34 fdbc b74a d4bb 0968 883c d782 58bc
000001b0: cb13 033c 0a68 edbc 0d2a 0bbd 4174 31bc
000001c0: 3a78 513c 221a 6abd d468 753c 2be3 e63c
000001d0: fdf6 08bc 5d42 693c c683 163c 48f1 0a3d
000001e0: 9287 88bb 7cf2 c3bc e8c5 acba 11ca d6bc
000001f0: ea55 b1bc aa82 fcb9 a7e2 3b3d d06d a6bc
00000200: 5928 80bc cd1b 373c 8c21 493c bfc3 4d3d
00000210: 92c0 1a3d 4c79 00bd f022 f2bc cdbd cc3c
00000220: 8060 1ebc 5df1 033d 171e 13bd 119c cc3c
00000230: 9f82 9cbd f039 403c ef2b 29bc 8bed 573d
00000240: f0c8 113d 84a3 1e3c 9472 d63c f4ec 6d3c
00000250: a25a a93c b73d 44bd 346e bfbc 4571 11bd
00000260: b52e 43bd 946a 123b 284f e7bb ae30 c23b
00000270: df13 4abc 8fc6 543d dcf9 9c3c f35a 92bc
00000280: ad25 7cbc ef16 20bd 1238 073c d84d ba3c
00000290: dc7c 00bc 5b25 adbb 6072 903a fe1a 54bc
000002a0: a6c5 bebc cfb0 7dbc c413 073d d510 c63c
000002b0: ab6f f03c 2a41 52bd 59cc 993d 6743 15bd
000002c0: 258b 5c3d 3e48 ac3c 08ee f03c a18a febc
000002d0: ed07 66bd 6673 45bc cce4 b33c 4412 86bb
000002e0: 9e70 c23a c0a1 28bd b282 563d ab79 463d
000002f0: ad9d 94bc b95d 4a3d 6f32 9b3c 04c1 f03c
00000300: d376 1e3d 8476 7a3d b3da f33c 598e 01bc
00000310: 0530 b0bc ab81 90ba 70e8 d03c a3bb 4fbc
00000320: ff18 413c b32b 38bc 8696 263c 3b55 2d3d
00000330: 877b f1bc d89c 993c 3dc2 88bc 8aba 743c
00000340: d3d3 003d baea e73b 6d64 bf3a 7f56 893c
00000350: eef1 5bbc 5a1a cdbc 0698 26bc 7b12 3ebd
00000360: c6af e5bb ca15 e73c b60d 15bc 11eb 71bc
00000370: 04b6 05bd 0b90 223d ab3b acbc a33a 1a3d
00000380: 3a09 ca3b 1f11 3bbc 6dc7 2cbd 0eb9 c03c
00000390: 1072 46bc f2bd 583d 8692 8d3b 434d 473c
000003a0: 72ed ed3b a1f3 0dbc ba90 473c 8363 6cbd
000003b0: aa83 4e3c e570 02bc cf38 5f3c 2599 353c
000003c0: c374 01bd 0452 413c 4e04 d6ba 8bf1 903a
000003d0: ee36 3c3d 4e97 3ebc 2a92 6a3c a9a3 a4bc
000003e0: d1c8 29bd 292e 11bd 8c36 a7bc c5d6 ac3c
000003f0: b9aa c8bc fee8 d13c 7f9e 953c b7cb bcbc

action_model._continuous_distribution.mu.bias f4 [3]
0.005849399 -0.024792964 -0.0011298113
00000000: 51ac bf3b 9d1a cbbc 2d16 94ba

exp_avg f4 [128, 179]
3.907266e-06 0.0 -5.4318487e-05 -4.320055e-05 -2.7436203e-05 0.0 -7.1582162e-06 -1.4446517e-05
1.5518879e-05 0.0 -4.587358e-05 -4.186968e-05 -3.186234e-05 0.0 -5.4909684e-05 -1.4560519e-05
1.8320481e-05 0.0 -3.0231973e-05 -4.1417443e-05 -2.6336067e-05 0.0 -7.135078e-05 -4.398009e-05
3.6439876e-06 0.0 -3.215321e-05 -3.259665e-05 -2.289859e-05 0.0 -4.143549e-05 -5.9973656e-05
1.5444198e-06 0.0 -4.7479083e-05 -2.5166202e-05 1.5145959e-05 0.0 -7.796803e-05 -7.2300354e-05
-2.6573673e-05 0.0 3.2814428e-06 -1.6125223e-05 -9.0007725e-06 0.0 -3.4076802e-05 -4.464726e-05
8.208965e-06 0.0 -8.080993e-05 -6.348242e-05 -2.4732777e-05 0.0 -1.0570571e-05 -3.5338635e-05
-1.6452446e-05 0.0 -3.995111e-05 -6.0188988e-05 6.62826e-06 0.0 -7.6668024e-05 -5.983721e-05
-1.3166102e-05 0.0 -3.803511e-05 -4.642645e-05 -2.0396556e-05 0.0 -5.429636e-05 -4.2076674e-05
1.8376228e-05 0.0 -8.478851e-05 -5.108572e-05 -1.9586461e-05 0.0 -1.6337746e-05 -2.2886687e-05
4.606085e-06 0.0 -4.8714453e-05 -6.540029e-05 8.887585e-06 0.0 -4.4966288e-05 -3.011954e-05
-1.6050095e-05 0.0 -0.000110086 -7.226356e-05 -8.912938e-06 0.0 -1.8557213e-05 -3.5063313e-05
-1.3524158e-05 0.0 -0.00011383561 -5.9893613e-05 6.3667335e-06 0.0 -1.8160465e-05 -4.1706488e-05
-2.200316e-05 0.0 -6.6731605e-05 -4.8068712e-05 1.0660781e-05 0.0 -2.7886073e-05 -4.3702308e-05
4.0870486e-06 0.0 -5.593239e-05 -5.321057e-05 1.1730594e-05 0.0 -1.5589094e-05 -4.7386995e-05
4.111431e-06 0.0 -5.5415992e-05 -4.629186e-05 8.782874e-06 0.0 -2.0243622e-05 -5.1090647e-05
-2.2073908e-05 0.0 1.3417189e-05 -3.4736204e-05 2.547576e-05 0.0 1.5963296e-05 2.1885277e-05
6.236067e-06 0.0 2.6271655e-05 1.8065535e-05 -1.9008294e-05 0.0 -1.2641232e-05 -2.3988317e-05
2.2379706e-06 0.0 5.527127e-05 5.337438e-05 -1.1583231e-05 0.0 6.4320884e-05 3.9810206e-05
1.5250997e-05 0.0 -2.2475879e-05 9.987761e-06 7.850814e-06 0.0 1.2956675e-05 5.439032e-06
2.1114834e-05 0.0 -2.1803553e-05 -1.3098046e-05 -6.3862367e-06 0.0 2.0223375e-05 1.0414769e-05
0.00022579521 -2.6218075e-05 0.00050806237 0.0 -6.284679e-05 0.0 3.7268488e-05 -4.952204e-05
-2.5604668e-05 0.00025258886 -8.108252e-05 -2.440207e-06 0.0 3.7067246e-06 5.7950947e-06 -1.486687e-06
0.0 3.22435e-06 5.6828567e-06 -1.2456371e-06 0.0 6.90153e-07 1.5596827e-06 -2.2136792e-06
0.0 4.0844494e-08 3.86015e-06 -1.5338105e-07 0.0 1.1481972e-06 -7.7747416e-07 -2.7139772e-06
0.0 -6.9751655e-07 3.914318e-06 -1.1485547e-06 0.0 1.1432869e-06 -8.4936994e-07 4.132373e-06
0.0 -1.032726e-07 7.488454e-06 4.4593622e-07 0.0 -9.914422e-08 -8.33157e-07 3.4875063e-07
0.0 1.9081404e-05 1.521463e-05 4.7622763e-07 0.0 -1.6568007e-06 -2.5208108e-06 -4.677734e-07
0.0 4.572202e-06 3.844619e-06 -7.509919e-07 0.0 4.546196e-06 5.1434486e-06 5.6804378e-08
0.0 7.312819e-06 2.6933656e-06 1.944251e-07 0.0 2.9905837e-06 6.680911e-06 -1.5513274e-06
0.0 5.038683e-06 1.4617957e-06 1.354263e-06 0.0 4.7290873e-06 7.0713045e-06 -6.940152e-08
0.0 3.7643974e-07 -2.2545498e-06 -1.3377976e-06 0.0 9.481681e-06 8.062513e-06 -5.2662212e-08
00000000: 291b 8336 0000 0000 08d4 63b8 3d32 35b8
00000010: cc26 e6b7 0000 0000 9c30 f0b6 515f 72b7
00000020: 8a2e 8237 0000 0000 6268 40b8 3a9d 2fb8
00000030: eda3 05b8 0000 0000 d34e 66b8 f448 74b7
00000040: efae 9937 0000 0000 ab9a fdb7 a4b7 2db8
00000050: 46ec dcb7 0000 0000 29a2 95b8 4377 38b8
00000060: 3b8b 7436 0000 0000 3fdc 06b8 63b8 08b8
00000070: 5916 c0b7 0000 0000 05cb 2db8 398c 7bb8
00000080: dc49 cf35 0000 0000 4724 47b8 021c d3b7
00000090: 661b 7e37 0000 0000 c482 a3b8 f59f 97b8
000000a0: 87ea deb7 0000 0000 c236 5c36 a744 87b7
000000b0: 0602 17b7 0000 0000 b0ed 0eb8 a143 3bb8
000000c0: 3cb9 0937 0000 0000 8078 a9b8 dd21 85b8
000000d0: 3c79 cfb7 0000 0000 4258 31b7 9238 14b8
000000e0: 5c03 8ab7 0000 0000 2d91 27b8 6f73 7cb8
000000f0: 5268 de36 0000 0000 d5c8 a0b8 b7f9 7ab8
00000100: fae3 5cb7 0000 0000 e387 1fb8 05ba 42b8
00000110: 4519 abb7 0000 0000 46bc 63b8 7c7b 30b8
00000120: a626 9a37 0000 0000 7cd0 b1b8 e044 56b8
00000130: 9b4d a4b7 0000 0000 0b0d 89b7 c9fc bfb7
00000140: f88d 9a36 0000 0000 bf52 4cb8 8327 89b8
00000150: e31b 1537 0000 0000 2f9a 3cb8 38a9 fcb7
00000160: 51a3 86b7 0000 0000 f9dd e6b8 348c 97b8
00000170: c788 15b7 0000 0000 50ab 9bb7 f210 13b8
00000180: d1e5 62b7 0000 0000 07bb eeb8 4736 7bb8
00000190: d3a1 d536 0000 0000 4d57 98b7 00ee 2eb8
000001a0: 6d93 b8b7 0000 0000 42f2 8bb8 639d 49b8
000001b0: b5db 3237 0000 0000 e3ec e9b7 ff4c 37b8
000001c0: 7b23 8936 0000 0000 f298 6ab8 6a2e 5fb8
000001d0: 85ce 4437 0000 0000 53c5 82b7 66c1 46b8
000001e0: ecf4 8936 0000 0000 786e 68b8 8229 42b8
000001f0: 285a 1337 0000 0000 d9d0 a9b7 2a4a 56b8
00000200: 5b2b b9b7 0000 0000 631a 6137 b7b1 11b8
00000210: c7b4 d537 0000 0000 ebe8 8537 4696 b737
00000220: 683f d136 0000 0000 f361 dc37 718b 9737
00000230: 0074 9fb7 0000 0000 ae15 54b7 853a c9b7
00000240: 0b30 1636 0000 0000 13d3 6738 4ede 5f38
00000250: 9955 42b7 0000 0000 03e4 8638 e2f9 2638
00000260: 89de 7f37 0000 0000 958a bcb7 1b91 2737
00000270: fdb6 0337 0000 0000 7f60 5937 ee80 b636
00000280: c31f b137 0000 0000 c6e6 b6b7 aebf 5bb7
00000290: 5b49 d6b6 0000 0000 5ea5 a937 18bb 2e37
000002a0: 71c3 6c39 e3ee dbb7 7d2f 053a 0000 0000
000002b0: 9dcc 83b8 0000 0000 bc50 1c38 e3b5 4fb8
000002c0: 9bc9 d6b7 e76d 8439 d90a aab8 70c2 23b6
000002d0: 0000 0000 0bc1 7836 7c73 c236 2d8a c7b5
000002e0: 0000 0000 e961 5836 5eaf be36 c42f a7b5
000002f0: 0000 0000 f442 3935 4a56 d135 b88e 14b6
00000300: 0000 0000 ff6c 2f33 7086 8136 10b1 24b4
00000310: 0000 0000 c11b 9a35 9eb3 50b5 c621 36b6
00000320: 0000 0000 f93c 3bb5 bc57 8336 0a28 9ab5
00000330: 0000 0000 0a73 9935 4200 64b5 d0a8 8a36
00000340: 0000 0000 b6c6 ddb3 5445 fb36 0269 ef34
00000350: 0000 0000 1de9 d4b3 1da6 5fb5 ec3b bb34
00000360: 0000 0000 0111 a037 5742 7f37 3aac ff34
00000370: 0000 0000 3d5f deb5 332b 29b6 4922 fbb4
00000380: 0000 0000 eb6a 9936 0701 8136 c597 49b5
00000390: 0000 0000 878b 9836 e395 ac36 13f9 7333
000003a0: 0000 0000 a360 f536 abbf 3436 2ac3 5034
000003b0: 0000 0000 d6b1 4836 972c e036 3437 d0b5
000003c0: 0000 0000 f511 a936 eb32 c435 1fc4 b535
000003d0: 0000 0000 8dae 9e36 0b46 ed36 e409 95b3
000003e0: 0000 0000 7c19 ca34 df4c 17b6 608e b3b5
000003f0: 0000 0000 8313 1f37 3b44 0737 b72e 62b3

exp_avg_sq f4 [128, 179]
3.1580096e-09 0.0 4.0724238e-08 5.6856138e-08 3.1932033e-09 0.0 3.77048e-08 5.448955e-08
2.4657967e-09 0.0 4.3569734e-08 5.936288e-08 2.5279019e-09 0.0 3.6823266e-08 5.3761585e-08
2.3935618e-09 0.0 4.5601013e-08 6.1342575e-08 2.7354625e-09 0.0 3.397115e-08 5.2950256e-08
2.6777163e-09 0.0 4.8700656e-08 6.398488e-08 2.6802371e-09 0.0 3.1695702e-08 5.1153062e-08
2.4655524e-09 0.0 5.1677944e-08 6.634018e-08 3.134188e-09 0.0 3.0248756e-08 5.054415e-08
2.5326183e-09 0.0 5.346352e-08 6.771965e-08 2.7704052e-09 0.0 4.2001428e-08 5.811312e-08
2.661477e-09 0.0 4.073573e-08 5.7334013e-08 3.088574e-09 0.0 4.367527e-08 5.9883895e-08
2.639837e-09 0.0 3.669518e-08 5.5492087e-08 2.7472342e-09 0.0 4.7245308e-08 6.2494955e-08
2.890532e-09 0.0 3.48953e-08 5.4650993e-08 2.4237534e-09 0.0 4.9899025e-08 6.483528e-08
2.7203835e-09 0.0 3.513675e-08 5.4112146e-08 2.5446296e-09 0.0 5.1796416e-08 6.617012e-08
3.2883942e-09 0.0 3.2772427e-08 5.3025403e-08 3.3068797e-09 0.0 5.21533e-08 6.761255e-08
3.4229524e-09 0.0 4.3186745e-08 5.976543e-08 3.2355216e-09 0.0 4.0795978e-08 5.824448e-08
3.005511e-09 0.0 4.7057974e-08 6.123628e-08 2.773319e-09 0.0 4.0393765e-08 5.717646e-08
2.8285305e-09 0.0 4.7301683e-08 6.219915e-08 3.1398164e-09 0.0 3.7520614e-08 5.5811366e-08
3.0154599e-09 0.0 4.798917e-08 6.403547e-08 2.7908198e-09 0.0 3.5484597e-08 5.4796402e-08
2.803762e-09 0.0 5.113834e-08 6.526362e-08 3.434466e-09 0.0 3.4261532e-08 5.4313546e-08
2.9346756e-09 0.0 5.2145637e-08 6.635373e-08 1.8126599e-09 0.0 1.8735841e-08 3.500282e-08
1.77519e-09 0.0 2.9078008e-08 4.3203684e-08 1.8523046e-09 0.0 1.24726585e-08 2.8009369e-08
1.9788753e-09 0.0 1.7434756e-08 3.4520355e-08 2.01979e-09 0.0 2.7086903e-08 4.1354518e-08
1.6294881e-09 0.0 1.2762686e-08 2.834389e-08 1.822094e-09 0.0 1.8307123e-08 3.5033743e-08
1.7967284e-09 0.0 3.004781e-08 4.304006e-08 1.6369222e-09 0.0 1.3608111e-08 2.9455247e-08
5.754767e-06 4.3464127e-08 8.08185e-06 0.0 4.8298542e-08 0.0 4.3685095e-08 4.4440826e-06
4.346466e-08 7.772953e-06 3.2368334e-08 3.4039375e-11 0.0 1.7209946e-10 3.7089756e-10 4.5049776e-11
0.0 1.7478087e-10 3.7902426e-10 2.778091e-11 0.0 1.6595249e-10 3.5499856e-10 7.124485e-11
0.0 2.4930197e-10 4.6258045e-10 2.879876e-11 0.0 1.7270657e-10 3.7465442e-10 7.9570454e-11
0.0 3.1704053e-10 5.463728e-10 3.9729026e-11 0.0 1.823929e-10 3.9915846e-10 6.672961e-11
0.0 4.1557732e-10 6.4484196e-10 4.053857e-11 0.0 2.4344998e-10 4.508793e-10 1.0341832e-10
0.0 4.935302e-10 7.3358114e-10 5.2868265e-11 0.0 2.94612e-10 5.2704724e-10 3.307987e-11
0.0 1.5160638e-10 3.553315e-10 3.7612087e-11 0.0 1.8298163e-10 3.8403797e-10 3.503213e-11
0.0 1.4561803e-10 3.3902894e-10 5.3909252e-11 0.0 2.160775e-10 4.3005668e-10 3.6046714e-11
0.0 1.6619126e-10 3.557556e-10 1.4896119e-10 0.0 2.4331048e-10 4.771697e-10 3.8984937e-11
0.0 1.8461961e-10 3.813801e-10 1.060222e-10 0.0 3.4308875e-10 5.743473e-10 3.3372412e-11
00000000: 4b04 5931 0000 0000 c6e8 2e33 fc31 7433
00000010: 6d6f 5b31 0000 0000 def0 2133 e507 6a33
00000020: c172 2931 0000 0000 6e21 3b33 2df6 7e33
00000030: 52b7 2d31 0000 0000 9c27 1e33 7de7 6633
00000040: fc7b 2431 0000 0000 d8da 4333 70bb 8333
00000050: c4fa 3b31 0000 0000 ade7 1133 6c6b 6333
00000060: e202 3831 0000 0000 f02a 5133 0f68 8933
00000070: 3b2f 3831 0000 0000 cb21 0833 63b3 5b33
00000080: 756e 2931 0000 0000 80f4 5d33 e676 8e33
00000090: 3861 5731 0000 0000 dcea 0133 e115 5933
000000a0: 4b0a 2e31 0000 0000 c39f 6533 456d 9133
000000b0: 7c61 3e31 0000 0000 0f65 3433 0d98 7933
000000c0: 33e5 3631 0000 0000 69f5 2e33 6a3f 7633
000000d0: c53e 5431 0000 0000 7895 3b33 8599 8033
000000e0: 8168 3531 0000 0000 c79a 1d33 3256 6e33
000000f0: dbc9 3c31 0000 0000 c4ea 4a33 f734 8633
00000100: c7a2 4631 0000 0000 cadf 1533 67b9 6a33
00000110: 1f8f 2631 0000 0000 8f50 5633 923b 8b33
00000120: 7ef1 3a31 0000 0000 44e9 1633 ef68 6833
00000130: 99dd 2e31 0000 0000 c376 5e33 6819 8e33
00000140: 0bfa 6131 0000 0000 aac1 0c33 0cbe 6333
00000150: 3e3f 6331 0000 0000 29ff 5f33 6432 9133
00000160: 3739 6b31 0000 0000 547c 3933 6558 8033
00000170: e657 5e31 0000 0000 a737 2f33 7c28 7a33
00000180: 8289 4e31 0000 0000 ca1c 4a33 0081 8333
00000190: be94 3e31 0000 0000 6a7d 2d33 2f92 7533
000001a0: 0960 4231 0000 0000 c028 4b33 5892 8533
000001b0: 3cc4 5731 0000 0000 5a26 2133 3fb5 6f33
000001c0: 8838 4f31 0000 0000 a71c 4e33 df83 8933
000001d0: 9fc8 3f31 0000 0000 ba67 1833 4859 6b33
000001e0: 4dac 4031 0000 0000 33a3 5b33 0e27 8c33
000001f0: c403 6c31 0000 0000 f426 1333 6046 6933
00000200: 5cab 4931 0000 0000 bcf6 5f33 597e 8e33
00000210: 4d21 f930 0000 0000 8df0 a032 0256 1633
00000220: f2fa f330 0000 0000 37c7 f932 f48e 3933
00000230: 2d94 fe30 0000 0000 5547 5632 4199 f032
00000240: befc 0731 0000 0000 6fc3 9532 8843 1433
00000250: 85cc 0a31 0000 0000 bbac e832 c69d 3133
00000260: 84f4 df30 0000 0000 e342 5b32 e078 f332
00000270: 3c6d fa30 0000 0000 ca41 9d32 0278 1633
00000280: c3f0 f630 0000 0000 eb0d 0133 0cdb 3833
00000290: 14fa e030 0000 0000 1bc9 6932 c604 fd32
000002a0: 1219 c136 50ad 3a33 4897 0737 0000 0000
000002b0: cf70 4f33 0000 0000 45a0 3b33 611e 9536
000002c0: e6ad 3a33 9468 0237 5c05 0b33 eeb4 152e
000002d0: 0000 0000 b139 3d2f 31e7 cb2f 8a21 462e
000002e0: 0000 0000 712c 402f ec5e d02f 0c5d f42d
000002f0: 0000 0000 7977 362f 9b29 c32f 49ab 9c2e
00000300: 0000 0000 220e 892f 694e fe2f 0b51 fd2d
00000310: 0000 0000 94e4 3d2f ecf7 cd2f 2ffa ae2e
00000320: 0000 0000 7d4b ae2f 912f 1630 e8ba 2e2e
00000330: 0000 0000 0a8b 482f 8f70 db2f 6ebd 922e
00000340: 0000 0000 4f77 e42f b840 3130 5f4a 322e
00000350: 0000 0000 8ad6 852f 9fdf f72f 576b e32e
00000360: 0000 0000 1aa9 0730 2fa5 4930 6084 682e
00000370: 0000 0000 f4f6 a12f a7df 1030 9f7c 112e
00000380: 0000 0000 67b1 262f 7658 c32f 726b 252e
00000390: 0000 0000 c030 492f 8a20 d32f ac12 1a2e
000003a0: 0000 0000 d51b 202f 1562 ba2f 6c18 6d2e
000003b0: 0000 0000 6994 6d2f 196d ec2f fe88 1e2e
000003c0: 0000 0000 aeba 362f 2694 c32f d9c8 232f
000003d0: 0000 0000 e8c2 852f d529 0330 2375 2b2e
000003e0: 0000 0000 cdfd 4a2f 7aaa d12f 3125 e92e
000003f0: 0000 0000 739d bc2f 19e0 1d30 ffc5 122e

exp_avg f4 [128]
-3.6595236e-05 9.161121e-06 -8.217629e-05 6.7797364e-06 5.145627e-06 -2.6767028e-05 6.615588e-05 -5.8911705e-06
2.456791e-05 7.1095805e-05 -6.2351837e-06 7.552167e-05 -2.0599612e-06 -6.4244937e-06 -7.364876e-05 -5.05166e-05
-1.3452847e-05 1.1471433e-05 1.1158442e-05 -1.9947958e-05 0.00014476613 5.8682715e-05 0.00014390498 -9.202378e-05
-4.5873232e-05 3.1661275e-05 0.00010980067 -4.2294232e-05 2.063138e-05 -3.5240612e-06 2.222142e-05 -5.4633634e-05
-3.2414144e-05 0.00015029432 -2.749574e-05 -2.268689e-05 -1.4941144e-06 -1.25211545e-05 1.3418211e-05 -8.020438e-05
-4.855819e-06 -5.0104903e-05 3.3194056e-06 2.8117247e-05 4.0518666e-05 -8.0424135e-05 6.188628e-07 4.350309e-06
-2.5002614e-06 5.197471e-07 1.8999303e-06 -3.277933e-05 -2.4340348e-05 -4.0129285e-05 4.160149e-06 -2.4456192e-05
-4.9050166e-05 -1.2930742e-05 -1.8716932e-05 0.00017825434 6.2807834e-05 1.6762452e-07 -4.1683787e-05 5.385694e-05
2.3193308e-05 -4.823115e-05 -6.920765e-05 -1.2904846e-05 -4.2828637e-05 -9.081294e-06 4.259272e-05 0.00013450351
-0.00015884486 -2.7222844e-05 -1.1119531e-05 0.00015628454 -2.6119022e-05 3.4894332e-05 -6.0718077e-05 1.1529867e-05
-1.05488325e-05 -3.5982142e-05 0.000120018645 2.0697684e-05 5.8022735e-05 2.242483e-06 -4.224063e-05 7.083307e-06
-3.0161274e-05 -1.5572827e-05 2.9437499e-05 5.0359245e-06 -3.780843e-05 4.7676036e-05 -7.5276052e-06 -1.4855643e-05
0.0001274834 -2.2336237e-05 0.00013552497 -3.2639437e-05 4.1499912e-05 5.592572e-06 3.713866e-05 -9.156736e-05
-3.1798696e-05 -5.535994e-05 -1.41365435e-05 5.5605953e-05 -1.8379567e-05 -2.5769898e-05 -4.0721866e-06 -9.089896e-05
-2.697314e-05 -4.5826924e-05 6.821157e-06 -6.904627e-05 5.101818e-05 -1.7613584e-05 -2.3962082e-05 -6.308683e-05
-2.5813006e-05 7.566658e-05 1.8744977e-05 9.710381e-05 8.482814e-06 1.1027596e-05 -1.2226473e-05 -5.90021e-05
00000000: d67d 19b8 b7b2 1937 0f56 acb8 7e7d e336
00000010: 99a8 ac36 c189 e0b7 2bbd 8a38 c5ac c5b6
00000020: 2f17 ce37 4519 9538 d237 d1b6 6361 9e38
00000030: dd3d 0ab6 fb91 d7b6 e073 9ab8 c9e1 53b8
00000040: 8ab3 61b7 6e75 4037 2535 3b37 ea55 a7b7
00000050: 5dcc 1739 1622 7638 33e5 1639 e4fc c0b8
00000060: 0268 40b8 09cc 0438 c944 e638 1665 31b8
00000070: 8d11 ad37 e97e 6cb6 2368 ba37 6b26 65b8
00000080: 6cf4 07b8 5398 1d39 a7a6 e6b7 ba4f beb7
00000090: 6189 c8b5 f311 52b7 c71e 6137 6633 a8b8
000000a0: 2bef a2b6 bb27 52b8 f4c2 5e36 54dd eb37
000000b0: 96f2 2938 61a9 a8b8 ee1f 2635 dff8 9136
000000c0: 2aca 27b6 c084 0b35 1c01 ff35 8a7c 09b8
000000d0: 802e ccb7 7e50 28b8 6897 8b36 4627 cdb7
000000e0: 37bb 4db8 1df1 58b7 4e02 9db7 c9e9 3a39
000000f0: b3b7 8338 47fc 3334 a0d5 2eb8 73e4 6138
00000100: 408f c237 ce4b 4ab8 9323 91b8 e481 58b7
00000110: e6a2 33b8 dc5b 18b7 96a5 3238 8309 0d39
00000120: 988f 26b9 9d5c e4b7 068e 3ab7 50e0 2339
00000130: 2c1a dbb7 815b 1238 8aab 7eb8 6770 4137
00000140: e4fa 30b7 88eb 16b8 85b2 fb38 f09f ad37
00000150: 705d 7338 917d 1636 882b 31b8 25ad ed36
00000160: d802 fdb7 64a2 82b7 8cf0 f637 43fa a836
00000170: 7e94 1eb8 c1f7 4738 a395 fcb6 803c 79b7
00000180: 11ad 0539 b45e bbb7 b51b 0e39 54e6 08b8
00000190: 3110 2e38 d4a7 bb36 55c5 1b38 da07 c0b8
000001a0: 975f 05b8 4832 68b8 fe2b 6db7 703a 6938
000001b0: d22d 9ab7 6f2c d8b7 d1a3 88b6 02a1 beb8
000001c0: 6144 e2b7 4936 40b8 4be1 e436 efcc 90b8
000001d0: 5bfc 5538 e2c0 93b7 2e02 c9b7 7c4d 84b8
000001e0: 0289 d8b7 30af 9e38 883e 9d37 36a4 cb38
000001f0: 6951 0e37 2a03 3937 4d20 4db7 0679 77b8

exp_avg_sq f4 [128]
1.026314e-07 2.0000404e-09 3.6088215e-07 7.4396475e-08 7.803853e-08 1.870211e-08 1.2704824e-07 2.8842103e-07
1.527921e-07 1.707749e-07 5.2230018e-08 2.2022945e-07 8.8907946e-08 1.1429153e-07 1.1037704e-07 1.3372491e-07
2.0898996e-08 7.759384e-08 8.3236706e-08 3.2024424e-08 3.042419e-07 2.6085663e-08 1.6981835e-07 1.4230574e-07
2.1746542e-08 3.099381e-08 3.298043e-08 3.7318255e-08 3.851949e-08 1.9031395e-08 9.007221e-08 4.5952447e-08
3.1263113e-08 1.0787093e-07 1.02944604e-07 6.515654e-08 2.7119544e-08 2.03767e-08 2.619288e-08 1.4259086e-07
1.808934e-08 1.112269e-07 1.3299254e-07 1.5276184e-07 5.4617637e-08 2.1640561e-07 2.1761739e-08 7.43936e-08
2.178255e-08 1.7501291e-08 6.2592875e-08 7.569121e-08 9.296271e-08 5.7205707e-08 1.0923412e-07 1.1811141e-07
7.451816e-08 2.5239869e-08 9.507423e-08 4.4619478e-07 6.778207e-08 2.5329406e-08 3.3405662e-08 8.008005e-08
6.284363e-08 1.1060252e-07 6.293294e-08 5.4220823e-08 5.531175e-08 1.993479e-08 5.2301672e-08 4.1865877e-07
6.260637e-08 1.2375133e-07 8.050763e-08 2.0105229e-07 7.0290085e-08 3.1623177e-08 1.4171324e-07 6.801263e-08
6.022651e-08 1.19312356e-08 7.3091066e-08 1.10854664e-07 2.974805e-08 6.6267525e-08 9.384902e-08 1.7682302e-08
2.0952406e-08 2.7583006e-08 1.3466241e-07 5.289519e-09 5.6114366e-08 3.547415e-08 6.3268836e-08 1.11367235e-08
9.904753e-08 4.0561773e-08 2.0321191e-07 3.9196028e-08 1.0186989e-07 5.8249167e-08 1.1331961e-08 8.473029e-08
3.7901412e-08 3.4220346e-08 1.0583821e-07 4.452817e-08 2.928195e-08 1.2754529e-07 2.3307621e-07 7.181557e-08
4.47847e-08 1.5226775e-07 2.1534477e-08 3.2618672e-08 1.00195955e-07 1.5334265e-08 1.5602028e-08 6.724324e-08
1.9009892e-08 7.3997356e-08 3.791725e-08 4.4704882e-07 1.3768832e-08 1.530157e-08 7.93341e-08 1.4736568e-07
00000000: 3566 dc33 1571 0931 44bf c134 e5c3 9f33
00000010: 2396 a733 60a6 a032 c16a 0834 49d8 9a34
00000020: 2c0f 2434 3f5e 3734 8353 6033 3678 6c34
00000030: a9ed be33 6f70 f533 6b08 ed33 0696 0f34
00000040: 6185 b332 aaa1 a633 ddbf b233 3a8b 0933
00000050: b056 a334 fb12 e032 5057 3634 b4cc 1834
00000060: 27cd ba32 0e1e 0533 5ea6 0d33 db47 2033
00000070: a170 2533 7b7a a332 b96d c133 405d 4533
00000080: 2846 0633 aca6 e733 6512 dd33 30ec 8b33
00000090: 82f4 e832 d608 af32 c1fe e032 141b 1934
000000a0: e162 9b32 a3db ee33 b6cc 0e34 db06 2434
000000b0: ba94 6a33 1f5d 6834 92ee ba32 50c2 9f33
000000c0: 561c bb32 bf55 9632 cc6a 8633 af8b a233
000000d0: caa2 c733 57b2 7533 1894 ea33 6fa4 fd33
000000e0: cb06 a033 0fcf d832 9c2b cc33 8b8c ef34
000000f0: 968f 9133 f493 d932 ea79 0f33 79f8 ab33
00000100: a7f4 8633 6184 ed33 c025 8733 6de0 6833
00000110: ea8f 6d33 113d ab32 4ca2 6033 06c4 e034
00000120: 3772 8633 82e0 0434 8ae3 ac33 d5e0 5734
00000130: 62f2 9633 0dd2 0733 d729 1834 570e 9233
00000140: e055 8133 21fa 4c32 3df6 9c33 ff0e ee33
00000150: a788 ff32 f54e 8e33 0b8a c933 cbe3 9732
00000160: d4fa b332 acef ec32 b997 1034 1abf b531
00000170: 6602 7133 3e5c 1833 69de 8733 d453 3f32
00000180: f5b3 d433 2436 2e33 7732 5a34 7d58 2833
00000190: 90c3 da33 a32d 7a33 7eae 4232 f8f4 b533
000001a0: 0bc9 2233 abf9 1233 2c49 e333 3e3f 3f33
000001b0: b087 fb32 62f3 0834 8043 7a34 0739 9a33
000001c0: 4c59 4033 0a7f 2334 d1fa b832 9c18 0c33
000001d0: 4f2b d733 68b8 8332 3905 8632 5d67 9033
000001e0: 324b a332 7ae8 9e33 75da 2233 ec01 f034
000001f0: f78b 6c32 8270 8332 625e aa33 923b 1e34
