results/Test/Hide/Hide-6144.onnx (onnx, 75719 bytes, 7 tensors)

action_model._continuous_distribution.log_sigma f4 [1, 3]
0	0x00000000	0.0
1	0x00000000	0.0
2	0x00000000	0.0

action_model._continuous_distribution.mu.bias f4 [3]
0	0x00000000	0.0
1	0x00000000	0.0
2	0x00000000	0.0

action_model._continuous_distribution.mu.weight f4 [3, 128]
0	0x3cc2233a	0.023698438
1	0xbc966a22	-0.018361155
2	0x3c8baaa6	0.017049145
3	0x3c801d8e	0.015639093
4	0x3bd881a8	0.006607253
5	0xbcb04273	-0.02151606
6	0xbc652052	-0.013984757
7	0x3af3c3dd	0.00185978
8	0x3bb75771	0.0055951406
9	0x3c1e1a39	0.009649807
10	0xbc30c243	-0.010788503
11	0x3d0f770b	0.035025638
12	0x3c754088	0.014968999
13	0x39d3eecd	0.00040422977
14	0xbc8ed75a	-0.017436672
15	0xbaaa207b	-0.0012979651
16	0xbc1666bf	-0.00917977
17	0xbc8af3b1	-0.016961904
18	0x3c8ad997	0.016949458
19	0x3c2569ba	0.010096008
20	0xba263283	-0.00063399243
21	0xbcd48190	-0.025940686
22	0x3be788cb	0.0070658675
23	0xbb7c4dd0	-0.0038498528
24	0x3c40167c	0.011724111
25	0x3c871725	0.016490528
26	0x398c6380	0.00026777014
27	0xbcc3ab0a	-0.023885269
28	0xbb9d7709	-0.00480545
29	0x3b236acc	0.0024935482
30	0xbca99b57	-0.020703955
31	0x3beba09f	0.0071907784
32	0xbbb78b85	-0.005601349
33	0xbc361c3c	-0.01111513
34	0xbcde2783	-0.02711845
35	0x3af376bd	0.0018574815
36	0xbca6c065	-0.020355413
37	0x3ca000c2	0.019531611
38	0xbcde79d5	-0.027157703
39	0xbce8b89f	-0.028408347
40	0xba2521af	-0.000629927
41	0xbbb6f6cf	-0.005583621
42	0xbc03e534	-0.008050252
43	0xbac451c3	-0.001497798
44	0x3b8ad78a	0.00423712
45	0xb9211255	-0.00015360986
46	0x3b3c2523	0.0028708659
47	0x3bae07e8	0.005311001
48	0x3a934710	0.0011236388
49	0x3bd3eb90	0.00646729
50	0xbc8abbc0	-0.01693523
51	0xbaeb9eb5	-0.0017976376
52	0x3b71c1e8	0.0036889259
53	0xbc852ac2	-0.01625574
54	0x3bb4b39f	0.0055145766
55	0x3c782923	0.0151465265
56	0x3cb6b59b	0.022303393
57	0xbcfdd045	-0.0309831
58	0x3c7a22ca	0.015267083
59	0xbc853c09	-0.016263979
60	0xbbd1a3e2	-0.00639771
61	0xbc2995e7	-0.010350681
62	0xbc927e2c	-0.017882429
63	0x3c12fdf0	0.008971676
64	0xbb945028	-0.004526157
65	0xbc203276	-0.009777656
66	0xbd02a303	-0.03189374
67	0x3b40495e	0.0029340605
68	0x3c730235	0.014832069
69	0xbb4b9ae7	-0.003106767
70	0x3c81f7cc	0.01586523
71	0x3c1c9716	0.009557506
72	0x3b0149ab	0.0019727747
73	0x3c6191d7	0.013767681
74	0xbac27cc1	-0.0014838205
75	0xbc9128f3	-0.017719721
76	0xbc925818	-0.017864272
77	0x3c9527e0	0.01820749
78	0xbb3957f5	-0.0028281186
79	0x3c357356	0.0110748615
80	0xbcdc7aba	-0.02691399
81	0xbcb1dd29	-0.021711903
82	0x3d199867	0.037498858
83	0x3bd08a18	0.0063641183
84	0x3ceab0af	0.028648702
85	0x3c70d397	0.014698884
86	0x3bf72d1f	0.0075432207
87	0x3a78921f	0.0009482223
88	0xbc37f9a4	-0.011228953
89	0xba47c177	-0.0007620076
90	0xbb5dae75	-0.0033825908
91	0x3bb08d45	0.0053879344
92	0xbb674aff	-0.0035292504
93	0x3d0f172a	0.0349342
94	0x3ad73665	0.0016419409
95	0xbb93b5cf	-0.0045077573
96	0x3c06fc23	0.008238825
97	0xbc1d34b7	-0.009595088
98	0xbc896ea3	-0.016776389
99	0xbc594018	-0.01325991
100	0x3bbe0e53	0.0058000474
101	0x3c77c46b	0.015122513
102	0xbb21b22d	-0.0024672851
103	0x3cc2fac0	0.023801208
104	0x3c5731f2	0.0131344665
105	0xbb937e5b	-0.0045011467
106	0xbc386bc6	-0.011256164
107	0xbc14062a	-0.009034673
108	0x3c8a6fb9	0.016898977
109	0x3c28f426	0.010312116
110	0x3c94819f	0.018128214
111	0xbcf5d513	-0.030008828
112	0xbc817cc3	-0.015806561
113	0x3ca58f2b	0.02020987
114	0x3afdf3ca	0.0019375023
115	0x3bcb4a9d	0.006203963
116	0x3c084386	0.00831688
117	0x3a1df2ce	0.00060252554
118	0xbbae6fff	-0.0053234096
119	0x3b685cb0	0.0035455637
120	0x38ed1ae2	0.00011306048
121	0x3cc407bc	0.02392947
122	0x3b9efdaf	0.004852019
123	0xbd6aef8d	-0.05735736
124	0xbbd774e5	-0.006575214
125	0x3cbf7ba7	0.023374392
126	0xbc07697e	-0.008264897
127	0x3c9dbd82	0.019255403
128	0xbc2eb3f5	-0.010663022
129	0xbbd5b7ca	-0.0065221535
130	0x3d41bb10	0.047297537
131	0xbc1718dd	-0.009222236
132	0x3a94f0f5	0.0011363315
133	0x3cc3a961	0.023884477
134	0xb84802b4	-4.7686233e-05
135	0xbcad875a	-0.021182705
136	0x393f9b83	0.00018273112
137	0x3b005d6f	0.001958694
138	0x3c96a5df	0.01838964
139	0x3c498baa	0.012301365
140	0x3d307cc0	0.04308772
141	0xbc1e9505	-0.009679084
142	0x3d09f3e3	0.033679854
143	0x3b8b20eb	0.0042458675
144	0x3c4bcaa6	0.012438452
145	0x3c5b1ce5	0.013373588
146	0x3b963492	0.0045839036
147	0x3bbf47ae	0.0058374023
148	0xbd0b0220	-0.033937573
149	0xb98a6a0b	-0.0002640042
150	0xbb1f122f	-0.0024272313
151	0x3c3a7c31	0.011382149
152	0xbc510e32	-0.012759732
153	0x3c48be2c	0.012252372
154	0xbca808cf	-0.020512013
155	0x3c5d3247	0.013500757
156	0xbc28f405	-0.010312085
157	0xbb397e02	-0.0028303866
158	0x3c0150f2	0.007892834
159	0xbcc658e5	-0.02421231
160	0xbc4d8ba2	-0.012545498
161	0x3c3ee733	0.011651802
162	0xbceefa30	-0.029172033
163	0x3cc8551b	0.024454644
164	0x3c15892b	0.009126942
165	0x3c2225ae	0.009896679
166	0xbc9cb15b	-0.019127538
167	0x3aac780f	0.0013158339
168	0xbc56a812	-0.0131015945
169	0x39e1729a	0.0004300073
170	0x3c0774c5	0.008267586
171	0x390a46ca	0.00013187077
172	0x3aa3af21	0.0012488106
173	0x3cad5be9	0.02116199
174	0xbb220c7b	-0.0024726677
175	0x3d13de49	0.03610066
176	0x3cebbcf0	0.028776616
177	0x3c55a663	0.013040158
178	0x3bb0c55f	0.005394622
179	0x3b8de215	0.0043299296
180	0x3a29220c	0.0006451912
181	0xbc64b6c5	-0.013959591
182	0xbc9e0dcc	-0.019293688
183	0x3c136151	0.00899537
184	0xbc7b7977	-0.015348784
185	0xbc28dcdd	-0.010306564
186	0xbc8f222b	-0.017472347
187	0xbbcd64df	-0.0062681283
188	0x3acdc7b2	0.0015699773
189	0x396fbadb	0.00022862425
190	0x3bf7b0aa	0.007558902
191	0x3be62cdd	0.007024391
192	0x3c1799ff	0.009253024
193	0xbcb46755	-0.022021929
194	0xbc396e97	-0.011317871
195	0x3a8fca35	0.0010970297
196	0x3c646f43	0.0139425425
197	0x3c5333ab	0.012890737
198	0xb98a1d99	-0.00026343463
199	0xbbeb46cd	-0.007180071
200	0xbc9e8cac	-0.019354187
201	0x3bd6cac7	0.0065549347
202	0x3c7810ca	0.015140722
203	0xbd1d5c77	-0.03841826
204	0x3cdbfef5	0.026854971
205	0xbc84ac87	-0.016195549
206	0x3d1d3f63	0.03839053
207	0x3bb0ab00	0.0053914785
208	0x3b49e53e	0.0030806805
209	0xbbbe9fb1	-0.0058173765
210	0x3c9a2a6c	0.018819056
211	0x3cfac7cd	0.03061285
212	0xbcc84459	-0.024446653
213	0x3c01205b	0.007881249
214	0xbc6bc78a	-0.014390836
215	0x3c7e801f	0.015533476
216	0xbbe21245	-0.0068991506
217	0xbc405d86	-0.011741048
218	0xbc74ab63	-0.01493344
219	0x3c88fc87	0.016721977
220	0xba972988	-0.0011532763
221	0xbc8ac2d5	-0.016938606
222	0x3c1166d4	0.008874614
223	0xbc8b5af8	-0.01701115
224	0xbc31050a	-0.010804424
225	0xbc9107ef	-0.017703978
226	0x3cab464b	0.020907542
227	0xbc5bebb5	-0.013422896
228	0xbc863bcb	-0.016385933
229	0x3bb7f2d4	0.005613664
230	0x3cc2fde6	0.023802709
231	0x3c725cd7	0.014792643
232	0x3ba279e3	0.0049583777
233	0x3cc25a27	0.023724629
234	0x3c878298	0.016541764
235	0xb9bc8087	-0.00035953915
236	0x3b4148f2	0.0029492942
237	0x3d2f72bb	0.042834025
238	0xbca1a66f	-0.019732682
239	0xbbed3cc2	-0.007239909
240	0x3c88c9be	0.01669776
241	0x3c3f0444	0.011658732
242	0x3c319b83	0.0108403
243	0x3cab8427	0.020937039
244	0x3cdd78cf	0.027035145
245	0xbb26e49b	-0.002546585
246	0x3d0e440d	0.034732867
247	0x3c5c72aa	0.013455072
248	0x3c39ae2b	0.011333029
249	0x3a4acb4a	0.0007735981
250	0xbc7844f0	-0.015153155
251	0x3b8f4142	0.004371793
252	0xbd031b8e	-0.0320087
253	0x3b0c05aa	0.002136568
254	0x3c65e37b	0.014031286
255	0xbca3f08d	-0.020012164

network_body._body_endoder.seq_layers.0.bias f4 [128]
0	0x00000000	0.0
1	0x00000000	0.0
2	0x00000000	0.0
3	0x00000000	0.0
4	0x00000000	0.0
5	0x00000000	0.0
6	0x00000000	0.0
7	0x00000000	0.0
8	0x00000000	0.0
9	0x00000000	0.0
10	0x00000000	0.0
11	0x00000000	0.0
12	0x00000000	0.0
13	0x00000000	0.0
14	0x00000000	0.0
15	0x00000000	0.0
16	0x00000000	0.0
17	0x00000000	0.0
18	0x00000000	0.0
19	0x00000000	0.0
20	0x00000000	0.0
21	0x00000000	0.0
22	0x00000000	0.0
23	0x00000000	0.0
24	0x00000000	0.0
25	0x00000000	0.0
26	0x00000000	0.0
27	0x00000000	0.0
28	0x00000000	0.0
29	0x00000000	0.0
30	0x00000000	0.0
31	0x00000000	0.0
32	0x00000000	0.0
33	0x00000000	0.0
34	0x00000000	0.0
35	0x00000000	0.0
36	0x00000000	0.0
37	0x00000000	0.0
38	0x00000000	0.0
39	0x00000000	0.0
40	0x00000000	0.0
41	0x00000000	0.0
42	0x00000000	0.0
43	0x00000000	0.0
44	0x00000000	0.0
45	0x00000000	0.0
46	0x00000000	0.0
47	0x00000000	0.0
48	0x00000000	0.0
49	0x00000000	0.0
50	0x00000000	0.0
51	0x00000000	0.0
52	0x00000000	0.0
53	0x00000000	0.0
54	0x00000000	0.0
55	0x00000000	0.0
56	0x00000000	0.0
57	0x00000000	0.0
58	0x00000000	0.0
59	0x00000000	0.0
60	0x00000000	0.0
61	0x00000000	0.0
62	0x00000000	0.0
63	0x00000000	0.0
64	0x00000000	0.0
65	0x00000000	0.0
66	0x00000000	0.0
67	0x00000000	0.0
68	0x00000000	0.0
69	0x00000000	0.0
70	0x00000000	0.0
71	0x00000000	0.0
72	0x00000000	0.0
73	0x00000000	0.0
74	0x00000000	0.0
75	0x00000000	0.0
76	0x00000000	0.0
77	0x00000000	0.0
78	0x00000000	0.0
79	0x00000000	0.0
80	0x00000000	0.0
81	0x00000000	0.0
82	0x00000000	0.0
83	0x00000000	0.0
84	0x00000000	0.0
85	0x00000000	0.0
86	0x00000000	0.0
87	0x00000000	0.0
88	0x00000000	0.0
89	0x00000000	0.0
90	0x00000000	0.0
91	0x00000000	0.0
92	0x00000000	0.0
93	0x00000000	0.0
94	0x00000000	0.0
95	0x00000000	0.0
96	0x00000000	0.0
97	0x00000000	0.0
98	0x00000000	0.0
99	0x00000000	0.0
100	0x00000000	0.0
101	0x00000000	0.0
102	0x00000000	0.0
103	0x00000000	0.0
104	0x00000000	0.0
105	0x00000000	0.0
106	0x00000000	0.0
107	0x00000000	0.0
108	0x00000000	0.0
109	0x00000000	0.0
110	0x00000000	0.0
111	0x00000000	0.0
112	0x00000000	0.0
113	0x00000000	0.0
114	0x00000000	0.0
115	0x00000000	0.0
116	0x00000000	0.0
117	0x00000000	0.0
118	0x00000000	0.0
119	0x00000000	0.0
120	0x00000000	0.0
121	0x00000000	0.0
122	0x00000000	0.0
123	0x00000000	0.0
124	0x00000000	0.0
125	0x00000000	0.0
126	0x00000000	0.0
127	0x00000000	0.0

network_body._body_endoder.seq_layers.0.weight f4 [128, 11]
0	0x3ed2557e	0.4108085
1	0xbe7297ca	-0.23690715
2	0xbeea6b35	-0.45784917
3	0x3d61f1e9	0.055162344
4	0xbd4de203	-0.05026437
5	0xbe2cdc8d	-0.16881008
6	0x3e95ccaf	0.29257724
7	0xbe17b7fe	-0.14816281
8	0x3ed84d56	0.42246503
9	0x3e13efef	0.14446996
10	0x3ea0f873	0.31439552
11	0x3ebbad2f	0.36655566
12	0xbe3c6fab	-0.18401973
13	0xbe6d245a	-0.23158398
14	0x3eb584b0	0.35452795
15	0x3f23ec01	0.6403199
16	0xbe18b91e	-0.14914367
17	0xbf00aefb	-0.50267
18	0xbe9c7a18	-0.305619
19	0xbe86af37	-0.26305553
20	0xbe96dd1c	-0.29465568
21	0xbe88c860	-0.26715374
22	0xbd3cde2d	-0.04611032
23	0xbe1f7d99	-0.15575255
24	0x3ecd5c38	0.4010942
25	0xbea87239	-0.32899645
26	0x3e47ca69	0.19510807
27	0xbdebf343	-0.11521008
28	0x3da68c59	0.08132238
29	0x3f5fc51b	0.87410134
30	0x3d8f2e5c	0.06991264
31	0xbbffc519	-0.0078054783
32	0xbeaa021e	-0.3320474
33	0xbbf3634e	-0.0074276095
34	0xbeb17764	-0.346614
35	0xbc0ba0a5	-0.008522187
36	0x3f2dcb16	0.6788801
37	0x3edfe75b	0.43731198
38	0x3efc7a27	0.49311945
39	0xbd628ade	-0.055308215
40	0xbe9c6303	-0.3054429
41	0xbe9c62b6	-0.3054406
42	0x3d1371f7	0.035997357
43	0xbddc8bbc	-0.1076884
44	0x3e7341da	0.23755589
45	0xbe346116	-0.1761516
46	0xbe9e3a5d	-0.30903903
47	0xbed2a071	-0.41138032
48	0xbf0664e1	-0.5249768
49	0xbf3c91d9	-0.73660046
50	0xbea19f54	-0.3156687
51	0x3ef96e49	0.48716953
52	0xbe100343	-0.14063744
53	0xbd7f3297	-0.062304106
54	0x3eade7fc	0.33966053
55	0x3df74e1d	0.12075446
56	0xbdd12b75	-0.10213367
57	0xbe7d7ccc	-0.24754637
58	0xbeb46766	-0.35235137
59	0x3f112a80	0.56705475
60	0xbc19c7d5	-0.009386023
61	0x3c9305de	0.017947134
62	0x3d6850b3	0.056717586
63	0x3e9cc381	0.30617908
64	0xbd84cc0c	-0.06484231
65	0x3c873682	0.016505484
66	0xbde94b2a	-0.113912895
67	0xbe289ea1	-0.16466762
68	0x3dd3c8f6	0.10341065
69	0xbed7275c	-0.42022216
70	0xbdecf6ea	-0.115705326
71	0x3ec5544b	0.38540873
72	0xbc3cb457	-0.011517606
73	0xbcadfd74	-0.02123902
74	0xbeac91a0	-0.33704853
75	0x3e9c1050	0.30481195
76	0x3cb8bae2	0.02255005
77	0xbee02752	-0.4378
78	0xbe0fba1d	-0.1403584
79	0x3f094972	0.53627694
80	0xbf1d201f	-0.6137714
81	0xbdd185f4	-0.10230628
82	0xbe15a783	-0.14614682
83	0xbdeccf6b	-0.11562999
84	0x3ece5fe3	0.4030753
85	0x3cd1339e	0.025537308
86	0xbd55f9e8	-0.052240282
87	0xbef2d375	-0.47426954
88	0x3efa4ff1	0.48889115
89	0xbde4aa00	-0.111652374
90	0x3d3e82b9	0.046511386
91	0xbed5369d	-0.4164323
92	0x3e4274d0	0.18989873
93	0xbcf257bd	-0.029582852
94	0xbd27f528	-0.041005284
95	0xbe72d82a	-0.23715273
96	0x3e353cdf	0.17699002
97	0x3d6c13b0	0.057635963
98	0x3f323633	0.6961395
99	0xbdf83423	-0.12119319
100	0xbefe3e1d	-0.49656764
101	0xbdf41682	-0.119183555
102	0x3dd91f5c	0.106016845
103	0xbd469d8e	-0.0484901
104	0xbc6814f4	-0.014165152
105	0x3e2d0885	0.16897781
106	0xbc5bc2e4	-0.013413165
107	0xbe1f99a1	-0.15585949
108	0xbe17bb78	-0.14817607
109	0xbd140223	-0.03613485
110	0x3d98114a	0.074251726
111	0x3ea077b3	0.31341323
112	0xba9f8767	-0.001217109
113	0x3f2a051b	0.6641404
114	0x3dc5e607	0.09663015
115	0x3f5104a2	0.81647694
116	0xbae316d1	-0.0017325525
117	0xbf2e7276	-0.68143404
118	0xbf146944	-0.5797312
119	0x3e542d09	0.20720305
120	0xbc7bba95	-0.015364309
121	0xbcdafe56	-0.026732605
122	0x3f0f101c	0.55883956
123	0xbe2d5f3c	-0.1693086
124	0x3c8454e4	0.01615376
125	0xbda2d5c3	-0.07950928
126	0x3e107652	0.14107636
127	0x3eb5cb75	0.35506788
128	0x3ed87bbe	0.42281908
129	0xbeba62ba	-0.36403447
130	0x3e61189c	0.21982044
131	0xbe625e73	-0.22106342
132	0xbe679dd9	-0.22618808
133	0xbca0a8ad	-0.01961168
134	0x3ec99571	0.39371827
135	0xbeace5c7	-0.33769056
136	0x3dacc4e2	0.0843599
137	0xbea014c6	-0.3126585
138	0x3eb5c380	0.35500717
139	0xbd5cdb74	-0.053920224
140	0xbe89aa9f	-0.26887986
141	0xbe8942c2	-0.26808745
142	0xbf0fd21f	-0.56179994
143	0xbeafec50	-0.3435998
144	0x3d5d4b01	0.054026607
145	0xbe3a57c6	-0.18197545
146	0x3eb1fac1	0.34761623
147	0x3e8d58c5	0.27606788
148	0xbd906674	-0.070507914
149	0x3e83c98b	0.25739703
150	0xbec09946	-0.37616938
151	0x3e603e03	0.21898656
152	0x3d8ce917	0.06880396
153	0xbc6fd760	-0.014638752
154	0xbe1f3a2a	-0.15549532
155	0x3e5418b6	0.20712551
156	0xbf108fa2	-0.56469166
157	0xbf2523a2	-0.64507496
158	0xbe96ea8d	-0.29475823
159	0xbd7515bf	-0.05983519
160	0xbec704b3	-0.38870773
161	0xbe9b4e6e	-0.30333275
162	0xbee09e55	-0.43870798
163	0xbe42b775	-0.19015296
164	0x3ed0a384	0.40749753
165	0xbe4d8bf2	-0.20072916
166	0x3f3e2ddb	0.7428872
167	0x3f37f9f7	0.7186579
168	0xbe12f0d4	-0.14349681
169	0xbd37905b	-0.044815402
170	0xbf0c3b1d	-0.547777
171	0xbe011718	-0.12606466
172	0x3ecb3958	0.39692187
173	0x3e56155c	0.20906585
174	0x3d57f756	0.052726112
175	0xbe418b4e	-0.18900797
176	0x3ebb83d5	0.36624017
177	0x3ecddcfb	0.40207657
178	0x3e097f85	0.13427551
179	0x3da37358	0.079809844
180	0x3f1c38a0	0.610239
181	0x3ddbcfb2	0.10732974
182	0xbe87b200	-0.2650299
183	0xbe5d181a	-0.21591225
184	0x3ee74e0d	0.45176736
185	0xbd81e42e	-0.0634235
186	0x3e7bab16	0.24576983
187	0x3d00f236	0.03148099
188	0x3e0a7692	0.13521793
189	0xbe983ab4	-0.29732287
190	0xbe386e51	-0.18010832
191	0x3f18d0ec	0.5969379
192	0x3e0b95fd	0.13631435
193	0xbd057c84	-0.03258945
194	0x3e30bf21	0.1726041
195	0x3d841c8d	0.06450758
196	0xbdae2a51	-0.08504165
197	0x3cf00f66	0.029304218
198	0x3e7cf031	0.24701001
199	0x3dacfdf7	0.084468774
200	0xbdfcbcf4	-0.123407274
201	0xbe712031	-0.23547436
202	0xbe2690ed	-0.16266222
203	0x3e9b2244	0.3029958
204	0x3e145f66	0.14489517
205	0xbeea5cf6	-0.4577405
206	0xbe0ee93f	-0.13956164
207	0x3e7bfbc6	0.24607763
208	0x3e86df4c	0.26342237
209	0xbe164991	-0.14676501
210	0x3d7e45d8	0.062078327
211	0xbd9ba3e5	-0.0759962
212	0x3e6fa61b	0.23403208
213	0xbeafa5a5	-0.34306064
214	0x3e50a062	0.20373681
215	0x3f17ddae	0.5932263
216	0x3f09ae83	0.5378191
217	0x3db8fa20	0.090320826
218	0x3eea7550	0.45792627
219	0x3e9f9a32	0.3117233
220	0xbe4f0e11	-0.2022021
221	0x3d496ad5	0.04917415
222	0x3e97e95d	0.2967023
223	0xbd97f497	-0.07419699
224	0xbf00cc0f	-0.5031137
225	0x3e73dff9	0.23815908
226	0xbdb64f19	-0.089018054
227	0xbefe8dd8	-0.49717593
228	0xbe3d0e50	-0.18462491
229	0xbe5fdc27	-0.21861325
230	0xbf23280b	-0.63732976
231	0xbe494ad4	-0.19657451
232	0xbebd4ce4	-0.36972725
233	0x3e5a57c9	0.2132255
234	0x3dce6e24	0.100796014
235	0xbeb82f08	-0.35973382
236	0xbf3c5774	-0.7357094
237	0x3f01425d	0.5049189
238	0xbd923720	-0.071394205
239	0xbd36abc4	-0.044597402
240	0x3f00d711	0.50328165
241	0xbd27f72d	-0.04100721
242	0x3c7c7855	0.015409549
243	0xbdc0e99f	-0.0941956
244	0x3e6fd53f	0.2342119
245	0x3d7a9a40	0.06118226
246	0xbf3bcbd4	-0.7335789
247	0x3eb04c82	0.3443337
248	0xbeab81b5	-0.33497396
249	0xbda2a618	-0.07941836
250	0x3e85686a	0.26056224
251	0xbd9db5c0	-0.07700682
252	0x3e5faed8	0.21844041
253	0xbf01e413	-0.5073864
254	0xbe558813	-0.2085269
255	0x3e8a3e63	0.27000722

network_body._body_endoder.seq_layers.2.bias f4 [128]
0	0x00000000	0.0
1	0x00000000	0.0
2	0x00000000	0.0
3	0x00000000	0.0
4	0x00000000	0.0
5	0x00000000	0.0
6	0x00000000	0.0
7	0x00000000	0.0
8	0x00000000	0.0
9	0x00000000	0.0
10	0x00000000	0.0
11	0x00000000	0.0
12	0x00000000	0.0
13	0x00000000	0.0
14	0x00000000	0.0
15	0x00000000	0.0
16	0x00000000	0.0
17	0x00000000	0.0
18	0x00000000	0.0
19	0x00000000	0.0
20	0x00000000	0.0
21	0x00000000	0.0
22	0x00000000	0.0
23	0x00000000	0.0
24	0x00000000	0.0
25	0x00000000	0.0
26	0x00000000	0.0
27	0x00000000	0.0
28	0x00000000	0.0
29	0x00000000	0.0
30	0x00000000	0.0
31	0x00000000	0.0
32	0x00000000	0.0
33	0x00000000	0.0
34	0x00000000	0.0
35	0x00000000	0.0
36	0x00000000	0.0
37	0x00000000	0.0
38	0x00000000	0.0
39	0x00000000	0.0
40	0x00000000	0.0
41	0x00000000	0.0
42	0x00000000	0.0
43	0x00000000	0.0
44	0x00000000	0.0
45	0x00000000	0.0
46	0x00000000	0.0
47	0x00000000	0.0
48	0x00000000	0.0
49	0x00000000	0.0
50	0x00000000	0.0
51	0x00000000	0.0
52	0x00000000	0.0
53	0x00000000	0.0
54	0x00000000	0.0
55	0x00000000	0.0
56	0x00000000	0.0
57	0x00000000	0.0
58	0x00000000	0.0
59	0x00000000	0.0
60	0x00000000	0.0
61	0x00000000	0.0
62	0x00000000	0.0
63	0x00000000	0.0
64	0x00000000	0.0
65	0x00000000	0.0
66	0x00000000	0.0
67	0x00000000	0.0
68	0x00000000	0.0
69	0x00000000	0.0
70	0x00000000	0.0
71	0x00000000	0.0
72	0x00000000	0.0
73	0x00000000	0.0
74	0x00000000	0.0
75	0x00000000	0.0
76	0x00000000	0.0
77	0x00000000	0.0
78	0x00000000	0.0
79	0x00000000	0.0
80	0x00000000	0.0
81	0x00000000	0.0
82	0x00000000	0.0
83	0x00000000	0.0
84	0x00000000	0.0
85	0x00000000	0.0
86	0x00000000	0.0
87	0x00000000	0.0
88	0x00000000	0.0
89	0x00000000	0.0
90	0x00000000	0.0
91	0x00000000	0.0
92	0x00000000	0.0
93	0x00000000	0.0
94	0x00000000	0.0
95	0x00000000	0.0
96	0x00000000	0.0
97	0x00000000	0.0
98	0x00000000	0.0
99	0x00000000	0.0
100	0x00000000	0.0
101	0x00000000	0.0
102	0x00000000	0.0
103	0x00000000	0.0
104	0x00000000	0.0
105	0x00000000	0.0
106	0x00000000	0.0
107	0x00000000	0.0
108	0x00000000	0.0
109	0x00000000	0.0
110	0x00000000	0.0
111	0x00000000	0.0
112	0x00000000	0.0
113	0x00000000	0.0
114	0x00000000	0.0
115	0x00000000	0.0
116	0x00000000	0.0
117	0x00000000	0.0
118	0x00000000	0.0
119	0x00000000	0.0
120	0x00000000	0.0
121	0x00000000	0.0
122	0x00000000	0.0
123	0x00000000	0.0
124	0x00000000	0.0
125	0x00000000	0.0
126	0x00000000	0.0
127	0x00000000	0.0

network_body._body_endoder.seq_layers.2.weight f4 [128, 128]
0	0x3d86a8e6	0.065751836
1	0x3c2a29c7	0.010385937
2	0xbc205014	-0.009784717
3	0xbe0055d8	-0.12532747
4	0xbce5d230	-0.028054327
5	0xbb063a32	-0.0020481464
6	0x3d6a37c0	0.057182074
7	0xbdda13be	-0.10648297
8	0x3c000c95	0.0078155
9	0x3d481292	0.048845835
10	0xbe0ac0c0	-0.13550091
11	0xbceae4e4	-0.028673597
12	0x3dd7e644	0.105419666
13	0xbca04604	-0.019564636
14	0x3db17494	0.08664814
15	0x3d833ce0	0.06408095
16	0x3e291eb1	0.16515614
17	0x3dd5d39e	0.104407534
18	0xbd4b54f4	-0.049641564
19	0xbcb1fd9a	-0.021727372
20	0x3e6c312b	0.23065631
21	0xbe3f1deb	-0.18663757
22	0x3c963568	0.018336013
23	0x3d93fd3a	0.072260335
24	0x3e0c1bf0	0.13682532
25	0xbd037026	-0.032089375
26	0xbdd1fbce	-0.10253106
27	0xbdebb6a4	-0.11509445
28	0xbb9674ed	-0.0045915754
29	0xbe081385	-0.13288696
30	0x3be96016	0.00712205
31	0xbd2cbc7a	-0.042171933
32	0xbdc0b75a	-0.094099715
33	0xbe23e186	-0.16003999
34	0x3d4618d6	0.04836353
35	0x3e0746dc	0.13210624
36	0xbd8c21ef	-0.0684241
37	0x3da0d35f	0.07852816
38	0x3d9f9ffc	0.077941865
39	0x3d5ce13c	0.053925738
40	0x3d28cbff	0.04121017
41	0xbbb33aae	-0.0054696416
42	0xbc29c31e	-0.010361461
43	0x3d997486	0.07492928
44	0xbccd3847	-0.02505125
45	0x3ac94a5a	0.0015357242
46	0x3d8f82dd	0.07007382
47	0x3dd18496	0.10230367
48	0xbd8a6e6a	-0.06759341
49	0x3cd6d0d8	0.026222631
50	0xbd1e592a	-0.038659252
51	0x3d7e6e6b	0.06211702
52	0x3cef54ff	0.029215334
53	0x3d2964d1	0.04135591
54	0xbd334b68	-0.043773085
55	0x3dfe3283	0.12411978
56	0xbda391f2	-0.07986821
57	0xbd9d6abe	-0.07686375
58	0x3dc3d40b	0.09561928
59	0x3ddf55cb	0.109050356
60	0xbd4d2fd7	-0.05009445
61	0x3ca7d350	0.020486504
62	0xbced8e17	-0.028998418
63	0xbe0f34da	-0.13985005
64	0x3cbbeaac	0.022939049
65	0x3d93f7ab	0.07224973
66	0x3d033b87	0.03203919
67	0xbc2fa8f3	-0.010721433
68	0x3c51c8dd	0.012804237
69	0xbd97820c	-0.07397851
70	0xbd6190d3	-0.055069756
71	0xbcace89d	-0.021107012
72	0xbd86484a	-0.06556757
73	0xbd9fb0b9	-0.07797379
74	0x3e0935f4	0.13399488
75	0xbd154c57	-0.036449756
76	0xb99ba238	-0.00029684766
77	0xbc232ef1	-0.009959922
78	0xbdc201bb	-0.09472986
79	0xbcd81114	-0.026375331
80	0x3dc302b2	0.095219985
81	0x3e2e5831	0.1702583
82	0x3e244e17	0.16045414
83	0x3d4381f6	0.047731362
84	0xbd9bdec0	-0.076108456
85	0x3dc277fd	0.09495542
86	0xbd826ab1	-0.06368006
87	0xbd25ceb0	-0.040480316
88	0xbd0f2c19	-0.034954164
89	0x3bd99f75	0.006641323
90	0x3d9c2889	0.07624919
91	0xbd260df4	-0.04054065
92	0x3cff6846	0.031177651
93	0xbda5b339	-0.08090825
94	0xbd5f3ef3	-0.054503392
95	0xbe05a451	-0.13050963
96	0x3db8e773	0.090285204
97	0xbd0eabf2	-0.03483195
98	0xbdcd611e	-0.10028289
99	0xbd0e874e	-0.034797005
100	0xbe0b4a0f	-0.1360247
101	0xbd4e3c26	-0.05035033
102	0xbda0ea86	-0.07857232
103	0x3c13b857	0.009016118
104	0x3d96cd4e	0.073633775
105	0xbdc4592d	-0.095873214
106	0x3ddc5ade	0.10759519
107	0xbe1c4650	-0.15261197
108	0x3c549527	0.012975014
109	0xbe3c2aa5	-0.18375643
110	0xb8af696b	-8.364286e-05
111	0xba1a6ee0	-0.00058911555
112	0x3e752c21	0.23942615
113	0x3c498585	0.0122999
114	0x3e1e168c	0.15438288
115	0x3c010a6a	0.007876018
116	0x3dd2604d	0.10272274
117	0x3c25abc2	0.010111751
118	0x3c91a637	0.017779453
119	0x3d3593da	0.044330455
120	0xbd5c122e	-0.053728275
121	0x3defe20d	0.11713038
122	0x3d168819	0.036750887
123	0xbcc0aaad	-0.023518885
124	0xbbbe6753	-0.005810657
125	0xbd8047c7	-0.062636904
126	0x3c2484ad	0.010041398
127	0x3d2a1792	0.041526385
128	0xbdcb495e	-0.09926103
129	0x3e9981f7	0.29981968
130	0xbd62e782	-0.055396564
131	0x3e02fa6d	0.12790842
132	0xbd79c55b	-0.06097923
133	0x3ccbea5f	0.02489203
134	0xbcf5136c	-0.029916488
135	0x3d417626	0.047231816
136	0x3d321b0c	0.043482825
137	0xbdfdb889	-0.12388713
138	0x3d556b0d	0.052104045
139	0xbd8a476d	-0.06751905
140	0xbe3b3d26	-0.18285045
141	0xbd832a98	-0.064046085
142	0xbcd3a27e	-0.025834318
143	0x3da7a9e1	0.08186699
144	0x3d8ab003	0.06771853
145	0xbe052d09	-0.13005461
146	0x3d8acc17	0.06777208
147	0x3d86c136	0.06579821
148	0x3dd919b7	0.10600608
149	0xbcd66c8a	-0.026174802
150	0x3d337406	0.04381182
151	0x3e0f976a	0.14022604
152	0xbbd71128	-0.0065633245
153	0x3e68e39c	0.22743076
154	0x3b112366	0.0022146343
155	0xbc6e7aed	-0.014555675
156	0xbc0f4a5d	-0.008745757
157	0xbbbf4532	-0.005837106
158	0x3c7ad3c2	0.015309276
159	0xbccfae5a	-0.025351692
160	0xbd0e255e	-0.034703605
161	0xbdfd3026	-0.12362699
162	0xbdfdab7d	-0.123862244
163	0x3da0d10c	0.078523725
164	0x3dff43f9	0.12464137
165	0x3d082472	0.033237882
166	0xbbb14e35	-0.0054109343
167	0xbd2004e3	-0.03906716
168	0xbde60b2b	-0.11232599
169	0xbd5fc174	-0.05462785
170	0xbc82d2b4	-0.015969612
171	0x3c06ee77	0.008235565
172	0x3de7ffa3	0.11328056
173	0x3d135cf7	0.03597733
174	0xbdc260e3	-0.09491136
175	0x3d9353d7	0.071937256
176	0xbc48931c	-0.012242105
177	0x3e56c808	0.20974743
178	0xbd48cdaf	-0.04902428
179	0x3baaa289	0.005207364
180	0xbb918124	-0.0044404436
181	0x3dc10d0e	0.09426318
182	0xbd11e713	-0.03562076
183	0xbc76caa1	-0.015062959
184	0xbd884f25	-0.066557206
185	0xbc82f1a8	-0.015984371
186	0xbe1902f5	-0.14942534
187	0x3e497100	0.19672012
188	0xbe367baf	-0.17820619
189	0xbcf51bdd	-0.029920513
190	0xbb60a961	-0.0034280645
191	0x3c55a355	0.01303943
192	0xbd6fb876	-0.058525525
193	0xbe21c47d	-0.1579761
194	0xbbf93c9c	-0.007606102
195	0x3dfb612f	0.12274396
196	0x3d9e1da8	0.077205
197	0x3c5e9c9d	0.013587144
198	0xbc74c11f	-0.014938622
199	0xbc79d13d	-0.01524764
200	0xbe1ea9c7	-0.15494452
201	0x3e3e0a03	0.18558507
202	0x3c6ea6a9	0.014566102
203	0x3e2e3e40	0.17015934
204	0x3e49b34c	0.19697303
205	0x3c15450e	0.009110702
206	0xbd8752a0	-0.06607556
207	0x3e2cc671	0.16872574
208	0x3dd304dc	0.10303661
209	0xbc5f3f94	-0.013625998
210	0xbded436c	-0.11585125
211	0x3da96697	0.082715206
212	0x3d0733c2	0.033008344
213	0x3d4945ac	0.04913871
214	0x3d7586a9	0.059942875
215	0x3ca69a90	0.020337373
216	0xbe094bee	-0.13407871
217	0x3d777bf0	0.06042093
218	0xbe4793d8	-0.19489992
219	0x3d439ece	0.04775887
220	0xbd372d69	-0.04472104
221	0x3d4e3d2a	0.0503513
222	0xbcd485da	-0.025942732
223	0x3d1d4245	0.038393278
224	0xbd6c4c9d	-0.05769025
225	0x3d847763	0.06468084
226	0xbe19948e	-0.14998075
227	0xbc67d482	-0.014149787
228	0xbe6e7209	-0.23285688
229	0x3cc84184	0.024445303
230	0x3d82f9a6	0.06395273
231	0x3d2ce6d3	0.04221232
232	0xbdfe5e2d	-0.12420306
233	0xbe6b2fc5	-0.22967441
234	0xbc2e67c7	-0.01064486
235	0xbda7d046	-0.08194022
236	0xbd6ccab5	-0.057810504
237	0xbb905296	-0.0044043763
238	0xbd0f213d	-0.034943808
239	0xbe0fc505	-0.1404
240	0x3d491a79	0.049097512
241	0x3e17808e	0.14795133
242	0xbd4c87b8	-0.04993412
243	0xbd2e8ec2	-0.042616613
244	0x3ca920bf	0.020645497
245	0x3cfda3dc	0.030961923
246	0x3e8cf938	0.2753389
247	0x3e45e710	0.19326425
248	0xbd67ac29	-0.05656067
249	0xbd2ac26e	-0.04168933
250	0x3db26e0e	0.087123975
251	0x3cda259a	0.026629258
252	0x3df1a131	0.11798323
253	0xbe05b8e6	-0.13058814
254	0xbbc0f461	-0.0058885072
255	0x3d0aaf56	0.03385862
