Assets/Brains/Hide3.onnx (onnx, 161813 bytes, 7 tensors)

action_model._continuous_distribution.log_sigma f4 [1, 3]
0	0xbdf6cb05	-0.12050442
1	0xbe2d1fc0	-0.16906643
2	0xbd72afbb	-0.05924962

action_model._continuous_distribution.mu.bias f4 [3]
0	0x3c560cee	0.013064606
1	0xbcbf4bbd	-0.023351545
2	0xbc108797	-0.00882139

action_model._continuous_distribution.mu.weight f4 [3, 128]
0	0x3c3edefb	0.011649842
1	0xbd51c20e	-0.051210456
2	0x3d9fbdd8	0.07799882
3	0x3cca4227	0.024689747
4	0xbbfac318	-0.0076526515
5	0x3b7c6c7b	0.0038516808
6	0x3d28e447	0.041233327
7	0xbc9c9c04	-0.019117363
8	0x3c230091	0.0099488655
9	0x3d3dc6d0	0.04633218
10	0x3d181480	0.037128925
11	0x3ce79cb8	0.028272972
12	0x3bc57040	0.006025344
13	0xbd168c52	-0.036754914
14	0xbd8a293d	-0.06746147
15	0x3cd0106d	0.025398457
16	0xbd3a8757	-0.045539226
17	0xbc626312	-0.0138175655
18	0xbc96d460	-0.018411815
19	0x3c7a1e87	0.015266067
20	0x3d661b0e	0.056178145
21	0x3c644473	0.013932335
22	0x3ceeff9f	0.029174624
23	0xbc94c833	-0.018161869
24	0x3b2c7763	0.0026316277
25	0xbce1d6d5	-0.02756826
26	0x3b2d9140	0.002648428
27	0xbbddc46b	-0.0067677996
28	0x3cdda296	0.027055066
29	0xbbb18a1a	-0.0054180743
30	0x3d90176b	0.070357166
31	0x3cb6ad54	0.022299446
32	0xbd42bd6b	-0.047543924
33	0x3d8fcef8	0.07021898
34	0xbd3723b9	-0.044711802
35	0xbc5fb6c7	-0.013654417
36	0x3c850edf	0.016242443
37	0xbd04f066	-0.032455824
38	0x3a9115ee	0.0011069158
39	0x3d32b8b7	0.04363319
40	0x3c8dc86a	0.017307479
41	0xbc776d33	-0.015101719
42	0xbd164b39	-0.03669283
43	0x3cca4904	0.02469302
44	0xbd08d525	-0.033406395
45	0x3ca2e704	0.019885547
46	0x3bb62cd1	0.0055595418
47	0x3ba23bd1	0.0049509783
48	0xbc554deb	-0.013019065
49	0x3b9e85df	0.004837736
50	0x3ca73155	0.020409266
51	0xbbe272f7	-0.0069106775
52	0xbbaf8a03	-0.0053570285
53	0x3ccbafa3	0.024864024
54	0xbc69b4f3	-0.014264333
55	0xbc648e58	-0.013949953
56	0xbcefcd93	-0.02927283
57	0x3d811a2e	0.063038215
58	0x3ca4d079	0.020118939
59	0x3c889d72	0.016676638
60	0x3ac93237	0.0015350048
61	0xbaf5d808	-0.0018756399
62	0x3ca78b82	0.020452265
63	0xbd62073b	-0.055182677
64	0x3ceeb30b	0.029138109
65	0xbac77338	-0.0015216833
66	0xbc120475	-0.008912195
67	0x3d63accb	0.05558471
68	0xbce33f7d	-0.027740235
69	0xbccae65b	-0.024768045
70	0xbd0ab3eb	-0.03386299
71	0xbc79ecf0	-0.015254244
72	0x3ca1e9d3	0.019764816
73	0x3c710562	0.014710756
74	0x3d90f23e	0.07077454
75	0xbc2be97c	-0.010492679
76	0x3b805683	0.003916563
77	0xbce22b9e	-0.027608689
78	0x3b967def	0.004592649
79	0x3c863901	0.016384603
80	0xbc4173b4	-0.011807371
81	0x3c945055	0.018104712
82	0x3cb00a05	0.021489153
83	0x3c79423b	0.0152135445
84	0xbc3a8d80	-0.011386275
85	0x3d5b9777	0.053611245
86	0x3cf809af	0.030278055
87	0xbd53b4ed	-0.051686216
88	0xbcbe0141	-0.023193957
89	0xbc2b6c32	-0.0104628075
90	0x3d23b164	0.039964095
91	0x3d028602	0.03186608
92	0x3c0bc6e2	0.008531304
93	0xbc4a9de1	-0.012366743
94	0x3cf25aa0	0.029584229
95	0xbc165f09	-0.009177932
96	0xba0e76f8	-0.0005434598
97	0x3d101d12	0.035183974
98	0x3c8b09d7	0.016972465
99	0x3bffa480	0.0078015924
100	0xbd6e5f51	-0.05819637
101	0xbc21221e	-0.009834794
102	0xbca106c0	-0.019656539
103	0xbcd5c51b	-0.026094964
104	0xbd1c9788	-0.03823045
105	0xbaff731a	-0.0019489259
106	0x3caeb774	0.021327712
107	0xbc92068c	-0.017825387
108	0xbafb1342	-0.001915552
109	0xbd4b28fc	-0.049599633
110	0xbd18ea87	-0.037333038
111	0xbc232dad	-0.00995962
112	0x3c6b423f	0.014359056
113	0xbd30b585	-0.04314186
114	0x3cf22824	0.029560156
115	0x3d1cd8d0	0.038292706
116	0xbb624de6	-0.0034531294
117	0x3c0d25bd	0.008614955
118	0x3bd1a780	0.0063981414
119	0x3d1221af	0.035676654
120	0xbc82c62c	-0.015963636
121	0xbce52d4e	-0.027975705
122	0xbad30340	-0.0016098991
123	0xbcb08a87	-0.02155043
124	0xbd04b79b	-0.032401662
125	0xba8cc06e	-0.0010738501
126	0x3d4765bb	0.048681002
127	0xbcbdf236	-0.023186784
128	0xbcd82472	-0.026384566
129	0x3bd7b52c	0.0065828767
130	0x3c9a51f8	0.018837914
131	0x3d5be4b0	0.05368489
132	0x3d33f6f1	0.043936674
133	0xbd188ec9	-0.037245546
134	0xbce86d2f	-0.028372375
135	0x3cadba13	0.021206891
136	0xbc6ded3f	-0.014521896
137	0x3d06ed56	0.032941185
138	0xbd2ae54d	-0.041722585
139	0x3cd3d9ff	0.025860785
140	0xbd963b4a	-0.07335527
141	0x3b55a7ef	0.0032601317
142	0xbcdfda3b	-0.02732574
143	0x3d1ac0e6	0.03778162
144	0x3d03c8ec	0.032174036
145	0x3c3a3822	0.011365922
146	0x3c69e5a3	0.014275941
147	0x3c065abb	0.008200343
148	0x3c81f1f4	0.015862443
149	0xbd8b98d2	-0.068162575
150	0xbcdda65c	-0.027056865
151	0xbd12d39e	-0.035846345
152	0xbd4e5004	-0.050369278
153	0x3bf31bad	0.0074190707
154	0xbb7d6e53	-0.0038670495
155	0xb7827f88	-1.5556594e-05
156	0xbc21898d	-0.009859455
157	0x3d3c0f80	0.04591322
158	0x3cb3e362	0.02195901
159	0xbc4fd860	-0.012685865
160	0xbcc0854c	-0.02350106
161	0xbd484cfa	-0.048901536
162	0x3be74a13	0.007058391
163	0x3ce93f99	0.028472709
164	0xbc4bcafa	-0.01243853
165	0xbc9e53e1	-0.019327106
166	0x3c4703b9	0.012146884
167	0xbbb6e0de	-0.0055810055
168	0xbcc9e21d	-0.024643952
169	0xbbf5e66d	-0.0075042755
170	0x3ce4e871	0.027942868
171	0x3c868e07	0.016425146
172	0x3c58fb52	0.013243513
173	0xbd58c449	-0.052921567
174	0x3d979e9a	0.07403298
175	0xbd31c2ba	-0.043398596
176	0x3d43b291	0.047777716
177	0x3c0bcfff	0.008533477
178	0x3cae5bc8	0.021284
179	0xbd191294	-0.037371233
180	0xbd44cfb3	-0.04804964
181	0xbba41c61	-0.005008266
182	0x3c4a2957	0.012338958
183	0xbc33a305	-0.01096416
184	0xbbeb5574	-0.0071818177
185	0xbd4e8295	-0.0504175
186	0x3d3ed461	0.04658926
187	0x3cfb00de	0.030640062
188	0xbc5a27e8	-0.013315178
189	0x3d5c5cd4	0.053799465
190	0x3ce42f3a	0.02785455
191	0x3c93ab84	0.018026121
192	0x3c9735ee	0.018458333
193	0x3d7a6eb3	0.061140727
194	0x3d0038c3	0.031304132
195	0xbc1b563c	-0.009481009
196	0xbd2c7169	-0.042100344
197	0xbb3636f3	-0.0027803748
198	0x3c81dfd6	0.015853804
199	0xbc9bfb5c	-0.019040756
200	0x3c76c5e4	0.015061829
201	0xbc5824e2	-0.013192387
202	0xba1ddd2a	-0.0006022031
203	0x3d64609d	0.0557562
204	0xbd0b466f	-0.034002718
205	0x3cb313d4	0.02186004
206	0xbcce56b3	-0.025187826
207	0x3cc137ba	0.023586143
208	0x3d28dbc1	0.0412252
209	0x3ba45da9	0.005016048
210	0x3aaaccfb	0.001303106
211	0x3a883481	0.0010391624
212	0xbcd24434	-0.025667287
213	0xbcb91521	-0.022593083
214	0x39de12bf	0.00042357107
215	0xbd768b76	-0.060191594
216	0x3ca273fc	0.019830696
217	0x3c4f22fa	0.012642616
218	0xbc1f74ec	-0.009732466
219	0xbc82a12c	-0.015945993
220	0xbd0a290d	-0.033730555
221	0x3d188c32	0.037243076
222	0xbd09e2db	-0.03366361
223	0x3d6be834	0.057594493
224	0x3aafdcc0	0.0013417229
225	0xbc0ea970	-0.008707389
226	0xbd23ed3f	-0.040021177
227	0x3d0d28da	0.034462787
228	0xbcb75806	-0.02238084
229	0x3d4e976a	0.05043737
230	0xba6859db	-0.0008863487
231	0x3c8867e5	0.016651103
232	0x3c6330fe	0.013866661
233	0xbc1833f0	-0.009289727
234	0x3bed9720	0.0072506815
235	0xbd6d8626	-0.057989262
236	0x3c63672d	0.0138795795
237	0xbc9c191d	-0.019054944
238	0x3cb1c025	0.021698067
239	0x3c171ae2	0.009222718
240	0xbceacd93	-0.028662479
241	0x3c607f27	0.0137021905
242	0xbae6fede	-0.0017623564
243	0x3b6b4845	0.003590123
244	0x3d307247	0.043077733
245	0xbb7b1738	-0.00383134
246	0x3c12f374	0.008969177
247	0xbc9545bc	-0.018221729
248	0xbd4e1489	-0.050312553
249	0xbd18e840	-0.037330866
250	0xbce118c1	-0.027477624
251	0x3c27412c	0.010208409
252	0xbd148bf0	-0.036266267
253	0x3c770864	0.015077684
254	0x3cd2081b	0.02563863
255	0xbc946ec1	-0.018119218

network_body._body_endoder.seq_layers.0.bias f4 [128]
0	0x3c0abf57	0.008468471
1	0xbdb043de	-0.08606695
2	0x3d0ead81	0.034833435
3	0xbb5ba921	-0.0033517557
4	0x3c85e0b4	0.016342498
5	0xbc4b0581	-0.012391449
6	0x3d0bfeec	0.03417866
7	0x3c6441e8	0.013931729
8	0xbd2836cc	-0.041067883
9	0x3d0e119d	0.034684766
10	0xbc0de986	-0.008661633
11	0x3d0ea866	0.034828566
12	0x398b6768	0.0002658919
13	0x3ceac5fd	0.028658861
14	0xb9c0c5d6	-0.00036768493
15	0xbc4e2a7e	-0.012583373
16	0x3c3beb1a	0.011469627
17	0xbd02ca27	-0.03193107
18	0x3b448600	0.0029987097
19	0xbbb71c5a	-0.0055880966
20	0x3d3220f1	0.043488447
21	0xbc8358b7	-0.016033513
22	0x3c5d45bd	0.013505396
23	0x3ca10102	0.0196538
24	0x3b72da41	0.003705636
25	0xbcf756b5	-0.030192712
26	0x3ba821ff	0.005131006
27	0xbc0abb57	-0.008467517
28	0xbc6de77a	-0.01452052
29	0x3c9a85fc	0.018862717
30	0x3aad5e63	0.0013226982
31	0x3c09a9cc	0.008402299
32	0xbce991c4	-0.02851189
33	0x3c8c8da9	0.017157393
34	0x3bef52e9	0.007303585
35	0xbc228998	-0.0099205
36	0x3ac27efa	0.0014838867
37	0xbd12f08c	-0.035873935
38	0xbc4b12ff	-0.012394666
39	0xbc793a4c	-0.015211653
40	0x3b6a7980	0.0035777986
41	0x3c358031	0.0110779265
42	0x3c4d6742	0.012536826
43	0xb8026348	-3.1086878e-05
44	0x3d1b3f1f	0.037901994
45	0x3bd78df7	0.006578203
46	0xbc25f541	-0.010129274
47	0xbbddc414	-0.006767759
48	0x3bb4af83	0.0055140867
49	0xbcea6805	-0.028614054
50	0x3c929d69	0.017897325
51	0xbc41f612	-0.011838453
52	0xbc450159	-0.012024247
53	0xbcd3e6c8	-0.025866881
54	0x3c91e88c	0.017811082
55	0xbc02aa9a	-0.007975245
56	0xbbe0550b	-0.0068460754
57	0x3ce2d716	0.027690452
58	0x3c98f221	0.018670144
59	0x3d8b1508	0.06791121
60	0x3ca407cc	0.02002325
61	0x3c2955ee	0.010335429
62	0x3c4a1c60	0.012335867
63	0xbc681f0f	-0.014167561
64	0x3c0c3a29	0.008558788
65	0xbc6ab3d8	-0.014325105
66	0x3cc0e9d3	0.023548996
67	0xbc9dd471	-0.019266339
68	0xbca8ebda	-0.020620275
69	0x3b919d45	0.004443797
70	0xbbbb8a15	-0.005723248
71	0x3d766d9f	0.060163137
72	0xbc3ecf0f	-0.011646046
73	0x3c29125f	0.010319321
74	0xbbb5d4fa	-0.0055490704
75	0x3b977cd2	0.004623034
76	0x3d070373	0.032962274
77	0x3c836cb0	0.016043037
78	0xbc2bc5e5	-0.010484193
79	0x3c99136a	0.018686015
80	0xbb5aaf4a	-0.003336864
81	0xbd3836b0	-0.04497403
82	0x3ca1939e	0.01972371
83	0xbc686276	-0.014183631
84	0x3a64e59a	0.0008731723
85	0xbbceaac2	-0.006306977
86	0xbc56a373	-0.013100493
87	0xbb2d1c20	-0.002641447
88	0xbc852336	-0.016252141
89	0x3c8932ce	0.016747858
90	0x3a3fd630	0.0007317988
91	0xbd56a5f9	-0.052404378
92	0xbb149612	-0.0022672457
93	0x3cb00262	0.021485511
94	0xbb12d2f2	-0.0022403565
95	0xbbc7461f	-0.006081357
96	0xbb014b7e	-0.0019728835
97	0x3c270733	0.0101945875
98	0x3cbf91ba	0.023384918
99	0x3bcadb71	0.0061907102
100	0x3b0370a7	0.002005616
101	0xbc4494cd	-0.0119983675
102	0x3c10b1a3	0.008831414
103	0xbc866108	-0.01640369
104	0xbaa09336	-0.0012250904
105	0x3b255391	0.0025226811
106	0x3c385a46	0.011251992
107	0xbc658596	-0.0140089
108	0xbb77ccdc	-0.0037811315
109	0x3d1efdc8	0.038816243
110	0x3c8dfdf6	0.017333012
111	0x3d2c3b04	0.04204847
112	0xbba0cb89	-0.004907076
113	0x3d6a801c	0.05725108
114	0xbc8596c4	-0.016307242
115	0x3c8e33bf	0.017358659
116	0xbc0bb6d8	-0.00852748
117	0xbc643bb7	-0.013930253
118	0x3b6f942f	0.003655683
119	0xbb83c368	-0.004021097
120	0x3cb816eb	0.022471866
121	0xbca5f23d	-0.02025711
122	0xbcdbef54	-0.026847519
123	0x3c927744	0.017879136
124	0x3a3c6ca8	0.0007187822
125	0xbcb1d45a	-0.021707702
126	0xbc70a001	-0.014686585
127	0xbca942c7	-0.020661725

network_body._body_endoder.seq_layers.0.weight f4 [128, 179]
0	0x3e452a49	0.19254412
1	0xbdf3a2cb	-0.11896285
2	0x3e00cffe	0.12579343
3	0x3dec7bb9	0.11547036
4	0x3d83aa3c	0.06428954
5	0x3d7fffed	0.06249993
6	0x3d97c490	0.07410538
7	0xbe0e9ca5	-0.13926943
8	0x3de0fef8	0.109861314
9	0x3d5e5c78	0.054287404
10	0x3d65ee26	0.05613532
11	0x3db3b8c2	0.08775474
12	0xbdab125f	-0.083531134
13	0x3e2282be	0.15870187
14	0x3e13b15f	0.1442313
15	0xbc232ac7	-0.009958929
16	0x3d220a33	0.039560508
17	0x3d0bafa8	0.034103066
18	0x3d1a66b5	0.037695605
19	0xbd2ff243	-0.04295565
20	0xbdbc3e5d	-0.09191582
21	0x3db03c82	0.08605291
22	0x3bcf4395	0.006325195
23	0x3d93c991	0.0721618
24	0x3d845976	0.06462376
25	0xbc7dfc9f	-0.015502124
26	0x3d5eb4a7	0.054371502
27	0x3e0e6633	0.13906173
28	0x3c96f706	0.018428337
29	0xbdb85068	-0.08999711
30	0x3dab09cd	0.08351479
31	0xbde91596	-0.1138107
32	0x3d5aeaab	0.053446453
33	0xbd49d68a	-0.049276866
34	0x3df334e1	0.1187532
35	0x3df70891	0.12062181
36	0xbcc86ae8	-0.02446504
37	0xbc3a0783	-0.01135433
38	0x3cd22099	0.02565031
39	0xbda75230	-0.08169973
40	0x3c1282b8	0.008942299
41	0xbe1a0487	-0.1504079
42	0x3e12626b	0.14295356
43	0x3e15f40d	0.14643879
44	0xbd5de010	-0.05416876
45	0xbd7aa431	-0.06119174
46	0xbcd1a228	-0.025590017
47	0x3dc8c40a	0.098030165
48	0x3bc1c863	0.0059137805
49	0x3d10a26c	0.035311148
50	0x3d8963c9	0.06708486
51	0xbd4e9360	-0.050433517
52	0xbbc4a3cd	-0.006000972
53	0xbd60f1f4	-0.054918244
54	0x3e105066	0.1409317
55	0x3dbf753e	0.09348534
56	0xb9dc219b	-0.00041986708
57	0x3d1657bf	0.036704775
58	0x3d641480	0.055683613
59	0x3d59ef0c	0.05320649
60	0x3e257247	0.16156875
61	0x3ddabb96	0.106803104
62	0x3e1fa96f	0.15591978
63	0x3e29b315	0.1657222
64	0x3da2714b	0.07931765
65	0xbc8f8d3d	-0.017523402
66	0xbc331ca8	-0.010932125
67	0x3e019f0c	0.12658328
68	0x3e5f3f84	0.21801573
69	0x3d09e594	0.03366621
70	0x3e146c70	0.1449449
71	0x3dff6bb2	0.12471713
72	0x3d40a68f	0.047033843
73	0x3de4c233	0.11169853
74	0x3d86da76	0.06584637
75	0xbd46a4b1	-0.048496906
76	0x3e29769a	0.16549149
77	0xbd292a23	-0.04129995
78	0x3da494e6	0.080362126
79	0x3e05ed3f	0.13078783
80	0xbd46bb43	-0.04851843
81	0xbdc8a519	-0.09797115
82	0xbd3b830b	-0.04577927
83	0xbd25bb42	-0.040461786
84	0x3dec411e	0.115358576
85	0x3e2a5696	0.16634592
86	0xbd71f84f	-0.059074696
87	0xbb9b085f	-0.0047312225
88	0x3de7aa10	0.11311734
89	0x3c674b45	0.014117067
90	0x3d87f3fb	0.066383325
91	0xbe35a7e6	-0.1773983
92	0x3d12bc60	0.03582418
93	0x3c813102	0.015770439
94	0x3ce65fbb	0.02812182
95	0xbd72f43e	-0.05931496
96	0x3bdce145	0.0067407214
97	0x3d3811c0	0.044938803
98	0xbd7fd3aa	-0.062457718
99	0x3d5e80fd	0.05432223
100	0xbd7d3bdc	-0.061824664
101	0x3cf7aa3e	0.030232545
102	0x3de228ee	0.11042963
103	0x3da729b8	0.08162254
104	0x3e1bc144	0.15210444
105	0x3d0ab44b	0.033863347
106	0x3d9b8c71	0.075951464
107	0x3d1e7bf9	0.03869245
108	0x3d99fc79	0.075188585
109	0x3d2b8cd4	0.04188235
110	0x3d811e1e	0.063045725
111	0x3c68c359	0.014206731
112	0x3d0b9cb6	0.034084998
113	0x3b5a0156	0.0033264956
114	0xbbf632c9	-0.0075133783
115	0x3e3ca48d	0.18422146
116	0xbde6063a	-0.112316564
117	0x3dc3f716	0.09568612
118	0xbd182684	-0.037146106
119	0x3d245f35	0.04012986
120	0x3dcbc530	0.0994972
121	0xbd100d36	-0.03516885
122	0x3d9de7d6	0.07710235
123	0xbd933086	-0.071869895
124	0xbd2a19b0	-0.041528404
125	0x3ca6afc6	0.020347487
126	0x3c4cd552	0.012502031
127	0xbc8d11c8	-0.017220393
128	0x3d5f44d2	0.05450899
129	0xbd6f0089	-0.05835012
130	0xbd1a99ef	-0.03774446
131	0xbbac2603	-0.005253555
132	0xbcf65e3b	-0.03007423
133	0x3d9b9155	0.07596079
134	0xbba12ac0	-0.0049184263
135	0xbbc2cdb6	-0.005944933
136	0x3d1febce	0.03904324
137	0x3b98b15e	0.0046598157
138	0x3d93d0cd	0.0721756
139	0xbc53cf57	-0.012927852
140	0x3d021a35	0.031763274
141	0xbd724a94	-0.059153154
142	0xbe755484	-0.23958021
143	0x3d1d63a7	0.038425114
144	0x3ac3b403	0.0014930967
145	0x3d20c8d8	0.03925404
146	0xbdd4508c	-0.103669256
147	0xbd7ba15e	-0.06143319
148	0x3d93be15	0.0721399
149	0xbe291ccd	-0.16514893
150	0xbe2aec8c	-0.16691798
151	0xbd030352	-0.03198559
152	0x3c6d32fc	0.014477488
153	0xbd3b87ad	-0.045783687
154	0x3de18a9a	0.11012764
155	0x3b95ba80	0.0045693517
156	0xbc953f01	-0.01821852
157	0x3da37ce5	0.07982806
158	0xbd465bef	-0.04842752
159	0x3c228c38	0.009921126
160	0xbdd8b288	-0.10580927
161	0x3da971fd	0.08273695
162	0x3d8dc73c	0.069227666
163	0x3d181b05	0.037135143
164	0xbd9de44d	-0.077095605
165	0xbe330fa1	-0.1748643
166	0xbdc17b15	-0.09447304
167	0x3d85fd20	0.065424204
168	0xbc56a7a0	-0.013101488
169	0x3d9fa064	0.07794264
170	0xbd6e29a6	-0.058145188
171	0xbe9b5501	-0.3033829
172	0xbc46fcf6	-0.0121452715
173	0xbd86cba0	-0.06581807
174	0x3ceec83b	0.029148212
175	0x3d6ddda7	0.058072712
176	0xbda16c7d	-0.078820206
177	0xbd7acbfd	-0.061229695
178	0x3d8d32f0	0.06894481
179	0xbe08850d	-0.13332005
180	0xbe0ba7ed	-0.13638277
181	0xbdd14781	-0.102187164
182	0xbd12339f	-0.03569376
183	0x3d870fbc	0.06594798
184	0xbd917e84	-0.07104209
185	0xbdd7e87c	-0.1054239
186	0xbd19dc4b	-0.037563603
187	0xbd80da0c	-0.06291589
188	0x3b9ad894	0.004725525
189	0xbdd18eaf	-0.10232293
190	0xbd8e4811	-0.06947339
191	0x3dabf6c8	0.08396679
192	0x3e073d70	0.1320703
193	0xbdb9e242	-0.090763584
194	0xbe4832aa	-0.19550577
195	0xbd73c284	-0.059511676
196	0x3da3b194	0.07992855
197	0xbd843b29	-0.064565964
198	0x3d78b02d	0.06071489
199	0x3d96a5a7	0.073558144
200	0x3d2add5b	0.041715007
201	0x3c37f5ff	0.011228084
202	0x3bc76ddf	0.0060860957
203	0x3d814a95	0.063130535
204	0x3de74c13	0.11293807
205	0xbd2a309c	-0.041550264
206	0xbd2aa762	-0.041663535
207	0xbd5a4558	-0.053288788
208	0x3d7e4a57	0.062082615
209	0x3d105a02	0.03524209
210	0x3cc81d5b	0.02442806
211	0xbe0f0909	-0.1396829
212	0x3cb56c5f	0.022146402
213	0xbd5e2ace	-0.05424004
214	0xbd9c4c4d	-0.07631741
215	0xbd6c11a5	-0.057634015
216	0x3db885f1	0.09009922
217	0x3b78fbe2	0.003799193
218	0xbd33ec01	-0.043926243
219	0x3dff5bf1	0.12468708
220	0x3e6eff91	0.23339678
221	0xbb05cfee	-0.0020418125
222	0x3d96002e	0.07324253
223	0xbd846521	-0.06464601
224	0x3dab3092	0.083588734
225	0xbe573054	-0.2101453
226	0xbd5bf79d	-0.05370294
227	0xbd9d327d	-0.076756455
228	0x3ce8414b	0.028351447
229	0x3d084a6c	0.0332741
230	0xbd4a2691	-0.049353186
231	0x3cd1d542	0.025614385
232	0xbcdc2a04	-0.026875503
233	0xbd8ea117	-0.06964319
234	0xbd943cab	-0.07238134
235	0x3b140446	0.0022585555
236	0x3d207e7f	0.039183136
237	0xbd3bd30a	-0.04585556
238	0xbe103d37	-0.14085852
239	0x3c9db64c	0.019251965
240	0xbe22c132	-0.1589401
241	0xbd447bf4	-0.047969773
242	0xbe3ce5e5	-0.18447073
243	0x3d109b59	0.0353044
244	0xbc9c6017	-0.019088788
245	0x3b41940c	0.0029537706
246	0xbd4611f6	-0.048356973
247	0x3dd17e84	0.10229209
248	0x3dae445e	0.08509134
249	0xbd708ddd	-0.05872904
250	0xbcf539d4	-0.029934801
251	0x3cff3700	0.031154156
252	0xbd9603c2	-0.073249355
253	0xbdba4a87	-0.09096246
254	0xbc93f637	-0.01806174
255	0xbe1071ad	-0.14105864

network_body._body_endoder.seq_layers.2.bias f4 [128]
0	0x3c039346	0.008030718
1	0xbbefe05c	-0.007320447
2	0x3ccae787	0.024768604
3	0xbc6df6ab	-0.014524142
4	0xba7b9f2b	-0.0009598608
5	0x3c070b13	0.008242386
6	0x3d2635b0	0.040578544
7	0xbc56a7f1	-0.013101564
8	0xbc090a0c	-0.008364212
9	0xbc1f89cb	-0.009737442
10	0x3c9e42e8	0.019319013
11	0x3cc07890	0.023494989
12	0x3d0a4d61	0.0337652
13	0x3bf34d4c	0.007424986
14	0xbb6a0b25	-0.003571221
15	0x3b68bb35	0.0035511975
16	0xbccde4dc	-0.025133543
17	0xbc940e41	-0.018073203
18	0xbc72725d	-0.014797774
19	0xbc2b4eac	-0.010455769
20	0x3ba83ebb	0.005134431
21	0x3d022a74	0.031778768
22	0x3c5369dd	0.012903658
23	0x3bea49d5	0.0071499147
24	0x3cdd0b9c	0.026983075
25	0x3b1563db	0.0022795114
26	0xbc2977c7	-0.010343499
27	0xbc609caf	-0.013709231
28	0x3ce9ed68	0.028555587
29	0xbc5244a5	-0.012833749
30	0x3c77834b	0.015106986
31	0x3d4fc1f0	0.050722063
32	0xbabda5b1	-0.0014468936
33	0x3cfecbb2	0.031102989
34	0xbc262411	-0.010140435
35	0xbc66351d	-0.014050749
36	0x3bf455cb	0.0074565164
37	0x3afbc565	0.0019208608
38	0x3b5777fd	0.0032877915
39	0x3ce0696e	0.027394023
40	0x3c045ba1	0.008078487
41	0x3ad97ad9	0.0016592398
42	0xbca1f448	-0.019769803
43	0xbcc04592	-0.023470674
44	0xbcf735a4	-0.030176945
45	0x3ce3ba64	0.027798839
46	0x3cb3f37f	0.021966694
47	0x3cb39875	0.021923283
48	0xbcdc9c77	-0.026930077
49	0xbcd798c9	-0.02631797
50	0xbd149767	-0.0362772
51	0x3d08c550	0.033391297
52	0x3b5dea35	0.0033861522
53	0x3d0e4799	0.03473625
54	0xbd36f687	-0.0446687
55	0xbc6d1ef5	-0.014472713
56	0xba378eac	-0.0007002156
57	0x3d05964d	0.03261404
58	0xbbd94262	-0.006630228
59	0xbd047e07	-0.03234675
60	0x3b53032b	0.0032197933
61	0xbbfa8773	-0.0076455413
62	0xbc07a9db	-0.008280243
63	0xb7d09141	-2.4863171e-05
64	0xbc1e02f5	-0.00964426
65	0xbb3bdfa3	-0.0028667233
66	0xbc66443d	-0.014054355
67	0x3d33258f	0.04373699
68	0x3c0504f9	0.008118861
69	0x3c016034	0.007896472
70	0xbcc5d0d6	-0.024147432
71	0xbc047a71	-0.008085833
72	0x3ba33fa0	0.00498195
73	0x3b31c456	0.0027125082
74	0x3c704257	0.014664254
75	0xbcc14d99	-0.023596572
76	0x3d0b8677	0.034063783
77	0xbc17e698	-0.009271286
78	0x3be7e76d	0.0070771486
79	0xbc4214e9	-0.011845806
80	0xbc63c59e	-0.013902096
81	0xbc631ee6	-0.013862347
82	0xbc64e181	-0.01396978
83	0xbc4fe34e	-0.012688471
84	0x3bf738b7	0.0075446027
85	0x3d02db47	0.0319474
86	0x3ce98b30	0.028508753
87	0x3d0961ea	0.033540644
88	0xbb0e4cae	-0.0021713185
89	0xbcc4e4f5	-0.024034956
90	0x3ce33f70	0.02774021
91	0x3c80c7e6	0.015720319
92	0x3c967a04	0.018368728
93	0xbca417a5	-0.020030806
94	0x3c7996a3	0.0152336685
95	0x3c9d0245	0.019166121
96	0xbd04ca1c	-0.03241931
97	0x3c8a6022	0.016891543
98	0x3ce01a94	0.027356423
99	0xbb92f23f	-0.0044844444
100	0xbba9b1c0	-0.00517866
101	0xbcebfcbc	-0.028807037
102	0xbbd3a55f	-0.0064589228
103	0xbc9f05e8	-0.019411996
104	0xbba245dc	-0.0049521755
105	0xbc267e3a	-0.010161931
106	0xba06d117	-0.0005142851
107	0x3c64ce20	0.01396516
108	0x3b12e68f	0.0022415256
109	0x3c2d36dc	0.0105721615
110	0xbc006a5c	-0.007837858
111	0xbb787e4b	-0.0037917073
112	0x3c8f4b94	0.017492093
113	0xbc47a68e	-0.012185706
114	0x3cc4f347	0.024041785
115	0x3cb05736	0.02152596
116	0xbbd26db1	-0.0064217676
117	0x3cbd41e6	0.023102712
118	0xbc7f38f5	-0.015577544
119	0x3cb38ea7	0.021918608
120	0x3ca2aa8c	0.019856714
121	0x3c784f72	0.01515566
122	0x3c1404c4	0.009034339
123	0xbd0348b2	-0.03205175
124	0x3d023c64	0.031795874
125	0xbc28307d	-0.010265467
126	0x3d1cee4a	0.038313188
127	0xba043506	-0.00050433015

network_body._body_endoder.seq_layers.2.weight f4 [128, 128]
0	0x3d38b49d	0.04509412
1	0x3d06484c	0.03278379
2	0x3d43bbf4	0.047786668
3	0x3d87e0cf	0.06634676
4	0xbd2b59b5	-0.0418336
5	0xba413fc7	-0.0007371869
6	0x3dbce391	0.09223092
7	0xbc3b5a01	-0.011435033
8	0x3d9b6937	0.075884275
9	0xbdd3f72d	-0.103498794
10	0xbd3319db	-0.04372583
11	0xbd2babda	-0.041911937
12	0xbde68377	-0.11255544
13	0xbd9e8bda	-0.07741518
14	0x3e4c132a	0.19929186
15	0xbd9a3577	-0.07529729
16	0x3886f6bf	6.435578e-05
17	0x3e30bf91	0.17260577
18	0xbe36158a	-0.17781654
19	0xbdec41ed	-0.11536012
20	0xbd8182a2	-0.06323744
21	0xbc1911a2	-0.009342583
22	0x3d9c0b7a	0.076193765
23	0xbd028a8e	-0.031870417
24	0xbe0a07ca	-0.13479534
25	0xbcb0074f	-0.02148786
26	0x3d11a796	0.035560213
27	0x3db14ff7	0.0865783
28	0xbe317841	-0.1733103
29	0x3d73578e	0.05940967
30	0x3da594ad	0.08084998
31	0xbd435214	-0.047685698
32	0x3d64490f	0.055733737
33	0x3d9d1ac5	0.076711215
34	0xbd8426ff	-0.064527504
35	0x3db9245d	0.09040139
36	0xbdc69931	-0.09697188
37	0xbd463f40	-0.048400164
38	0x3d6529dd	0.055948127
39	0xbe0c942b	-0.13728397
40	0x3c9e278d	0.019305969
41	0x3ba95418	0.0051674955
42	0x3deb13bf	0.11478376
43	0xbe9412ee	-0.28920692
44	0xbc51c161	-0.012802453
45	0xbc16f1d9	-0.009212934
46	0x3e58485b	0.21121351
47	0x3d21d545	0.03951003
48	0xbd0aea2e	-0.033914737
49	0x3d0f7a58	0.035028785
50	0x3c22c6d5	0.009935101
51	0xbd5f0659	-0.054449413
52	0xbcdade20	-0.026717246
53	0x3db4cac1	0.08827735
54	0xbd73e527	-0.05954471
55	0x3e15386b	0.14572303
56	0xbccd416f	-0.025055615
57	0x3dd22ace	0.102620706
58	0xbd4d7706	-0.050162338
59	0x3d51cbb0	0.051219642
60	0x3dc179ac	0.09447035
61	0xbde00c5c	-0.10939857
62	0x3d0e9e39	0.03481886
63	0xbe4a4860	-0.19754171
64	0xbd0825b6	-0.03323909
65	0xbe45c570	-0.19313598
66	0x3c2fcc0f	0.010729804
67	0xbcf79b04	-0.030225284
68	0x3d2d2c63	0.04227866
69	0x3d483409	0.04887775
70	0xbd977d17	-0.07396906
71	0x3d60f418	0.054920286
72	0xbc89c0e3	-0.016815608
73	0x3c98e522	0.018663947
74	0x3cb2f9cd	0.02184763
75	0x3e36c63c	0.17849058
76	0xbd036120	-0.032075047
77	0x3df75f31	0.12078703
78	0xbc9f812c	-0.019470774
79	0xbd22dde8	-0.039762408
80	0xbe3c35d6	-0.18379912
81	0x3d568c31	0.05237979
82	0x3d5a636a	0.053317465
83	0xbd1c05a9	-0.038091335
84	0xbe18eb81	-0.14933588
85	0xbc84da58	-0.016217396
86	0x3cb8e9a5	0.022572348
87	0x3dae2268	0.08502656
88	0x3d53d928	0.05172077
89	0xbddbab19	-0.10725994
90	0xba82cbf4	-0.0009978996
91	0xbb816caf	-0.0039497237
92	0xbc947772	-0.018123362
93	0xbd15e1c4	-0.03659226
94	0x3bece3d7	0.007229309
95	0x3c2cd293	0.010548252
96	0xbe3a4d85	-0.18193634
97	0x3e001b51	0.1251042
98	0xbc6f45e6	-0.014604067
99	0x3d9e6601	0.077342995
100	0x3e4368ba	0.19082919
101	0xbd5df01c	-0.054184064
102	0x3cdd27dd	0.026996547
103	0xbe05bd8c	-0.13060588
104	0x3d92f76d	0.07176099
105	0x3e0d1209	0.13776411
106	0x3db40de5	0.08791713
107	0xbd54f342	-0.0519898
108	0xbca12f6b	-0.019675931
109	0xbda5692a	-0.08076699
110	0x3c19cb8b	0.009386907
111	0x3d6b4d2f	0.057446655
112	0x3cea6721	0.028613629
113	0x3e01d1a4	0.12677628
114	0x3c4466dd	0.011987415
115	0xbcf67f7f	-0.030090092
116	0x3d187699	0.03722248
117	0x3d0a40ae	0.03375309
118	0x3d836628	0.06415969
119	0xbd9c3e6f	-0.07629096
120	0xbba6a508	-0.005085591
121	0x3e25044a	0.16114917
122	0x3cbae674	0.022814967
123	0x3dbaa65d	0.091137625
124	0x3bbacb7f	0.005700528
125	0xbd494cf2	-0.049145646
126	0xbe15a5c8	-0.14614022
127	0x3d19b765	0.037528414
128	0x3c1824e0	0.009286135
129	0x3d821551	0.06351722
130	0x3aa94719	0.0012914866
131	0xbd10e480	-0.035374165
132	0xbe26358a	-0.16231361
133	0xbdcefa74	-0.10106364
134	0xbe1ac8b2	-0.15115622
135	0xbd0797e7	-0.03310385
136	0xbd8b1f28	-0.06793052
137	0xbd138223	-0.03601278
138	0x3cbf00e3	0.023315853
139	0xbe075cde	-0.1321902
140	0xbd970ba4	-0.07375267
141	0x3db2fb93	0.0873939
142	0x3c912393	0.017717158
143	0xbd78cb90	-0.060741007
144	0x3c9a57e3	0.018840736
145	0x3dd7eb05	0.10542873
146	0x3d5f9908	0.0545893
147	0x3dfdfb34	0.12401429
148	0x3d1b9d40	0.037991762
149	0x3d26cb35	0.040721137
150	0xbd67f5bc	-0.056630835
151	0x3d0a1856	0.033714615
152	0x3e1d26c0	0.15346813
153	0xbd8b9c3c	-0.06816909
154	0xbd6b4129	-0.05743519
155	0x3d8fd5f5	0.07023231
156	0x3d9fc15c	0.07800552
157	0xbe19dce4	-0.1502567
158	0x3e34f4a2	0.17671445
159	0xbda76aa7	-0.08174639
160	0x3e0bd3bf	0.13654993
161	0x3ca6b06a	0.020347793
162	0x3dbea43c	0.09308669
163	0x3ddd7470	0.10813224
164	0x3d9a1c8d	0.07524977
165	0x3d43bfd3	0.04779036
166	0x3da718b5	0.08159009
167	0x3da509fa	0.080585435
168	0x3dcf99cc	0.10136756
169	0xbc9a63be	-0.018846389
170	0x3d1ca5ca	0.038244046
171	0x3e01705c	0.12640518
172	0xbdd20aac	-0.10255942
173	0xbd96fdb3	-0.07372608
174	0xbdd9f8ba	-0.10643144
175	0x3da98e05	0.08279041
176	0xbc13f2db	-0.009030069
177	0xbc572018	-0.01313021
178	0x3db058ba	0.08610673
179	0xbde7de68	-0.113217175
180	0x3d152ae9	0.036417875
181	0xbd1fe7e0	-0.039039493
182	0x3da82905	0.08210949
183	0x3d73a32b	0.05948178
184	0xbe01d3fe	-0.12678525
185	0xbc1325b4	-0.008981157
186	0x3d9eaa2a	0.077473
187	0xbd8a219e	-0.06744693
188	0x3dae8908	0.085222304
189	0xbd137aaf	-0.036005672
190	0xbd8a56b0	-0.067548156
191	0x3d1c3cea	0.03814403
192	0x3caa9cc0	0.020826697
193	0x3e2e7673	0.17037372
194	0x3d89e870	0.06733787
195	0xbe7b1d0c	-0.24522799
196	0xba4fd274	-0.00079277833
197	0xbd5c8c4d	-0.05384474
198	0xbdba5b4b	-0.09099444
199	0x3da31897	0.079636745
200	0xbda12ca2	-0.07869841
201	0xbd0d2a61	-0.034464244
202	0xbd71bf0b	-0.059020083
203	0xbe2a4499	-0.1662773
204	0xbe045bd8	-0.1292566
205	0x397c1d6f	0.00024043558
206	0xbdb8bfc1	-0.09020949
207	0xbd3f4bf1	-0.046703283
208	0x3c2b60e7	0.010460115
209	0x3d0786f6	0.033087693
210	0xbdd365c5	-0.103221454
211	0xbc066f32	-0.008205222
212	0xbdab5edf	-0.083677046
213	0xbc970f5c	-0.018439941
214	0x3d9549fe	0.072895035
215	0xbb668071	-0.0035171772
216	0x3c4e61e5	0.012596582
217	0xbc9208f2	-0.017826531
218	0xbe819b6c	-0.2531389
219	0xbdc4d357	-0.096106224
220	0x3d03589e	0.032066934
221	0xbe0ccb93	-0.13749532
222	0xbe1cbbf0	-0.15306067
223	0x3c8e72ac	0.017388664
224	0xbcb90f1e	-0.022590216
225	0x3d95f3cf	0.073218934
226	0x3cb3560d	0.021891618
227	0x3cae00a8	0.021240547
228	0xbe274191	-0.16333605
229	0xbda7f360	-0.08200717
230	0xbd60fefb	-0.05493067
231	0x3d8063f4	0.062690645
232	0x3db4f34f	0.0883547
233	0x3c764ab6	0.015032461
234	0x3e137d80	0.14403343
235	0x3e11f655	0.14254124
236	0x3e1ae649	0.1512691
237	0xbd16e003	-0.036834728
238	0xbd68f48b	-0.05687384
239	0xbd6e8c15	-0.05823906
240	0xbda0c384	-0.07849792
241	0xbe37469c	-0.17898029
242	0xbc864157	-0.016388578
243	0xbe5b0650	-0.21389127
244	0xbd70c5fb	-0.05878256
245	0x3d71b0e7	0.059006598
246	0x3dea0856	0.11427371
247	0x3a563987	0.00081720244
248	0x3d619346	0.05507209
249	0x3d12614d	0.035737325
250	0xbd8480a4	-0.06469849
251	0xbdb63bdc	-0.08898136
252	0xbd80f723	-0.062971376
253	0xbbbb0549	-0.005707417
254	0x3d90998d	0.070605375
255	0x3c479c8e	0.012183322
