results/ppo/Seek/Seek-3499990.onnx (onnx, 75719 bytes, 7 tensors)

action_model._continuous_distribution.log_sigma f4 [1, 3]
00000000: 10fc 8abe 123e 95be 72ad debe
-0.27145433 -0.29148918 -0.43491703

action_model._continuous_distribution.mu.bias f4 [3]
00000000: a099 8dbd 50aa 333c 8540 693a
-0.06914067 0.010965899 0.0008897859

action_model._continuous_distribution.mu.weight f4 [3, 128]
00000000: 21c2 2f3d 7087 8abb 01e1 13bd 8f61 43bc
00000010: 5f71 ec3c 24cd 1c3d 1bf0 78bb 3a56 313e
00000020: fabe 95bd bb08 22bc d351 c8bb 79e1 a23b
00000030: bf5b 43bd 3bd5 d2bc 2713 9bbd 97f3 95bb
00000040: 9ea0 613c ba6d 853d 0671 dcbc d71b 1d3d
00000050: d051 9d3c f2c9 74bd e389 c5bb 3263 e23c
00000060: 4104 57bc 86dd d53b f489 843d 2b9a 033d
00000070: 6df2 1d3d ca9c 1a3d 4ad4 ee3c a721 82bd
00000080: d5fe 563c 7b74 1cbd da44 57bc 9061 4a3d
00000090: 3276 cd3d 8ca8 bc3d 5684 333d a2e4 cdbc
000000a0: a343 e93d ace1 4a3e b8cb 0c3c a0a9 163d
000000b0: 04fd 36bd 5aca f2bc 0dc6 033d 4b87 9cbb
000000c0: 118d a43a 6e71 bdbc 0dd8 e83b 897b 873d
000000d0: f3ef b7bc 76ec c03b f0eb 383d ff59 ff3c
000000e0: f97b 453d 651b 943c f9eb 58bd 4c6b cabb
000000f0: 3a24 c03d 788b 00bd 9fb2 de3c 5fdc 313d
00000100: 6e8d 8dbd 8434 83bd 61ff 283d 785b ac3d
00000110: c744 9238 98b6 bd3c d1b7 98ba fada 1dbc
00000120: 9e1d 29bd e459 5bbd 894c 533c e4b9 2dbd
00000130: 90d4 1ebc 1b71 b53c f233 6fbd 0dfe 723c
00000140: 734a bbbb d317 c83c 0601 01bc de44 e9bc
00000150: 93af 6fbc 666c 4a3d f3c7 143d 48ea 9c3d
00000160: 7987 c7bc 4031 d13c d30b 04bd 961f 82bb
00000170: bd3c 623d 6a95 1a3c 217f bcbc 67ae babc
00000180: 205b 4cbd 08f1 5a3e 2e39 a93d b945 d43a
00000190: 879d 3e3d b1e7 8bbc 6570 113d 9359 923c
000001a0: 606e 0838 0b08 d6bb be25 43bd 2ba2 933d
000001b0: 51e3 ce3c 1684 103a f342 503c 68ab e63b
000001c0: 2f98 183d 254d 133b 1ea5 2abd 7cae efbc
000001d0: e5b8 313d 0d89 263a e7c3 31bd c0b6 9cbd
000001e0: 8a1e 283c 333e c03b 93c3 2b3b 2cda b63b
000001f0: 3282 183e 9703 cc3c d852 a93d 801f ef3c
00000200: 0520 df3b b1f0 633d 2179 1e3d 4bb0 debc
00000210: 90bc 433c 1618 43bc 4eaf eaba cf47 bebd
00000220: 0965 abbd 77ae 02bd 5b63 0fbb 3719 78bd
00000230: 88d0 d6bc e5fa 143d 8cc0 613b 7349 45bc
00000240: bce8 9f3c 388e 4f3c 7eba 57bc 5975 6b3d
00000250: 8645 453d 7ca1 b43c 040a c9bb 1a99 b03d
00000260: 8861 d6bc ca09 a73c 3380 00bb 5140 903d
00000270: fd7e 453d 2807 97bd 2b8f bebb 82e4 a9bc
00000280: 2430 323b f964 76bc d0b6 013c 0e80 d1bc
00000290: 14fe 2ebd ac8c 83bd c8c2 7c3d f9e7 8b3c
000002a0: 2d7f 06bb b71b 38bd 8ce0 c53b fcaf 22bd
000002b0: 102b 023d afe6 d93d 6323 38bd 6a10 0ebd
000002c0: a105 053d c460 2c3b 010c fd3b df66 69bb
000002d0: e8d9 2fbd 1a68 b73c 6deb b3bc 975d 35bd
000002e0: cc2f 52bd da2a 7dbd 0b6c f839 3f81 993b
000002f0: 1112 b8bc c122 be3b 04ea 03ba 509e 353d
00000300: 1beb f93c acc0 5bbc c815 2abc 6a9f 093b
00000310: ce1a e03a 5696 f4bc 3dbc 4cbd a2dc 033d
00000320: 273e 9d3c 43c1 8738 490b 6a3b 9878 053c
00000330: 9b73 943c fd28 0e3d 8a47 b53b 5445 9a3c
00000340: 6bc0 f2bb ba36 233b cb6d 303d 857b 48bc
00000350: 8a2a 893a 3c27 983c 39d9 ebba f0d0 bbbc
00000360: e82d 16bd c017 873d d791 113d 9649 ce3c
00000370: 42cb af3b f46c a9bb ea1d 5cbc 8712 f93b
00000380: 709b b83c 5b28 04bd c174 01bd b07f 47bc
00000390: 66ce 63bd a123 6abd b217 333d c504 1c3d
000003a0: fc45 7f3c 38ae 9b3b 8885 0dbd 3858 453b
000003b0: 92f7 20bd b1f3 ba3c eecb 0e3d 91fa dfbc
000003c0: 394d 923c ebfd d3bc 9cf8 56bd 2098 133d
000003d0: 74a5 1ebc ca20 94bc bc32 143d 2c46 44bd
000003e0: 4646 143d cde0 6c3d adb8 5fbd a4aa 09bd
000003f0: d44e 41bc 0a1a ef3c dbb7 813c 8ba6 3b3d
0.042909745 -0.004227571 -0.036103252 -0.011925115 0.028862653 0.038281575 -0.003798491 0.17318049
-0.073118165 -0.009889777 -0.00611327 0.004970726 -0.047694918 -0.025736442 -0.075720124 -0.0045761573
0.013771204 0.06515069 -0.026909363 0.03835663 0.01920405 -0.059762903 -0.0060284003 0.02763519
-0.013123573 0.006526652 0.06471625 0.032129448 0.038561273 0.037747182 0.029153962 -0.06354075
0.01312228 -0.038197022 -0.013138974 0.04940945 0.100323096 0.09211835 0.043827377 -0.025133435
0.11389854 0.1981265 0.008593492 0.03678286 -0.04467489 -0.029637504 0.032171298 -0.0047768704
0.0012554248 -0.023125377 0.0071058334 0.06615359 -0.022453284 0.0058875633 0.045146883 0.031170843
0.048213933 0.018079469 -0.052959416 -0.0061773416 0.0938191 -0.031383008 0.027184783 0.043423053
-0.06911741 -0.06406501 0.041259173 0.08415884 6.974633e-05 0.023158357 -0.0011651461 -0.009634728
-0.04128801 -0.053552523 0.012896665 -0.042413607 -0.009694234 0.02214866 -0.05839915 0.014831078
-0.005715662 0.024425423 -0.007873779 -0.028475221 -0.0146292625 0.049419783 0.0363235 0.07661873
-0.02435659 0.02553618 -0.03223784 -0.0039710505 0.055233706 0.009435037 -0.023009839 -0.02278824
-0.04989159 0.21381009 0.08262859 0.0016195095 0.04653695 -0.017078253 0.03550758 0.017864978
3.252772e-05 -0.0065317205 -0.047643416 0.072086655 0.025254877 0.00055128464 0.012711274 0.007039476
0.03725451 0.0022476402 -0.041661374 -0.029258005 0.04338922 0.00063528196 -0.043399718 -0.07652044
0.010261187 0.0058667897 0.00262091 0.0055802073 0.14893416 0.024904056 0.08267754 0.029189825
0.006809237 0.055649463 0.038689736 -0.027183672 0.011946812 -0.011907598 -0.0017905028 -0.0929104
-0.0836888 -0.031904664 -0.0021879289 -0.06057092 -0.026222482 0.036372084 0.0034447042 -0.012041437
0.019520156 0.012668185 -0.013167022 0.05748496 0.048162006 0.022049658 -0.006135227 0.08622952
-0.026169553 0.02039041 -0.0019607663 0.070435174 0.04821681 -0.07374412 -0.005815407 -0.020738844
0.0027189339 -0.015038722 0.007917121 -0.025573757 -0.042722777 -0.064233154 0.061709195 0.017078387
-0.002052258 -0.044948306 0.006038731 -0.039718613 0.03177935 0.106397025 -0.044955622 -0.034683622
0.03247607 0.0026302794 0.0077223782 -0.0035614294 -0.04293242 0.022388507 -0.021962846 -0.044278707
-0.051315114 -0.061808445 0.00047382744 0.004684597 -0.022469552 0.005802483 -0.00050321245 0.04434043
0.030507615 -0.013412636 -0.01038117 0.002099956 0.0017097832 -0.029856842 -0.049984206 0.032192834
0.019194676 6.4732994e-05 0.0035712293 0.008146428 0.018121531 0.03470706 0.0055322098 0.018831886
-0.007408192 0.0024904446 0.043073457 -0.012236481 0.0010464948 0.018573396 -0.0017993815 -0.022926778
-0.036664873 0.06596327 0.035539474 0.025181573 0.0053648064 -0.005170459 -0.013434866 0.0076010856
0.022535056 -0.03226505 -0.031605486 -0.012176439 -0.05561676 -0.057162885 0.04372377 0.038090486
0.01558065 0.004750993 -0.034551173 0.0030112397 -0.0392986 0.02282128 0.03486245 -0.027341159
0.017859088 -0.025877913 -0.052483186 0.03603375 -0.009683002 -0.018082041 0.036181197 -0.047918484
0.03619983 0.057831574 -0.05461948 -0.03361 -0.011798579 0.029187221 0.01583474 0.045813125

network_body._body_endoder.seq_layers.0.bias f4 [128]
00000000: e4b4 2ab9 539b 4f3d 49b4 083d 3024 d53c
00000010: a11d 79bc 808e a0bd 2661 973d 353a 39bc
00000020: 6168 fe3c 461d 17bd ff22 623a 0be6 413d
00000030: b27e e4bc ff6a 38bd de69 223d 1aa9 cb3b
00000040: 3310 e73c d11b a23b cbdf 783c f109 f73a
00000050: 5fec c0bc d70a 86bb fd97 e73c 871c a63d
00000060: bce4 ef3c 37b6 bf39 1329 a6bd dceb 103d
00000070: e26e ba3c cd71 37bd 41b1 73bd d5ee e8b9
00000080: 9020 193d cb22 37bd 4277 a9bd 50ee bcbb
00000090: 2f69 233d ac77 f63a 521c f23c 969b 483c
000000a0: 8aa5 823c 210e 6b3c bb8f 0cbd 5581 5cbd
000000b0: 7da8 823c c200 103c 5f58 d0bb 51ea a43d
000000c0: 80e0 87bc 35bd b83c 1a76 a5bc 7b52 7cbd
000000d0: acc6 17bd f331 d93c 8d9d e3bc 8687 993d
000000e0: 787f 4cbb b093 b03c 0a65 943d c6ad de3c
000000f0: bc56 17bd 63bd 09bd b5d5 09bd afdc 8f3b
00000100: f3bf 26bd e21e aebd 947f 2e3c 79a3 1ebc
00000110: b93c 2b3d 06bb 4cbd 6488 b9bc 654c fe3a
00000120: 48d6 a3bc 79e1 d73c 0cac bebc d5d8 9dbc
00000130: a2e9 393d 6121 dcba ddb8 1bbb 1c2a afbc
00000140: 34ae 173c bfca 093d e30c 113c db09 333d
00000150: 7365 4b3d 2306 85bc 2af3 10bb 4f4f 813d
00000160: 5b8b 853c 18da 063d 5893 14bd 49c3 1fbd
00000170: dfdd 0f3c edb9 263d 3310 22bd 7af9 5cbd
00000180: 4a94 713c 0216 34bc b975 a73c 9c73 073c
00000190: 9629 2dbd 3ab0 423d 7154 ff3d e624 1fbd
000001a0: 0c58 4fbd c082 15bc f849 16bb 1fdb 863c
000001b0: 4bbe 853d 4e88 57bc ca18 913d 8df5 503c
000001c0: 17c9 003c 4139 4fbd eccf 153c 3098 953d
000001d0: 90fc 263d 2b45 1f3d 80d4 73bc 2d7b 353d
000001e0: 5e69 27bd 07fe dbbc 4630 12bd b560 793d
000001f0: d4c9 7d3d 1271 28bd 83ca f53b 917c 8939
-0.0001627985 0.050685238 0.03337506 0.026018232 -0.015204818 -0.0783968 0.073915765 -0.011305382
0.031055631 -0.03689315 0.00086264306 0.047338527 -0.027892444 -0.045023914 0.039651744 0.006215227
0.028205967 0.0049471636 0.015190075 0.0018847567 -0.02355021 -0.0040906477 0.028270716 0.0811091
0.029283874 0.0003656612 -0.08113303 0.035381183 0.022757951 -0.044786263 -0.059495214 -0.00044428432
0.03738457 -0.044710916 -0.082747 -0.0057657138 0.039895233 0.0018803976 0.02955452 0.012244126
0.015948076 0.01434663 -0.03431676 -0.053834278 0.015949482 0.008789243 -0.006358191 0.08052505
-0.016586542 0.022551158 -0.020197917 -0.061602097 -0.037054703 0.026513075 -0.027785087 0.07496552
-0.0031203907 0.021554798 0.07245834 0.027182471 -0.03694795 -0.03362788 -0.033651073 0.004390321
-0.0407104 -0.08501984 0.010650534 -0.00968253 0.041805957 -0.049983047 -0.022648044 0.001940143
-0.019999638 0.02635263 -0.023275398 -0.019268433 0.045388825 -0.0016794616 -0.002376131 -0.021382384
0.009257842 0.03364062 0.00885317 0.04371057 0.049657296 -0.016238278 -0.0022117593 0.06313955
0.016301801 0.032922834 -0.03627333 -0.039004598 0.008780926 0.040704656 -0.03956623 -0.053948857
0.0147448275 -0.010991575 0.020441877 0.0082673095 -0.042275988 0.047531344 0.12467278 -0.03885355
-0.050621077 -0.0091254115 -0.0022932272 0.016461907 0.06530436 -0.013155056 0.07084806 0.012753856
0.007860444 -0.05059171 0.009143811 0.07304418 0.040768206 0.038884323 -0.014882207 0.044306923
-0.04087197 -0.026854528 -0.03569057 0.060883243 0.061960056 -0.041123457 0.007500948 0.00026223485

network_body._body_endoder.seq_layers.0.weight f4 [128, 11]
00000000: ce1a 653e 14a0 b9be a006 29be 5ad7 cc3e
00000010: b51d 7bbe ec4f 983d 9b8c 37bd 1c4b a43d
00000020: 626c f7be 6885 503e 5ec9 29bf 359b 823d
00000030: 14bc 9f3e 3558 7ebe 7f26 203e ed2e 813f
00000040: 5c87 7ebe bb77 2cbd 5a35 2ebe 81c3 fcbd
00000050: b57e 24be cdf6 3ebe 7552 b2be c47d 09bf
00000060: b82a 29bd 142d 8e3e 4bcb 65be 6c1b 11bd
00000070: 2b1b 98be d762 ccbd 4e2c 72be e7d7 b0be
00000080: 93ab 29be e2af 313e e62c 9a3e d145 80be
00000090: d62b 023e 7de8 973e 24a6 31bc 6e29 f53d
000000a0: a3de 0dbe 1ca0 033e 42a9 873d a2e9 a13e
000000b0: 19fa 353e 0560 34be 602a 9ebe f1d7 fdbc
000000c0: 51c0 c93e 1983 b93e a679 2e3e bf04 da3e
000000d0: cae9 08bf 6c24 693e 892c b6be ecb3 cc3a
000000e0: 8d15 9c3d a5ed e83d 3eb0 babe b539 ca3d
000000f0: f499 32bd 1a0e 21be f086 11be 663c cabe
00000100: 8b85 e33d 5760 c93d 0f74 52be 4775 1bbd
00000110: 0374 77be 100e 203e 7dea a5be 7d80 893c
00000120: d450 ad3e 44f2 443e ab41 d6bd f1e8 743e
00000130: cde9 113e 9bf8 e9bc 7649 35bf 4cc3 1b3d
00000140: 0805 80be 3a90 ab3e c665 bfbe d5a9 2a3d
00000150: 8cda 03bf 0ac4 d9bc 6be6 463e 1023 983d
00000160: d830 58be 13ab 553e b2ab a43e b72b 0a3e
00000170: c757 d83e f263 da3d ceba 2f3f 36d7 4fbf
00000180: 928a 8c3e 7680 c5be f145 c4bc 4dd9 a33d
00000190: bbb6 113d 9da5 47bf 253e 143e 8c42 a5bc
000001a0: bb7e d8bc 256a 893e f80c acbe d78b 683e
000001b0: a19d 2c3e a212 61be e54c e33e 4053 813e
000001c0: 2008 dcbe 8baf aa3e 7340 8c3d 55f4 5f3d
000001d0: 98e0 a83e db4d 903e bdd6 283e 6628 50bf
000001e0: c32a 043d 51a2 7fbe 37c1 2ebe 6486 203c
000001f0: ade5 0ebf 61ca 89bd 6c06 a23e 5b05 ff3d
00000200: 0084 543e b5d8 a8bd cced f5bb bafe b0bd
00000210: 4e24 03be 337f e4be feb6 0d3e 6754 8fbf
00000220: 4654 68be 1211 d0bc 2216 c6bd fb92 30bf
00000230: 1698 12be a32e aebe ecec 813e 75cf b4be
00000240: 60e9 37be 3280 8f3e 5952 9bbe e0f5 d23e
00000250: 6d99 093f 8d13 8a3e 0e01 aabe e2cf 463e
00000260: 6d8c 23bd 91c3 e7bd c4cf 02bf 6556 363e
00000270: 01b0 fbbd 6fae 483e d1fc 353f bf6f 9cbe
00000280: 7214 5a3d 8c73 5e3e 3cb2 60bd b6eb 5dbe
00000290: 94d1 373e 3e41 eebb be8c 25bf e123 17be
000002a0: 2da0 983d 7540 ad3e 9832 89bc 6c3d 093e
000002b0: e79c 683d b802 23be 0d91 923e 5186 913e
000002c0: 3af8 45be 5674 6ebd 7568 9dbe 7681 a23d
000002d0: cf41 0a3f 08bc 68be ae15 bbbd 7da4 92be
000002e0: b732 b53d 6b2c a7bd f589 07bf 0ce2 dabe
000002f0: 3456 953e f0f4 7e3e 7992 4e3d 720a 463f
00000300: 617d aa3e 0aae 0ebf f9f8 13bf 0b44 4abe
00000310: 24d3 abbe d8c2 0cbf f01b 69be 3586 ba3e
00000320: 96f4 983d 1737 b23d 9514 70be 66be 83be
00000330: 8d07 36be 2423 843e ce2e a13d 66c6 b0be
00000340: da31 b93e 78d4 313e 5ef1 31be 3a8c 703e
00000350: b45e 563e c6cc 3a3e 4769 5ebe f36f 13be
00000360: fc0c 213d 4ecc f83d b97d 163f 6e10 18be
00000370: c5f7 fcbd a40c 923d 6cf1 bfbc 5add ff3d
00000380: ac3c 95be f336 4f3e ee16 703e 06e2 37be
00000390: 9d57 d63c f76e b33e 311d 723e 801d ac3e
000003a0: fe5a bcbe 50ac 5d3e 9f43 0c3c d8ee 00bf
000003b0: cb30 c1bd 3574 6a3d 9150 bfbe 7466 0e3a
000003c0: e2e5 a7bd fdd1 5b3e 96d1 3ebd 2809 7f3e
000003d0: 3222 68bd cd22 c4be dc91 b7be c18f 2d3e
000003e0: 3ae6 383e c9f4 113e 30d6 c7be f7e5 11bf
000003f0: 145b 543e bf60 a6be 7e2b 963d 2d5e 9b3e
0.22373506 -0.36254942 -0.16506433 0.4000805 -0.24523051 0.07437119 -0.044811826 0.080221385
-0.48324877 0.2036339 -0.66322887 0.0637726 0.3119818 -0.24838336 0.15639685 1.0092446
-0.24856323 -0.04210637 -0.1701254 -0.12341977 -0.1606396 -0.18648835 -0.34828535 -0.5370753
-0.041300505 0.27768767 -0.22440831 -0.035426542 -0.29708228 -0.0997979 -0.23649713 -0.3453972
-0.16569357 0.1735225 0.3011238 -0.25053266 0.12712035 0.29669562 -0.010842834 0.11970793
-0.1385446 0.12854046 0.0662408 0.3162356 0.17771186 -0.17614754 -0.30891705 -0.030986758
0.39404538 0.36232832 0.17038593 0.42581746 -0.53481734 0.227678 -0.35580853 0.0015617586
0.07621298 0.11373452 -0.36462587 0.09874288 -0.043603852 -0.15728036 -0.14211631 -0.39499205
0.11109456 0.098328285 -0.20552085 -0.03795364 -0.24165349 0.15630364 -0.32405463 0.0167849
0.3385073 0.19233042 -0.10461744 0.23916985 0.14249344 -0.028560927 -0.7081522 0.038028046
-0.2500384 0.33508474 -0.37382334 0.04166587 -0.5150535 -0.026582737 0.19423835 0.07428563
-0.21112382 0.20866041 0.32162243 0.13493238 0.4225447 0.10663594 0.68644416 -0.8118776
0.2744947 -0.3857457 -0.023959132 0.08000431 0.035574656 -0.7798708 0.14476831 -0.020173334
-0.026427617 0.26838794 -0.33603644 0.22709595 0.16857006 -0.21979764 0.44394603 0.25258827
-0.4297495 0.33337054 0.0684823 0.054676373 0.3298385 0.281844 0.16488166 -0.81311643
0.032267343 -0.24964263 -0.17065893 0.009797666 -0.5581921 -0.06728054 0.31645525 0.12452193
0.20753479 -0.082444586 -0.0075051542 -0.08642335 -0.12806818 -0.44628295 0.13839337 -1.1197633
-0.22688398 -0.025398765 -0.0967219 -0.68974274 -0.14315829 -0.34019956 0.2537607 -0.35314527
-0.17960119 0.28027493 -0.30336264 0.41203213 0.53749734 0.2696804 -0.3320393 0.19415238
-0.039928842 -0.11316598 -0.51098275 0.17806394 -0.122894295 0.19597791 0.7108889 -0.30554006
0.053242154 0.21723765 -0.054857478 -0.21671948 0.17951041 -0.007270961 -0.6466788 -0.1475978
0.07452426 0.3383824 -0.016747758 0.13402337 0.05679026 -0.15919006 0.2862629 0.28422788
-0.19332972 -0.058216415 -0.30743757 0.07934849 0.54006666 -0.22727978 -0.091349944 -0.2864112
0.08847564 -0.08162769 -0.5294488 -0.42750585 0.2916733 0.24898124 0.050432656 0.7735969
0.33298782 -0.5573431 -0.5780178 -0.19752519 -0.33559525 -0.5498481 -0.22764564 0.36430517
0.07468526 0.08701914 -0.23445351 -0.257312 -0.17776318 0.2580806 0.078702554 -0.34526366
0.36170846 0.17366207 -0.1737723 0.23490992 0.20934564 0.18242177 -0.21719848 -0.14398174
0.039319023 0.12148343 0.5878559 -0.14850017 -0.12351946 0.07131317 -0.023430549 0.12493391
-0.2914785 0.20235805 0.23446247 -0.17957315 0.026164824 0.35045597 0.23643948 0.33616257
-0.36788172 0.21647763 0.008561044 -0.50364447 -0.09433135 0.05723973 -0.37366155 0.0005432137
-0.081981435 0.21466823 -0.046586595 0.24905837 -0.056673236 -0.383078 -0.3585347 0.16949369
0.18056574 0.14253534 -0.390306 -0.56991524 0.20737869 -0.32495686 0.07332514 0.30345288

network_body._body_endoder.seq_layers.2.bias f4 [128]
00000000: 3356 03bd 7c67 2e3d 8744 323d cea2 c73b
00000010: bfe4 ecbc ab90 2cbc a822 ed3b 5b40 9fbc
00000020: 5008 8d3d a4ed 043d caa4 963c 0de0 80bb
00000030: e6c7 fa3c b2db 893d f3a4 893d ae4c 0a39
00000040: 642e 293c 2ba7 aebd e2c9 bc3c 046d e83b
00000050: cf33 06bc 3b2f aa3c 694d 8339 d07e 893d
00000060: b84b 863a 98ec 7cbc e4a5 95bc b803 883c
00000070: 6aa7 7bbd 322c dbbc b100 43ba 689e d63c
00000080: 371b debc 5754 d83c 4f1e 713c ce26 1dbd
00000090: 8eff 40bd d015 2cbb 8d30 90bd d345 f93c
000000a0: 6762 21bc 1b11 53bd 2214 23bd de78 17bd
000000b0: 7b51 a13c c41b 893d db71 cbbb 34d9 da3c
000000c0: 99ed c8bc a0fc 95bc 06e4 e7bb 7167 67bd
000000d0: 0ecb 173d 16c0 a2bc 707e 86bd bca4 08bd
000000e0: 4207 48bd 3497 4b3c ce85 1a3d db24 a23c
000000f0: e0b7 96ba 4329 893c 8719 5dbd 2d0f f93b
00000100: ceae a73d b497 8d3d 82d5 d9bc 4d80 67bd
00000110: d987 43bd 5a93 2bbd b418 543b bfac a43c
00000120: b2c0 883d 8543 483d 0bc0 1dbd ffa4 4d3d
00000130: 2232 2c3c b7e1 d93c d807 883d 0f19 48bd
00000140: 7af3 1dbd 98c1 aebd e2cf fe3c ecb1 693d
00000150: 27ad 9c3d 3d66 0cbd 8370 1fbd f2aa 6ebd
00000160: 150c 253d 5437 733b 3262 c13c f655 c3ba
00000170: 42e0 31bd ce5d 183b bd99 ef3c 57a5 9b3c
00000180: f186 b43d 99de 0bbd 3074 82bc 8e97 14bb
00000190: 12f3 65bd 09e7 973c fba2 e13c 2549 a73b
000001a0: 3593 883a c335 6a3c 3c3d 343d 8187 34bd
000001b0: 4bc9 aa3a f759 0abc 8965 39bd bf06 a5bc
000001c0: c38d 77bd 76d0 fcbb 0f0e 873d d5ba 493d
000001d0: 1f3e 263d d10a 953c 9248 873d 04e1 7c3d
000001e0: 9b5a 4539 6c2c 8f3c 720a 293d 4ef1 52bb
000001f0: a0e4 58bd 5d35 c0bc 9aeb 8bbd 64fb 05bc
-0.032064628 0.04257916 0.043522384 0.006092406 -0.028917668 -0.010532538 0.0072367974 -0.019439867
0.06886351 0.032453194 0.018389124 -0.003932959 0.030612897 0.06731357 0.06720915 0.00013189271
0.010326002 -0.085279785 0.023045484 0.007093074 -0.008191063 0.020774474 0.00025043942 0.06713641
0.0010245955 -0.015437268 -0.01826758 0.016603336 -0.061438955 -0.026754472 -0.00074387627 0.02619858
-0.027112586 0.026407404 0.014716699 -0.038367085 -0.047118716 -0.0026258118 -0.0704051 0.030428803
-0.009850121 -0.051529985 -0.039814122 -0.036980502 0.019692173 0.06694749 -0.006208641 0.026714899
-0.024527358 -0.018308938 -0.007076743 -0.056495134 0.037058882 -0.019866984 -0.06567085 -0.033360228
-0.048835047 0.012426186 0.037725262 0.019792965 -0.0011498891 0.016743308 -0.053979423 0.007600686
0.08187638 0.06913701 -0.026591066 -0.05651884 -0.047736976 -0.041888572 0.0032363357 0.020101903
0.06677379 0.048892517 -0.038513225 0.05020618 0.0105099995 0.026596887 0.06642121 -0.048852023
-0.038562275 -0.08533019 0.031104986 0.057054445 0.07650214 -0.03427719 -0.03892566 -0.058268495
0.040294725 0.0037111836 0.023606393 -0.0014902938 -0.04342676 0.0023249271 0.029248113 0.018999739
0.088148005 -0.034147833 -0.015924543 -0.0022673341 -0.056140013 0.018542783 0.027543535 0.005105155
0.0010419848 0.014295044 0.04400371 -0.04407454 0.0013029961 -0.008444301 -0.045262847 -0.020144818
-0.06043793 -0.00771528 0.06594478 0.049250443 0.040586587 0.018193634 0.066056386 0.06173803
0.00018821137 0.017477237 0.041269727 -0.0032187286 -0.05295241 -0.023462946 -0.06832047 -0.008177612

network_body._body_endoder.seq_layers.2.weight f4 [128, 128]
00000000: bcda 54bd eb68 e03c 5285 8dbd 4101 113d
00000010: d57f 9c3c 058f 24bd fc0d 183d 1feb 813d
00000020: e50a 203d 3889 91bc 9522 96bd 8a21 6bbd
00000030: baf4 693d 5c54 b3ba e848 a53d 42bc e53d
00000040: d511 01be cde6 f73c fe95 c53d 1b69 06be
00000050: a86d 8fbc 2dc9 133c e14b 96bd fb79 eabd
00000060: 4da0 073e 798d e1bc 09ea 513d 6872 db3a
00000070: ea9f d0bc 5309 41bd d5a2 e2bd 08e2 23bd
00000080: 269c 62be 2ae3 3dbc 4f73 193d a394 9a3b
00000090: d5a7 243d d54c 3a39 17bf 08bd 6234 273d
000000a0: 1a60 05bc 6080 2abe ee05 833e 9d78 fdbd
000000b0: c49b 6b3e 26b8 1fbe b8ec 38bd 7e17 01bd
000000c0: d5cb 193e f102 2dbd 0c88 58bd ab50 29bb
000000d0: 804c 913c 1399 683c 1fad 0e3c daed 51be
000000e0: 5d75 cb3c ab87 55be 7d97 adbb 39c1 e4bd
000000f0: fc2d c23d 054a 233e 2894 fc3c 9c47 eebd
00000100: 3d5b 4f3d f67b 8f3d 0249 80bc b979 29be
00000110: 2efa 3b3e 6a2d 3abd a934 ae3c 720a 73bc
00000120: cdd5 373d 176e 46bd fd55 62bd fbbb 79bd
00000130: eb3c 763c 233e 6b3c 8508 fbbc cc70 ba3d
00000140: b1b8 843d ea03 253d 6974 6fbd e102 053b
00000150: 6840 953d e5cf 1ebb cba5 58bd 067f 213d
00000160: 8d7a 05be fd8d a43b 376f e8bc 5339 0f3c
00000170: 9a3f 933d c053 87bc 38de 73bc 0e38 f7bd
00000180: ee37 b1bd 7db8 063d e0ce f83d 53de 633d
00000190: 5202 493e 8a56 edbd cd2c 02be 53d6 c8bd
000001a0: d058 7dbd aedc 7c3d 2510 6dbb c08b 8fbd
000001b0: 17c2 8fbb 5690 4e3d 2cd8 80bd 1a67 abbc
000001c0: f975 04bc d090 ab3d 8e40 b03d 9354 e7bc
000001d0: 3c36 663d dc2f 3ebc 2f57 bd3d 44ea de3c
000001e0: 7e72 02be 5e2f e83d a721 233e a008 28bd
000001f0: 631c 173d 504a 23bb 442a 203e 4a57 b43d
00000200: 6d6c 35bd 528e f8bd 0ff1 0fbd 9a2b e7bd
00000210: d92b 98bc 6aee 6dbd 4db6 973d 4083 8fbd
00000220: 7a3d 083d e907 aebc 719e a6bc 744d dd3d
00000230: 51b0 7a3c b6eb bc3d 8cf5 103d 5ace af3c
00000240: 0dc9 1c3c 01a8 ddbd 2b17 36bd 1076 a83d
00000250: 46ed 86bd 28a1 4ebe 8c9d a6bd df61 4c3d
00000260: d386 503d f33a 223e 76dc 38bd c97b 01be
00000270: 3381 843b f1ec f33d 9fef 2a3c 64d7 e93d
00000280: 4ea9 713d fcd2 f83b 18a6 eebd be97 34be
00000290: 9f78 44be f945 733d 895c 39bd 09ca 3d3d
000002a0: 63bc 853d 97cb a53c ef23 53bd 1907 953b
000002b0: 2f31 17bd ff1a 3d3e 2d64 eebd 5c3a d6bd
000002c0: 0c64 55bc 961a 7cbd abbc 093d 733d ae3c
000002d0: cf40 be3d 5e7e 843d 6af7 4fbd 5348 113d
000002e0: 4c6c 7a3c b4ab 35be f34f 8a3d 7f17 c7bc
000002f0: e454 dd3c 7ddf 1b3b 78ea de3d e83e 653e
00000300: ac26 08be c2a0 393c f066 e83d fa43 aabd
00000310: 8c06 3f3d 85a4 873c fcad 23bd ef69 d9bc
00000320: 71d4 5b3b b740 43be 5be8 edbc f12f b23d
00000330: eaaa 2fbc 87f2 413d a60e 003e 2166 19be
00000340: ffcb 08be bf67 123e 3fe3 60bc 9501 cabd
00000350: 6670 f63b fcbd 213e 382c bd3d b4cb 90bd
00000360: 1a8e 793d f590 8b3d 5ce9 8bbd 5df7 6b3c
00000370: 28ab a63d 78d6 3abc 23d7 973d c501 fb3c
00000380: c93a 32bc 646e a6bd 8fdb 823e 7585 3a3e
00000390: b229 ccbd 87e3 623d 79b6 96bd 3f33 053e
000003a0: 234f ffbd 8acf 123d e346 3d3c f852 97bd
000003b0: af61 07bd 02a9 143d 3ddf 0a3e 4ab5 9bbd
000003c0: a278 6ebd c9c2 bc3d d4cb 673d e925 f73b
000003d0: a2bf 2e3d 0046 1f3e a8cd cf3d 779a 50bd
000003e0: 0219 e3bc c198 b53d 2966 1e3d cb88 60be
000003f0: 74c6 82bd b54a 04bd 96dd 8cbd 092d 3abe
-0.051966414 0.027393779 -0.069101945 0.035401586 0.019103924 -0.040175457 0.03712271 0.06343674
0.03907289 -0.017765626 -0.07330815 -0.057405032 0.057118155 -0.0013681757 0.080705464 0.11217548
-0.12604459 0.030261422 0.09647749 -0.13126032 -0.017508343 0.009020132 -0.073386915 -0.11449047
0.13244744 -0.02753328 0.051248584 0.001674247 -0.025466878 -0.047128033 -0.11066214 -0.040010482
-0.22129878 -0.011589805 0.037463482 0.004717426 0.04019912 0.00017766964 -0.033385362 0.04082144
-0.008140588 -0.16650534 0.25590461 -0.12376521 0.23008639 -0.15597591 -0.045147628 -0.031516545
0.15019162 -0.042239133 -0.05286412 -0.0025835435 0.017736673 0.014196652 0.0087082675 -0.2050089
0.024836237 -0.20852534 -0.0052976 -0.11169667 0.09481427 0.15946205 0.030832365 -0.11634752
0.05062412 0.070060655 -0.015659813 -0.1655034 0.18357155 -0.045453466 0.021265345 -0.014834033
0.04488163 -0.048444834 -0.055257786 -0.060970288 0.015029172 0.014358076 -0.03064371 0.091035455
0.064805396 0.040286936 -0.058460627 0.0020295905 0.07287675 -0.0024232802 -0.052892487 0.03942778
-0.1303503 0.005021809 -0.028373344 0.0087416945 0.071898654 -0.016519427 -0.014884524 -0.120712385
-0.08653246 0.032890785 0.12148833 0.055631947 0.19629791 -0.11588772 -0.12712403 -0.09806504
-0.061852276 0.061733894 -0.0036172953 -0.07009077 -0.004387151 0.05043062 -0.062912315 -0.020923186
-0.0080847675 0.0837723 0.08606063 -0.02823857 0.056204066 -0.01160809 0.092451446 0.027211316
-0.12738988 0.113371596 0.15930806 -0.04102385 0.036892306 -0.002491612 0.15641123 0.088057116
-0.044292856 -0.121365204 -0.035142 -0.11287613 -0.018575596 -0.058088697 0.07407818 -0.07007456
0.033261754 -0.021244006 -0.020339223 0.10805789 0.015300826 0.09224646 0.03539042 0.0214607
0.009569419 -0.1082306 -0.04445569 0.08225644 -0.06588225 -0.20178664 -0.081355184 0.049898025
0.05090983 0.158428 -0.045132123 -0.12644877 0.004043722 0.11910427 0.010433107 0.114180356
0.058999352 0.0075935107 -0.116527736 -0.1763601 -0.19186638 0.059392903 -0.045254264 0.046335254
0.065300725 0.02023868 -0.05154794 0.0045479652 -0.03691214 0.1846733 -0.11640201 -0.1046035
-0.013024341 -0.06154879 0.033627193 0.021269536 0.09289705 0.06469415 -0.05077306 0.035469364
0.015284609 -0.17741281 0.0675353 -0.024303196 0.027018018 0.0023784332 0.10884565 0.22387278
-0.13296002 0.011329832 0.11347759 -0.08313747 0.046637103 0.016557941 -0.039960846 -0.02653977
0.0033543373 -0.19067656 -0.02904146 0.0870055 -0.010721901 0.047350433 0.12505588 -0.14980365
-0.13359068 0.14297388 -0.013726055 -0.09863583 0.007520723 0.1579513 0.0923695 -0.07070103
0.060926534 0.06814758 -0.06831619 0.014402238 0.08138114 -0.011403672 0.07414081 0.030640492
-0.010878273 -0.08126524 0.25558135 0.18214972 -0.0996889 0.05539277 -0.07359023 0.1300783
-0.12466266 0.035842456 0.011552545 -0.07388872 -0.033052143 0.03629399 0.13561721 -0.076029375
-0.058220513 0.0921684 0.05659087 0.007542361 0.042663224 0.15554047 0.10146648 -0.05092856
-0.027721886 0.08867026 0.038671646 -0.21927182 -0.06385508 -0.03229781 -0.06878202 -0.18181242
