results/ppo/Seek/Seek-42496.onnx (onnx, 75719 bytes, 7 tensors)

action_model._continuous_distribution.log_sigma f4 [1, 3]
00000000: 4ce0 5cbd 66b0 b9bd ec98 85bd
-0.053924844 -0.090668485 -0.06523308

action_model._continuous_distribution.mu.bias f4 [3]
00000000: 3f8a 75bc 2a1f f2bb c6af a7bc
-0.014986574 -0.007388969 -0.020469557

action_model._continuous_distribution.mu.weight f4 [3, 128]
00000000: 2d0c df3b 38a0 adbb 1ec9 af3c 4bf5 633b
00000010: 6323 10ba 4b90 bf3b 4291 883c c3c2 9c3c
00000020: a4e2 9bbb 7667 bd3c 880a b6bb 6c2d 90ba
00000030: 2f8f 18bb d138 723b 17bd 8c3a 1c9b ed38
00000040: 0c75 b6bb e9eb c33b 996e 953b ebc8 393b
00000050: ad7e e13c bafc cb3b e49f e0b6 27e3 953c
00000060: 9d51 2e3c 6c01 223d 53ce 7abb 972c 8e3b
00000070: 7467 bdbc 9ad1 21b9 f8ba f23b 9afd c83b
00000080: 2e9a dbbb d34d d4bb e8c3 4dbc 3f05 3fbc
00000090: 03b0 b9ba 888e 7cbb 1f9f 8aba e3ff 02bc
000000a0: b97d f639 76bf 2dba ff1c 903b aa18 ba3b
000000b0: 0823 f1bc 1b21 c73c 138a 1d3c f3b7 293d
000000c0: 85df e83a e3cf 243d b7db d9bc 45f0 b3bc
000000d0: cb8a bc3b 0e8c 3bbc aca7 c33c f84e 2639
000000e0: f5e8 23bc 915a b1bc 4499 803c 93a9 893b
000000f0: 96df 07bd 6af6 073d b301 56bb 3cc7 173c
00000100: 30d5 d8ba e935 69bb 67c5 c9bc 584a 85bb
00000110: f1a5 c73c 99bc 113d a734 babc 6f12 8e3b
00000120: 4b18 003b b351 883b d13d 8fbc cede 2b3c
00000130: 2e4e 07ba c975 8a3c eda7 8b3c 7b98 f1bb
00000140: 45ef deba 03c0 663c a57d b8bc 8bc1 98bc
00000150: 3f39 f03c 402b 913c 3f75 2d3c f1a1 8c3c
00000160: ca23 29ba 5dda 533c 5a08 ebbb e9d9 7e3c
00000170: 4f7c 703c 438e 87bb f398 09bc f178 453c
00000180: 9d95 82bc 65c3 5bbc f6dd 8bbc 7765 613a
00000190: 1fa7 c33c 852b 1ebc 62c0 84bc ff69 5ab8
000001a0: 7dd3 ea3b 2cce f5bb b47e 69bb 5eaf 2d3c
000001b0: e218 a4bb 5ecb 85bb c365 90bb 0c02 26ba
000001c0: 7ada 0abd 413f 5bbb b7c6 703c ac25 ba3b
000001d0: 6c14 93bb f796 3b3d fe58 c43c 1d07 953c
000001e0: 05b1 943b de50 0abb 570c 323b 40e7 d53b
000001f0: 51ff 8c3b 53cb 30bc 6ee1 253c efb0 dc3b
00000200: 0ac3 ffbc bb62 f23c a8e1 70bb e55d 833c
00000210: 9d6f 933c 49a3 70bc 2cdd a53b ec75 f5bc
00000220: b615 e73c bdf0 7fbc d64c e33c 87f5 e1bb
00000230: dfec 58bb 864b e3bc 1ad4 ff3c 6f92 023c
00000240: f772 9b3c 9443 c53c 9de5 5f3c 19fd 063d
00000250: bff3 453c c924 10bb 613e 503b c64c e63c
00000260: e4a3 adbc 2a33 75bc 33b3 d0bc 7d3c 373a
00000270: 02a5 e23b eb5e 92bc d3b4 c03c cc02 8e3c
00000280: e4f7 7bbc a81c c83b c0d1 523c da73 18b9
00000290: 6604 8ebc fee1 c5bb 38e2 9fbb 634d d6ba
000002a0: 73dc 9dbc 7ffe 17bc adba c33c 2600 473c
000002b0: f2c8 063d d8f9 c4bc 8d33 943c d3be e43c
000002c0: 8176 0fbb 3137 483c b0ae 1e3c 6723 143d
000002d0: e1c6 a5bc 295d e03b d395 34bc fe76 c03c
000002e0: 5940 87bc 2fa2 c1bb 3aa8 bc3c c6b5 cc3c
000002f0: caa3 4d3c aeb2 b2bb 81d5 5ebb c357 a73c
00000300: 1613 61bc c982 ad3b 36ed d03b 98cf 063d
00000310: ed0c eabb 4466 54bc 586e bc3b 9df0 99bb
00000320: daeb ebbb 34bd fd3b 474e 2dbd ec5e 313c
00000330: 9c30 163b e929 55bc 8492 9d3c 8f4f 8bbc
00000340: 84e9 5d3c 1cfe da3c 042f 9a3b cf28 6c3b
00000350: 5cb4 bb3c 1763 d23c af57 42bc 1c68 bcba
00000360: 0cdd 983b 139b afbc 4903 813b f249 1d3b
00000370: 4f50 da3c 6391 9e3c bcc0 823c 991e 233c
00000380: 2139 1abc 5717 ec3c 27e3 51bc 2dac 883c
00000390: b744 a8bc d9d8 1fbc 09cd 573c 5411 61bc
000003a0: 6479 5c3c 5eee 11bc 28f9 c73b e98d fd3c
000003b0: e0ac 08bc e69e 953b 225d 5bbc 4efc 36bc
000003c0: 15a7 e8bb d12c 9b3c 0dee c3b9 80df 453c
000003d0: 9516 7d3c ac4b 273d 6ae0 18bc 6901 0cbb
000003e0: a159 e43b da80 6c3c 9bfe 1b3b d325 91bc
000003f0: ab74 943b 82f7 eabc b853 803b e9eb 833a
0.0068068714 -0.0052986406 0.021458205 0.0034783657 -0.0005498437 0.0058460585 0.016670827 0.019135838
-0.0047572423 0.023120623 -0.0055554546 -0.0010999865 -0.0023278703 0.0036960135 0.0010737506 0.00011329932
-0.0055681523 0.0059790504 0.0045603034 0.0028348516 0.027526224 0.0062251957 -6.694334e-06 0.018296791
0.010639575 0.039552137 -0.0038269951 0.0043388116 -0.02312062 -0.00015432239 0.0074075423 0.0061337473
-0.0067017293 -0.006479004 -0.012558915 -0.011658966 -0.0014166835 -0.0038537104 -0.0010575986 -0.007995578
0.00047014447 -0.0006627956 0.004397988 0.0056792097 -0.02943565 0.024307778 0.009615439 0.041435193
0.0017766809 0.04023732 -0.026594026 -0.021965155 0.00575385 -0.011446966 0.023883663 0.00015860412
-0.010004272 -0.02164963 0.015698083 0.004201123 -0.033172213 0.033193983 -0.0032654821 0.00926381
-0.0016543027 -0.0035585111 -0.024630262 -0.0040677004 0.02437112 0.03558025 -0.022730185 0.0043356935
0.001954573 0.00416013 -0.017485531 0.0104901325 -0.0005161491 0.016901867 0.017047847 -0.0073729134
-0.0017008564 0.014083865 -0.02252085 -0.018646976 0.029324172 0.017720819 0.010587036 0.017167063
-0.00064521714 0.01293048 -0.0071726264 0.0155548835 0.014678075 -0.004136832 -0.008398282 0.01205276
-0.015940482 -0.013413285 -0.017073613 0.0008598188 0.0238834 -0.009653931 -0.016205017 -5.2073967e-05
0.0071663246 -0.0075013842 -0.00356285 0.010600893 -0.005007849 -0.004083081 -0.004406662 -0.00063327025
-0.03389976 -0.003345445 0.014695815 0.0056807604 -0.0044885185 0.04579827 0.023968216 0.018191868
0.004537704 -0.002110533 0.0027168 0.0065278113 0.004302897 -0.010790664 0.010124547 0.0067349593
-0.031220932 0.029588094 -0.0036755595 0.016035983 0.017997557 -0.014687368 0.005061766 -0.029963456
0.028208595 -0.015621361 0.0277466 -0.006895724 -0.003310017 -0.027745973 0.031229068 0.007969483
0.018975718 0.024080075 0.013665584 0.032956216 0.012082039 -0.0021994582 0.0031775462 0.02811278
-0.021196313 -0.014965812 -0.025476074 0.00069899095 0.006916643 -0.017867526 0.023523724 0.017335318
-0.015378926 0.0061069317 0.012867391 -0.00014539008 -0.017336082 -0.0060389033 -0.0048792623 -0.0016349967
-0.019270157 -0.009276985 0.023892725 0.0121460315 0.03290648 -0.024044916 0.018090988 0.027923023
-0.0021890702 0.01222019 0.009685203 0.036166575 -0.020236434 0.006847043 -0.011022049 0.02349424
-0.016510176 -0.0059092264 0.023029435 0.02498902 0.012551257 -0.005453429 -0.003400177 0.02042759
-0.013737461 0.005295132 0.006375934 0.03291282 -0.007142654 -0.012963835 0.0057504587 -0.004697873
-0.0071997466 0.007743502 -0.04231098 0.010825854 0.0022917157 -0.01301048 0.019234903 -0.01700571
0.013544444 0.026732497 0.0047053117 0.0036035066 0.02291315 0.025682015 -0.011861726 -0.0014374289
0.0046650227 -0.02143625 0.003937159 0.0024000374 0.026649622 0.019356435 0.015961044 0.0099560255
-0.009413035 0.028819723 -0.012810505 0.016683662 -0.020540578 -0.00975629 0.013171443 -0.0137370415
0.013456676 -0.008906929 0.0061027 0.030951457 -0.008341998 0.0045660613 -0.013388904 -0.011168553
-0.007099996 0.018942269 -0.0003737066 0.012077212 0.0154472785 0.04084365 -0.009330848 -0.0021363145
0.0069686924 0.0144350175 0.002380288 -0.017718231 0.0045305095 -0.028682474 0.00391623 0.0010064814

network_body._body_endoder.seq_layers.0.bias f4 [128]
00000000: 03ca 12bd 1b44 2abd f035 67bc 7652 50bc
00000010: 7a47 00bd b912 aebc 0cb8 883c f2b9 acbc
00000020: 7a45 19bb ae0b fb3b d63b e93b d31f 60bb
00000030: 4811 49bd 05de 0bbd e00e a1ba 15fb 89bd
00000040: 5074 edbc 6697 61bd 6d63 e3bc bfa4 38bd
00000050: 867b 0ebd a349 25bd ffe2 fabc 6e73 51bd
00000060: 2d9d 4fbd e79b 163b 7c64 6a3c 8d1a edbc
00000070: e3c8 9bbd d715 07bd 4e49 ae3a 2b99 a1bc
00000080: 0da5 6fba 58fc b2bc 58a6 cabc a527 64bd
00000090: d847 89bc bd0f 873c d886 ca3c 2d97 febc
000000a0: 60b7 263c 0522 83bd 7a68 2bbc abdc 06bd
000000b0: 5bff 28bd ac44 0cbd 68fd 79bc c38c 14bd
000000c0: 1d9e c7bc ed28 0bbd b805 fdbc 7016 b1bc
000000d0: e998 b7bc 3306 95bb 421d 32bc d087 f1bc
000000e0: da71 26bd 9931 a5bd 768c 3fbd 7d1c babc
000000f0: f28b 85bc 95e6 143b 93b5 15bc e606 313b
00000100: c3aa 89bd e490 51bd e6a8 58bd d308 123c
00000110: 325c 6bbd f985 34bd 9943 81bd 87a1 09bd
00000120: 201e 37bc f28d 1fbd 5c10 603c 62a4 84bc
00000130: dd05 b1bc 1e96 673c 1275 81bd 718a e1bc
00000140: 502f 993b 5fa5 673b 0c92 5ebd f96d 913c
00000150: 3213 10bd 1c8c 67bd 4516 3fbc f65d 88bc
00000160: f505 90bc 3444 0bbd bc8e 09bd 20e6 d7bc
00000170: aba6 9b3a ebd8 5fbd 85cd f6bc 4a69 03bd
00000180: 7fab bebd 2416 e1bc c3a0 85bd 0098 4abd
00000190: acd6 3cbc 380b 0abd 5e27 4ebd 6fc3 91bd
000001a0: 6886 0fbd 054d 04bd 6b73 15bd 314f 4dbc
000001b0: 4265 843c e74c 81bd 1b02 033a 5589 d6bc
000001c0: 0838 c9ba 95ec b9bc 96c2 4fbd dd71 1e3d
000001d0: 03af 87bd eb60 12bd 4979 23bd 0f54 e5bc
000001e0: 8f11 f2bc d555 433c bf39 26bd 03e8 81bc
000001f0: 6933 8ebc 70b0 7fbd 962a bb3a d5fc 8bbd
-0.035837185 -0.041568857 -0.014111981 -0.012714973 -0.031318165 -0.021249162 0.016689323 -0.02108476
-0.0023387359 0.0076613044 0.0071177287 -0.0034198656 -0.049088746 -0.03414728 -0.0012287758 -0.06737343
-0.028986126 -0.055076025 -0.02775737 -0.04507899 -0.03478577 -0.04035343 -0.030625818 -0.051135473
-0.050687004 0.0022981109 0.014306184 -0.028943324 -0.076066755 -0.032979812 0.0013296993 -0.019726356
-0.0009141721 -0.021848843 -0.024737522 -0.05570187 -0.01675789 0.016486997 0.024722502 -0.031077946
0.010175556 -0.06402973 -0.010461921 -0.03292529 -0.04125915 -0.034245178 -0.015258171 -0.036267053
-0.024367386 -0.033974577 -0.030886516 -0.021617144 -0.02241178 -0.004547858 -0.010871233 -0.029483706
-0.04063592 -0.080661006 -0.046764813 -0.022718662 -0.016302083 0.0022720445 -0.009137529 0.0027012168
-0.06722023 -0.05116357 -0.05289545 0.008913237 -0.05746097 -0.04407308 -0.06311721 -0.03360131
-0.011176616 -0.03895373 0.013675775 -0.016191665 -0.021609241 0.014134912 -0.063211575 -0.027531834
0.0046748295 0.0035346372 -0.0543385 0.017752634 -0.035174556 -0.056530103 -0.011663024 -0.016646367
-0.017580966 -0.03400059 -0.033583388 -0.02635485 0.0011875232 -0.05465023 -0.030127296 -0.032082833
-0.09310054 -0.027476378 -0.065248035 -0.049461365 -0.011525791 -0.033702105 -0.050330512 -0.07117354
-0.03504029 -0.032300014 -0.036487024 -0.012531088 0.016161565 -0.06313496 0.0004997567 -0.026188532
-0.0015351782 -0.022695819 -0.05072268 0.038682807 -0.06625178 -0.03573696 -0.03991059 -0.027994184
-0.029549388 0.011922319 -0.040582415 -0.015857702 -0.017358499 -0.062424123 0.0014279659 -0.06835333

network_body._body_endoder.seq_layers.0.weight f4 [128, 11]
00000000: 51c7 573e c411 93bd d05a 9abe 7172 b23c
00000010: 65be 0ebf 368b e43e 8fab 133e be22 2dbe
00000020: b119 a3be 01bb 103f ce87 27be 9478 343d
00000030: f8b2 7c3e 3245 8dbe 8410 5dbe f7ab 3c3f
00000040: e065 513c fcd7 af3e 5521 823c b069 99bd
00000050: ea70 5abe e817 9bbe a58e dbbd b4a9 87be
00000060: 0c82 f4bd 7c6d 24bd 6eb5 8cbe b6e6 983e
00000070: aa05 49bf 3c3e 593e 0471 ce3d 943c e4be
00000080: be6b dcbd 499c 7abe 0fd3 943d e20b 963c
00000090: f65c 35be 385b 22bf 7ca4 96be db45 0e3d
000000a0: 1b74 773d 7b8b 963e dbb9 5e3f 9504 813c
000000b0: 0f0c d63e 00af d1bd 4eaa 733e 23aa 5b3e
000000c0: eeb7 08be 4782 833e ce96 b8be d7bd ddbe
000000d0: e0d6 92be c0c4 69be 7977 6c3e b26b 183e
000000e0: 48bb 2ebe 4d06 1f3e 11e1 04be 9c89 09bd
000000f0: 07e9 aabe 5433 08be e296 0e3f 8b78 c7be
00000100: 766d 15be 654f 3abe 200f 773e 36bf bb3d
00000110: 2073 af3b 1627 bfbd 78f6 56be f39b 0e3f
00000120: 7ed5 783e 82c2 973e 962a 4a3e 56b2 e7be
00000130: 2857 9a3e 044c 2a3f f153 bd3e 36b3 d43d
00000140: 856b 8a3e e082 b0bd d6fe 9cbe 0f2d adbe
00000150: 20cd ff3d 799f 9c3b 36eb a53d 8453 793d
00000160: 2887 89be 5118 d9be 0baa 84be cc5d 48bf
00000170: 4207 02bf 9682 4e3d 1dd8 a93e 28f7 8d3e
00000180: 1872 a53e 3a7e bbbd 58d0 47be 4da1 ea3e
00000190: 7ca1 743d 0d17 ae3e 8777 f2bd 6951 fa3e
000001a0: 6561 893d 10e8 863d 3448 dabd 65ff 0bbe
000001b0: c602 46be d92a a23d ecdf 943c fced 27be
000001c0: df30 d63e 7020 053e 34f5 763d 2a26 903a
000001d0: a7d7 32be 1419 3d3e ce57 febd 7710 13be
000001e0: e30c 13bf 0ff0 e73d e846 f53e 6baa 8e3e
000001f0: a43f 01be 0c68 32be f924 5f3c bb59 e83d
00000200: 71ef b53d 9b63 833e a564 953c 8133 2d3d
00000210: 3e80 6cbb e0fe 193e e7b2 c6bb 8ff3 22be
00000220: 1128 c73e e27f 76be 3aca 86be 12c3 453d
00000230: afce 6e3c bed5 9f3e 95cf a73e ad06 16bf
00000240: ddcf ec3d da86 02bf f2a6 92be 20c0 bebe
00000250: 0a1f 143e 78bc c73c 798a 043f 62ca 99be
00000260: 5d96 2cbe d3e9 db3c af06 a73e f325 9ebe
00000270: 927a 443d b377 703e c88b 67be e9af 0bbe
00000280: 5b51 b53c 46e5 6abe 9e6a 8d3f 654b febb
00000290: 42f6 6ebe 959a 87be ceed 97be e6e6 263d
000002a0: 541b 94bc 3bf8 24be ce45 3a3e fc7d 09be
000002b0: e826 c83d 52c9 14bf d9d0 c23c dfa6 94be
000002c0: 7c8f eb3e 2c07 823e 260f dfbe 520d 65be
000002d0: 4606 68be 60f7 66bc 4318 03be 5962 94be
000002e0: a573 7a3d c1e5 50be 4755 1bbe aab9 7f3e
000002f0: 4edd fd3d 1f10 fabe 0841 9abe 49dd b93e
00000300: 55c7 c8be 4461 4bbe a35c 44be 7811 293d
00000310: 3f77 90be 142c 98be dbdf 65bc 3529 e6bb
00000320: 62e6 20be 29a0 893d e784 03be 9264 0f3e
00000330: f21c 52bd ef58 9dbd f679 e13e b7c2 53be
00000340: 787a 483e 22c0 b1be 1b78 d9bd 8c92 9d3e
00000350: 7144 9cbd 7911 32be 4a33 813e 506d d6be
00000360: c1c9 10bd 5cc7 e6be 940f 4d3e 6018 f8be
00000370: a788 e43c 7094 8d3b 5270 3dbd f7e1 78be
00000380: ba6c 1b3e 7842 bbbd d099 c53d ba46 093e
00000390: e5cd 443e d146 3a3d 472a 983e c9bc 00bf
000003a0: cd43 6b3e dc94 07bf 8e25 0a3f 1237 63be
000003b0: ad5c 54be 5b06 da3e b972 6a3e 8a46 52be
000003c0: be5d e73e 854a 483e 31cd 413e 84d2 373e
000003d0: b79b fdbe 16a5 be3e 9310 643e dd59 e83e
000003e0: 235f 453d 5506 0bbf b307 483d 2f75 303c
000003f0: 077f 533d e82c acbc ca6a e3bd 195b acbe
0.21072127 -0.07181123 -0.3014741 0.021783086 -0.5575927 0.4463746 0.14420913 -0.16907784
-0.31855538 0.56535345 -0.16360399 0.044060305 0.24677646 -0.27591854 -0.21588331 0.736999
0.012780637 0.3434447 0.015885035 -0.074908614 -0.21332136 -0.30291677 -0.10720567 -0.2649666
-0.11938867 -0.040143475 -0.2748217 0.29863518 -0.7852427 0.21215147 0.1008015 -0.44577467
-0.10762738 -0.2447368 0.07266819 0.018316213 -0.17711243 -0.6342044 -0.29422367 0.034734588
0.06041346 0.2940329 0.8700234 0.015749255 0.41806075 -0.10238457 0.23795435 0.21451621
-0.13351414 0.2568533 -0.36052555 -0.433089 -0.28679562 -0.2282896 0.2309245 0.14884833
-0.1706363 0.15529747 -0.12976481 -0.0335785 -0.3338091 -0.1330083 0.5569898 -0.38959154
-0.14592537 -0.18194349 0.24126863 0.0916733 0.0053543 -0.09333627 -0.20992458 0.5570671
0.24300191 0.29640585 0.19742808 -0.45253247 0.3014462 0.6652224 0.36978105 0.10385744
0.27035156 -0.086187124 -0.30663174 -0.3382344 0.12490296 0.004779753 0.081015036 0.060870662
-0.2686093 -0.42401364 -0.25910982 -0.7826812 -0.50792325 0.050417505 0.33172694 0.27727628
0.3231361 -0.09154935 -0.1951307 0.45826188 0.059724316 0.3400196 -0.11839204 0.48890236
0.0670803 0.06587231 -0.10658303 -0.13671644 -0.19336995 0.07918329 0.01817318 -0.16399378
0.4183416 0.13000655 0.060292438 0.0010997702 -0.17465077 0.18466598 -0.12419091 -0.1436175
-0.5744154 0.113250844 0.4790566 0.27864394 -0.12621933 -0.17422503 0.013619655 0.1134524
0.088835604 0.2566193 0.018236468 0.042285446 -0.003608718 0.15038633 -0.0060638073 -0.15913223
0.38897756 -0.24072221 -0.26326162 0.048281737 0.014575644 0.3121776 0.3277556 -0.58603936
0.11563084 -0.5098702 -0.28642994 -0.37255955 0.14464965 0.024381861 0.5177379 -0.30037218
-0.16854234 0.026844895 0.32622287 -0.30888328 0.047968455 0.23483162 -0.22611916 -0.13641323
0.02213352 -0.22939023 1.1048162 -0.0077604526 -0.23336127 -0.26485124 -0.29673618 0.040747546
-0.018079437 -0.16110317 0.18190691 -0.13426965 0.09773046 -0.5811969 0.023781227 -0.29033563
0.46007907 0.25396097 -0.43566245 -0.22368363 -0.22658643 -0.014097065 -0.12802224 -0.28981283
0.061145443 -0.20400144 -0.1516925 0.24973169 0.12395726 -0.48840424 -0.3012774 0.3630164
-0.39214578 -0.19861323 -0.19175963 0.041276425 -0.28215978 -0.2972113 -0.014030422 -0.007023955
-0.15712884 0.06720001 -0.12843667 0.14003208 -0.051297136 -0.07682978 0.4403836 -0.20679747
0.19577968 -0.34716898 -0.106186114 0.3077587 -0.07630242 -0.17389478 0.25234443 -0.41880274
-0.035348658 -0.45073974 0.20025474 -0.48456097 0.027897192 0.0043206736 -0.046249695 -0.24304949
0.15178195 -0.09143537 0.09648478 0.13405886 0.19219168 0.045477692 0.29719755 -0.50288063
0.22975083 -0.52961516 0.53963554 -0.22188976 -0.20738478 0.42582974 0.22895326 -0.20534721
0.45188707 0.19559677 0.1892593 0.17951399 -0.49532863 0.37235326 0.22271948 0.4538106
0.048186433 -0.54306537 0.048835468 0.010770126 0.051634815 -0.021017507 -0.11104353 -0.33663252

network_body._body_endoder.seq_layers.2.bias f4 [128]
00000000: 721e f5bc 843f 13bd e726 dabc 6deb 19bd
00000010: 89b7 e7bc 8548 27bd 82f0 41bd db94 58bc
00000020: 2485 2e3b 5b30 dbbc bbee f7bc 1842 4dbd
00000030: f109 bfbc c407 98bc 822a e5bc 43ba 78bd
00000040: 879c fbbc 6737 4bbd 09ef bbbc 6e01 11bd
00000050: 792f a1bc 3cf2 14bd be7b 67bd 4f9c 70bd
00000060: 2294 b3bb ff37 8abc bd8f a1bc de54 28bd
00000070: bd6e d4bc b739 3cbd cfe7 78ba f9f5 bdbc
00000080: eb5e 55bc efb9 5fbc 88c8 93bc 2975 18bd
00000090: 362e b9bb 2030 3abd a04f b9bc 419f e7bc
000000a0: 46c4 f2bc ac76 ccbc 572a 2bbc 53e8 b5bc
000000b0: fb80 1ebc 1527 03bc f6a7 28bd f93e c4b9
000000c0: f32e d63a 30ce 15bd c7e7 c4bc 2602 55bd
000000d0: 9920 30bd 3f0d 29bd 830a 84bc 716f c0bc
000000e0: 7b1c 97bb 0481 3abc 43fe f1bc dafe c8bc
000000f0: d49f 833b eab8 66bd 5acb 99bd e9ff 43bc
00000100: 2669 7ebd aa47 edbc 3552 97bc bc50 aebc
00000110: ea32 53bd f791 ed3b 9c70 13bd 1d0b 90bd
00000120: 0f0b 5fbd b2a6 03bd a650 f7bc 73d5 07bd
00000130: 67a6 6fbd b51a dfbc 5bd2 2abd ee00 c6bc
00000140: dbf8 e9bc fc81 26bd a327 18bd 0867 42bd
00000150: 5ffb 0fbc 83e5 efbc 7512 34bd f35a d2bc
00000160: 7aa9 96bd 386b 7bbc ac70 8bbd a6a7 58bc
00000170: e9cc 28bd e679 86bc 4c61 3fbd 93a4 2ebd
00000180: 9959 14bb 58c0 fcbc 04bf 39bb 5238 08bd
00000190: b9f2 26bd a176 1bbd 9986 65bd abd4 83bd
000001a0: 0470 19bd b279 47bd 9d01 e6bc cfc7 84bb
000001b0: aaba 20bc 4b16 0cbd e449 00bd d0d6 adbc
000001c0: c03a d8bc 3109 f4bc ab0a 5fbd 7c75 1abd
000001d0: af7a efbc 1474 a1bc 3387 e1bb 8683 8ebd
000001e0: 591d cfbc e93c 2ebd af06 10bd 44df 83bd
000001f0: 97ee 51bd 8453 86bd e230 1dbd 5610 8fbc
-0.029921744 -0.035949245 -0.026629878 -0.037578035 -0.028285759 -0.040840644 -0.047348507 -0.013219084
0.002662965 -0.026756456 -0.030265203 -0.05011186 -0.02332017 -0.01855839 -0.02797437 -0.060724508
-0.030714286 -0.049613383 -0.02294113 -0.035401754 -0.019675957 -0.036363825 -0.056514494 -0.058742817
-0.0054803053 -0.016872404 -0.01972186 -0.04109656 -0.02593171 -0.04595348 -0.00094949914 -0.023188578
-0.0130231185 -0.01365517 -0.018039957 -0.037221108 -0.0056512607 -0.04545605 -0.022620976 -0.02827418
-0.029634606 -0.02495893 -0.010447106 -0.022205507 -0.009674306 -0.008004923 -0.041175805 -0.00037430951
0.0016340896 -0.03657359 -0.024036301 -0.052004002 -0.042999838 -0.041272398 -0.016118294 -0.02349064
-0.0046115494 -0.011383299 -0.029540187 -0.024535585 0.0040168557 -0.05632869 -0.07509489 -0.011962869
-0.062111996 -0.028964836 -0.018471817 -0.021278732 -0.051562227 0.0072500664 -0.035996065 -0.0703337
-0.054453906 -0.032141395 -0.030189823 -0.033162545 -0.058508303 -0.027234415 -0.041704517 -0.024170365
-0.028561046 -0.040651307 -0.037147176 -0.04746154 -0.008787959 -0.029284244 -0.043962914 -0.025678134
-0.07356544 -0.015345387 -0.068086 -0.013223564 -0.041211043 -0.016415548 -0.04672365 -0.04263742
-0.0022636412 -0.030853435 -0.0028342614 -0.033256836 -0.040758822 -0.03795493 -0.056036565 -0.064370476
-0.037460342 -0.048700042 -0.028076941 -0.0040521394 -0.009810129 -0.034200948 -0.031320468 -0.021220595
-0.026395202 -0.029789539 -0.054453533 -0.037709698 -0.029233305 -0.01970867 -0.006882572 -0.0695868
-0.025282549 -0.042538557 -0.035162624 -0.06439069 -0.051252928 -0.06558898 -0.038376696 -0.017463844

network_body._body_endoder.seq_layers.2.weight f4 [128, 128]
00000000: 1e0a 42bd 4994 aebc fd0b 23be 36a5 20be
00000010: 037a 8ebd 498b 323d 1586 bd3c 6df7 2bbd
00000020: b039 833b 0c59 dcbd 0656 70bb 2054 27be
00000030: a00c 5cbd 537b 033e 2d8f 173d 8d6d 6bbd
00000040: 94e7 a13d 6921 a5bc c8c4 0bbe 45c9 3ebd
00000050: c39c 24be adf4 f23b 3ed6 af3c 4f4d b13c
00000060: 1bab 183e 1ca5 6ebb be11 d0bd 79db f83d
00000070: 8eec ddbd 69d9 80bd ce0a 25be 8a0d a73d
00000080: 8fa8 043d 7b4b 80bd c4f3 b83d 81a7 4dbe
00000090: e82b 9fbd 05f4 293e 1b60 103d 55cc 27bd
000000a0: 83d1 483d 58d6 fdbb 77f9 123d 3c08 2d3d
000000b0: f0e8 4b3e 748e cdbc ba5a 8a3c 8ac2 c7bd
000000c0: 29ac 2b3e 8063 10bd 3793 83bc 1fa9 85bd
000000d0: 0e25 9dbc afe5 003e 7058 61bd 2c72 10be
000000e0: acbd 10be 0df3 1abe 1f51 163e 7cc4 c43d
000000f0: e7ac 20bc b85a 89bc a127 f0bd cc9d 77bd
00000100: 0b2f d2bd 9276 7dbc d038 14bd a7e7 82bd
00000110: 05ca a1be 5954 0cbd 2217 1bbe fb55 cb3d
00000120: 459a e23c e4ae e4bd 93a2 11bd 9636 8bbe
00000130: 120e d63b 5758 83bd c552 043d 6122 52bc
00000140: f373 42bd 5e13 fbbc b13f 20be c820 afbd
00000150: c460 eabd 7a24 49bd 4ee3 acbd fbe8 10be
00000160: 3cf2 1fbe 6d4e efbc 20f3 99bc 96c6 3c3c
00000170: edd9 74bd a253 29bd fa65 4dbd c01f eabd
00000180: a611 6f3d 97f1 c0bb 1363 46bd 9901 703e
00000190: 5500 e33c 756d bf3d c823 013e f8b6 2b3e
000001a0: 3d6a f13d c955 c4bd 8594 07be 948b 663d
000001b0: 5723 2d3d 0b08 2abd 6354 143d 8a0d 58bc
000001c0: d950 c1bb a98a e8bd bf38 493d 3e81 22be
000001d0: 38d8 20bc df0f 443d cf7b cc3c 9a92 80bd
000001e0: 43f7 f3bd 4a0b 273c c806 e63c 64a4 d23b
000001f0: a3af 783c 4a3d f0bc ccd9 5dbe 0925 88bd
00000200: e7ec 04be 59c4 bfbd 4a37 d33d d99a 7abc
00000210: 34f0 59bd 0f62 f8bc 1212 e73d 56b3 9a3d
00000220: b540 cb3d bc2e ba3d c276 43bd b135 9f3d
00000230: f143 9d3d e175 923d e0c1 42bd 639a d73d
00000240: cce6 5a3e f34d d93c a996 b5bc f066 a4bc
00000250: 7cb4 f3bd f9d2 943d 349f 0b3e 1aad 383d
00000260: 888d 57bd f7b8 11be 8e78 a1bd 4c2b 37bd
00000270: 0d74 11bd aaba afbd 0108 d93a 75ca 1dbd
00000280: 3583 f03d 6b4b 633d ff43 28be 06a3 c2bd
00000290: fa49 453d b5f7 fbbd ec17 b23d dfca 05be
000002a0: 95f4 1ebe 767c 65bd 7af6 8d3a fdea 4f3d
000002b0: a04d 08be 42d5 c0bc e385 3ab9 5ce4 813b
000002c0: 0e0a 523c 6bcf 8dbc 4509 1cbe 1822 39bd
000002d0: 99e6 163d 2df3 7ebd 17dc b13d 980e 12be
000002e0: f383 6dbd e4bc 793b 5744 103e 1090 c6bd
000002f0: f46c 33be c65b 1a3d 56d9 c9bd 7129 27be
00000300: 73e8 053e 01f9 f63d 9435 6c3d 9e06 edbd
00000310: 3728 c2bd 9888 f63c 6acc 48be c618 4abe
00000320: 9491 893d c8cf 6bb8 fecc d5bc 947a 083d
00000330: 6358 c43d fc5e 463d 6c38 70be e21c 0dbe
00000340: 6255 ce3d cdd9 c0bc 55d4 37be 76b5 4bbb
00000350: 8f93 86bd 7e35 dabd a50b cebd 2ca6 153b
00000360: 100c 1cbc 5075 d73d 75e4 b93c c837 cf3d
00000370: 5e64 93bd e7a2 36bd f894 67bd e80d e8bd
00000380: 4267 d2bd e480 90bd 8fdf 083e 932f 863d
00000390: 2a19 26bd f053 37bd da8e 4fbc 80df 823c
000003a0: 466e a73c b124 31bd b132 00be 42b8 2fbe
000003b0: 991b 2fbe 614b 64bd 61ea 6cbd 25c5 57bd
000003c0: d1d1 7a3d 73b5 afbb 3c6c 27bb 586c bdbd
000003d0: 2d44 a4bd 0501 023d 1398 aebd 7eaa 3e3d
000003e0: c51e 05be 42e5 0ebd 6910 24be 0a39 f8bd
000003f0: badd 9ebd a0d9 e53d b9d4 fc3b c6db aebd
-0.04737293 -0.021310942 -0.15922542 -0.15688023 -0.06956866 0.043589864 0.023135224 -0.04198401
0.0040046796 -0.10759172 -0.0036672368 -0.16340685 -0.053722978 0.12840013 0.037001777 -0.057477523
0.07905498 -0.020157533 -0.13649285 -0.046578664 -0.16075425 0.0074144215 0.021464463 0.021643309
0.14909022 -0.003641433 -0.10159634 0.12151236 -0.10836135 -0.06291468 -0.16117403 0.08156879
0.032387313 -0.06264397 0.090308696 -0.20083429 -0.07772046 0.16596992 0.035247903 -0.04096635
0.04902793 -0.007746499 0.03588244 0.04224418 0.19913077 -0.025092341 0.016888965 -0.09753902
0.16764893 -0.03525114 -0.016061408 -0.06526398 -0.019182708 0.12587617 -0.05501598 -0.14106053
-0.14134854 -0.15131779 0.14679383 0.09607789 -0.009806848 -0.01676689 -0.117263086 -0.06045322
-0.10262879 -0.015470164 -0.036186993 -0.063918404 -0.3159944 -0.034260128 -0.15145543 0.09928509
0.027661452 -0.1116617 -0.035555433 -0.27190083 0.006532439 -0.06413334 0.032305498 -0.012825579
-0.04747386 -0.030648883 -0.15649296 -0.085511744 -0.11444238 -0.049107052 -0.084417924 -0.14151375
-0.15619749 -0.029212201 -0.018792689 0.011521956 -0.059778143 -0.041339524 -0.05014608 -0.11431837
0.05836644 -0.0058881748 -0.04843433 0.2343811 0.02771012 0.09347049 0.12611306 0.16769016
0.117878415 -0.09586675 -0.1324025 0.056285456 0.04227003 -0.041511577 0.03621329 -0.013186822
-0.0058995304 -0.11354572 0.049126383 -0.15869614 -0.009817176 0.0478667 0.02496138 -0.06277962
-0.11912396 0.010195563 0.028079405 0.0064282883 0.015178594 -0.0293261 -0.21665114 -0.06647689
-0.12980996 -0.09363622 0.1031328 -0.015295708 -0.05320759 -0.030320195 0.112827435 0.07553737
0.09924451 0.09090945 -0.04772068 0.07773913 0.076789744 0.0715139 -0.047548175 0.10527494
0.21377105 0.026526427 -0.022166567 -0.020068616 -0.11899659 0.07266802 0.1363495 0.045086958
-0.05262521 -0.14230715 -0.07884322 -0.044719025 -0.035511065 -0.08580525 0.0016558171 -0.038523156
0.11743776 0.055491846 -0.16432188 -0.095037505 0.048166253 -0.12303106 0.08695969 -0.1306567
-0.15522988 -0.0560269 0.0010830902 0.05076121 -0.13310862 -0.02353919 -0.00017788219 0.00396399
0.01281978 -0.017310819 -0.15237911 -0.04519853 0.03684101 -0.06224363 0.08684557 -0.1426338
-0.057987165 0.0038106972 0.1408857 -0.096954465 -0.17522031 0.03768518 -0.09855907 -0.16324402
0.13076954 0.120592125 0.057668284 -0.11573528 -0.094803266 0.03009443 -0.19609228 -0.19736013
0.0671722 -5.6221877e-05 -0.026098724 0.033320025 0.09587171 0.048430428 -0.23459023 -0.13780549
0.10074879 -0.023541356 -0.17952092 -0.00310835 -0.06571113 -0.10654734 -0.10060815 0.0022834642
-0.00952436 0.105204225 0.022691945 0.10118061 -0.07196878 -0.04458895 -0.056538552 -0.113307774
-0.10273601 -0.07055834 0.13366531 0.06552043 -0.040551342 -0.044757783 -0.012668336 0.015975714
0.020438325 -0.043247882 -0.12519337 -0.17160133 -0.17100371 -0.05573595 -0.05784071 -0.052678246
0.061235253 -0.0053622066 -0.002554669 -0.092491806 -0.08020816 0.031739254 -0.085250996 0.046549313
-0.13000019 -0.034886606 -0.16021885 -0.12120254 -0.07757135 0.11223149 0.007715788 -0.08538012
