results/ppo/Seek/Seek-4499940.onnx (onnx, 75719 bytes, 7 tensors)

action_model._continuous_distribution.log_sigma f4 [1, 3]
00000000: b8f6 a4be e010 b7be 01f4 0bbf
-0.3221948 -0.35755062 -0.54669195

action_model._continuous_distribution.mu.bias f4 [3]
00000000: 233b a8bd cb55 5a3c 37e2 853b
-0.082144044 0.013326119 0.004085805

action_model._continuous_distribution.mu.weight f4 [3, 128]
00000000: ef38 4e3d af3d babb fd3b 18bd 2218 55bc
00000010: a7ab d93c 2b72 563d 7cf2 05bc 94c1 503e
00000020: 046e a6bd a8be 3bbc 0161 92bb db85 b03b
00000030: e921 49bd bc4a d6bc d3aa 9abd e166 a0bb
00000040: d617 033c dafe 903d d1d6 f1bc 95db ec3c
00000050: fff3 593c 38f3 81bd 0d66 56bc d830 fd3c
00000060: b8f6 3bbc 46f5 633c 2f65 813d 3e26 cb3c
00000070: 1b9d 423d e185 0b3d d0ea 0f3d a89a 7dbd
00000080: 217c 7c3c 692a 38bd 003b 8cbc 93fd 3a3d
00000090: 6573 093e 359c af3d 0b64 5c3d f375 a0bc
000000a0: 918f da3d 6e88 633e a95b d23c 38e0 0f3d
000000b0: b9ae 44bd 227c 1ebd 8276 f33c fa90 f2bb
000000c0: bbe0 1e3c 7104 a8bc 7603 a93b 091e 773d
000000d0: 29a1 c1bc e159 b9bb ba5d 463d 6812 f83c
000000e0: 8626 263d 7348 663c 9ab0 60bd df44 043c
000000f0: a406 af3d db11 26bd 944c 333d c8a9 233d
00000100: ac7f 82bd 7054 85bd 3411 4d3d e131 c83d
00000110: 52cd f83b 252c 863c 15a9 22ba bf11 71bc
00000120: 8e03 29bd 7d90 56bd c4b3 033d 993a 2abd
00000130: 58bc 26bc d47a 7a3c 6357 74bd 7d1a e53c
00000140: 8d1a fb3a d87d 393d 0d51 8dbb 9858 f0bc
00000150: bf8d d4bc 6011 593d 1f34 5c3d 3d9b a63d
00000160: 82f0 c7bc 1469 063d 0aac 13bd 7f58 e4bb
00000170: 2eff 6b3d b8c4 433c 6220 b5bc 4747 cebc
00000180: 2eee 46bd 5952 793e 8d32 bd3d cb71 1a3c
00000190: 45db 7b3d 2df0 8abc 1944 473d 19cc ba3c
000001a0: 250b 39bb 3d65 abbb 9b48 6bbd 0983 853d
000001b0: 6daf aa3c 5cfd 09bb 2db9 373c 8c03 083c
000001c0: 02d2 523d 5b5d 84b9 ecc2 32bd 42e0 0abd
000001d0: efcb 013d 81ba 163b 86ba ecbc c53a 96bd
000001e0: 1b4b 203c 6dc9 733b 7a22 e5ba 903c 093c
000001f0: 46d2 393e 6091 0a3d 5a93 be3d 2cb2 cd3c
00000200: 2a79 913b 051c 633d 5a58 253d 8467 debc
00000210: 1b51 cf3b 0bf1 493b 9fca c2bb 4baa d0bd
00000220: 898b b2bd 3506 07bd 2eca 763b 41cb 75bd
00000230: 502c d0bc a04e 123d 846c 073b 92c9 4fbc
00000240: c9d1 033d f4aa 3b3c cd30 8abc 1c23 8c3d
00000250: 4d45 4b3d 950f e63c 5047 9cb9 6da5 ad3d
00000260: 4d44 0bbd f68b c43c c264 36bb 898a 9f3d
00000270: f058 303d 7021 9fbd bb05 4fbb d61c 93bc
00000280: dfed 50bb cea8 52bc 074e 253c 94a9 bbbc
00000290: 4776 3fbd 7050 96bd 3881 733d 0f70 7b3c
000002a0: 7fdb 353a 53c2 57bd 2e16 0e3c 2fe9 1ebd
000002b0: 25ee 2a3d cc7e e73d a75f 55bd 78ca 06bd
000002c0: cdc3 0b3d ba0a 413c 68cf be3b 7b6a 8fbb
000002d0: ac43 3dbd 82af ff3c cdd7 53bc 3be8 42bd
000002e0: 51fc 85bd a9d6 87bd 0f80 133b 7137 773c
000002f0: ad75 d2bc 9f3a 623a 9a83 1fbb 066b 403d
00000300: 0aba 0e3d 6098 8fbc e24f 78bc 731c debb
00000310: 30df f63b e22a 0ebd 68a7 51bd 436b 0a3d
00000320: b3da 983c 764a 88ba 7420 1b3b 1141 883c
00000330: f66d ac3c 02cc 203d 8e17 803b f567 5e3c
00000340: 5a08 14bc 318a 2cbc 9774 3a3d 5893 66bc
00000350: 65fa 483b 208a 463c 10bd aebb f4b2 bcbc
00000360: 46b9 1bbd 9fe4 883d cecc 193d 826e cc3c
00000370: 6d14 d23b 6aba 11bc 6320 94bc ad22 023c
00000380: 590d a33c f389 26bd 6bac ffbc 6c23 8cbc
00000390: af1f 7abd 3ccf 67bd 9d37 313d eefd 073d
000003a0: ec39 843c 1861 e5bb ae69 ebbc 2ab8 49bb
000003b0: e6a6 1bbd 7fca 953c 2c76 113d 8028 d5bc
000003c0: 7f27 d83b 2942 cdbc 0bf0 49bd e70d 273d
000003d0: fb90 96bc 008c 9dbc 992f 273d dedc 42bd
000003e0: 9a6d 2b3d 5254 6f3d 448f 59bd d859 e3bc
000003f0: 7296 a2bc 1b17 d23c 9fb9 453c 2381 443d
0.050347265 -0.005683623 -0.037166584 -0.013006242 0.026571108 0.052354973 -0.008175489 0.20386344
-0.081264526 -0.01145903 -0.00446713 0.0053870506 -0.049104605 -0.026158683 -0.075521134 -0.0048950766
0.008001288 0.07079859 -0.029521378 0.028913299 0.013302802 -0.063452184 -0.013085854 0.03090708
-0.011472397 0.013913458 0.06318127 0.024798509 0.04751311 0.034063224 0.035136044 -0.06191507
0.015410454 -0.04496232 -0.017117977 0.045651983 0.13422926 0.08574716 0.053806346 -0.019587493
0.10671914 0.22220013 0.025678473 0.03512594 -0.04801819 -0.0386926 0.029719595 -0.0074025365
0.009697135 -0.02050993 0.0051578833 0.060331378 -0.023636417 -0.0056564664 0.04842923 0.030282214
0.040564083 0.014055359 -0.05485592 0.008073061 0.085461885 -0.040544372 0.043774202 0.039956838
-0.06372008 -0.06510246 0.050065234 0.09775139 0.0075928355 0.016378472 -0.0006205005 -0.014713704
-0.041263156 -0.05238389 0.03215386 -0.04155979 -0.010176741 0.015288074 -0.05965365 0.027966732
0.0019157693 0.04528603 -0.0043126405 -0.02933912 -0.025946496 0.052995086 0.053760644 0.08135078
-0.024406675 0.032815054 -0.03605274 -0.0069685574 0.057616405 0.011948757 -0.022110168 -0.025180472
-0.04856699 0.2434782 0.092381574 0.009426544 0.06148841 -0.016960228 0.048648927 0.0228024
-0.0028235402 -0.0052305744 -0.05744229 0.065191336 0.020835603 -0.0021055555 0.011213583 0.008301627
0.05146981 -0.00025246557 -0.043642923 -0.033905275 0.031688627 0.0022999349 -0.028897535 -0.07335428
0.009783532 0.0037198917 -0.0017481588 0.008376256 0.18146619 0.033830047 0.09305449 0.025109373
0.0044394927 0.055446643 0.04036746 -0.02714897 0.006326807 0.0030813839 -0.0059445645 -0.10188731
-0.087180205 -0.032964904 0.003765713 -0.06000829 -0.025411755 0.035719514 0.0020664046 -0.012682335
0.03218249 0.011454333 -0.016868973 0.06842634 0.049626637 0.028083602 -0.0002980777 0.08478818
-0.034000684 0.02399252 -0.0027831052 0.07790095 0.043053567 -0.077700496 -0.003158911 -0.017958086
-0.0031880063 -0.012857629 0.010089404 -0.02290801 -0.046743657 -0.07339561 0.059449404 0.015346541
0.00069373095 -0.052675556 0.00867228 -0.0387966 0.04173102 0.113034815 -0.052093174 -0.032907933
0.034122277 0.011782343 0.0058230646 -0.004376707 -0.046207115 0.031211618 -0.012929869 -0.047584753
-0.06542266 -0.0663274 0.0022506749 0.015088902 -0.025690878 0.0008629951 -0.0024339915 0.046977066
0.03484539 -0.017528713 -0.015155764 -0.0067782938 0.0075339302 -0.034708865 -0.05118504 0.0337937
0.018658971 -0.0010398168 0.0023670467 0.016632589 0.021048527 0.039257057 0.003909058 0.01357459
-0.009035194 -0.010530994 0.045521345 -0.014073215 0.0030666825 0.0121178925 -0.0053325966 -0.02303455
-0.038018487 0.06684231 0.037548833 0.024955038 0.0064111263 -0.008894542 -0.01808185 0.007942838
0.019903826 -0.040658902 -0.031210145 -0.017106734 -0.061065372 -0.05659412 0.043265928 0.03320115
0.0161409 -0.0070001 -0.028736915 -0.0030779936 -0.038000964 0.018285034 0.035513088 -0.026020288
0.006596505 -0.025055962 -0.04930119 0.040784743 -0.018379679 -0.019231796 0.040816877 -0.047573917
0.04185257 0.058430023 -0.053115144 -0.027752802 -0.019847129 0.025645783 0.012068181 0.047974717

network_body._body_endoder.seq_layers.0.bias f4 [128]
00000000: c7e4 5d3b d4dd 5a3d fc8b e23c 14f3 723c
00000010: 2e69 7abc f739 a8bd c62f 963d 605d 6cbc
00000020: dd06 073d 96e2 38bd 2c81 8d3b 4fd1 823d
00000030: e950 fbbc 2a4c 25bd 816f 453d d89e ab3a
00000040: f6e8 363d 25c2 38bb 54ba 1a3c 1711 03ba
00000050: ca92 c7bc bfb4 c6ba f27a 0b3d aa5e a53d
00000060: eed4 f53c a059 b9bc b37d b1bd e1a8 1b3d
00000070: 4845 933c 7ea7 53bd c540 7cbd 1720 1dbc
00000080: 2689 2c3d e2a2 49bd ab71 bebd e3b0 82bb
00000090: b65f 453d 21ff ad3b df31 e33c c20d 993c
000000a0: f967 583c a2bc 2a3c b444 fdbc 2299 42bd
000000b0: 9d21 2f3c 9085 a23b 4972 5dbc 21c4 ac3d
000000c0: af64 cebc 85c7 a43c 2ac2 cbbc fbf2 82bd
000000d0: bb14 27bd 88ce b23c 2d2d 05bd e2e8 9e3d
000000e0: e11a fbba 3519 c93c f977 9a3d 772f 983c
000000f0: 6518 3bbd 4454 22bd 77e3 35bd 32bd f73b
00000100: 3f9b 60bd cb9e a9bd 5e0a 873c e89f f8bb
00000110: 6d94 443d c80b 4fbd a4ff b9bc 3df3 4c3c
00000120: a3b3 32bd 4561 813c 2bbf e9bc 90f0 e2bc
00000130: 5599 4d3d 3108 fdbb 7d17 febb 2f63 b8bc
00000140: bcbc 0b3c a26a 653d da5a f13b c1a8 3b3d
00000150: ccf8 643d 1a3f a2bc 24ad cd3a 8c99 533d
00000160: 3211 d63c 56e0 1f3d dbd4 1bbd 7c57 54bd
00000170: c16e f23b 392e 1e3d 1e18 26bd 0843 5fbd
00000180: 1cd0 9e3c 9d39 61bc 475d 243c 2091 ab3a
00000190: 51f6 15bd 7909 3a3d ebea 043e d970 15bd
000001a0: 1576 5abd 702f 4cbc 3624 d4bb 1bfa 183c
000001b0: d6f6 873d b840 99bc f68a 8c3d e9e7 a33c
000001c0: 39dc 0b3b 28c7 5abd 048b 7c3c 52e8 9c3d
000001d0: c474 2f3d 6fa1 3f3d 1c66 47bc f692 313d
000001e0: e366 fdbc 7846 dcbc b61b 07bd 6492 673d
000001f0: edc0 6c3d b63c 1cbd 520c 8c3c cd15 1b3b
0.0033858286 0.053434208 0.02765464 0.014828462 -0.015283866 -0.08214181 0.07333331 -0.014426559
0.03296553 -0.045137964 0.004318377 0.06387579 -0.03067823 -0.04035584 0.04820204 0.0013093604
0.044655763 -0.002819189 0.009443838 -0.00049998 -0.024361987 -0.0015160068 0.034052797 0.08074696
0.03000876 -0.022625744 -0.08666553 0.038002852 0.017977372 -0.051673405 -0.061585207 -0.00959017
0.042122982 -0.049227603 -0.09299024 -0.0039883717 0.04818698 0.0053099548 0.027733741 0.018683318
0.013208383 0.01042095 -0.03091655 -0.04750932 0.010689166 0.0049597695 -0.013516017 0.08435846
-0.025194494 0.02011467 -0.024872858 -0.06394001 -0.040791254 0.021826997 -0.032513786 0.077592626
-0.0019157791 0.024548152 0.07542414 0.01857732 -0.04567756 -0.039631143 -0.04440638 0.0075603956
-0.054835554 -0.082822405 0.016484436 -0.0075874217 0.047993112 -0.050548345 -0.022704907 0.012509164
-0.043628346 0.015793452 -0.028533539 -0.0277026 0.050195057 -0.0077219238 -0.007754265 -0.022508232
0.0085288845 0.056009896 0.0073655667 0.045815233 0.055901334 -0.01980548 0.0015691859 0.051660106
0.026131246 0.039032303 -0.03804479 -0.051841244 0.007398457 0.0386183 -0.040550344 -0.054507285
0.019386344 -0.013746646 0.010032005 0.0013089515 -0.03661186 0.04541919 0.12980239 -0.036484573
-0.053335268 -0.012462482 -0.0064740432 0.009336974 0.06638877 -0.018707618 0.06862442 0.020008044
0.002134098 -0.053412586 0.015414003 0.07661499 0.042835966 0.046784814 -0.012170341 0.043353043
-0.03093285 -0.02688907 -0.03298541 0.056536093 0.057801176 -0.038143836 0.017095719 0.0023664117

network_body._body_endoder.seq_layers.0.weight f4 [128, 11]
00000000: dd9d 6c3e 6fe5 b7be 2ee9 2ebe 5ad7 cc3e
00000010: 2dac 8dbe ec4f 983d 373e 18bd 2e9e b73d
00000020: 7fa0 f5be 67c1 463e f907 37bf c150 813d
00000030: 6c4d a13e bf4e 7ebe 7f26 203e cded 813f
00000040: 5c87 7ebe 08ea 43bd 1a2e 31be 6aaa f6bd
00000050: 274a 25be 0b1d 22be 8f72 b6be db13 0bbf
00000060: d3d8 06bd 142d 8e3e fada 65be 6c1b 11bd
00000070: 8a55 9dbe 92df d0bd 4b32 78be d80d aabe
00000080: e65d 35be f291 293e 8285 943e c9df 77be
00000090: d62b 023e e108 ab3e 24a6 31bc 3471 db3d
000000a0: 105c 14be 5dc5 ef3d f7d3 993d 24f4 b23e
000000b0: d087 323e d223 34be bb6e 9fbe f1d7 fdbc
000000c0: 0490 d93e 1983 b93e 862a 273e 1d5d d83e
000000d0: 75d9 08bf 0b40 683e d34e 98be 3cd7 7d3b
000000e0: 822a 943d 6f55 e83d 3eb0 babe 33c9 c33d
000000f0: f499 32bd 1dd0 24be a935 0bbe 4bf4 cbbe
00000100: ce97 d13d ca12 a93d aa4c 50be 0cca 1ebd
00000110: 916d 7dbe 100e 203e a2f7 9dbe 7d80 893c
00000120: 5dd0 b03e 777a 4c3e c320 d8bd 5d5a 6d3e
00000130: 98dd d63d a4b4 08bd bf18 36bf c871 173d
00000140: 0805 80be e9f2 ae3e c665 bfbe 1724 233d
00000150: 15a4 03bf 53a2 fabc 7967 403e 290f 8d3d
00000160: e28d 65be e0b3 573e 96d8 a83e b72b 0a3e
00000170: 0728 e23e f263 da3d c5db 313f 05bf 4fbf
00000180: 351a 8d3e 6b6d c2be d3fe 08bd 9f29 9e3d
00000190: 11b5 df3c ce5f 47bf 253e 143e b7ec 233b
000001a0: bb7e d8bc 14c1 843e 66b3 adbe 4d87 5f3e
000001b0: 248a 2d3e c767 50be 3774 e23e 5920 833e
000001c0: d1f0 d9be 8baf aa3e 1915 763d 55f4 5f3d
000001d0: 7d1e ac3e 521b 8d3e 5469 2c3e 5158 4fbf
000001e0: fbd3 e93c b1ac 67be 9078 1ebe 83df 8ebc
000001f0: ade5 0ebf 70cb 78bd 6c06 a23e 1526 1b3e
00000200: f7e8 753e 2d0c 87bd 9f69 d2bc 7554 2cbe
00000210: 1505 00be 9df9 e5be dd4b 043e 6754 8fbf
00000220: d110 79be 1211 d0bc f717 d9bd 5213 30bf
00000230: 9ff1 14be 5df7 b2be 1dcc 863e 01ee afbe
00000240: 31ec 31be 66b1 8b3e 5952 9bbe 86b9 d73e
00000250: 6d99 093f 46d2 8e3e 6a10 a9be 959a 4c3e
00000260: c607 40bd 26cd e9bd aee7 01bf 3222 3f3e
00000270: 18cf 00be 6fae 483e a619 3b3f bf6f 9cbe
00000280: 7fc9 863d b513 5f3e 26b2 3cbd 2f34 5ebe
00000290: dd06 483e 719e 17bc e1d2 26bf 5521 12be
000002a0: 2da0 983d 3ae7 bf3e 9832 89bc 768f 043e
000002b0: 184f 7c3d 0307 28be 45d4 903e 389b 983e
000002c0: 7b71 32be a6ca 2abd 66ef a3be 7681 a23d
000002d0: c0af 093f 08bc 68be d173 9dbd cbb8 91be
000002e0: 47fe d73d 7b01 c1bd 34d4 ffbe 6c3a dabe
000002f0: 82c7 913e 6235 803e 7992 4e3d 34a7 483f
00000300: 617d aa3e 5f7b 11bf 8d93 12bf befc 51be
00000310: bcdf a8be 837b 0dbf f550 73be a13e b73e
00000320: d47f a23d 1737 b23d 91ff 6dbe 66be 83be
00000330: 8d4a 3bbe 027c 823e 06b9 963d d555 aebe
00000340: bdcb ac3e 585f 333e 702c 34be 1ad0 6a3e
00000350: b45e 563e 1cc0 373e 4769 5ebe da00 16be
00000360: 0231 233d c506 f43d 48fe 153f b37c 29be
00000370: bae1 fabd f564 903d 3664 fbbc 5add ff3d
00000380: 6382 a1be f336 4f3e d4d4 6c3e 1c31 37be
00000390: fa32 d03c b2f5 b03e 1fdb 583e c3af b43e
000003a0: 1827 bbbe 6bd2 4e3e 9f43 0c3c ebf4 07bf
000003b0: cb30 c1bd 18a1 553d 18ca bdbe ff9a 353b
000003c0: 0854 b8bd 33f9 773e 9b4b 44bd 3035 823e
000003d0: 1afb 5ebd cd22 c4be b5cd c6be c18f 2d3e
000003e0: 62ae 423e d411 0d3e d8c5 c4be 3ffe 11bf
000003f0: d35f 403e 634e a5be 6bdf 943d 3ad0 9b3e
0.23107095 -0.3591723 -0.17081138 0.4000805 -0.27670422 0.07437119 -0.037168708 0.08965717
-0.4797401 0.19409715 -0.7149654 0.06314231 0.3150438 -0.24834727 0.15639685 1.0150696
-0.24856323 -0.04783061 -0.17302743 -0.12044223 -0.16141568 -0.15831392 -0.35634276 -0.5432717
-0.032921623 0.27768767 -0.22446814 -0.035426542 -0.30729324 -0.10198893 -0.24237935 -0.33213687
-0.177116 0.1655958 0.29008108 -0.24206461 0.12712035 0.33405212 -0.010842834 0.10714951
-0.14488244 0.11707566 0.07511132 0.3495189 0.17434621 -0.1759179 -0.31139168 -0.030986758
0.42492688 0.36232832 0.16324815 0.4225854 -0.53456813 0.2268068 -0.29747638 0.0038733026
0.0723467 0.1134442 -0.36462587 0.0955986 -0.043603852 -0.16095014 -0.13594688 -0.39834818
0.102340326 0.08255537 -0.20341745 -0.038766906 -0.24748828 0.15630364 -0.3085299 0.0167849
0.3453397 0.19968592 -0.10553124 0.23179002 0.104914844 -0.033375397 -0.7113151 0.036973745
-0.2500384 0.341697 -0.37382334 0.03982934 -0.51422244 -0.03059498 0.18789472 0.06887657
-0.22417405 0.2106471 0.32977742 0.13493238 0.44171163 0.10663594 0.69475967 -0.8115085
0.27559057 -0.37974104 -0.033446144 0.07722782 0.027308019 -0.7788056 0.14476831 0.002501292
-0.026427617 0.25928557 -0.33925933 0.21828957 0.16947228 -0.20352088 0.4422929 0.25610617
-0.4256654 0.33337054 0.060078714 0.054676373 0.3361701 0.27559906 0.16837054 -0.80994135
0.028543463 -0.2262447 -0.15475678 -0.017440563 -0.5581921 -0.060740888 0.31645525 0.15151246
0.2401465 -0.06594119 -0.02568513 -0.16829093 -0.12501939 -0.44917002 0.12919565 -1.1197633
-0.24322821 -0.025398765 -0.10600274 -0.6877948 -0.14545296 -0.34954348 0.263276 -0.3436127
-0.17375256 0.27283782 -0.30336264 0.4213373 0.53749734 0.278948 -0.33020335 0.19980843
-0.046882413 -0.11416082 -0.5074414 0.18665388 -0.12579 0.19597791 0.7308601 -0.30554006
0.06581401 0.21784861 -0.046068333 -0.21699594 0.19533868 -0.009254084 -0.65165526 -0.14270528
0.07452426 0.374811 -0.016747758 0.12945351 0.061598867 -0.16408925 0.2828695 0.29805923
-0.17426102 -0.041697167 -0.32018584 0.07934849 0.537838 -0.22727978 -0.07688106 -0.28461298
0.105465464 -0.094241105 -0.49966586 -0.42622697 0.28472525 0.25040728 0.050432656 0.7838013
0.33298782 -0.56828874 -0.57256395 -0.2050657 -0.32983196 -0.5526659 -0.23761351 0.3578997
0.079345375 0.08701914 -0.23242022 -0.257312 -0.18290158 0.25485235 0.07359509 -0.3404986
0.3374919 0.1751684 -0.17595077 0.22930947 0.20934564 0.17944378 -0.21719848 -0.14648762
0.03984166 0.11915354 0.5859113 -0.16551475 -0.12250085 0.07050506 -0.030687433 0.12493391
-0.3154479 0.20235805 0.23128062 -0.17889827 0.025414933 0.3456245 0.21177338 0.35290346
-0.36553264 0.20197456 0.008561044 -0.5310809 -0.09433135 0.052155584 -0.37068248 0.0027710793
-0.09000403 0.24216156 -0.047923665 0.25431204 -0.054438688 -0.383078 -0.38828817 0.16949369
0.19011834 0.13776332 -0.38432193 -0.57028574 0.18786554 -0.32286367 0.07269176 0.30432302

network_body._body_endoder.seq_layers.2.bias f4 [128]
00000000: 28ed ffbc 2c8a 2e3d 8528 4e3d 2b08 063c
00000010: 0212 13bd 527f 2fbc 75fc 0f3c 39fb 6ebc
00000020: 48c1 9b3d 24d1 163d 2f99 cf3c c651 f6bb
00000030: 0523 0b3d 0b99 923d 842d a03d 3351 86bb
00000040: 1804 603c 8d54 b4bd 8c91 e73c cee8 cb3b
00000050: 4a5b c4bb cf2b 033d e5a4 4cbc 7c66 823d
00000060: c914 113c 896c 2abc d8fa f8bc 4c50 303c
00000070: 7d14 94bd d48f 01bd 95d9 913a 3ec3 c73c
00000080: 3a81 0cbd 7296 fa3c 28f0 993c ebf5 36bd
00000090: 6156 1abd a973 f1bb 8da7 95bd c216 0d3d
000000a0: fdc2 3abc 0466 52bd fffd 4dbd 1727 43bd
000000b0: 9a44 e13c d05f 8d3d 0b6e ccbb 10ac 8f3c
000000c0: 0abc 7ebc 6459 35bc 4398 39bc 9c9d 83bd
000000d0: 22ff 1a3d 8b38 bcbc 1a3a a2bd b6c9 28bd
000000e0: e351 71bd fa4a 0e3c 1634 603d 4754 bf3c
000000f0: f2ac 9dbb 0376 a33c db82 28bd 0a78 a23b
00000100: 3921 b53d cc84 9e3d b9ab 0bbd c883 6abd
00000110: 38aa 2cbd 9d8b 43bd eaa1 04bb 71b4 bc3c
00000120: ea32 a13d ff7b 693d a080 d2bc 7675 753d
00000130: 15f3 b53c 241c d43c b1d6 9d3d 03fb 57bd
00000140: 9832 22bd 2da9 b9bd 9500 0b3d ca83 673d
00000150: 312d ac3d 089e 14bd ff21 50bd 3d3c 8ebd
00000160: 2c6d 373d b1de 713b 3962 023d 210f 5e3b
00000170: 855f 29bd 7d65 013b ca24 093d 2107 ec3c
00000180: a159 bb3d 6376 1cbd e69c a2bc 2fe9 cebb
00000190: 765d 77bd 667f 953c bb4e f33c 60cb a8bb
000001a0: cc80 e33a e67a 893b 0f96 5e3d 382c 71bd
000001b0: 06f2 0fba f124 39bc fc66 4ebd a867 d2bc
000001c0: a834 76bd 975d 0fbc a5f2 8f3d 0faa 6d3d
000001d0: a7b9 093d a038 5d3c b8b3 8a3d 0c17 603d
000001e0: a2d8 0ebb 986f 8e3c fe8b 2d3d ce8e ae39
000001f0: 7bb2 39bd ad22 b8bc 0df6 9fbd ead2 61bc
-0.031241015 0.04261224 0.05033161 0.008180658 -0.035905845 -0.010711508 0.008788218 -0.014586263
0.07605225 0.036820546 0.025341598 -0.0075170724 0.033968944 0.07158097 0.078211814 -0.004099035
0.013672851 -0.08805189 0.028267644 0.006222821 -0.005992328 0.0320242 -0.012490486 0.063672036
0.008855053 -0.010401853 -0.03039305 0.010761332 -0.0723047 -0.031631306 0.0011127467 0.02438509
-0.034302928 0.030589316 0.018791273 -0.04466812 -0.037680034 -0.007368524 -0.073073484 0.03444553
-0.011399028 -0.05136682 -0.050291058 -0.0476447 0.027498532 0.069030404 -0.006238704 0.0175381
-0.015547762 -0.011068676 -0.011327806 -0.06426546 0.03784097 -0.02297618 -0.07921238 -0.04120799
-0.058915984 0.008684868 0.054737173 0.023355616 -0.0048118765 0.019953733 -0.04114042 0.0049581574
0.08844227 0.07740173 -0.034099314 -0.057254583 -0.04215452 -0.047740567 -0.002023811 0.02303526
0.07871039 0.057003018 -0.025696099 0.059926473 0.022210637 0.025892325 0.07706965 -0.052729618
-0.03959903 -0.09065471 0.033936102 0.05652217 0.08407057 -0.036283523 -0.05081367 -0.06945083
0.04478185 0.0036906416 0.031831954 0.003388353 -0.04135086 0.001974433 0.03348235 0.028811993
0.09147955 -0.03819884 -0.019850206 -0.0063144187 -0.060391866 0.018249225 0.029700628 -0.0051511973
0.001735711 0.004195559 0.054342326 -0.05888006 -0.00054910814 -0.011300311 -0.050391182 -0.025684193
-0.06010881 -0.008750341 0.07028703 0.05802351 0.033624317 0.01350227 0.0677256 0.05470948
-0.0021796604 0.017387196 0.042369835 0.00033294264 -0.045336228 -0.022477472 -0.07810602 -0.013783196

network_body._body_endoder.seq_layers.2.weight f4 [128, 128]
00000000: 276a 4bbd dacf b73c 3a78 8ebd ddfa 0b3d
00000010: 4561 bc3c 8b5e 2abd faac 283d 019d 8e3d
00000020: 688a 2f3d 5f7c ccbc 9901 b3bd 71d7 8cbd
00000030: 4957 763d eb34 083c b3a9 933d 9714 f03d
00000040: 2494 ffbd c4ca 163d 009a a03d e636 01be
00000050: 992f 49bc 6fc3 df3b 6008 babd daca f2bd
00000060: e6e9 043e e9f6 d7bc 6a7c 3f3d e576 963b
00000070: c400 2ebd 8faf 80bd c4e9 f2bd af04 30bd
00000080: 2522 64be 1fa5 5cbc 1653 363d 2cf8 db3b
00000090: cd67 2c3d 1bf8 8fbc 440a ddbc 8d14 3d3d
000000a0: ffa0 a7bb 24b3 22be bd59 853e 9800 ffbd
000000b0: 470f 673e 1339 1bbe 6a62 3ebd 94cc 15bd
000000c0: f3e3 173e 42ce 16bd 0131 49bd 631f 3fbc
000000d0: e960 b43c 3cf6 5f3c 50e9 ecbb d67a 5ebe
000000e0: d3c2 af3c 1690 54be 453a fbba 2697 eebd
000000f0: 85c1 a93d f657 253e 699d 6b3c 04c6 fdbd
00000100: ef04 533d 751d 9a3d 39ce 4dbc db6c 27be
00000110: dfe7 3f3e 6b86 35bd c365 a83c bdcb 39bc
00000120: 4cf9 363d 6d8c 65bd e270 69bd 41e5 68bd
00000130: 8883 a13c 7706 633c 51d4 eabc 32f5 b53d
00000140: a452 523d cd5d 3e3d 6018 61bd 3953 01bc
00000150: 85b7 853d 7e8c 5e3b 460c 2fbd 4e1f 203d
00000160: a73f 05be cce1 923b 1f43 dcbc b88d 4e3c
00000170: 00b7 993d 8932 62bc fcaf 26bc fb83 eabd
00000180: 9816 a1bd 2b03 fb3c 7e0e 003e 4ce1 613d
00000190: dace 453e 1d15 e3bd 2820 02be 96f9 c3bd
000001a0: 16d4 7fbd cd33 893d 8b3b 8f3a 649c abbd
000001b0: 3be7 72ba af02 503d baad 6abd b5cb 86bc
000001c0: 4790 0dbc 1e2f 913d cd14 b13d 44bd 27bd
000001d0: a4c1 793d 46c8 5abc 816e a93d efb0 c33c
000001e0: 5bd4 fdbd 7ea3 d33d 1d4f 133e 16b6 5fbd
000001f0: c55a 133d 19c7 01bc a214 193e fe84 8f3d
00000200: 3763 2abd 02dd f5bd 353b 04bd 2a8c edbd
00000210: 6074 a0bc a84d 74bd 3358 9e3d 3976 93bd
00000220: 43d9 ff3c 4e32 9cbc 873b b1bc 53ef e33d
00000230: 2dc2 823c f81a b93d 6703 3d3d efe8 903c
00000240: 87e5 983c 83e9 e9bd 9eb6 3abd 2dca a63d
00000250: fcd0 88bd 9eda 43be 644f a8bd 4669 753d
00000260: 4a3b 443d 09d0 183e ff0d 31bd 9208 02be
00000270: 3c21 9c3b 3ce2 f03d c05f 723c 29a5 e13d
00000280: a1fa 853d 5e9a 143c aaa3 efbd e17c 34be
00000290: b46f 41be 7ae0 803d 5592 44bd 3e7f 2a3d
000002a0: 4086 863d bda6 8f3c 18c8 68bd c830 1b3b
000002b0: bbb1 1dbd 3b9a 3a3e 9d39 f0bd 8a18 e1bd
000002c0: 1937 b1bc d7a2 82bd c1e1 083d 2c99 e73c
000002d0: 0a73 b53d 7778 813d 46ba 53bd 838c 113d
000002e0: 0796 9a3c a570 35be ad14 893d cde1 c8bc
000002f0: e9e1 c93c f256 cdba 8c50 db3d 6c6c 653e
00000300: 0dc4 01be 688a 283c 26a5 e73d f4ba acbd
00000310: 33f6 363d 2def 803c f58c 14bd dd5c d3bc
00000320: 1823 023c 7fb8 4bbe 6d6b e6bc cce6 ab3d
00000330: 582e 85bb 2eaa 373d fb4a fa3d fc7d 1bbe
00000340: 6be0 ffbd d98d 0f3e 39f8 76bc f13a c4bd
00000350: 14da 5a3c 8593 223e 5a30 b53d 197b 8ebd
00000360: 440b 783d 483d 8e3d 4f61 88bd 5ed9 3a3c
00000370: 2655 953d 8fa8 1abc 88d4 933d b488 fa3c
00000380: d2b5 30bc 4e5b bdbd 4530 823e 28f7 343e
00000390: 7af9 ccbd f4bb 593d 93b7 8dbd 300f 023e
000003a0: 4135 03be 1802 0c3d a91f 273c b24c 9bbd
000003b0: 0fa9 2dbd 11f9 103d e492 083e 9bbd a1bd
000003c0: 09a8 7fbd deaf b83d 38ec 643d 10d7 12bb
000003d0: 71ab 233d d7cc 1e3e 4f6f d23d ff05 5dbd
000003e0: 1325 e8bc ae70 b43d de41 0a3d 63fd 6bbe
000003f0: 3d59 80bd e94d ebbc 901b 88bd 9b70 3abe
-0.04966178 0.022437979 -0.06956525 0.03417479 0.0229956 -0.04159407 0.04118059 0.0696354
0.042856604 -0.024961649 -0.08740539 -0.0687703 0.060141835 0.008313398 0.07210102 0.11722677
-0.124794275 0.036814466 0.07841873 -0.12618598 -0.012279415 0.0068287174 -0.09083629 -0.11855097
0.1297985 -0.026362853 0.04674951 0.00459181 -0.0424812 -0.06283485 -0.118609935 -0.042973217
-0.2227865 -0.013467102 0.04451283 0.006712934 0.04209118 -0.01757436 -0.026982434 0.046162177
-0.005115628 -0.15888649 0.26045027 -0.12451285 0.22564422 -0.15158491 -0.046480574 -0.036572054
0.1483305 -0.036817797 -0.049119 -0.011665198 0.022018867 0.013669547 -0.0072299615 -0.21726546
0.021455204 -0.2075809 -0.0019167146 -0.11649923 0.08288864 0.16146836 0.014380791 -0.12391284
0.051518377 0.0752515 -0.012561374 -0.16350119 0.18740796 -0.044317644 0.020556336 -0.011340079
0.04467134 -0.056042124 -0.05699242 -0.05685926 0.01971604 0.013856522 -0.028665693 0.08884658
0.051348343 0.046476174 -0.054954886 -0.007893377 0.06529144 0.0033958252 -0.042736314 0.039092354
-0.13012563 0.0044824835 -0.026887475 0.012607031 0.075056076 -0.013805994 -0.010173794 -0.114509545
-0.078656375 0.030641159 0.12505528 0.0551465 0.19317189 -0.110880114 -0.12707579 -0.09569089
-0.06245812 0.06699333 0.0010927779 -0.083794385 -0.00092660234 0.05078381 -0.057294585 -0.016454557
-0.008640355 0.07089065 0.086465456 -0.040951982 0.060975686 -0.013353413 0.0827303 0.02388808
-0.12394019 0.10333918 0.14385648 -0.05461701 0.035975236 -0.007921004 0.14949277 0.07007788
-0.041598525 -0.120050445 -0.032283027 -0.11599 -0.019586742 -0.05964437 0.077316664 -0.072002836
0.031231528 -0.019066956 -0.02163483 0.11129632 0.01596173 0.09038347 0.046145823 0.017689196
0.018664135 -0.11421492 -0.045584314 0.08144031 -0.066804856 -0.19126365 -0.082182676 0.05991485
0.047908105 0.14923109 -0.04322624 -0.12698582 0.004764704 0.11761901 0.014793336 0.1101783
0.06541944 0.009070007 -0.11701138 -0.17625763 -0.18890268 0.062928155 -0.047991116 0.041625254
0.06568575 0.017535562 -0.05683145 0.00236802 -0.038499575 0.18222897 -0.11729739 -0.109910086
-0.021632718 -0.063787155 0.03341842 0.02827128 0.088598326 0.06321805 -0.051691316 0.035534393
0.018870367 -0.17718752 0.06693397 -0.024521733 0.024643855 -0.001566617 0.107087225 0.22404641
-0.12672444 0.010286905 0.113107964 -0.08434096 0.044668388 0.015739048 -0.03626724 -0.025801117
0.007942937 -0.19894598 -0.028127396 0.083936304 -0.0040643625 0.04484003 0.12221333 -0.15184778
-0.12493976 0.14018954 -0.015073829 -0.09581555 0.013357658 0.15876587 0.08847113 -0.06957073
0.06055762 0.06945282 -0.06659185 0.011404363 0.072916314 -0.009439602 0.072182715 0.030582763
-0.010785537 -0.092459306 0.25427452 0.17672408 -0.100085214 0.05315776 -0.0691978 0.12701106
-0.12813284 0.034181684 0.010200419 -0.07582988 -0.042397555 0.03539378 0.13337284 -0.078974925
-0.06241611 0.09017919 0.05588934 -0.002240602 0.03995842 0.15507828 0.10275137 -0.053960796
-0.02833799 0.088105544 0.033754222 -0.23045878 -0.06267021 -0.028723674 -0.06645882 -0.18207018
