results/ppo/Seek/Seek-499998.onnx (onnx, 75719 bytes, 7 tensors)

action_model._continuous_distribution.log_sigma f4 [1, 3]
000000 36 f0 03 bc 23 27 69 bd 19 6f 3f bd
       -0.008052876 -0.05692209 -0.04673681

action_model._continuous_distribution.mu.bias f4 [3]
000000 e6 de 3f bc 11 aa ad 3b 2e 50 c5 3b
       -0.011710858 0.0052998145 0.006021521

action_model._continuous_distribution.mu.weight f4 [3, 128]
000000 74 49 d4 bc ed fc 22 bc 9f 4a d7 3b a7 14 35 3c
       -0.025913931 -0.0099479975 0.006570175 0.011052287
000010 df 43 e8 bc 21 6b af bb d0 8f 25 3c 7b 9e a9 bc
       -0.028352676 -0.005353347 0.010105088 -0.020705452
000020 f0 70 de ba 8a 21 ed 3c 55 45 d1 3b 3d 29 92 3c
       -0.0016970914 0.028946657 0.006386439 0.01784193
000030 ca 8f 2d bc db 4e 97 bc c7 fa 04 3d 80 8b 5d 3b
       -0.010593364 -0.018470218 0.032465722 0.0033805072
000040 2c 5a 1b ba d2 ef ba 3c 40 f5 70 3c 52 c0 97 bc
       -0.00059262174 0.022819433 0.01470691 -0.018524323
000050 fd 88 17 bd 53 02 a0 bc ed 2f 40 ba c6 d3 44 bc
       -0.036995877 -0.019532358 -0.000733136 -0.012013381
000060 4c 8c 99 bc b1 78 d3 3b b1 b4 35 3c 3b f6 3e 3a
       -0.018743657 0.0064535965 0.0110904435 0.0007284616
000070 ea 25 eb bc b9 d6 e9 bc 19 9b 8e bc 5f 8c 85 3c
       -0.028704602 -0.02854477 -0.01740794 0.016302286
000080 de 1a b7 bb 9f 93 47 bd 93 3a 56 3c 4f 3c a3 3a
       -0.0055879196 -0.048724767 0.013075489 0.0012453886
000090 0b 1d ad 3c 74 83 b4 3b b9 72 fa 3b ef e5 85 3b
       0.021132013 0.0055088345 0.0076430705 0.004086248
0000a0 12 e5 06 3d 26 92 19 bc eb 24 af 39 f3 c0 cd 3a
       0.032933302 -0.009373223 0.00033406107 0.0015697762
0000b0 7b be f8 ba 91 64 81 3c 7d f1 d2 bb 87 bc 0e bc
       -0.0018977666 0.015795024 -0.006437479 -0.008711941
0000c0 9a 7b 5b bc b5 49 dc 3c 78 30 74 bb 46 83 4b b9
       -0.013396168 0.026890615 -0.0037260335 -0.00019408492
0000d0 a2 ea 8c 3c 37 5d c4 3b a9 67 31 3d b4 32 67 bb
       0.017201725 0.0059925574 0.04331175 -0.0035278024
0000e0 bf a1 59 3c fb 93 ab 3c cd a1 b5 3c 72 b2 16 bd
       0.013283192 0.020944586 0.02217188 -0.036791272
0000f0 f4 a6 0b 3c d4 73 d6 3b f0 55 7f 3b 7d 1d be 3c
       0.008523691 0.0065445695 0.0038961135 0.02320742
000100 7c 8e e5 3c 17 33 b6 bb 3f 63 2b bc fd b1 c8 bc
       0.028022043 -0.0055602896 -0.010460674 -0.024498934
000110 5f 1a ea 3b 05 08 16 bd 88 35 b2 bc bd ec 68 bc
       0.007144257 -0.03662874 -0.021754041 -0.014216599
000120 ae f0 04 bc 61 e1 39 ba 97 89 86 bb 25 cb c6 3c
       -0.008114023 -0.0007090774 -0.0041057575 0.024266789
000130 1b c4 68 3c 27 dc e4 bb 31 eb dc 3a 78 23 aa 3c
       0.014206911 -0.006984252 0.001685476 0.020768866
000140 82 46 ce bb a8 05 03 3c a8 0b 25 bb 4f 63 a9 bc
       -0.0062950263 0.007996954 -0.002518395 -0.020677237
000150 15 3e 37 bd ea 5a 3f bb 82 fb e3 3a 90 c7 55 3c
       -0.04473694 -0.0029198476 0.0017393681 0.013048068
000160 4a dd 47 3c 04 e0 8f 3c 3e 2f ca 3c d5 cb c5 3c
       0.0121987555 0.017562874 0.02468073 0.024145046
000170 3b 4b 80 bc f4 c5 de bb 55 f3 88 bc c4 56 d9 3c
       -0.015660873 -0.0067985 -0.016717592 0.02653063
000180 6c d6 bc 3c 68 f4 fb 3c b4 e0 4e bc c5 35 f5 3c
       0.023051463 0.03075619 -0.012626816 0.029932866
000190 e0 94 9e 3b ab a0 a1 3a 6e 42 78 bc 02 f1 4d bb
       0.0048395246 0.0012331208 -0.015152557 -0.003142417
0001a0 35 6a 9f 3c 0a a6 a5 bc 25 9f 1b 3c fe 65 35 bb
       0.019459823 -0.020220775 0.009498392 -0.00276792
0001b0 e3 30 e5 ba 0d 46 90 bb a8 45 1f ba 0b e5 96 bb
       -0.0017485883 -0.004402882 -0.0006075748 -0.004604941
0001c0 ed 0b 97 bc eb b9 28 bd 5c df b6 bc d9 a8 a7 ba
       -0.018438304 -0.04119293 -0.022323303 -0.0012791409
0001d0 c5 43 1e bc 55 12 0d 3d 3d 35 de 3c 26 2c 11 3d
       -0.009659712 0.03444131 0.027124995 0.035442494
0001e0 3b 7e e6 3c ae 6f fd 3c 7c 35 12 bd 77 a5 31 3b
       0.028136363 0.030937042 -0.035695538 0.0027106681
0001f0 1d cc 5d 3c ed fa 6e bb 4a 78 f8 ba bc c9 3f 3b
       0.013537434 -0.0036465481 -0.0018956747 0.002926453
000200 36 3f 90 bc 58 ed 48 bb b8 95 f0 3a 80 05 ae 3b
       -0.017608266 -0.0030659046 0.0018355167 0.0053107142
000210 84 0c e1 bc a8 5e e7 3a bd eb bb 3c fc ba 22 bb
       -0.027471788 0.0017652111 0.022939557 -0.002483069
000220 e1 a0 10 bc 0b 66 88 bc fb eb f1 3b 3a 2d ee 3a
       -0.008827419 -0.01665022 0.0073828674 0.0018171438
000230 81 65 0a ba 7f 9e ae 39 d7 ec 82 3b 22 5b 0a bd
       -0.00052794075 0.00033305955 0.0039955187 -0.033778317
000240 76 b9 98 3b a1 d3 7d 3c 62 17 4c 3b 2f 03 96 bc
       0.0046607805 0.015492351 0.0031141867 -0.018312065
000250 4b d8 bb 3c 76 1e 3e bc 56 59 93 bc ee 7c 5d 3c
       0.022930285 -0.011603942 -0.017986935 0.013518555
000260 2b 22 54 39 51 cf 0d 3d 2e e5 16 3c 00 e2 cd 3b
       0.00020230624 0.03462154 0.009209914 0.006283045
000270 fc 49 ac 3b 6e d9 85 3a 6d d9 8d 3b 07 22 90 3c
       0.005257843 0.0010211894 0.0043288977 0.01759435
000280 96 d8 ef 3c 00 07 2a 3d ea cf 0c 3d 55 1a 11 bc
       0.02927808 0.041510582 0.03437797 -0.008856376
000290 f3 2c 35 bd 07 8e 47 3d 87 f1 ca bc 0c 90 b6 3c
       -0.04423232 0.048719432 -0.024773372 0.022285484
0002a0 14 e2 23 bc 10 58 fb bc 66 4d 92 3b fd a5 ce bc
       -0.010002632 -0.03068164 0.004464793 -0.025225634
0002b0 03 85 c5 bc cb 1d 41 3c 33 9c 33 3c 16 53 27 3c
       -0.024111276 0.011786888 0.010962534 0.01021268
0002c0 cf e4 c6 3c 67 fa af bc 41 f9 1d bd 63 c4 00 bc
       0.024279026 -0.021481706 -0.038567785 -0.007859322
0002d0 c6 d8 c7 3c ea 64 9f 3c 57 53 85 bc e8 a3 04 bb
       0.024395358 0.0194573 -0.016275091 -0.0020239297
0002e0 0a 7e 96 3c bf 35 01 ba c1 a4 12 bc 7a 99 d1 38
       0.018370647 -0.0004928968 -0.008950413 9.994484e-05
0002f0 ed bd 0b bc 07 d4 d9 3b 87 dc 66 bc 4e 5b 2b b8
       -0.008529169 0.00664759 -0.014090664 -4.085461e-05
000300 e8 1e 33 3c 58 f6 fd bc 79 98 96 bb bf 1c 7d 3c
       0.010932662 -0.031001255 -0.004595813 0.015448748
000310 58 84 ee 3b e7 32 51 bc 55 51 bb 3c c8 76 8c bc
       0.00727896 -0.012768484 0.02286593 -0.017146483
000320 e5 02 84 bc 7f 9b d6 3c 64 ad 43 bc fd f1 41 3c
       -0.016114661 0.026197193 -0.011943195 0.01183748
000330 ec e5 a2 3a 7a b5 9e bb b3 54 26 bc f5 e6 43 3c
       0.0012428141 -0.004843411 -0.01015203 0.01195692
000340 18 3a cf 3c 14 bc 0d bc 05 c2 1c 3d ec 0f ad bb
       0.025296256 -0.008650798 0.03827097 -0.005281439
000350 d6 77 fb 3c b1 d4 09 bd 26 31 3b 3b ad 55 3b bc
       0.03069679 -0.033650104 0.002856323 -0.011434001
000360 ce 69 b8 bc 44 ed 8b bc 49 5a 82 bc b4 0a 52 3c
       -0.02251139 -0.01708091 -0.015912192 0.012819935
000370 0f cc 0c bd 02 ca 78 3c 33 8d d2 3b 11 29 b4 3c
       -0.034374293 0.015184881 0.0064255237 0.021992238
000380 1b fc a4 3c 99 5a 90 3c 3b 1f 94 3b 8f cf b5 3c
       0.020139745 0.017621325 0.0045203245 0.022193698
000390 b9 2d 27 bc 84 fb a4 3b 15 cd 6e 3c 73 67 2e 3c
       -0.010203772 0.005034866 0.014575263 0.010644781
0003a0 ce 37 d6 bc ab 6b 63 ba 42 86 f1 bc 0e db b2 3c
       -0.026149657 -0.00086754066 -0.029482964 0.021832969
0003b0 ca f9 83 3b 74 2e 44 bc 14 76 c4 bc 6d 67 03 3b
       0.00402758 -0.011973966 -0.023982085 0.002005066
0003c0 b6 15 5b 3b 04 66 e1 3c 52 d8 05 3d 3b 74 04 3a
       0.0033429689 0.027514465 0.032677002 0.000505272
0003d0 85 45 cd bc 9c 15 d2 3c 4b 7e df 3c b3 8a 34 bc
       -0.025057564 0.02564507 0.0272819 -0.011019397
0003e0 95 b1 89 bc 9f d2 52 bc a6 90 92 3b cb 01 a8 3b
       -0.01680831 -0.012867599 0.00447281 0.005127167
0003f0 21 1e fb 3b e7 1f d9 3a 51 74 40 bb 9f c4 a3 3c
       0.0076635038 0.0016565294 -0.0029366205 0.019991217

network_body._body_endoder.seq_layers.0.bias f4 [128]
000000 cc ac 43 3c 0a 09 95 ba ac 31 38 bc d4 a0 36 bc
       0.011943053 -0.0011370492 -0.011242311 -0.011146743
000010 7e 91 b8 3c 62 bb 84 3b 8f a5 e4 3c 5b 91 46 3c
       0.022530314 0.004050658 0.027910976 0.012119616
000020 8e 29 52 ba b7 a5 9e 3b 10 38 89 3b 37 aa 3e 3c
       -0.00080170564 0.004841532 0.0041875914 0.011637262
000030 e2 9d 3b bc 2b 2c 7c 3c b7 ae 41 bb 1b bc a7 bb
       -0.011451216 0.01539139 -0.00295536 -0.0051188595
000040 8a 2f 86 3c c0 b3 b8 3b 7f ed 54 3b 4b d9 5b 3b
       0.01638009 0.0056366622 0.0032490192 0.0033546265
000050 e5 6f a0 3b 95 b4 0f bc bd b8 29 bc 99 a2 14 3a
       0.0048961514 -0.008771081 -0.010358986 0.0005669981
000060 4f 7c b9 3b 7e b7 50 ba e1 52 81 3c 54 3b c5 bb
       0.0056605707 -0.0007961913 0.01578659 -0.0060190354
000070 f3 6d 9e bb 87 a5 87 bb 35 1e 14 bc 9d 60 14 3c
       -0.0048348843 -0.0041396054 -0.009040405 0.0090562375
000080 7f 32 13 bc 84 de e4 bb 6e e4 c0 39 e2 fa 84 3b
       -0.008984207 -0.0069845337 0.00036791287 0.004058228
000090 5c 47 b8 3b 66 9b ca bb f6 76 f2 bb 62 e6 56 3b
       0.005623741 -0.0061830757 -0.007399435 0.0032791127
0000a0 89 cb 1c 3c a5 f5 4a bc 89 eb 37 bc 8c 7a da bb
       0.009570011 -0.012387668 -0.01122559 -0.0066674408
0000b0 4b 8d ae bc 53 72 37 b9 ba c7 6c bc 95 28 33 3c
       -0.021307608 -0.00017494829 -0.014451915 0.0109349685
0000c0 96 c7 39 bb 9d 9b 49 3c 46 34 e5 bb 41 5c 81 bb
       -0.0028347722 0.0123051675 -0.006994757 -0.003947765
0000d0 ac 66 4a 3c 9a da c2 bb f6 73 2c bc b3 45 ed ba
       0.01235358 -0.0059464695 -0.010525694 -0.0018102437
0000e0 d0 03 9f bc ff 48 d8 3b b6 48 bb 3b 50 e0 2c b9
       -0.019410998 0.0066004987 0.005715455 -0.00016486761
0000f0 a5 4a 37 bc 1f f5 32 3c dd 15 4c 3c 6b 73 40 bc
       -0.01118723 0.010922699 0.0124563845 -0.011746268
000100 c8 4a e2 3b 0c 03 3f bb c3 5c a3 bb 03 1c 4c bb
       0.0069058873 -0.0029146103 -0.0049854233 -0.0031144626
000110 9b 9d a8 3a 65 8c 10 bc e8 09 fd bb 4e 42 60 bc
       0.0012864353 -0.008822535 -0.007722128 -0.013687683
000120 29 da 3b bc 85 04 a8 b8 11 6e 50 bc 65 9a 42 bb
       -0.011465588 -8.011706e-05 -0.012721554 -0.0029694077
000130 d4 b5 d7 bb 7f f9 fe bb 12 9b b2 ba 8f a6 f8 b9
       -0.006582955 -0.007781207 -0.0013626537 -0.00047426342
000140 62 62 f7 3b 2e fe 02 bc e7 86 be bb 23 e4 44 bb
       0.00754957 -0.0079951715 -0.0058144215 -0.0030043207
000150 82 c7 9d bc 6c 05 ac 3b 28 92 08 bc 26 6a 95 bb
       -0.019260172 0.00524967 -0.008335628 -0.004559773
000160 ee 10 b1 bb bb 5a 58 bc fa 02 0f 3c 68 b0 b4 3c
       -0.0054036295 -0.013205226 0.008728737 0.022056773
000170 aa 0b a2 3b 46 10 d5 3b 4b d9 ad ba 84 dc 37 bc
       0.004945238 0.006502184 -0.0013263611 -0.011222009
000180 2f a4 0f bb dc d2 ee bb 58 b0 c4 bc 2a 04 40 bb
       -0.002191793 -0.00728832 -0.024009869 -0.0029299357
000190 f1 68 49 bb b9 ac 68 bc bf c0 3c bc 16 78 de ba
       -0.0030732716 -0.014201337 -0.011520564 -0.0016973044
0001a0 2a 9f 53 3b f1 a7 c3 bb f5 8c 5f 3b c4 c6 1b bc
       0.0032290914 -0.005970948 0.0034111117 -0.009507839
0001b0 cb 79 48 bc 4a c4 82 3c 99 9a 1a 3a d4 f7 16 bc
       -0.012236069 0.015962739 0.00058976706 -0.00921436
0001c0 63 a9 2c 3b f2 2a 00 bc a8 0e a5 3c 03 88 cb bb
       0.002634608 -0.007822739 0.02014859 -0.006211282
0001d0 6b 61 1a 3c 37 10 a2 3a 97 f9 e0 3b 67 9b 88 3c
       0.00942264 0.0012364452 0.006865691 0.016675664
0001e0 f3 4d 17 bb 38 92 10 bc ad e8 1d 3b fd cc e3 3a
       -0.0023087233 -0.008823924 0.0024094984 0.0017379817
0001f0 be 59 75 bb 41 db e2 bb 5e d1 83 bc 46 83 d8 bb
       -0.0037437524 -0.0069231098 -0.016091045 -0.006607446

network_body._body_endoder.seq_layers.0.weight f4 [128, 11]
000000 77 aa 0b 3f bb e5 97 3e ad 67 f8 3d b4 13 5e be
       0.54556984 0.29667458 0.121291496 -0.21687204
000010 7b 09 a2 3e ae 87 f3 3d 06 64 b2 3e dc e0 08 3f
       0.31647858 0.11891113 0.34841937 0.5346811
000020 2d 18 6f 3e 85 3c 81 bd 39 e9 86 be d0 a3 3c be
       0.23349066 -0.06310371 -0.2634981 -0.18421865
000030 10 7c d9 3e fd f5 7d 3e a1 15 bd 3d eb 1c 03 3e
       0.42477465 0.24800868 0.09232641 0.12804
000040 62 cb 10 3f 3d 81 5d 3f 3c ae 26 be 23 63 d5 3e
       0.5656034 0.86525327 -0.16277403 0.41677198
000050 7a 7a ff 3d 70 bc 99 be 39 55 db be fc e3 77 3c
       0.124745324 -0.3002658 -0.42838457 0.015130039
000060 3c 3d 87 3e 7d 48 1d 3e 34 cb a7 3e 39 89 e3 3e
       0.26413906 0.15359683 0.3277222 0.4444063
000070 df 25 83 3e 20 72 af bd d4 94 97 3d 42 c7 80 be
       0.2561483 -0.085666895 0.074014336 -0.25152022
000080 00 53 d7 be b6 63 a8 3c 54 fd 26 bf 8a 1f 22 3e
       -0.4205551 0.020555358 -0.652303 0.15832344
000090 de 6a ab 3e 6f 28 9e bd d0 e0 93 bd 45 55 07 be
       0.3347997 -0.07722556 -0.07220614 -0.13216121
0000a0 47 26 87 3d e6 1c c4 3e 94 d4 62 bb 62 8b 3d 3e
       0.06599098 0.38303298 -0.003461157 0.18510202
0000b0 df e8 29 3f 1c 99 5c be 8d 5a 16 bf 8d c0 07 bd
       0.6637096 -0.21542782 -0.5873192 -0.033142615
0000c0 1a e8 71 be b1 f7 7d bd 28 b3 03 bf c1 5c f6 3e
       -0.23623696 -0.062003795 -0.51445246 0.4811764
0000d0 fb 29 1a 3d ef 5d a1 bc 75 94 45 3e 67 15 33 3d
       0.037637692 -0.019698111 0.19294913 0.043721583
0000e0 fd 1d 7c bd a2 ce 52 bc 38 0d b7 3e c4 c5 0c 3e
       -0.061552037 -0.012866648 0.35752273 0.13747317
0000f0 49 5a 2d 3e 2c 9d 19 be 54 c6 32 be 27 19 75 3e
       0.16928972 -0.15001363 -0.17458469 0.23935376
000100 c8 14 2d 3e eb 37 c2 3d c5 ea ab 3e a2 2d 8b be
       0.16902459 0.09483322 0.33577552 -0.27183253
000110 81 b8 51 bf 5c 59 43 3d b8 15 97 3e a6 96 24 be
       -0.81922156 0.04769264 0.29508758 -0.16073093
000120 2f 71 8e 3c 0a 0f f1 be e9 db 47 3f 33 83 b8 bc
       0.017387955 -0.47081786 0.7806993 -0.022523498
000130 c8 d1 fa be 3f 75 4c 3d a9 fc 24 bf bc 3e d2 be
       -0.48988175 0.049916502 -0.6444803 -0.41063488
000140 ad 64 a2 be 39 5d e0 be 41 2f 08 3e e0 97 d3 bd
       -0.31717435 -0.43821123 0.13299276 -0.10331702
000150 c2 0a 95 be 34 1a ad 3e 48 a0 b4 3e c9 83 c9 3d
       -0.2910977 0.33809054 0.35278535 0.09839589
000160 ab f5 1d be 49 f7 a5 bd b5 9d 3e 3d 19 fb 65 3e
       -0.15425746 -0.081038065 0.04653712 0.22459067
000170 b2 34 04 bf b6 07 6c 3e b4 f7 c6 3e d8 32 65 3e
       -0.51642907 0.23049816 0.38860857 0.22382677
000180 0f 43 25 be cc 75 7b 3d 06 3f 95 3e 72 e9 0b 3e
       -0.16138862 0.061391637 0.29149646 0.13663271
000190 ca 1d a2 be f1 a8 f2 be ac 5e ae 3d 8d ac dc 3d
       -0.31663352 -0.47394517 0.08514151 0.10775099
0001a0 c1 ea a2 be 0d 5a cd 3e 38 f5 19 3e 77 2a d2 3e
       -0.31819728 0.40107766 0.1503495 0.41048023
0001b0 b6 84 6d be a6 ca 02 be f7 17 8d 3c 60 2e 27 be
       -0.23195156 -0.12772617 0.017223341 -0.16326284
0001c0 64 fb 8e 3e d7 7b 9f bd af 8b df 3e f0 48 24 bf
       0.2792617 -0.077872925 0.43661258 -0.64173794
0001d0 ad b0 ac be 15 bc 04 3f f1 6b aa 3d d6 1d 8a be
       -0.33728543 0.5184949 0.083213694 -0.26975888
0001e0 29 48 8b 3e 11 71 a2 3e 03 20 be be 7e bc 9b 3d
       0.2720349 0.31726888 -0.37133798 0.076043114
0001f0 92 a6 f0 bd f4 16 03 bf f0 0a 9f be 59 be 48 be
       -0.11750521 -0.512069 -0.31063032 -0.19603862
000200 87 1f d4 3e b5 ea b2 3e 52 ec 96 3e 34 e0 14 3e
       0.41430303 0.34944692 0.29477173 0.14538652
000210 07 c4 b1 3e 02 1e 63 be 22 c0 9b be f0 ac 3d 3c
       0.3471987 -0.22179416 -0.30420023 0.011576876
000220 b0 b7 06 bf dd 64 1d bd 3f a7 0a 3e b7 fe ee bc
       -0.52624035 -0.03842627 0.13540362 -0.029174192
000230 6f 56 a7 bc e4 a7 bd bd 4f 7f c7 3e 1c 3b 71 3c
       -0.020426957 -0.09260538 0.38964316 0.014723565
000240 cd 9f a2 3e 1e a2 1a be 4f 3d e9 3d ec 79 9e 3e
       0.31762543 -0.15100905 0.11388647 0.30952394
000250 55 8d 24 bd 6b 37 1c 3e b2 de f3 3d 0f a9 70 be
       -0.040173847 0.15255515 0.1190771 -0.2350199
000260 48 1c 3e 3d ee a4 a8 3e b6 c6 8c bd 9c 49 96 3e
       0.04641369 0.3293833 -0.068738386 0.29353034
000270 1d 8c a8 3d 84 44 05 3f 80 d8 b4 be dc ed 92 3e
       0.082298495 0.5205767 -0.35321426 0.28697097
000280 0f 9d a8 be 15 00 01 be 34 8f 36 3f fc 69 1f 3e
       -0.32932326 -0.12597688 0.7131226 0.15567774
000290 0e a2 03 3f 1c 98 02 3d 93 f8 ab be 7c 39 fd bd
       0.5141915 0.031883344 -0.33588085 -0.1236448
0002a0 62 73 84 be b4 41 04 be 07 7a d9 3d 5a b7 8c bd
       -0.2586928 -0.12915689 0.10618978 -0.06870909
0002b0 2b 9f 32 be f0 1a 87 3e cc bf 66 3e 96 83 e8 bd
       -0.1744353 0.2638774 0.22534102 -0.11353223
0002c0 a2 f0 68 3d 82 00 e7 3e bc 8b bd 3e e2 b3 51 be
       0.05687011 0.45117575 0.3702067 -0.20478776
0002d0 98 79 b5 3d 4a b8 96 be 15 fe ae bc ce 73 8b be
       0.08861083 -0.29437476 -0.02136139 -0.2723679
0002e0 37 53 a4 3e 33 3f 1c be cc 52 cd be 99 ac 73 be
       0.32094738 -0.15258484 -0.40102232 -0.2379631
0002f0 57 2b 5a 3f aa 2d 14 bf 7e 23 97 be f5 79 4a 3d
       0.8522238 -0.5788218 -0.29519266 0.049432714
000300 c2 62 a8 3e 32 3a 17 bd bc 3b 1f be cb 40 e3 be
       0.32887846 -0.036920734 -0.1555013 -0.4438537
000310 62 a4 dc 3c 68 e0 7f 3e 9a ea 86 be 37 92 a2 bd
       0.026933853 0.24987948 -0.26350862 -0.079380445
000320 0f 1c b9 bd d4 0e 1e 3f b3 a8 07 be a3 1c 21 be
       -0.09038555 0.61741376 -0.13247947 -0.1573358
000330 3f 7d 2b 3f 3e a2 d5 bc d5 23 96 bc 9a 12 42 3c
       0.66987985 -0.02607834 -0.018327633 0.011845255
000340 06 d7 71 3e 25 f9 7e be 6c e5 6e be cc 3d 34 3d
       0.23617181 -0.24899729 -0.23329705 0.044004247
000350 7c 26 4c bd a2 63 8d 3e 9f c0 7c be c9 f7 bc 3e
       -0.04984139 0.27615076 -0.24682854 0.36907795
000360 9f 83 ce 3e 0d 7e 7b be 36 53 ca 3e 69 60 30 be
       0.40334794 -0.24559803 0.3951661 -0.17224278
000370 21 f8 3b 3e 12 9a c6 bd b0 94 dd bd 98 65 08 bf
       0.18356372 -0.09697355 -0.108193755 -0.5328002
000380 f9 2f 67 be 19 4f 03 be e0 cd d4 3e 83 41 a3 3d
       -0.22576894 -0.12823142 0.4156332 0.0797148
000390 ff 5c 46 3c 9b 76 26 3e a7 90 ed be 01 91 c6 3e
       0.012107133 0.16256182 -0.46399423 0.38782504
0003a0 f3 7b 46 be dc 03 4f 3f 54 00 4a 3d 35 10 b3 be
       -0.1938322 0.80865264 0.04931672 -0.34973302
0003b0 dc f2 2c bd 01 4c 18 be cb ef 4a be f7 59 0b bf
       -0.042223796 -0.14872743 -0.19818036 -0.5443415
0003c0 d3 32 0a bd 4b b1 94 3e 46 aa 44 be 77 e3 26 3d
       -0.033739876 0.29041514 -0.19205579 0.04074427
0003d0 21 86 b4 bc 80 89 98 be a9 50 b5 be 47 72 52 3e
       -0.022036614 -0.29792404 -0.354131 0.20551406
0003e0 2a 70 6b be 32 e9 16 3f e2 42 9e bd b4 29 6e be
       -0.22992006 0.5894958 -0.07727601 -0.23258096
0003f0 26 cd c5 bd af ac 05 3f 9b 52 a9 be 64 df c5 be
       -0.096582696 0.5221662 -0.33070835 -0.38646996

network_body._body_endoder.seq_layers.2.bias f4 [128]
000000 c8 f8 3d 3b 93 3e 3f 3b 65 8e 3e bc b1 d9 25 bc
       0.0028987397 0.0029181584 -0.011630629 -0.010122702
000010 b3 ec 98 bb 42 93 8c 37 46 7a 39 ba ec 11 ad 3b
       -0.0046668886 1.6757873e-05 -0.000707541 0.0052816775
000020 47 68 47 bb de 37 ca bb dc 1f 81 bb d1 ea a2 ba
       -0.0030427144 -0.0061712107 -0.0039405655 -0.00124296
000030 e0 b8 24 3c dd 9d 3f 3c d7 28 42 3b 89 77 9b bb
       0.010053843 0.011695352 0.0029626393 -0.0047444743
000040 b8 c2 08 bc a1 53 20 bc 05 70 88 bc 6c 39 3d 3c
       -0.008347206 -0.009785564 -0.016654978 0.011549335
000050 1e af 03 3c 39 a3 d1 3b 1f 41 95 bc c6 20 22 ba
       0.008037357 0.0063976315 -0.018219529 -0.0006184693
000060 2a 3f b5 3b 58 1e 2a bc 47 60 2b bc 65 ef e2 3b
       0.0055312114 -0.010383211 -0.010459966 0.0069255107
000070 13 57 8d 3b 26 d7 3a 3c 7a 27 36 3a 0c f9 4c 3b
       0.0043133586 0.011403834 0.00069486315 0.0031276373
000080 3e c1 f9 bb 8f 2f b5 3a a1 c9 25 bb ed 52 08 bc
       -0.007621913 0.0013823378 -0.0025297182 -0.008320552
000090 7f 08 33 bc a5 d4 74 3a d5 c0 38 bc 22 f0 c1 3b
       -0.010927319 0.0009339548 -0.0112764435 0.0059185186
0000a0 8e 5b c0 b9 47 33 88 bb 30 af 00 bb 06 0d 26 3c
       -0.00036689307 -0.0041565034 -0.001963567 0.010134941
0000b0 d6 83 f2 b9 7e ea 1b bc 93 88 77 bb 07 fb d2 3b
       -0.00046256062 -0.0095163565 -0.0037770614 0.006438616
0000c0 8f 58 2e 3c 70 fb 5f bc 81 c4 2d 36 59 77 27 bc
       0.010641231 -0.013670787 2.589339e-06 -0.010221326
0000d0 d3 35 2f bc b1 ac 09 3c a5 cb 83 3a 74 20 c0 bb
       -0.010693985 0.008402989 0.0010055198 -0.0058632437
0000e0 c7 a8 1c bc 12 30 82 bb df 74 fa bb 03 26 19 3c
       -0.009561724 -0.0039730156 -0.0076433267 0.009347442
0000f0 81 05 c7 39 bc 4a da bb c8 f2 1a bb fd e4 1a bc
       0.00037960339 -0.006661741 -0.0023643244 -0.009454009
000100 a6 fb 3b bc 7e 9b ad bb cb ac 40 bc 60 67 b4 3b
       -0.011473572 -0.005298077 -0.011759947 0.0055054873
000110 5a d3 9b ba 46 e9 23 3c 4c 08 45 3c df c3 05 3b
       -0.0011888549 0.010004347 0.012025904 0.0020410938
000120 bc e1 ed b8 6f 97 ce 39 e9 8b 93 3b 47 e8 6a bc
       -0.00011343087 0.0003940421 0.0045027626 -0.014337606
000130 77 07 d1 bb a7 83 ca ba e6 2a 87 bb 52 9d a8 bb
       -0.0063790637 -0.0015450612 -0.004124987 -0.005145707
000140 0a 15 86 3b 92 fa e9 bb ff 37 7f 3b 81 52 23 3b
       0.0040918635 -0.007140466 0.0038943288 0.0024921002
000150 6e cc ad 3c 76 bb a1 3c 77 e2 73 bc 99 29 41 bc
       0.021215644 0.019742709 -0.014885536 -0.011789703
000160 6b 70 8f 3a d5 5e 19 bc 32 c1 23 ba 8d 08 3c bb
       0.0010943537 -0.009360989 -0.0006246745 -0.002869162
000170 51 a6 28 bb 09 ce f4 3c 53 54 19 3b 54 c3 dc ba
       -0.0025733898 0.029883401 0.0023396208 -0.001684288
000180 64 fc c9 bb 09 93 e9 bb c5 41 6d 3b 29 36 fc bb
       -0.0061641205 -0.0071281237 0.0036202532 -0.007696886
000190 03 6c 02 bc 6d 2f 8a 3c 2f d5 11 bb 0e cb a9 bb
       -0.007960322 0.016868317 -0.0022252311 -0.0051816767
0001a0 2e 70 40 bc 75 5f a4 3a 2d 4e f9 bb 44 61 04 3b
       -0.011745496 0.0012540655 -0.007608196 0.0020199576
0001b0 40 73 83 3c 14 15 9b 3b bc 3f fc bb db 85 bc bb
       0.016046166 0.0047327373 -0.0076980274 -0.0057532615
0001c0 be b8 2a 3b bc e3 0b 3d 60 11 66 3c cf 9d c8 b9
       0.0026050056 0.03415273 0.014042228 -0.0003826455
0001d0 a5 73 36 ba 8b 0b f8 3b a9 ce 03 3b ed 2e 0d bc
       -0.00069599814 0.0075697354 0.0020112193 -0.008617145
0001e0 98 58 0b bc 7f 2d 2f bc 4a 10 a3 3b 79 58 5f 3b
       -0.008505009 -0.010691999 0.004976307 0.0034079833
0001f0 ba 92 a2 bb 61 d7 14 bc 9a e1 2d bc db ab 8f 3b
       -0.004961339 -0.009084553 -0.01061287 0.0043845004

network_body._body_endoder.seq_layers.2.weight f4 [128, 128]
000000 f3 b5 d4 bc d9 b4 9d 3d f9 33 d3 bc 0c 06 98 bd
       -0.025965666 0.077005096 -0.025781618 -0.07423028
000010 75 14 67 bd 4f 9b 42 3d 9b 21 3b 3d cc e9 8d 3e
       -0.056415994 0.047511395 0.045686346 0.27717435
000020 34 05 ea 3d 0c ea b7 3d 98 95 13 3c 66 c3 fa bc
       0.11426774 0.08980188 0.009007834 -0.030610751
000030 1e 51 3d bd 9f d5 65 bb 4c c2 6f bd 2f ac 61 3d
       -0.046219938 -0.0035069955 -0.058534905 0.055095848
000040 e5 47 d8 bc d3 9a 67 3d 7f d5 c1 bd 7f 7c 36 3d
       -0.02640147 0.056544136 -0.09464549 0.044552322
000050 42 18 3f bd 66 73 62 3d 41 ef 8b 3d 56 cf e3 bd
       -0.046653993 0.055285834 0.068327434 -0.111235306
000060 ff 0c 87 bd 00 67 5c bd 7f 01 c1 bd b1 19 78 bd
       -0.06594276 -0.053809166 -0.094241135 -0.060571376
000070 6b 81 d8 bc d8 12 b2 3d c8 68 13 3c a9 69 db 3d
       -0.026428899 0.086950004 0.00899715 0.107135125
000080 e7 da 6f bc 67 52 cf 3c 31 8c e3 3b 64 fd 13 3d
       -0.014639593 0.025307847 0.0069442024 0.036130324
000090 39 59 34 3e d5 5d 06 bc d0 56 b3 bc b6 e0 4f bd
       0.1761216 -0.008201082 -0.021891981 -0.05075141
0000a0 b9 d5 71 bd d6 72 e9 bd 01 e8 05 3e 88 5f a1 3d
       -0.059041712 -0.11398856 0.13076784 0.07879549
0000b0 ec 6b 09 be b3 22 59 bd 55 da d4 3d dd 20 2f bd
       -0.13420075 -0.053011607 0.10393206 -0.04275595
0000c0 df 6a cb 3c d6 7a 92 3d f4 f3 b1 3c 9c 60 d6 3d
       0.024831234 0.07152335 0.021722771 0.104676455
0000d0 02 5b 47 3d ce 32 91 bd 8f c6 51 bd 83 44 ef 3d
       0.048670776 -0.07089768 -0.05121475 0.116829894
0000e0 27 e4 91 bd 97 f0 07 bd 14 bd 87 bd fe 29 af 3d
       -0.07123595 -0.03318843 -0.06627861 0.08552931
0000f0 fe 49 5e bd bc 18 1f 3d 3b fc 03 bd 18 bb fa 3d
       -0.054269783 0.038841948 -0.032222968 0.122427166
000100 d3 fd d5 3d b1 e5 42 3d 8c 64 66 3d 83 e3 78 bd
       0.10448804 0.047582332 0.056248233 -0.060763847
000110 61 7d e1 bd 0f 9e d2 3c e0 55 85 bd 0a b3 1c be
       -0.11010242 0.025710134 -0.0651052 -0.15302673
000120 70 57 6c 3b aa cd ec 3b ff 29 f9 3d b1 01 a7 3d
       0.003606286 0.0072266655 0.12166213 0.081546195
000130 ba 9a 28 3d 5c 79 94 bd 5e a5 da 3d 1e c8 05 3d
       0.041163184 -0.0724971 0.106760725 0.03266155
000140 09 c4 0f 3e 77 fd a5 3d f8 c3 bd bd 0d ae 77 3d
       0.14039625 0.08104985 -0.09265894 0.060468722
000150 66 fd 05 be 59 91 ff bb f8 61 80 3e 4c 77 89 bd
       -0.13084945 -0.007799309 0.25074744 -0.06712207
000160 33 bc 88 3d c0 50 9d bc 3d c0 c2 3c 70 0d 59 3d
       0.06676521 -0.019203544 0.023773307 0.05299133
000170 f1 6c f7 bd 7d 4f 6b bd 43 4f 8b 3c 2f cd 94 3d
       -0.12081326 -0.057448853 0.017005568 0.07265698
000180 0a 1f b1 3d 5c 29 b8 3c 5d e0 69 bd a2 05 c8 bc
       0.08648498 0.02248066 -0.057098735 -0.024416748
000190 e5 25 1c be d8 31 95 3d b4 be 37 3e d1 a5 82 3d
       -0.1524883 0.072848976 0.17943841 0.06379283
0001a0 65 d2 31 be a9 3b f2 bd ef fe 10 3c 3f 5f 8d bd
       -0.17365415 -0.118277855 0.008849843 -0.069029324
0001b0 df a6 a9 bd 78 d3 cb bd 58 a5 bb bd b0 99 bb 3d
       -0.08283781 -0.09952444 -0.09162396 0.09160173
0001c0 3c 9c f1 bb c8 40 ef bb 5c f8 d6 bc f2 49 64 3c
       -0.007373361 -0.0073014237 -0.026241474 0.013933646
0001d0 87 61 b6 bc d1 c7 0b 3e 21 60 24 3e 63 d2 54 3e
       -0.022263302 0.13650443 0.16052295 0.20783381
0001e0 26 cd ad b9 92 18 79 3d 30 06 99 3c b8 01 0e 3e
       -0.0003314998 0.060814448 0.018679708 0.13867843
0001f0 e3 cf 73 3d 6b c0 d9 bd 3b 2d c5 bd b7 70 cc bd
       0.059524428 -0.10632404 -0.09627768 -0.09982436
000200 7b 1c 8d bd 39 db b6 3d 89 65 d2 3d 83 c7 3a bd
       -0.06890198 0.08928532 0.102732725 -0.045600425
000210 bd 1d c3 3d 6d 0c 08 be 49 34 8a 3d e5 6c 8e bb
       0.095271565 -0.1328599 0.06748254 -0.0043464773
000220 3c 59 f8 bd 2e 0a e7 bd 7f d2 2f bd d7 04 06 be
       -0.12126395 -0.112812385 -0.042925354 -0.13087784
000230 df 4d 26 bc 82 84 81 3d a7 b6 31 3d e5 6b fe 3d
       -0.010150402 0.06324102 0.04338708 0.12422923
000240 cc b6 e6 bd 9e 80 3d 3d 81 24 64 3d e9 1a bb bc
       -0.112653345 0.046265237 0.055698875 -0.02283998
000250 8d bc 79 be 7e 6b 11 3d db 2a 92 bd af 8c c4 bd
       -0.24388333 0.035502903 -0.0713708 -0.09597146
000260 8b 9a b6 3c cf ee 90 3d de 76 37 3d a1 ff 63 3c
       0.022290489 0.07076799 0.044791095 0.013915927
000270 be 9d d4 3c 7d b8 6b 3d 62 7c 2f 3b ed 63 92 bd
       0.025954124 0.05754899 0.0026777019 -0.071479656
000280 2f 10 27 bc 77 fc 5d ba 81 26 a0 bd f3 bd 90 3d
       -0.01019673 -0.0008468101 -0.07819844 0.0706748
000290 da b1 ee 3c f9 36 be 3c 12 54 8b 3d ad 0d f8 bc
       0.02913754 0.023219572 0.068031445 -0.030279959
0002a0 46 e2 e3 3d 61 2f 55 bd 9c 57 fa 3d 7a ae d6 bd
       0.111271426 -0.052047137 0.122237414 -0.104824975
0002b0 e3 10 0f 3e c7 50 fd 3d 70 c9 5a 3d a7 f1 90 3d
       0.13971286 0.12368923 0.053414762 0.070773415
0002c0 7e 9b 7c bd dd 9e 36 bd 3a ce cc bd 2d 58 88 3d
       -0.061671726 -0.044585098 -0.10000272 0.06657443
0002d0 69 6f a6 bb ae d4 7d 3d db b4 68 3d ed 3a 18 3e
       -0.005079199 0.061970405 0.056813102 0.14866228
0002e0 62 15 1e bd d7 6c 89 3d d9 fa 0b be 27 c7 25 bd
       -0.03859461 0.06710213 -0.1366991 -0.04047313
0002f0 ec 98 6d 3d d4 98 1a 3d c8 6e 89 bc dc 22 d5 bd
       0.058007166 0.037743405 -0.016776457 -0.104070395
000300 b5 b3 14 3e d7 9c 01 be 52 ac 38 3d d3 fe bd 3d
       0.14521678 -0.12657486 0.045086212 0.092771195
000310 da e5 6b bd bb f3 8f 3d 11 98 d6 bd ad ea 13 bc
       -0.05759225 0.0702891 -0.10478223 -0.009028119
000320 12 41 92 bd 80 a7 8f bd db 03 85 3d c8 1a ae ba
       -0.071413174 -0.0701437 0.06494876 -0.0013283128
000330 80 e6 c1 3c d2 be 26 bd 91 50 40 ba df 9c 1e 3d
       0.023669481 -0.040709324 -0.0007336224 0.038723823
000340 6f cc b2 3d d8 1f e5 3d 6d 17 8d bc 11 ca 30 ba
       0.08730399 0.11187714 -0.017223084 -0.00067439774
000350 8d a3 b3 bc 8e ec 99 bc f7 e9 a8 3c a1 61 78 bd
       -0.021928573 -0.018789556 0.020619376 -0.06063998
000360 69 39 08 3d 63 b1 c1 bd ad 38 32 3e 34 6f ed 3c
       0.033257876 -0.09457662 0.17404433 0.02898369
000370 0e ee 4f 3c 9c a9 61 3e b9 d6 1e bc 21 80 e5 3c
       0.012691034 0.22037357 -0.009694749 0.028015198
000380 b5 28 5a 3d 22 51 16 be 0b 90 9d 3c fd 9e ff bd
       0.053261478 -0.14679387 0.019233724 -0.124814965
000390 01 de cd bc 72 27 bf 3d 51 6d 8d bd 07 1e bd bd
       -0.025130274 0.093336955 -0.06905616 -0.09234243
0003a0 f5 d2 8d bd 04 4c 2d be a4 d6 bf 3c ca 86 7a bc
       -0.069250025 -0.16923529 0.023417778 -0.015290925
0003b0 72 7c 5f bd 36 c2 ea 3b bb 21 ea 3d ed 46 be 3d
       -0.05456204 0.007164265 0.11432215 0.09290872
0003c0 3f 58 82 3c 80 20 18 3e 33 1d 2f bb f9 2e 23 bd
       0.01591122 0.14856148 -0.0026720285 -0.03983972
0003d0 04 90 92 bd 5a b3 ad bd b3 47 89 3c 01 47 d4 3d
       -0.07156375 -0.08481474 0.016757822 0.103651054
0003e0 5f 90 80 3d d1 7b d6 bd df 18 e0 3c f5 3d 82 3d
       0.062775366 -0.10472835 0.02735561 0.063594736
0003f0 65 03 55 3c 3b 7a 06 be f0 36 df 3d 4a d0 ef 3c
       0.013001298 -0.13132565 0.1089915 0.029274125
