results/ppo/Seek/Seek-3999955.pt (torch, 456095 bytes, 36 tensors)

network_body._body_endoder.seq_layers.0.weight f4 [128, 11]
0	0x3e686d40	0.22697926
1	0xbeb8d071	-0.36096528
2	0xbe2982a4	-0.16553742
3	0x3eccd75a	0.4000805
4	0xbe89a328	-0.2688229
5	0x3d984fec	0.07437119
6	0xbd3886d2	-0.04505045
7	0x3da89292	0.08231081
8	0xbef6c45a	-0.4819668
9	0x3e4df48b	0.20112817
10	0xbf302b3a	-0.6881596
11	0x3d831edf	0.064023726
12	0x3ea0b68c	0.31389272
13	0xbe7f02b8	-0.24903381
14	0x3e20267f	0.15639685
15	0x3f80afb7	1.0053624
16	0xbe7e875c	-0.24856323
17	0xbd1f9faa	-0.038970627
18	0xbe2f0e95	-0.17095406
19	0xbdf81ca0	-0.12114835
20	0xbe249a16	-0.16074404
21	0xbe421088	-0.18951619
22	0xbeb3ecf8	-0.3514173
23	0xbf089d3c	-0.5336492
24	0xbd2caa0c	-0.042154357
25	0x3e8e2d14	0.27768767
26	0xbe6fa70d	-0.23403569
27	0xbd111b6c	-0.035426542
28	0xbe97a1f5	-0.2961575
29	0xbdce6f49	-0.1007982
30	0xbe6e8bcd	-0.23295517
31	0xbeaf4ba1	-0.34237388
32	0xbe2ec10a	-0.17065826
33	0x3e2f835d	0.17139955
34	0x3e961bb3	0.29318008
35	0xbe7cd1d7	-0.24689423
36	0x3e022bd6	0.12712035
37	0x3ea2c2d9	0.31789282
38	0xbc31a624	-0.010842834
39	0x3de86e92	0.113492146
40	0xbe0ef7ef	-0.13961767
41	0x3df6b710	0.12046635
42	0x3d8deb76	0.06929676
43	0x3eaa12f3	0.33217582
44	0x3e341ef8	0.17589939
45	0xbe359b92	-0.17735127
46	0xbe9f75c7	-0.31144544
47	0xbcfdd7f1	-0.030986758
48	0x3ed1a655	0.40947214
49	0x3eb98319	0.36232832
50	0x3e2f8927	0.17142163
51	0x3ed9dec8	0.4255278
52	0xbf09219c	-0.5356691
53	0x3e680876	0.22659478
54	0xbeaab6e2	-0.33342654
55	0x3bd82000	0.0065956116
56	0x3d98fad1	0.074697144
57	0x3dec761f	0.11545967
58	0xbebab03e	-0.36462587
59	0x3ddc3929	0.1075309
60	0xbd3299f4	-0.043603852
61	0xbe2394bb	-0.15974705
62	0xbe0cf3de	-0.13764903
63	0xbecb155e	-0.3966474
64	0x3dd840cb	0.10559233
65	0x3db0efca	0.08639486
66	0xbe523713	-0.20528822
67	0xbd26cf24	-0.04072489
68	0xbe7964d6	-0.24354872
69	0x3e200e10	0.15630364
70	0xbea2690c	-0.3172077
71	0x3c89807d	0.0167849
72	0x3eabd172	0.33558232
73	0x3e476381	0.19471551
74	0xbddc4395	-0.10755078
75	0x3e716ccd	0.2357666
76	0x3e01ef7d	0.12689014
77	0xbcf3f84a	-0.02978148
78	0xbf36025b	-0.71097344
79	0x3d107797	0.0352703
80	0xbe800508	-0.2500384
81	0x3ea9fed7	0.3320224
82	0xbebf65c6	-0.37382334
83	0x3d1d8e91	0.03846604
84	0xbf03e2f9	-0.5151821
85	0xbcf2dcd5	-0.029646317
86	0x3e3e6ee4	0.18596989
87	0x3d88d196	0.066806
88	0xbe64c784	-0.22341734
89	0x3e5342e2	0.20630983
90	0x3ea817a0	0.32830524
91	0x3e0a2bb7	0.13493238
92	0x3ee07e55	0.43846384
93	0x3dda63f2	0.10663594
94	0x3f30145c	0.68781066
95	0xbf500efa	-0.8127285
96	0x3e8b6095	0.27222124
97	0xbec2ed27	-0.38071558
98	0xbd01e146	-0.031708978
99	0x3da05119	0.07827968
100	0x3cea67a7	0.028613878
101	0xbf474d26	-0.77852094
102	0x3e143e25	0.14476831
103	0xbc238f5d	-0.009982911
104	0xbcd87ebb	-0.026427617
105	0x3e859b1d	0.26094905
106	0xbead5838	-0.33856368
107	0x3e60f13d	0.21967025
108	0x3e2d2c80	0.16911507
109	0xbe58b2e5	-0.21161993
110	0x3ee2b720	0.44280338
111	0x3e834854	0.2564112
112	0xbedba6dd	-0.42900744
113	0x3eaaaf8b	0.33337054
114	0x3d83f303	0.06442835
115	0x3d5ff455	0.054676373
116	0x3eaca0f0	0.33716536
117	0x3e8ef527	0.2792141
118	0x3e2d44a7	0.1692072
119	0xbf4fa343	-0.8110849
120	0x3cd84908	0.026402012
121	0xbe7345bf	-0.23757075
122	0xbe26add6	-0.1627725
123	0xbbbd3bc6	-0.005774948
124	0xbf0ee5ad	-0.5581921
125	0xbd90a96c	-0.07063565
126	0x3ea2066c	0.31645525
127	0x3e0546f1	0.13015343
128	0x3e632b4e	0.22184488
129	0xbd98ecb9	-0.07467026
130	0xbc580b74	-0.013186324
131	0xbde7f406	-0.11325841
132	0xbdfb3cfa	-0.1226749
133	0xbee49ca8	-0.4465077
134	0x3e0629ce	0.13101885
135	0xbf8f5467	-1.1197633
136	0xbe740bb9	-0.23832597
137	0xbcd01112	-0.025398765
138	0xbdcaeac6	-0.09908061
139	0xbf300cc7	-0.68769497
140	0xbe129a37	-0.14316641
141	0xbeb19b82	-0.34688956
142	0x3e870e70	0.26378202
143	0xbeb20b05	-0.34774032
144	0xbe34438e	-0.17603895
145	0x3e8b0347	0.27150938
146	0xbe9b5259	-0.30336264
147	0x3ed71a8f	0.4201245
148	0x3f09996d	0.53749734
149	0x3e8d5cce	0.27609867
150	0xbeaa6412	-0.33279473
151	0x3e4aa0de	0.19787928
152	0xbd3d7ad9	-0.046259735
153	0xbde0e06e	-0.109803066
154	0xbf024cb9	-0.5089832
155	0x3e3bf6e4	0.183559
156	0xbe0059e4	-0.1253429
157	0x3e48ae6f	0.19597791
158	0x3f38a779	0.72130543
159	0xbe9c6fbf	-0.30554006
160	0x3d832c2b	0.06404909
161	0x3e5e2cf4	0.21696836
162	0xbd49d6f1	-0.04927725
163	0xbe5dbdc6	-0.21654424
164	0x3e3b3d6b	0.18285148
165	0xbbf5c2aa	-0.0075000124
166	0xbf26ec05	-0.6520389
167	0xbe146340	-0.14490986
168	0x3d98a02d	0.07452426
169	0x3eb7dbdf	0.35909936
170	0xbc893298	-0.016747758
171	0x3e047b61	0.1293769
172	0x3d770f82	0.060317524
173	0xbe28842d	-0.16456671
174	0x3e922ea1	0.285512
175	0x3e96a5e1	0.2942343
176	0xbe306fdc	-0.17230171
177	0xbd37966d	-0.04482119
178	0xbea3f89a	-0.32025605
179	0x3da28176	0.07934849
180	0x3f0a120c	0.5393379
181	0xbe68bc08	-0.22727978
182	0xbd99d60c	-0.07511529
183	0xbe8efbf2	-0.27926594
184	0x3dd217b6	0.10258429
185	0xbdc1c638	-0.09461635
186	0xbf04e289	-0.51908165
187	0xbed9a76d	-0.42510548
188	0x3e932703	0.287407
189	0x3e7e676c	0.2484414
190	0x3d4e9279	0.050432656
191	0x3f47cc6a	0.78046286
192	0x3eaa7d61	0.33298782
193	0xbf103a90	-0.5633936
194	0xbf1378b2	-0.5760604
195	0xbe4ed33c	-0.20197767
196	0xbeabbdea	-0.3354333
197	0xbf0da500	-0.55329895
198	0xbe6ee84a	-0.23330799
199	0x3eb955bc	0.36198223
200	0x3d9ea32c	0.07745966
201	0x3db23717	0.08701914
202	0xbe6b4597	-0.22975765
203	0xbe83be66	-0.257312
204	0xbe38b2b6	-0.18036923
205	0x3e8322e8	0.2561257
206	0x3d9d1b36	0.07671206
207	0xbeb0372a	-0.34417087
208	0x3eb62c0a	0.35580474
209	0x3e32d791	0.17465045
210	0xbe2f3307	-0.17109309
211	0x3e6c7c72	0.23094347
212	0x3e565eb4	0.20934564
213	0x3e2b9471	0.16755845
214	0xbe5e6947	-0.21719848
215	0xbe103866	-0.14084014
216	0x3d14282e	0.03617113
217	0x3dfe3c57	0.12413853
218	0x3f161940	0.5863228
219	0xbe228de0	-0.15874434
220	0xbdf781a5	-0.120852746
221	0x3d992ea8	0.07479602
222	0xbd0c4a00	-0.03425026
223	0x3dffdd5a	0.12493391
224	0xbea25bd8	-0.31710696
225	0x3e4f36f3	0.20235805
226	0x3e72a333	0.23695068
227	0xbe383f7f	-0.17992972
228	0x3cf2b566	0.029627513
229	0x3eb1b4e0	0.3470831
230	0x3e607839	0.21920861
231	0x3eafdabf	0.34346578
232	0xbeba5f0d	-0.36400643
233	0x3e567555	0.20943196
234	0x3c0c439f	0.008561044
235	0xbf05488e	-0.52063835
236	0xbdc130cb	-0.09433135
237	0x3d6d868f	0.057989653
238	0xbec07749	-0.37591007
239	0x3b819a69	0.0039551747
240	0xbdae8da4	-0.085231096
241	0x3e6c7e1b	0.2309498
242	0xbd47db92	-0.048793383
243	0x3e818dfb	0.25303635
244	0xbd61139b	-0.054950338
245	0xbec422cd	-0.383078
246	0xbec057cd	-0.37566987
247	0x3e2d8fc1	0.16949369
248	0x3e3d910b	0.18512361
249	0x3e0e3ff6	0.13891587
250	0xbec56f75	-0.38561597
251	0xbf11b9cd	-0.56924134
252	0x3e4b2ea3	0.19842009
253	0xbea61915	-0.3244101
254	0x3d95c444	0.07312825
255	0x3e9b7b79	0.3036764

network_body._body_endoder.seq_layers.0.bias f4 [128]
0	0x3aba699b	0.0014222147
1	0x3d56c3dc	0.05243288
2	0x3d170e58	0.036878914
3	0x3c934a1e	0.017979678
4	0xbc87a306	-0.016557228
5	0xbda394bd	-0.07987354
6	0x3d91e73d	0.07124183
7	0xbc678bf6	-0.01413249
8	0x3ce975fd	0.028498644
9	0xbd339988	-0.04384759
10	0x3b971e24	0.0046117473
11	0x3d64065a	0.05567012
12	0xbce65c6b	-0.02812024
13	0xbd2b572e	-0.041831188
14	0x3d38e231	0.045137588
15	0x3a5bbb41	0.000838209
16	0x3d2a3ccd	0.04156189
17	0x3a009de3	0.00049063395
18	0x3c5a6846	0.013330525
19	0x3b941dd0	0.0045201555
20	0xbca4c7b5	-0.020114759
21	0x38dac488	0.00010431657
22	0x3d048e09	0.032362018
23	0x3da51ca3	0.08062103
24	0x3cdb6b74	0.026784636
25	0xbc04e6f1	-0.008111701
26	0xbda635d8	-0.08115739
27	0x3d161fc3	0.036651384
28	0x3cb76191	0.02238539
29	0xbd57867e	-0.052618496
30	0xbd7c3466	-0.06157341
31	0xbb98117d	-0.0046407566
32	0x3d3243df	0.04352176
33	0xbd3ac737	-0.045600142
34	0xbdadbe04	-0.08483508
35	0xbbd16b61	-0.0063909744
36	0x3d3b18b9	0.045677874
37	0x3c080e71	0.008304224
38	0x3ccfb608	0.025355354
39	0x3c6c7fc3	0.014434758
40	0x3c6ed1eb	0.0145764155
41	0x3c7006e6	0.014650082
42	0xbd1f2078	-0.038849324
43	0xbd3b5be1	-0.04574192
44	0x3c5adb35	0.013357927
45	0x3bb35260	0.0054724663
46	0xbc435864	-0.011922929
47	0x3daacebd	0.083402134
48	0xbc9a4b6a	-0.018834788
49	0x3c7280f2	0.014801251
50	0xbcd212a1	-0.025643649
51	0xbd7ba048	-0.061432153
52	0xbd2a08af	-0.041512188
53	0x3cce5337	0.025186164
54	0xbcecffe8	-0.02893062
55	0x3da0a848	0.07844597
56	0xbbb371cf	-0.0054762135
57	0x3cbb8977	0.022892697
58	0x3d983173	0.07431307
59	0x3ccf6539	0.025316821
60	0xbd2ab7dd	-0.041679252
61	0xbd19b8be	-0.0375297
62	0xbd272b06	-0.040812515
63	0x3b9d6cec	0.0048042443
64	0xbd453005	-0.048141498
65	0xbdae9679	-0.08524794
66	0x3c771324	0.015080247
67	0xbc3e4866	-0.011613941
68	0x3d310985	0.04322197
69	0xbd5ef058	-0.05442843
70	0xbca5da87	-0.020245804
71	0x3c22f15e	0.009945242
72	0xbcc8f4c7	-0.024530781
73	0x3cb98574	0.022646643
74	0xbca35694	-0.019938745
75	0xbcc8f714	-0.024531879
76	0x3d36aa62	0.044596083
77	0xba925221	-0.0011163392
78	0xbbb999d2	-0.0056640888
79	0xbc8fe186	-0.017563593
80	0x3c384be2	0.011248561
81	0x3d3cf6c6	0.04613378
82	0x3bf8a6be	0.0075882366
83	0x3d3f2220	0.046663404
84	0x3d5ad563	0.053426158
85	0xbcd6fb39	-0.02624284
86	0x3bc6f622	0.006071822
87	0x3d7b7d36	0.061398707
88	0x3c99154b	0.018686911
89	0x3d177a45	0.03698184
90	0xbd123a14	-0.03569992
91	0xbd3dae58	-0.046308845
92	0x3be0c5f0	0.0068595335
93	0x3d09d5df	0.03365123
94	0xbd22c6e2	-0.03974045
95	0xbd58623a	-0.05282805
96	0x3c8ef91d	0.01745277
97	0xbc26c3d4	-0.010178525
98	0x3c5874a8	0.013211407
99	0x3bf8fd23	0.0075985356
100	0xbd16870b	-0.03674988
101	0x3d30c987	0.04316094
102	0x3e01b468	0.12666476
103	0xbd27ddcf	-0.040983018
104	0xbd46d422	-0.04854215
105	0xbc52c7d7	-0.012865028
106	0x3abc9bde	0.0014389714
107	0x3c4644ad	0.0121013345
108	0x3d822357	0.06354397
109	0xbc81c2f4	-0.015840031
110	0x3d9bdf25	0.07610921
111	0x3c29ca46	0.010363167
112	0x3b50806a	0.0031814822
113	0xbd4fff43	-0.050780546
114	0x3c2b7712	0.0104654
115	0x3d97ad3b	0.07406088
116	0x3d185744	0.037192598
117	0x3d2df492	0.04246957
118	0xbc6bc369	-0.014389851
119	0x3d351e6b	0.044218462
120	0xbd258a40	-0.04041505
121	0xbcdfc6a1	-0.027316393
122	0xbd1a790a	-0.037713088
123	0x3d71d301	0.05903912
124	0x3d69cca7	0.057079937
125	0xbd1be737	-0.0380623
126	0x3c39bb1e	0.011336116
127	0x3afd7e99	0.0019340097

network_body._body_endoder.seq_layers.2.weight f4 [128, 128]
0	0xbd57f146	-0.05272033
1	0x3cb02967	0.021504117
2	0xbd90542e	-0.07047306
3	0x3cf3f6d4	0.029780783
4	0x3c9e7351	0.019342097
5	0xbd0dcb2e	-0.034617595
6	0x3d1387c3	0.036018144
7	0x3d800bed	0.06252275
8	0x3d1b2432	0.037876315
9	0xbcdedb10	-0.027204067
10	0xbda49f1a	-0.08038159
11	0xbd70f2c9	-0.058825288
12	0x3d612866	0.054970168
13	0x3b0feace	0.0021960023
14	0x3d9eb316	0.07749002
15	0x3de936cd	0.113874055
16	0xbe06265d	-0.13100572
17	0x3d0301b6	0.031984054
18	0x3dbfeca8	0.093713105
19	0xbe03bc32	-0.1286476
20	0xbc7ac013	-0.015304583
21	0x3bdee803	0.0068025603
22	0xbd9fb959	-0.07799024
23	0xbde85795	-0.1134483
24	0x3e02b00f	0.12762474
25	0xbcfa4342	-0.03054965
26	0x3d5d7aad	0.05407207
27	0xbae10afc	-0.0017169411
28	0xbcdd2db1	-0.026999326
29	0xbd50b8c8	-0.05095747
30	0xbddf1457	-0.108925514
31	0xbd24a0cd	-0.040192414
32	0xbe644ddb	-0.22295325
33	0xbc35d1da	-0.011097396
34	0x3d38924c	0.045061395
35	0x3bfe12d9	0.0077537117
36	0x3d21b551	0.039479557
37	0xbb4d9769	-0.0031370765
38	0xbcf54b2c	-0.029943071
39	0x3d3123e2	0.04324711
40	0xbc3bf713	-0.011472481
41	0xbe2668b0	-0.16250873
42	0x3e838535	0.25687566
43	0xbdf69232	-0.12039603
44	0x3e6968a0	0.22793818
45	0xbe1f2d07	-0.1554452
46	0xbd4d8834	-0.05017872
47	0xbd0391e3	-0.03212155
48	0x3e1469f7	0.14493547
49	0xbd253587	-0.04033425
50	0xbd641172	-0.0556807
51	0xbb6dcd2a	-0.0036285617
52	0x3c975211	0.01847175
53	0x3c454c1d	0.012042073
54	0x3bd3eb02	0.006467224
55	0xbe56cb82	-0.2097607
56	0x3cd86c9c	0.026418976
57	0xbe4fc576	-0.20290169
58	0xbbb42f37	-0.0054987925
59	0xbde0c505	-0.109750785
60	0x3db336de	0.087506995
61	0x3e244cde	0.16044948
62	0x3cd4bd88	0.025969282
63	0xbdf9fcf4	-0.1220645
64	0x3d398a46	0.045297883
65	0x3d9486fd	0.072523095
66	0xbc959cf6	-0.018263321
67	0xbe2a8c8c	-0.16655177
68	0x3e3ca17d	0.18420978
69	0xbd27ff76	-0.04101511
70	0x3c6590d5	0.014011581
71	0xbc52aa7b	-0.0128580285
72	0x3d23f29b	0.04002629
73	0xbd699143	-0.057023298
74	0xbd5da524	-0.05411257
75	0xbd74f470	-0.059803426
76	0x3c815254	0.015786327
77	0x3c50be2d	0.012740654
78	0xbd0503c1	-0.032474283
79	0x3dbd3c8f	0.09240066
80	0x3d835738	0.0641312
81	0x3d28e72b	0.041236084
82	0xbd616e9c	-0.055037126
83	0xbb47071e	-0.0030369232
84	0x3d8289d8	0.06373948
85	0xbb1ffa9f	-0.0024410856
86	0xbd482dbf	-0.048871752
87	0x3d33dbd7	0.043910827
88	0xbe07d526	-0.13264903
89	0xb8b73286	-8.735531e-05
90	0xbcccbfe8	-0.024993852
91	0x3bb64d42	0.005563409
92	0x3d960745	0.07325605
93	0xbcaae80d	-0.020862604
94	0xbc88f298	-0.01671724
95	0xbde9c47b	-0.11414429
96	0xbda8ced3	-0.082425736
97	0x3d076236	0.033052646
98	0x3df83285	0.12119011
99	0x3d50d85a	0.05098758
100	0x3e4c9efa	0.1998252
101	0xbde5f95c	-0.11229202
102	0xbe059b7a	-0.13047591
103	0xbdb9008f	-0.0903331
104	0xbd7e09e0	-0.062021136
105	0x3d783953	0.060601544
106	0xbb0f89f1	-0.0021902288
107	0xbd98f78d	-0.074690916
108	0xbb9ac35c	-0.0047229957
109	0x3d414dda	0.047193386
110	0xbd74bcda	-0.059750415
111	0xbcafd5aa	-0.021464188
112	0xbc0d005f	-0.0086060455
113	0x3da8c9dd	0.08241627
114	0x3dacf794	0.08445659
115	0xbcf7cf0f	-0.0302501
116	0x3d6e5ead	0.05819576
117	0xbc5dfac2	-0.013548555
118	0x3db56b0d	0.08858309
119	0x3cd1498d	0.025547767
120	0xbdf5478a	-0.119765356
121	0x3ddd4b2d	0.10805354
122	0x3e2020a0	0.15637445
123	0xbd463f0a	-0.048399962
124	0x3cfb61e7	0.030686332
125	0xbbcc3893	-0.00623233
126	0x3e209023	0.15679984
127	0x3dae2e28	0.08504897
128	0xbd39241e	-0.04520046
129	0xbdf57a66	-0.11986236
130	0xbd10f88c	-0.035393283
131	0xbde844b9	-0.11341233
132	0xbca23816	-0.019802134
133	0xbd757c41	-0.05993295
134	0x3d9493cc	0.072547525
135	0xbd8f50e0	-0.069978476
136	0x3d02e0ae	0.031952552
137	0xbca1f0f1	-0.01976821
138	0xbcad573f	-0.021159766
139	0x3dd74d5c	0.10512802
140	0x3c81bb33	0.015836334
141	0x3db8518f	0.08999931
142	0x3d2cde29	0.042204056
143	0x3c8c2484	0.017107256
144	0x3c4922d9	0.012276375
145	0xbde6c3af	-0.112677924
146	0xbd369c36	-0.044582568
147	0x3da7cea2	0.08193709
148	0xbd88a877	-0.06672757
149	0xbe4d8ef5	-0.20074065
150	0xbda7470b	-0.08167847
151	0x3d5a3f95	0.053283293
152	0x3d4f30d0	0.05058366
153	0x3e1ca6f5	0.15298064
154	0xbd4515b1	-0.04811639
155	0xbdfc7b53	-0.1232821
156	0x3b034787	0.0020031647
157	0x3df241e0	0.11828971
158	0x3c0261f5	0.007957925
159	0x3de5b540	0.11216211
160	0x3d735921	0.05941117
161	0x3c114e3e	0.008868752
162	0xbdf35158	-0.118807495
163	0xbe357bad	-0.1772296
164	0xbe4462b9	-0.19178285
165	0x3d725e39	0.05917189
166	0xbd404e0f	-0.046949442
167	0x3d2cc092	0.042175837
168	0x3d87bf3a	0.066282704
169	0x3c9240f8	0.017853245
170	0xbd6124af	-0.054966625
171	0x376967e5	1.3912072e-05
172	0xbd1b7e40	-0.0379622
173	0x3e3bbee8	0.18334544
174	0xbdefbaf8	-0.11705583
175	0xbdd9d394	-0.106360584
176	0xbc8541e4	-0.01626677
177	0xbd81370c	-0.063093275
178	0x3d0e718e	0.034776263
179	0x3c9ecdd2	0.019385252
180	0x3db8a3d2	0.09015621
181	0x3d817c86	0.06322579
182	0xbd558597	-0.052129354
183	0x3d0ef3b5	0.034900386
184	0x3c8e92e7	0.017404033
185	0xbe36159c	-0.17781681
186	0x3d87247d	0.065987565
187	0xbcf0d2fc	-0.02939748
188	0x3cd12b06	0.02553321
189	0x3a4891a2	0.00076510955
190	0x3dddf125	0.1083701
191	0x3e65aee2	0.22429994
192	0xbe0463e9	-0.12928738
193	0x3c350ef4	0.011050928
194	0x3de5aabe	0.11214207
195	0xbdabc3e7	-0.08386975
196	0x3d37961f	0.0448209
197	0x3c5bcf51	0.013416127
198	0xbd141773	-0.036155175
199	0xbcf30c3f	-0.029668925
200	0x3ba08380	0.0048984885
201	0xbe45c3ef	-0.19313024
202	0xbcee100e	-0.02906039
203	0x3dadd95c	0.08488724
204	0xbc3bdefb	-0.011466737
205	0x3d364c1d	0.04450618
206	0x3dfcb9ca	0.12340124
207	0xbe1c7e38	-0.15282524
208	0xbe08b2e1	-0.13349487
209	0x3e0fe7b0	0.14053226
210	0xbc802eb8	-0.015647277
211	0xbdc63deb	-0.09679779
212	0x3c5f4ad5	0.013628681
213	0x3e23ea66	0.16007385
214	0x3db4f14d	0.08835087
215	0xbd91c403	-0.071174644
216	0x3d77de4f	0.060514744
217	0x3d8d258d	0.06891928
218	0xbd8b3e4a	-0.0679899
219	0x3c6bfca7	0.014403499
220	0x3d9fa64d	0.07795391
221	0xbc1961f0	-0.009361729
222	0x3d96816a	0.073489025
223	0x3ce48fa7	0.02790053
224	0xbc6065a5	-0.013696109
225	0xbdaf93d9	-0.085731216
226	0x3e81cd51	0.25351956
227	0x3e3b14d4	0.18269664
228	0xbdd5418a	-0.10412891
229	0x3d58fd59	0.052975986
230	0xbd942679	-0.072339006
231	0x3e006b53	0.12540941
232	0xbe01776f	-0.12643217
233	0x3d0e8257	0.03479227
234	0x3c18fb15	0.009337206
235	0xbd991963	-0.07475545
236	0xbd183394	-0.037158564
237	0x3d101aa6	0.035181664
238	0x3e07f3b6	0.13276562
239	0xbd9f9e06	-0.077938125
240	0xbd77f44f	-0.060535725
241	0x3db606e9	0.08888037
242	0x3d65a767	0.05606785
243	0x3b948126	0.0045319973
244	0x3d23eead	0.04002254
245	0x3e1d5ae9	0.1536671
246	0x3dd2aa9e	0.10286449
247	0xbd5902f8	-0.052981347
248	0xbceed83d	-0.029155845
249	0x3db51dac	0.0884355
250	0x3d29d442	0.04146219
251	0xbe6626bd	-0.22475715
252	0xbd818aa6	-0.06325273
253	0xbd0a5f22	-0.033782132
254	0xbd8babd9	-0.06819887
255	0xbe3a76eb	-0.18209426

network_body._body_endoder.seq_layers.2.bias f4 [128]
0	0xbd0de98a	-0.03464655
1	0x3d2d0aed	0.042246748
2	0x3d4327df	0.047645446
3	0x3c05e0ea	0.0081712995
4	0xbd0dbe45	-0.034605283
5	0xbc4b46dd	-0.012407032
6	0x3bec097d	0.0072032795
7	0xbc9f53cf	-0.019449143
8	0x3d99444c	0.0748373
9	0x3d0e879d	0.0347973
10	0x3ca50941	0.020146014
11	0xbb392518	-0.002825087
12	0x3d0b6a74	0.03403707
13	0x3d8c9b30	0.06865537
14	0x3d980fe1	0.07424904
15	0xb8a822d8	-8.0173544e-05
16	0x3c47c67f	0.012193321
17	0xbdb096ef	-0.08622538
18	0x3cf1768d	0.029475475
19	0x3b91bbc4	0.0044474322
20	0xbbce8c1c	-0.0063033234
21	0x3cda738e	0.026666429
22	0xbb2cd6bb	-0.0026373107
23	0x3d887057	0.06662052
24	0x3bddd9e4	0.0067703594
25	0xbc7a35ec	-0.015271645
26	0xbcb9739d	-0.022638137
27	0x3c397491	0.0113192955
28	0xbd847479	-0.06467528
29	0xbcf59431	-0.02997789
30	0x3b6a5e33	0.0035761714
31	0x3cf6a5cd	0.030108357
32	0xbcec0bab	-0.028814157
33	0x3cf6fa2f	0.030148594
34	0x3c798a8d	0.015230787
35	0xbd2c7e00	-0.04211235
36	0xbd1b6b13	-0.03794391
37	0xbae40575	-0.0017396646
38	0xbd9a1510	-0.075235486
39	0x3d08522f	0.0332815
40	0xbc58770c	-0.013211977
41	0xbd57703a	-0.052597262
42	0xbd3fb998	-0.046807855
43	0xbd26886c	-0.040657446
44	0x3cb6e013	0.022323644
45	0x3d890d0c	0.066919416
46	0xbaf07ec2	-0.0018348324
47	0x3cf84951	0.030308397
48	0xbcb0f668	-0.02160187
49	0xbc3b1575	-0.01141869
50	0xbc0cb6ab	-0.008588473
51	0xbd7344d2	-0.059391804
52	0x3d246997	0.04013976
53	0xbcd35f8e	-0.0258024
54	0xbd95fda8	-0.07323772
55	0xbd173a44	-0.0369208
56	0xbd548170	-0.051881254
57	0x3c5feed4	0.013667781
58	0x3d419c58	0.04726824
59	0x3cb281c1	0.021790387
60	0xbba5da3b	-0.0050614155
61	0x3c6f0408	0.0145883635
62	0xbd4eacf6	-0.050457917
63	0x3ba9f43a	0.005186585
64	0x3db1bc9d	0.08678553
65	0x3d9a42ae	0.075322494
66	0xbce37dd7	-0.027769966
67	0xbd5d4dae	-0.05402916
68	0xbd48cccd	-0.04902344
69	0xbd3647a3	-0.04450191
70	0x3ad84ffc	0.0016503329
71	0x3cab3ad3	0.020902073
72	0x3d993963	0.07481649
73	0x3d5b5abc	0.053553328
74	0xbcfafbcf	-0.03063765
75	0x3d6aff8d	0.05737262
76	0x3c5100f4	0.012756575
77	0x3cc3fe7d	0.02392506
78	0x3d92386f	0.0713967
79	0xbd73d24d	-0.05952673
80	0xbd232b24	-0.039836064
81	0xbdb589e9	-0.08864195
82	0x3d02618c	0.03183131
83	0x3d6d0dd6	0.057874523
84	0x3d9cb5c8	0.076518595
85	0xbd229e3f	-0.039701696
86	0xbd292927	-0.04129901
87	0xbd804254	-0.06262651
88	0x3d367ee3	0.044554602
89	0x3abf17be	0.0014579219
90	0x3cdba81b	0.026813557
91	0xb9d84663	-0.00041251173
92	0xbd463f47	-0.04840019
93	0x3bd8e10f	0.006618626
94	0x3d06746b	0.03282587
95	0x3cc2a8fe	0.023762222
96	0x3db9b5a8	0.09067851
97	0xbd213a42	-0.0393622
98	0xbc8f005d	-0.017456228
99	0xbb821531	-0.0039698114
100	0xbd6a2ada	-0.057169773
101	0x3ca3cbab	0.019994577
102	0x3cea4879	0.02859901
103	0xbb0a0499	-0.002105987
104	0x3aa7b3ef	0.0012794713
105	0x3c5ebe09	0.013595113
106	0x3d4998fa	0.049218155
107	0xbd53ea40	-0.05173707
108	0xbb32a0d3	-0.0027256503
109	0xbc308aa7	-0.010775245
110	0xbd3d377c	-0.046195492
111	0xbcb2ec99	-0.021841334
112	0xbd8280cd	-0.06372223
113	0xbbaf4016	-0.005348216
114	0x3d904a62	0.070454374
115	0x3d5e2f04	0.054244056
116	0x3d1facd0	0.038983166
117	0x3c939578	0.018015608
118	0x3d88a480	0.06672001
119	0x3d81cdd6	0.06338088
120	0xbadc3a2d	-0.0016802006
121	0x3c7d5e81	0.015464426
122	0x3d2bdcf1	0.041958753
123	0xbb9851d3	-0.004648426
124	0xbd407f54	-0.04699643
125	0xbcd011e6	-0.02539916
126	0xbd947e63	-0.07250669
127	0xbc53bbf6	-0.012923231

action_model._continuous_distribution.log_sigma f4 [1, 3]
0	0xbe9319c1	-0.28730586
1	0xbea85aba	-0.3288172
2	0xbef70525	-0.48246112

action_model._continuous_distribution.mu.weight f4 [3, 128]
0	0x3d2e6fd7	0.042587128
1	0xbb9f54f1	-0.0048624207
2	0xbd18be60	-0.03729093
3	0xbc38870e	-0.011262668
4	0x3cb28fbc	0.021797054
5	0x3d483692	0.048880167
6	0xbb6d4be4	-0.0036208564
7	0x3e45174f	0.19247173
8	0xbda3fc32	-0.08007087
9	0xbc2add13	-0.010428685
10	0xbb156368	-0.0022794846
11	0xbac5dcad	-0.0015095674
12	0xbd43d94a	-0.047814645
13	0xbccf3cc8	-0.025297537
14	0xbd990f01	-0.07473565
15	0xbb5e0967	-0.0033880116
16	0x3c70a3c1	0.0146874795
17	0x3d8e26a7	0.06940966
18	0xbcf24eb8	-0.029578552
19	0x3d10002a	0.035156406
20	0x3c900a9f	0.01758319
21	0xbd79d41e	-0.060993306
22	0xbc23de73	-0.0100017665
23	0x3cd77d0f	0.02630475
24	0xbc328582	-0.010896089
25	0x3c0eb09f	0.008709102
26	0x3d876239	0.06610531
27	0x3ce3a42a	0.02778824
28	0x3d388cbf	0.0450561
29	0x3d188c9b	0.037243467
30	0x3d19ca4e	0.03754645
31	0xbd858406	-0.06519322
32	0x3c7e2260	0.015511125
33	0xbd2b181f	-0.04177105
34	0xbc6ccf63	-0.014453742
35	0x3d419890	0.047264636
36	0x3e010c29	0.12602295
37	0x3db37dd5	0.08764235
38	0x3d564e8c	0.052321002
39	0xbca95e82	-0.020674948
40	0x3de2150a	0.11039169
41	0x3e5ad79c	0.21371311
42	0x3c627fd3	0.013824421
43	0x3d182384	0.037143245
44	0xbd4416c9	-0.047873292
45	0xbd0eac98	-0.034832567
46	0x3d057ab9	0.03258774
47	0xbbe2a28b	-0.0069163493
48	0x3bc2d76f	0.005946092
49	0xbc936007	-0.017990125
50	0x3bdc0757	0.006714742
51	0x3d87db40	0.066336155
52	0xbcadf77e	-0.021236178
53	0x3b0e999c	0.0021759039
54	0x3d46a5ab	0.048497837
55	0x3d048214	0.032350615
56	0x3d37d680	0.044882298
57	0x3c685fea	0.014183024
58	0xbd599e57	-0.05312952
59	0xbb5dd775	-0.0033850346
60	0x3dbae5c6	0.09125857
61	0xbd001331	-0.031268302
62	0x3d2e3add	0.042536605
63	0x3d2d4c0e	0.04230886
64	0xbd8ca4a7	-0.068673424
65	0xbd82e509	-0.06391341
66	0x3d3e77ea	0.046501078
67	0x3dbf8862	0.09352185
68	0x3ad8a904	0.0016529863
69	0x3c8c0fd8	0.017097399
70	0xb7a6267c	-1.9806663e-05
71	0xbc3b7a37	-0.0114427125
72	0xbd294894	-0.04132898
73	0xbd508bca	-0.050914563
74	0x3cc823f7	0.024431212
75	0xbd2e397f	-0.0425353
76	0xbc2c1499	-0.010502958
77	0x3c8c679b	0.017139247
78	0xbd7570c0	-0.05992198
79	0x3caef869	0.021358686
80	0x3b8e5572	0.004343682
81	0x3d09f523	0.033681046
82	0xbbb4fe11	-0.005523451
83	0xbce6d44c	-0.028177403
84	0xbca0200f	-0.019546537
85	0x3d45a3b4	0.048251823
86	0x3d423378	0.047412366
87	0x3d9e1afc	0.077199906
88	0xbccba3a3	-0.024858302
89	0x3ce2c49b	0.02768164
90	0xbd0c8bcf	-0.03431302
91	0xbbd1b158	-0.006399315
92	0x3d657244	0.056017175
93	0x3c27c6c2	0.010240259
94	0xbcbd81b5	-0.023133138
95	0xbcc628ea	-0.024189431
96	0xbd50f487	-0.05101445
97	0x3e6e843b	0.2329263
98	0x3db66871	0.08906639
99	0x3c16a22c	0.009193938
100	0x3d68822b	0.056764763
101	0xbc88f6cb	-0.016719243
102	0x3d1cf019	0.038314912
103	0x3c6132b0	0.013744995
104	0x394e29be	0.00019661241
105	0xbc4b1fe8	-0.012397744
106	0xbd62f1d8	-0.05540642
107	0x3d8b7531	0.06809462
108	0x3cc4a426	0.024004053
109	0xbbe04f74	-0.006845409
110	0x3c7bb42b	0.01536278
111	0x3c0d636e	0.008629663
112	0x3d4d028a	0.05005125
113	0x3b7d3029	0.0038633442
114	0xbd30455f	-0.043034907
115	0xbd039fa0	-0.032134652
116	0x3d146d0e	0.036236815
117	0x3b14c88b	0.002270254
118	0xbd252eb6	-0.04032775
119	0xbd97648d	-0.073922254
120	0x3c393571	0.011304245
121	0x3b8a6520	0.004223481
122	0xba0535f0	-0.00050815847
123	0x3c09831e	0.008393077
124	0x3e2e8b34	0.1704529
125	0x3d02a0c5	0.031891603
126	0x3db58baf	0.08864533
127	0x3cd8b5a7	0.026453806
128	0x3bb81a01	0.0056183343
129	0x3d5ef106	0.054429077
130	0x3d222f6f	0.039596017
131	0xbce27072	-0.027641509
132	0x3bfe0829	0.0077524376
133	0xbba492ce	-0.0050223833
134	0xbc060f5b	-0.008182372
135	0xbdbacfc3	-0.09121659
136	0xbdb0df9b	-0.08636399
137	0xbcf8a609	-0.03035261
138	0xbaee5d0e	-0.0018185691
139	0xbd6eb6f5	-0.05827995
140	0xbcc76d2f	-0.024344055
141	0x3d0f4448	0.034977227
142	0x3b03c05f	0.0020103676
143	0xbc555b40	-0.013022244
144	0x3cdc783a	0.026912797
145	0x3c5cc4f0	0.013474688
146	0xbc8457ee	-0.01615521
147	0x3d83cf66	0.064360425
148	0x3d48b2c8	0.048998624
149	0x3cd0b295	0.02547578
150	0x3a0a908f	0.0005285823
151	0x3daf2ed7	0.08553856
152	0xbcea96d2	-0.02863637
153	0x3cd3167e	0.025767561
154	0xbb81b5e4	-0.0039584506
155	0x3d98379c	0.07432482
156	0x3d331122	0.04371751
157	0xbd96c543	-0.073618434
158	0xbb600b5e	-0.0034186463
159	0xbcbd7bdc	-0.02313035
160	0xbaa2b07c	-0.0012412216
161	0xbc107303	-0.008816483
162	0x3c21cd66	0.009875631
163	0xbcb8de59	-0.022566961
164	0xbd387f0e	-0.045043044
165	0xbd9011a4	-0.07034615
166	0x3d77a13f	0.06045651
167	0x3c86fd91	0.016478332
168	0xbb4d99ff	-0.0031372306
169	0xbd37e64b	-0.04489736
170	0x3bb32404	0.00546694
171	0xbd2436a6	-0.04009118
172	0x3d06d29f	0.032915708
173	0x3dde1363	0.108435415
174	0xbd4c2deb	-0.04984848
175	0xbd0219b2	-0.031762786
176	0x3d0a4e73	0.03376622
177	0x3c4fbf6b	0.012679915
178	0x3bf4519a	0.0074560167
179	0x3990f850	0.00027650828
180	0xbd3ceb80	-0.046123028
181	0x3cdafb43	0.026731139
182	0xbc4f3089	-0.012645849
183	0xbd3cefb9	-0.046127055
184	0xbd8587cd	-0.065200426
185	0xbd8541be	-0.0650668
186	0x3aa94032	0.0012912808
187	0x3c50cd60	0.012744278
188	0xbcd07adc	-0.025449209
189	0x3b765077	0.0037584582
190	0x3b5f7100	0.0034094453
191	0x3d39a7bc	0.04532598
192	0x3d10eb08	0.035380393
193	0xbc8485e5	-0.016177127
194	0xbc6abdc5	-0.014327471
195	0x3a921e70	0.0011147987
196	0x3bea85fe	0.0071570864
197	0xbcfa8ef3	-0.030585742
198	0xbd4fa406	-0.050693534
199	0x3cf7f928	0.030270174
200	0x3c9b1bee	0.018934216
201	0xbaf3fb16	-0.0018614258
202	0x3b9e4836	0.0048303856
203	0x3c843fcc	0.016143702
204	0x3cae6413	0.021287953
205	0x3d199daa	0.037503876
206	0x3a5121d0	0.0007977756
207	0x3cafac75	0.021444539
208	0xbbcf838c	-0.0063328203
209	0x3b856083	0.004070343
210	0x3d35cda4	0.044385567
211	0xbc5c78a7	-0.0134565
212	0x3a544484	0.0008097368
213	0x3c293d67	0.010329581
214	0x3b70b97f	0.0036731658
215	0xbcbe61da	-0.023240019
216	0xbd1aed4e	-0.037823968
217	0x3d8afbd7	0.06786316
218	0x3d199679	0.037497018
219	0x3cd5dfb7	0.026107652
220	0x3a09e74d	0.0005260602
221	0xbc0c11d8	-0.008549176
222	0xbc94f4e9	-0.018183189
223	0x3c0e4e18	0.008685611
224	0x3ca48295	0.020081798
225	0xbd0a03ba	-0.03369496
226	0xbd014dd7	-0.031568374
227	0xbc6d03bb	-0.014466221
228	0xbd5d5c20	-0.054042935
229	0xbd5fe150	-0.054658234
230	0x3d47fc1f	0.048824426
231	0x3d12b952	0.035821266
232	0x3c822687	0.015887512
233	0xbb059d7b	-0.0020388055
234	0xbd104eaf	-0.03523129
235	0xbb52ad32	-0.003214669
236	0xbd10ec00	-0.035381317
237	0x3c9d1cee	0.019178834
238	0x3d1b92f4	0.037981942
239	0xbccecfd5	-0.025245586
240	0x3c8c6c73	0.017141556
241	0xbcd1d9e5	-0.025616596
242	0xbd54bac1	-0.051935915
243	0x3d1c05ae	0.038091354
244	0xbc737927	-0.014860428
245	0xbca55661	-0.02018279
246	0x3d2b1776	0.04177042
247	0xbd4218be	-0.047386877
248	0x3d242bd0	0.040080845
249	0x3d6e9119	0.058243845
250	0xbd58182b	-0.052757423
251	0xbcc9bdc8	-0.024626628
252	0xbc3bc34e	-0.0114601385
253	0x3ccf5cb9	0.025312768
254	0x3c71163a	0.014714772
255	0x3d431f57	0.04763731

action_model._continuous_distribution.mu.bias f4 [3]
0	0xbd9cad1e	-0.07650207
1	0x3c2aadf2	0.010417448
2	0x3ac140ea	0.0014744077

exp_avg f4 [128, 11]
0	0x3b695495	0.0035603393
1	0x396cd6de	0.00022586758
2	0xbb95bf22	-0.004569904
3	0x00000000	0.0
4	0xb8586e61	-5.160121e-05
5	0x00000000	0.0
6	0x39ab75ac	0.00032703334
7	0x3b644f45	0.0034837287
8	0x396948e6	0.00022247768
9	0xbb92183f	-0.0044584568
10	0x39735b27	0.00023208243
11	0xba11ab9d	-0.00055568834
12	0x3937bc08	0.00017522287
13	0xbaada173	-0.0013246968
14	0x00000000	0.0
15	0xb75268af	-1.2541349e-05
16	0x00000000	0.0
17	0x398a696a	0.0002639995
18	0xbb2a6133	-0.0025997877
19	0x3943b008	0.00018662226
20	0xba44bfaf	-0.000750537
21	0x39c6407f	0.00037813556
22	0xb88fc70d	-6.8558475e-05
23	0xb6b707d6	-5.454737e-06
24	0xb8b65968	-8.6950895e-05
25	0x00000000	0.0
26	0xb7cdcef7	-2.453428e-05
27	0x00000000	0.0
28	0xb8049e71	-3.1618812e-05
29	0x3a1eafd8	0.00060534244
30	0xb6c9db52	-6.015799e-06
31	0xba38eebb	-0.00070546166
32	0xb852e646	-5.028236e-05
33	0xba85adcd	-0.0010198891
34	0xb83b05d0	-4.4589688e-05
35	0x3add174f	0.0016867908
36	0x00000000	0.0
37	0x38a43c01	7.831306e-05
38	0x00000000	0.0
39	0xb8718cbc	-5.7589947e-05
40	0xba76d393	-0.0009415682
41	0xb82abcaa	-4.0706866e-05
42	0x3b09eacc	0.002104449
43	0xb8e2d69d	-0.000108164946
44	0xbae39562	-0.0017363245
45	0xb8bf2ee0	-9.116321e-05
46	0x3af549ad	0.0018713974
47	0x00000000	0.0
48	0x382b17f7	4.0791896e-05
49	0x00000000	0.0
50	0xb908c483	-0.00013043177
51	0xbade8e8d	-0.0016979739
52	0xb8bbe36b	-8.959215e-05
53	0x3af3ca95	0.0018599803
54	0xb8a858cb	-8.027403e-05
55	0xb83528a6	-4.319162e-05
56	0xb7b7181b	-2.1826525e-05
57	0xb9741ec4	-0.00023281114
58	0x00000000	0.0
59	0x37cf4878	2.4710069e-05
60	0x00000000	0.0
61	0xb699bdbd	-4.5818438e-06
62	0xb94507be	-0.00018790268
63	0xb7b8436b	-2.1965903e-05
64	0x39afb02a	0.00033509854
65	0x3544d1eb	7.332116e-07
66	0xbb2f38c1	-0.0026736709
67	0xb982aa6d	-0.0002492251
68	0x3b8cf9fd	0.004302262
69	0x00000000	0.0
70	0x387b0b1b	5.9853406e-05
71	0x00000000	0.0
72	0xb9cc4263	-0.00038959374
73	0xbb28603a	-0.002569212
74	0xb984c4ac	-0.00025323534
75	0x3b4ea3fa	0.0031530843
76	0xb9c4f8ef	-0.00037569503
77	0x39a3b9fc	0.00031228352
78	0x3855e90a	5.1000192e-05
79	0xb985cd15	-0.00025520535
80	0x00000000	0.0
81	0xb7b5c766	-2.1669734e-05
82	0x00000000	0.0
83	0x388d4b9b	6.7374865e-05
84	0xb93f01ea	-0.00018215892
85	0x385971a4	5.1842668e-05
86	0xba0801d8	-0.0005188263
87	0x38ae6c7a	8.317172e-05
88	0xb8c3e661	-9.341236e-05
89	0x3905c195	0.00012755983
90	0xb9f6f926	-0.00047106406
91	0x00000000	0.0
92	0xb90ed4f8	-0.00013621512
93	0x00000000	0.0
94	0x39072cd4	0.00012891303
95	0xba0b2b8e	-0.00053089194
96	0x39021cd9	0.00012408513
97	0xbb0dc702	-0.002163351
98	0x390b8337	0.00013304954
99	0x38ebdcf8	0.00011246832
100	0xb8939da1	-7.038867e-05
101	0x3ab5d66a	0.0013873104
102	0x00000000	0.0
103	0x392104f3	0.00015356
104	0x00000000	0.0
105	0xb8b79d1f	-8.755386e-05
106	0x3a2df76f	0.0006636297
107	0xb88892bc	-6.512317e-05
108	0x3aeef083	0.0018229637
109	0xb9a0701a	-0.000306011
110	0x3a219fc2	0.00061654684
111	0x397a8df3	0.00023894738
112	0xbade6f00	-0.0016970336
113	0x00000000	0.0
114	0xb96a4362	-0.00022341081
115	0x00000000	0.0
116	0x397e7dd9	0.0002427021
117	0xba3f3485	-0.0007293898
118	0x3979b38e	0.0002381338
119	0xbb536597	-0.0032256597
120	0x39ccb7a2	0.0003904673
121	0x3a21c2d0	0.0006170692
122	0xb7077364	-8.0734935e-06
123	0xba7285f6	-0.0009251529
124	0x00000000	0.0
125	0x37c93bb2	2.3988865e-05
126	0x00000000	0.0
127	0x378cecee	1.679963e-05
128	0x39f855f6	0.00047366292
129	0xb70d0b42	-8.406876e-06
130	0xb957d569	-0.000205835
131	0x37d16a0f	2.4964129e-05
132	0xb8cf6217	-9.8888e-05
133	0xb810c9a2	-3.452006e-05
134	0x38ee7e20	0.00011372217
135	0x00000000	0.0
136	0x37b63443	2.1720427e-05
137	0x00000000	0.0
138	0xb85c318a	-5.2498224e-05
139	0x38adfc03	8.296224e-05
140	0xb809e630	-3.2877724e-05
141	0x39ce3849	0.00039333318
142	0xb877eb13	-5.910832e-05
143	0xb8099af7	-3.2807668e-05
144	0x37a4df27	1.9654237e-05
145	0xb8c75dcc	-9.5065305e-05
146	0x00000000	0.0
147	0xb7e4e284	-2.7285198e-05
148	0x00000000	0.0
149	0x378caf6e	1.6770991e-05
150	0xb98cc7cc	-0.0002685174
151	0x37a17852	1.9248724e-05
152	0xb9a36270	-0.00031163124
153	0x3809614d	3.2753964e-05
154	0xbb5798df	-0.0032897515
155	0xb826ce8a	-3.976984e-05
156	0x3afb01ae	0.0019150281
157	0x00000000	0.0
158	0xb908a547	-0.00013031541
159	0x00000000	0.0
160	0xb8a677d7	-7.937819e-05
161	0xbb78a1c0	-0.0037938207
162	0xb833ad5d	-4.2838383e-05
163	0x3a5348de	0.0008059869
164	0x37cacab5	2.417467e-05
165	0x3aa1f6e7	0.0012356908
166	0x385ed89f	5.313067e-05
167	0xba898b2e	-0.0010493749
168	0x00000000	0.0
169	0xb7963da8	-1.7910104e-05
170	0x00000000	0.0
171	0x388d6061	6.741356e-05
172	0x3acf7120	0.001582656
173	0x385aee10	5.2196963e-05
174	0x3712ffa7	8.761802e-06
175	0x3894162c	7.06132e-05
176	0xba4deac0	-0.000785511
177	0x384c8326	4.875953e-05
178	0x399e155f	0.0003015203
179	0x00000000	0.0
180	0xb790020f	-1.7167096e-05
181	0x00000000	0.0
182	0x3894fabf	7.103895e-05
183	0xbabac7b8	-0.0014250195
184	0x3851a449	4.9982486e-05
185	0x397cf9a2	0.00024125588
186	0x38d47f97	0.00010132713
187	0x39b30b53	0.00034149978
188	0xb7bac5a4	-2.2264961e-05
189	0xba2517fa	-0.0006297823
190	0x00000000	0.0
191	0x37f8cc76	2.9659113e-05
192	0x00000000	0.0
193	0x37a5f2e6	1.9782641e-05
194	0x39a6c225	0.00031806636
195	0xb7ab14d0	-2.039448e-05
196	0x3a4548c6	0.00075257977
197	0x38b39680	8.563418e-05
198	0x3a8e9a7e	0.0010879782
199	0x38da2276	0.00010401469
200	0xbb22004e	-0.002471942
201	0x00000000	0.0
202	0xb90c3916	-0.00013372707
203	0x00000000	0.0
204	0x3916d09f	0.00014382832
205	0x39cf3908	0.00039524608
206	0x38cf44ac	9.88332e-05
207	0xbaf8096e	-0.0018923709
208	0x39512523	0.00019945628
209	0x38d9e9c3	0.00010390908
210	0x3404e26a	1.2375827e-07
211	0x37f4301a	2.9109466e-05
212	0x00000000	0.0
213	0xb517fb9f	-5.661804e-07
214	0x00000000	0.0
215	0x359290a9	1.0919949e-06
216	0x392c7538	0.00016446866
217	0x3408d55d	1.2743608e-07
218	0xb7cd314d	-2.4460862e-05
219	0x3701db87	7.740112e-06
220	0xb8da4c59	-0.00010409271
221	0x3723789d	9.74364e-06
222	0xb955c4b3	-0.00020386539
223	0x00000000	0.0
224	0x3713c6e9	8.808195e-06
225	0x00000000	0.0
226	0x3796a32a	1.7957373e-05
227	0xb8576340	-5.135243e-05
228	0x37255ee5	9.856861e-06
229	0xb8b6e282	-8.720627e-05
230	0x3766c259	1.3754318e-05
231	0xb8a20156	-7.725011e-05
232	0xb95cb50b	-0.00021048279
233	0x3a99bbb1	0.001172891
234	0x00000000	0.0
235	0x390d12d8	0.00013453828
236	0x00000000	0.0
237	0xb99fab11	-0.00030454298
238	0x3a85d698	0.0010211049
239	0xb957c0d3	-0.0002057583
240	0x3adc03f4	0.0016785846
241	0xb96c9c67	-0.00022564978
242	0x3b3ebcd1	0.0029104243
243	0x3964ee8f	0.00021832644
244	0xbb6c569b	-0.0036062363
245	0x00000000	0.0
246	0xb8e0e186	-0.00010723159
247	0x00000000	0.0
248	0x3972fdd8	0.00023173483
249	0x3b250e3c	0.0025185486
250	0x39635d62	0.00021683195
251	0xbb5916d7	-0.0033125186
252	0x39825475	0.00024858458
253	0xb9f8c8aa	-0.00047451752
254	0xb783fa89	-1.5733081e-05
255	0xb895b673	-7.1388575e-05

exp_avg_sq f4 [128, 11]
0	0x3941d9a7	0.00018486996
1	0x35217377	6.01452e-07
2	0x394cff1c	0.00019549992
3	0x00000000	0.0
4	0x33fa7005	1.16619084e-07
5	0x00000000	0.0
6	0x35a610b7	1.2372828e-06
7	0x393a420c	0.00017762947
8	0x3522f17b	6.0701103e-07
9	0x39403def	0.00018333619
10	0x35201bd1	5.9645123e-07
11	0x3a9aa70f	0.0011799055
12	0x3698cb9f	4.5536576e-06
13	0x3aeb84bd	0.0017968636
14	0x00000000	0.0
15	0x35971c45	1.1258604e-06
16	0x00000000	0.0
17	0x3716ae06	8.981215e-06
18	0x3a92815e	0.001117747
19	0x3699f795	4.5885777e-06
20	0x3acc1e18	0.0015572933
21	0x367f4745	3.8039445e-06
22	0x363598e0	2.7060087e-06
23	0x33325497	4.152079e-08
24	0x373734b1	1.0919918e-05
25	0x00000000	0.0
26	0x32cfd4f2	2.4194808e-08
27	0x00000000	0.0
28	0x339a03a1	7.171844e-08
29	0x36dd3153	6.5920553e-06
30	0x33355260	4.2217266e-08
31	0x3756314f	1.27668745e-05
32	0x332399be	3.8091223e-08
33	0x3907263b	0.00012888845
34	0x3502a302	4.866598e-07
35	0x39226f62	0.00015491017
36	0x00000000	0.0
37	0x3418dfc9	1.4237516e-07
38	0x00000000	0.0
39	0x3580d4bc	9.598657e-07
40	0x3906c2fc	0.00012851873
41	0x35036a9a	4.895643e-07
42	0x391b878c	0.00014832447
43	0x35067a99	5.0097293e-07
44	0x3950d0d4	0.0001991422
45	0x353e9fa1	7.1012806e-07
46	0x396bacea	0.00022475762
47	0x00000000	0.0
48	0x342deca1	1.6197966e-07
49	0x00000000	0.0
50	0x35bf2961	1.4242652e-06
51	0x394ba440	0.00019420777
52	0x353fc163	7.143446e-07
53	0x39501159	0.00019842888
54	0x354a40f4	7.5345383e-07
55	0x359675c0	1.1210141e-06
56	0x321b73a6	9.048483e-09
57	0x35766b9a	9.179872e-07
58	0x00000000	0.0
59	0x3172420b	3.5253176e-09
60	0x00000000	0.0
61	0x3291b7c6	1.6963792e-08
62	0x361c90e4	2.333015e-06
63	0x3226039a	9.663291e-09
64	0x35f44b85	1.8201396e-06
65	0x324fbd1b	1.2091983e-08
66	0x3a147b1e	0.0005664098
67	0x3616b6c9	2.2458137e-06
68	0x3a295f41	0.00064610323
69	0x00000000	0.0
70	0x34be58c0	3.5454832e-07
71	0x00000000	0.0
72	0x369ec5a7	4.7317767e-06
73	0x3a20e2cc	0.0006137311
74	0x3617294a	2.2524787e-06
75	0x3a1fcf09	0.00060962193
76	0x362accee	2.5451259e-06
77	0x36aec095	5.2080236e-06
78	0x33a36e87	7.610384e-08
79	0x374fd617	1.2388008e-05
80	0x00000000	0.0
81	0x32d16905	2.437856e-08
82	0x00000000	0.0
83	0x3424492a	1.5300307e-07
84	0x37a0ece1	1.9183792e-05
85	0x33a4534d	7.6519974e-08
86	0x37774294	1.4737849e-05
87	0x33f05134	1.1190642e-07
88	0x36fcdaa4	7.5356384e-06
89	0x33f465a1	1.13806216e-07
90	0x37be8589	2.2711947e-05
91	0x00000000	0.0
92	0x335cfc4a	5.1452197e-08
93	0x00000000	0.0
94	0x345fc902	2.084162e-07
95	0x37bfe5fc	2.287607e-05
96	0x33f6e89e	1.14975805e-07
97	0x37e57bac	2.7356517e-05
98	0x34099580	1.2813507e-07
99	0x3952101b	0.0002003316
100	0x354c265e	7.6051754e-07
101	0x39977a7a	0.00028892217
102	0x00000000	0.0
103	0x34720eb1	2.2543351e-07
104	0x00000000	0.0
105	0x35c9b37a	1.5027902e-06
106	0x3950ab2c	0.00019900192
107	0x354d5451	7.649115e-07
108	0x3982b1d9	0.0002492804
109	0x3559918c	8.10506e-07
110	0x39a77fe3	0.00031948005
111	0x35adf19a	1.295982e-06
112	0x39f4ed2b	0.0004671601
113	0x00000000	0.0
114	0x34f1dd6b	4.505085e-07
115	0x00000000	0.0
116	0x3622fd6b	2.428739e-06
117	0x39962848	0.0002864024
118	0x35af3ea6	1.3056749e-06
119	0x39f1a5f4	0.00046090747
120	0x35905114	1.0752433e-06
121	0x37ae5ceb	2.0785685e-05
122	0x33c211fe	9.037102e-08
123	0x37eb53cc	2.8053204e-05
124	0x00000000	0.0
125	0x32be2271	2.2134573e-08
126	0x00000000	0.0
127	0x344393b9	1.8214531e-07
128	0x37d8eb42	2.5858757e-05
129	0x33c5f403	9.217913e-08
130	0x380472fe	3.1578347e-05
131	0x3364fadf	5.3313553e-08
132	0x3644b8ce	2.9313846e-06
133	0x332633ca	3.869699e-08
134	0x36d552ac	6.357519e-06
135	0x00000000	0.0
136	0x32975b1d	1.7620147e-08
137	0x00000000	0.0
138	0x3396e1b0	7.0259716e-08
139	0x36ff02ac	7.5999033e-06
140	0x332aa81d	3.9734108e-08
141	0x37171276	9.0046e-06
142	0x333194a6	4.134622e-08
143	0x35a3c465	1.2201605e-06
144	0x328e480a	1.6563735e-08
145	0x36776a0c	3.6867596e-06
146	0x00000000	0.0
147	0x321a41f7	8.9789784e-09
148	0x00000000	0.0
149	0x32fd1a2b	2.9464976e-08
150	0x36b1252c	5.2793384e-06
151	0x328e2fd1	1.655272e-08
152	0x366b2395	3.503844e-06
153	0x32b44e80	2.0990456e-08
154	0x39115a0f	0.00013861827
155	0x351dc538	5.877405e-07
156	0x397dc287	0.00024200427
157	0x00000000	0.0
158	0x343bd01f	1.7491446e-07
159	0x00000000	0.0
160	0x3599e8ce	1.1467143e-06
161	0x39175e9e	0.0001443573
162	0x351e1382	5.8887974e-07
163	0x396a9fe5	0.00022375544
164	0x35128913	5.458871e-07
165	0x38c18171	9.2270675e-05
166	0x34c643d3	3.6929723e-07
167	0x381fbdab	3.8085196e-05
168	0x00000000	0.0
169	0x334d212f	4.7760462e-08
170	0x00000000	0.0
171	0x355a5c16	8.134533e-07
172	0x38dcaa23	0.00010522108
173	0x34c69c0b	3.699391e-07
174	0x3882e293	6.241086e-05
175	0x352f66b5	6.534204e-07
176	0x381d775f	3.754289e-05
177	0x34871f9d	2.516871e-07
178	0x38ba1d96	8.874682e-05
179	0x00000000	0.0
180	0x33bff4a5	8.938631e-08
181	0x00000000	0.0
182	0x35022f4f	4.8497617e-07
183	0x381e285a	3.7707716e-05
184	0x348937e4	2.5558904e-07
185	0x38b45a73	8.599916e-05
186	0x3452a19e	1.961657e-07
187	0x369afd2e	4.6190316e-06
188	0x338d0d6b	6.568265e-08
189	0x375725b2	1.2823775e-05
190	0x00000000	0.0
191	0x32f5d8b3	2.8620297e-08
192	0x00000000	0.0
193	0x3403ce15	1.2275298e-07
194	0x37955922	1.780369e-05
195	0x338e3e24	6.6236936e-08
196	0x3747be34	1.1905609e-05
197	0x33bc4158	8.766318e-08
198	0x38ef9c7a	0.00011425554
199	0x34e2f633	4.2274914e-07
200	0x392e1817	0.00016602907
201	0x00000000	0.0
202	0x33e8ec3f	1.0846315e-07
203	0x00000000	0.0
204	0x3561b161	8.407715e-07
205	0x38e51302	0.000109231114
206	0x34e3f933	4.246336e-07
207	0x3910e314	0.00013817503
208	0x350bcb52	5.2077405e-07
209	0x36865754	4.0036775e-06
210	0x32ba649a	2.1698998e-08
211	0x3583d065	9.820911e-07
212	0x00000000	0.0
213	0x31a06d43	4.6690345e-09
214	0x00000000	0.0
215	0x334500c8	4.5868347e-08
216	0x36b259f1	5.315284e-06
217	0x32ba6903	2.1701004e-08
218	0x36a44e1a	4.896673e-06
219	0x3312d1c5	3.418406e-08
220	0x374d2514	1.2227585e-05
221	0x3396b905	7.018574e-08
222	0x3684972b	3.951505e-06
223	0x00000000	0.0
224	0x3245d453	1.1515186e-08
225	0x00000000	0.0
226	0x34225e6c	1.5121776e-07
227	0x3780dd42	1.536182e-05
228	0x3396c2fe	7.020388e-08
229	0x37c454a1	2.340443e-05
230	0x340062fe	1.1956942e-07
231	0x38158da6	3.565629e-05
232	0x34b2e0c3	3.331862e-07
233	0x38a22cb3	7.733088e-05
234	0x00000000	0.0
235	0x3441baeb	1.8042526e-07
236	0x00000000	0.0
237	0x351c4a9b	5.8223094e-07
238	0x3852bce0	5.0243805e-05
239	0x34b7260f	3.4114098e-07
240	0x38d91cf7	0.000103527615
241	0x34af5e37	3.266484e-07
242	0x392c3dbb	0.00016426195
243	0x35273f1a	6.2304173e-07
244	0x396e1796	0.00022706235
245	0x00000000	0.0
246	0x346b8659	2.1934956e-07
247	0x00000000	0.0
248	0x359c1c87	1.1631208e-06
249	0x392e641c	0.00016631227
250	0x35292843	6.3015995e-07
251	0x3974ce87	0.00023346591
252	0x34ddf00d	4.1339118e-07
253	0x37bd060c	2.2533372e-05
254	0x33e43f70	1.06286166e-07
255	0x36da0e0a	6.4985406e-06

exp_avg f4 [128]
0	0x39b518ce	0.0003454149
1	0x398b94af	0.00026622924
2	0xb72edeab	-1.0423052e-05
3	0xb88a027e	-6.580817e-05
4	0xb912d81f	-0.00014004156
5	0xb7d8624b	-2.5794978e-05
6	0xb9c723b0	-0.00037982827
7	0x38a11549	7.681043e-05
8	0x39432857	0.00018611677
9	0xb8dc9593	-0.00010518278
10	0x39b2f9e5	0.00034136992
11	0xb6b6f15a	-5.4521197e-06
12	0xb8786a7e	-5.9226986e-05
13	0x37e9327b	2.7799271e-05
14	0xb87efed5	-6.079565e-05
15	0x38ab61f9	8.172164e-05
16	0x389a4a9d	7.35719e-05
17	0xb79a95f3	-1.8428056e-05
18	0x392a3ef4	0.00016235915
19	0x34971c66	2.8146604e-07
20	0x37817bc7	1.5435637e-05
21	0xb9ae2450	-0.0003321492
22	0x39a0e3da	0.0003068734
23	0xb7e26076	-2.6986218e-05
24	0xb9a586e8	-0.00031571765
25	0xb6f00bb1	-7.1539184e-06
26	0xb7245693	-9.795319e-06
27	0xb7a93f3e	-2.017582e-05
28	0x39994d77	0.0002924015
29	0x38aaf284	8.151404e-05
30	0x36a69645	4.964679e-06
31	0x38dc0057	0.00010490481
32	0xb989897e	-0.00026233116
33	0x37d2ea17	2.5142957e-05
34	0xb87950c1	-5.9441434e-05
35	0xb7611d8d	-1.3417925e-05
36	0x39c5ccd8	0.0003772739
37	0x39291b83	0.00016127345
38	0x382469a6	3.919904e-05
39	0xb8df654f	-0.00010652339
40	0x38f06c0e	0.000114642186
41	0xb83f9354	-4.567516e-05
42	0x39f2842d	0.00046256316
43	0xb81347db	-3.511445e-05
44	0x391568d7	0.00014248803
45	0x38db1cef	0.00010448123
46	0x39c14d8b	0.00036869603
47	0x397c5660	0.0002406477
48	0xb9560629	-0.00020410925
49	0x37c8a3d9	2.3918155e-05
50	0x38c2a6f8	9.281741e-05
51	0xb998ae0c	-0.00029121374
52	0xb93bdf74	-0.00017916952
53	0xb9a0387a	-0.00030559656
54	0xb7d84e3d	-2.5785639e-05
55	0xb92e08ed	-0.00016597258
56	0x37eff625	2.860564e-05
57	0xb624ac54	-2.4538213e-06
58	0x3986b7c4	0.00025695388
59	0xb8e3bbff	-0.000108592205
60	0xb76b5ef9	-1.4029204e-05
61	0x39ce3d3b	0.00039337002
62	0xb91576c5	-0.00014253992
63	0xba21dca8	-0.0006174543
64	0xb9370175	-0.00017452783
65	0x37c1a12f	2.308245e-05
66	0xb6b4eb82	-5.3918347e-06
67	0xb8934fd5	-7.024376e-05
68	0xb7e12e92	-2.6843776e-05
69	0xb8393374	-4.4155357e-05
70	0xb9902e6d	-0.0002750041
71	0x38435e41	4.6579404e-05
72	0x37bea458	2.2726294e-05
73	0x399d9e6d	0.0003006341
74	0xb7da0a7b	-2.5992505e-05
75	0x38cbc0d5	9.715712e-05
76	0xb9a063d0	-0.00030591944
77	0xb918b122	-0.00014561837
78	0xb917c80d	-0.00014475007
79	0xb7d1a048	-2.4989378e-05
80	0x374f5f80	1.2360397e-05
81	0x38b00b0f	8.394394e-05
82	0x38abf0cd	8.198768e-05
83	0xb8eb0a70	-0.00011207617
84	0xba37cffc	-0.0007011888
85	0xb6992736	-4.56432e-06
86	0xb889d797	-6.572826e-05
87	0xb891a518	-6.94489e-05
88	0xba0b9848	-0.0005325121
89	0xb8289e99	-4.0202027e-05
90	0x37b19196	2.1167838e-05
91	0xb75f26bf	-1.3300857e-05
92	0x388278fa	6.221417e-05
93	0x394e1fcd	0.00019657538
94	0xb7430fd4	-1.1626591e-05
95	0xb81e91b1	-3.780582e-05
96	0x36303875	2.6258906e-06
97	0x397e8665	0.00024273394
98	0x3849fc8e	4.8157344e-05
99	0xb99d4a05	-0.00030000522
100	0x384b6f9d	4.850292e-05
101	0x38a24126	7.736897e-05
102	0x3a6e9c75	0.00091022934
103	0xb7f44e6c	-2.9123585e-05
104	0x38c9de23	9.625803e-05
105	0x3904b7c1	0.00012656955
106	0xb7f46565	-2.9134282e-05
107	0xb92eb4c4	-0.00016661274
108	0x3a56f152	0.00081994117
109	0x392d65bf	0.00016536469
110	0xb90e9b01	-0.00013599919
111	0x38f2a9b9	0.000115710725
112	0x38bd1805	9.016696e-05
113	0x38a09143	7.6564516e-05
114	0xb96de1c2	-0.00022686183
115	0x397747c5	0.00023582492
116	0xb885df62	-6.3835425e-05
117	0x3799993a	1.8310373e-05
118	0xb9456edb	-0.00018828681
119	0x394ad98b	0.00019345262
120	0x348c808d	2.6170565e-07
121	0xb9228add	-0.00015501255
122	0x3770b822	1.43479865e-05
123	0x3a4b183b	0.0007747446
124	0xb99eff2b	-0.00030326223
125	0x391bedd9	0.00014870557
126	0x3779cd34	1.4889334e-05
127	0x39ddb780	0.00042289123

exp_avg_sq f4 [128]
0	0x35be5d87	1.4183323e-06
1	0x3733ff07	1.072861e-05
2	0x33d1f218	9.7763575e-08
3	0x359a2524	1.1484703e-06
4	0x35e0d19f	1.6750308e-06
5	0x32b54749	2.110359e-08
6	0x36b1ccdd	5.2988603e-06
7	0x34413ab1	1.7995877e-07
8	0x348f2488	2.6662406e-07
9	0x35f0aeb5	1.793224e-06
10	0x364c1aae	3.0413898e-06
11	0x3464725e	2.1275761e-07
12	0x33c306cf	9.0816336e-08
13	0x3326d6c6	3.8845222e-08
14	0x35b9bd7e	1.3838724e-06
15	0x356a9f7a	8.740386e-07
16	0x351fb39a	5.949347e-07
17	0x3425b86e	1.5433918e-07
18	0x35855409	9.93373e-07
19	0x335c7456	5.132855e-08
20	0x343241b0	1.6601439e-07
21	0x35522e13	7.8298143e-07
22	0x35c3e91f	1.4596479e-06
23	0x34842ca7	2.4619405e-07
24	0x36372183	2.7288631e-06
25	0x36e08c9d	6.6920898e-06
26	0x339c33ed	7.273761e-08
27	0x3365b11a	5.347929e-08
28	0x35be47d4	1.4177008e-06
29	0x34a421cc	3.057197e-07
30	0x342489fc	1.5323889e-07
31	0x35acf4f4	1.2886289e-06
32	0x35c12502	1.4390391e-06
33	0x3443fbe6	1.825243e-07
34	0x33afcb43	8.1860456e-08
35	0x34ac82a2	3.2132544e-07
36	0x35712993	8.9839995e-07
37	0x35446a88	7.3170713e-07
38	0x359dfe2a	1.1771383e-06
39	0x3462ccec	2.112244e-07
40	0x34113dfb	1.3526726e-07
41	0x34207e75	1.4947166e-07
42	0x3643d552	2.9181433e-06
43	0x334b6eb1	4.7365294e-08
44	0x35fb6817	1.8731251e-06
45	0x35fab252	1.867835e-06
46	0x364ed96e	3.0822953e-06
47	0x36dff7f7	6.674785e-06
48	0x37f49558	2.915661e-05
49	0x33b26eae	8.3089034e-08
50	0x34045f01	1.232802e-07
51	0x359ab18f	1.152557e-06
52	0x35a611eb	1.2373179e-06
53	0x35a51ad2	1.2301264e-06
54	0x3521dac5	6.0295525e-07
55	0x365ad59b	3.2608866e-06
56	0x35309b33	6.5790954e-07
57	0x3420cc84	1.4975564e-07
58	0x36a80583	5.007432e-06
59	0x34131e4b	1.3701462e-07
60	0x364b2fd8	3.0277206e-06
61	0x362e7721	2.5997363e-06
62	0x35db6773	1.6346879e-06
63	0x365b34e5	3.2664332e-06
64	0x34a5232b	3.0759233e-07
65	0x33c6e95d	9.262542e-08
66	0x334a3431	4.7079258e-08
67	0x358ced14	1.0499812e-06
68	0x358d3ee7	1.0523626e-06
69	0x341eef97	1.4802059e-07
70	0x351b4d23	5.785425e-07
71	0x342786b0	1.5602086e-07
72	0x33dba846	1.0228591e-07
73	0x36100707	2.1461763e-06
74	0x351b3804	5.7823513e-07
75	0x3510f6ce	5.400333e-07
76	0x35a8d755	1.2579645e-06
77	0x36277164	2.4950941e-06
78	0x36bd9b70	5.6507342e-06
79	0x339ed3a0	7.395943e-08
80	0x33d93cca	1.01159074e-07
81	0x340e9dcc	1.3282187e-07
82	0x349e3c90	2.9473858e-07
83	0x35cd929e	1.5316361e-06
84	0x369b2624	4.6238e-06
85	0x33d445da	9.884725e-08
86	0x3491de87	2.7170265e-07
87	0x33dbe786	1.0240096e-07
88	0x3629f514	2.5325617e-06
89	0x35164483	5.597905e-07
90	0x33d18a5e	9.75749e-08
91	0x33850fa2	6.196139e-08
92	0x361b18f7	2.3111331e-06
93	0x3424b7d9	1.5340574e-07
94	0x334c37e3	4.754828e-08
95	0x3336adca	4.2533237e-08
96	0x33141249	3.4475566e-08
97	0x364ad09e	3.0221777e-06
98	0x3656b94f	3.1996349e-06
99	0x3558ca57	8.0760714e-07
100	0x338c471c	6.532193e-08
101	0x34a9aec2	3.1605856e-07
102	0x38f62c7d	0.00011738481
103	0x34853af6	2.481608e-07
104	0x3548b2cc	7.476599e-07
105	0x335b8b2e	5.1116494e-08
106	0x34bdd6a1	3.5360156e-07
107	0x3684d943	3.959199e-06
108	0x37542873	1.26456025e-05
109	0x355a82c6	8.140163e-07
110	0x36484fcf	2.9848777e-06
111	0x34034fce	1.2229359e-07
112	0x3608e783	2.0400337e-06
113	0x34eadf84	4.3748526e-07
114	0x35b4ae2b	1.3461735e-06
115	0x36115474	2.1655842e-06
116	0x3430327d	1.6409645e-07
117	0x341a4938	1.4369004e-07
118	0x35945ee6	1.1054478e-06
119	0x35a06e46	1.1953023e-06
120	0x32d472f6	2.4732326e-08
121	0x34fb6be1	4.6830885e-07
122	0x34761920	2.2919676e-07
123	0x3716cd1e	8.988454e-06
124	0x3693d709	4.405975e-06
125	0x35062c8a	4.9983703e-07
126	0x348e9422	2.6557342e-07
127	0x369e1866	4.7116073e-06
