results/HideAndSeek5_2/Hide/Hide-8499970.onnx (onnx, 161813 bytes, 7 tensors)

action_model._continuous_distribution.log_sigma f4 [1, 3]
000000 6c d8 f0 be 12 cf aa be 9b b7 00 bf
       -0.47040117 -0.33361107 -0.5028016

action_model._continuous_distribution.mu.bias f4 [3]
000000 8d 8e ff bb 9e 7a 8b 3c f7 28 19 bb
       -0.007798976 0.017026242 -0.0023370364

action_model._continuous_distribution.mu.weight f4 [3, 128]
000000 26 e3 06 bd 31 14 1f 3d 01 7b 37 3c 89 42 ac bd
       -0.03293147 0.038837615 0.01119876 -0.08411128
000010 5b 28 3f 3d ef 99 c2 3c a4 79 b0 3c 1e 7a 35 bd
       0.046669345 0.023755042 0.021542378 -0.044305913
000020 7b d1 7f bd 7d 55 a4 bd f0 98 31 bd 3c 6a 31 bd
       -0.062455636 -0.08024118 -0.043358743 -0.043314204
000030 fe 0a 1c 3c f6 7f 0e bd b4 2e 1d 3d eb 07 e2 bc
       0.009524105 -0.03479 0.038374618 -0.027591666
000040 a6 25 b0 bc 69 f1 be bc a6 70 b1 ba 1b 5c 12 bd
       -0.021502327 -0.023308473 -0.00135376 -0.03573237
000050 09 c2 94 3c c9 83 05 bd ce 22 6c 3d cf b7 1d bd
       0.01815893 -0.032596383 0.05765038 -0.03850537
000060 2c 3d c0 3c af b2 2f 3d 2b 14 79 bd e5 0c 94 3c
       0.023466669 0.042895015 -0.06081025 0.018072555
000070 bb 02 99 3c 08 71 94 3d 18 89 a4 bd 9c c9 8b 3c
       0.01867806 0.072481215 -0.08033961 0.017063908
000080 77 56 dc 3b 7d b9 19 bc 8a 9a dd 3c 5e ad 61 bc
       0.0067241746 -0.009382603 0.027051229 -0.013774244
000090 cf f0 35 3d 41 12 10 bd 33 0e da bb 4d 10 9e 3c
       0.044419106 -0.03517366 -0.0066545247 0.019294882
0000a0 d3 34 db 3c 8e 09 56 3c dc f1 af bc 2e f5 87 bd
       0.026758587 0.013063801 -0.021477632 -0.06638561
0000b0 36 20 af 3c 7d 77 77 bd 3a 4a ac 3c 27 cb aa bb
       0.021377664 -0.060416687 0.021031488 -0.005212206
0000c0 51 fa aa bb 1a 52 07 bd 29 a6 dd bb a1 4c 6c bd
       -0.0052178283 -0.033037283 -0.0067641926 -0.057690267
0000d0 e9 a0 2a bc 68 23 41 3d 88 a1 d8 3b 3d 40 97 bd
       -0.0104143405 0.047152907 0.006611053 -0.07385299
0000e0 5b 21 e9 3a 22 69 2f 3b 62 fd f6 3a b9 46 10 3d
       0.001778643 0.0026765545 0.0018843825 0.035223696
0000f0 21 52 ee 3c 2a 31 17 bc ec 14 2d bd a9 c9 50 bd
       0.029091896 -0.00922803 -0.04225628 -0.050973568
000100 c8 59 23 3d 07 4a 11 bb 55 f5 16 3d 42 6b 3b bd
       0.039880544 -0.0022169368 0.03685506 -0.045756586
000110 eb 42 bf bc 91 5f 01 3c 91 26 47 3d ef b3 92 3c
       -0.023347339 0.00789632 0.048620764 0.017908065
000120 68 e6 c5 3c 93 4c 42 3d a6 04 2c bd 60 77 a2 3c
       0.024157718 0.047436308 -0.04199662 0.019832313
000130 bc bb b5 bc 97 fc b0 bd 4d eb bf 3c 9f f9 fd 3c
       -0.022184245 -0.08641928 0.02342763 0.031002818
000140 06 0d c0 bd 8c b8 5b bd 30 3c 33 3d 93 a2 bc 3c
       -0.09377484 -0.053642794 0.04375857 0.02302674
000150 5e 54 82 3c 9a 3f 12 3d dd f8 87 bc 35 4d 74 3c
       0.01590937 0.035705186 -0.01659816 0.014910986
000160 20 7c ae 3c f4 04 db 3c 6b 48 71 3d ee 05 9a 3c
       0.021299422 0.02673576 0.058906954 0.018801656
000170 70 14 0b 3d 1d 78 d5 bd f1 0e 34 3d 87 68 64 3d
       0.033955038 -0.104233004 0.04395956 0.055763748
000180 ae ba 67 bd 9d 8d cb bd b3 76 53 3d ae d2 30 3d
       -0.056574516 -0.0993912 0.051626872 0.04316967
000190 6c b2 b4 bd 48 4b 49 3d fd fc fe 3b d1 45 f9 bc
       -0.08823094 0.04914406 0.0077816234 -0.030428799
0001a0 dc f8 2d bd 33 93 80 3c 2c 07 a5 3c e0 fd 76 bb
       -0.04247366 0.01569519 0.020145021 -0.0037687942
0001b0 4f 74 a0 39 03 18 1e 3d 8c ed 81 3d 57 78 0c 3d
       0.00030604235 0.038597118 0.063441366 0.034294453
0001c0 9e 4c 50 bd 94 5d d3 3c 3e 08 0c 3d 6e 22 2a bd
       -0.050854318 0.025801457 0.034187548 -0.04153674
0001d0 0a 4e 8a bd 79 8a bd bd 9f 63 42 bc 7c 4c 09 3d
       -0.06753166 -0.09254927 -0.011864572 0.033520207
0001e0 7d ba d2 3c d5 a8 d2 3c 08 11 69 3c aa f4 18 3d
       0.02572369 0.025715271 0.014225252 0.037342705
0001f0 c4 eb 12 3d 65 a4 77 3d 49 e8 68 bc cf bd 4e 3d
       0.035869375 0.060459513 -0.014215537 0.050473984
000200 60 b7 a9 bd d8 62 51 bc e8 b3 f0 bb 78 77 f3 bd
       -0.08286929 -0.012779914 -0.0073456652 -0.11888021
000210 e9 c4 25 3d 5d 3f ad 3d b9 a3 5b bb fa 5a 53 bd
       0.04047099 0.08459351 -0.0033514334 -0.051600434
000220 b7 97 b9 3b c3 b5 b5 bc c2 d7 17 3d af 51 d6 bd
       0.005663838 -0.022181397 0.037070997 -0.10464799
000230 12 65 12 3c ff 01 1c bb b4 36 ac bc 35 97 8a bd
       0.00893523 -0.00238049 -0.021022178 -0.06767122
000240 32 55 02 3d 33 51 7b 3d f6 dc 42 3d d9 d8 eb bd
       0.03181953 0.061356734 0.047574006 -0.1151597
000250 a0 df a4 3c 1a 8d cb 3a 8a 7d 1e 3c ea cd 3e bd
       0.020126164 0.0015529722 0.0096734855 -0.046583094
000260 04 55 de ba ac e1 1b 3d f9 00 96 3c 5d 53 9d bd
       -0.0016962592 0.038057014 0.01831101 -0.07681916
000270 65 25 26 bd 1f d7 0e 3c 20 72 2b bd 60 6e 14 3d
       -0.040563006 0.008718281 -0.041856885 0.036238074
000280 2d 2d 94 bc a7 ce a5 bd 06 98 7f 3d 85 12 d9 3c
       -0.018087948 -0.080960564 0.06240084 0.026498089
000290 9f 1e 61 3d d0 8b 7f 3c df b5 07 3d e6 b9 b3 3c
       0.054960843 0.015597299 0.03313243 0.02193923
0002a0 4a 7b 1a bd 69 e9 d0 bc eb 5d 6a bc 40 8c d8 bd
       -0.037715234 -0.025501924 -0.014304618 -0.105736256
0002b0 1e 31 81 3d 60 ce 00 bb fe 4c 2d 3b ac d7 b7 3d
       0.063081965 -0.001965426 0.0026443596 0.08976683
0002c0 ec dd 07 bd 07 0f c0 bd 50 a8 d1 3c 20 41 81 3a
       -0.033170626 -0.09377866 0.025592953 0.0009861328
0002d0 e3 87 9d bd d6 79 73 3d 27 37 80 bc 76 58 46 bd
       -0.07691934 0.059442364 -0.015651299 -0.048424207
0002e0 fb e8 06 3c d4 e0 53 bc 07 d9 15 3d e6 c2 e5 bc
       0.008234258 -0.012932021 0.036583927 -0.028047036
0002f0 44 1d af bc 62 9b 43 bd e1 1a 5b bd 46 df 97 3c
       -0.02137626 -0.047755606 -0.05349243 0.018539082
000300 bb e8 77 3d 57 93 fc 3c f9 1a c6 3c f9 7f 02 bc
       0.060524683 0.030831976 0.024182783 -0.007965081
000310 59 59 07 be d5 95 db 3c b3 af 97 bd a7 9c 50 bd
       -0.13217677 0.026804844 -0.07406559 -0.050930645
000320 61 8a 34 3d fd bd 3e 3c 59 13 50 3d b2 29 b3 bc
       0.04407728 0.011641976 0.0507997 -0.021870468
000330 68 b5 ff bd 83 fb fe ba 67 aa 6d 3d 78 48 f4 bc
       -0.12485772 -0.0019453618 0.058023836 -0.029819712
000340 5f 4a f8 bd e8 cd bc 3c 6e e9 7b 3b 28 46 a0 bd
       -0.1212356 0.023047403 0.0038438695 -0.07825881
000350 2e 47 7f 3d 81 a8 64 3d 3b 43 73 bd c5 4d 86 3c
       0.06232374 0.05582476 -0.059390288 0.016394505
000360 cf b7 96 bc 48 e6 a5 ba a2 b5 16 3c 23 e9 b8 3c
       -0.018398194 -0.001265713 0.009198578 0.022572106
000370 4e 94 64 bd 41 bc a5 bd 46 75 04 bc c5 04 ab bc
       -0.055805497 -0.08092547 -0.008084601 -0.020876298
000380 8f cb 4b bd 21 3d 83 bd 84 1f 86 bd 65 55 84 3c
       -0.049754675 -0.06408144 -0.0654898 0.016154
000390 91 b2 4e bd e0 30 a2 3d 62 0b 56 b9 7b cc e4 bd
       -0.050463263 0.079194784 -0.00020412871 -0.11171814
0003a0 db 49 87 bd 99 f3 66 3d 58 a5 22 bc ed 34 96 3a
       -0.06605884 0.056384657 -0.009927116 0.0011459865
0003b0 72 c6 d5 3d 9b 9a 49 bb a4 0f 39 3d 1f d6 fe 3c
       0.10438241 -0.0030762318 0.04518093 0.03110796
0003c0 52 70 85 bd e9 1d 35 3d 62 56 77 bc e4 f3 58 bc
       -0.06515564 0.044217978 -0.015096279 -0.013241742
0003d0 8c 62 8b 3c 36 e0 00 be fa 70 54 bc cf 2d a0 3c
       0.017014764 -0.1258553 -0.012966389 0.019553093
0003e0 20 8f f0 3c 91 3a 99 3b 82 ec 9b 3d b7 ee 15 3d
       0.029365122 0.004676171 0.0761347 0.03660461
0003f0 53 3a 6f bd 36 23 5f 3d 81 69 79 bc 22 0c 4f 3d
       -0.05840523 0.05447694 -0.015222908 0.05054868

network_body._body_endoder.seq_layers.0.bias f4 [128]
000000 d9 ad 5e 3c 23 c2 81 bc 0b fb f9 3c 42 5a c7 3c
       0.013591253 -0.015839642 0.030515214 0.02433503
000010 e8 18 fb 3c dc a3 44 bc 2b d6 55 3b 73 7c 13 bc
       0.030651525 -0.012001958 0.0032628875 -0.009001839
000020 d3 36 8b bc 66 36 84 3c bd 87 1a 3c ed 52 6e 39
       -0.016993916 0.01613922 0.009431777 0.00022728341
000030 ef 58 46 3d 80 32 ac bc 76 ab 3b bd 0a 1c 01 3d
       0.048424657 -0.021020174 -0.045817815 0.03152088
000040 fe 2e 90 3c 9f e1 d0 3c 4d e4 82 bb df cf 5b bb
       0.017600533 0.02549821 -0.0039945007 -0.003354065
000050 ca 8b 86 3c 77 66 ce 3c 8a af 02 3d a1 21 d8 3b
       0.016424078 0.025195343 0.03190569 0.0065958058
000060 dc d1 30 3c c3 05 fa bb 7c 7e bb bb 63 1e dc bc
       0.010792222 -0.0076300814 -0.005721865 -0.026869958
000070 85 83 5b 3c d9 ea d4 3c 89 77 fc bb f5 4c 50 3c
       0.013398056 0.02599089 -0.0077046794 0.0127136605
000080 40 c5 d8 3c 0c a2 06 ba a4 b2 24 3c ad 0f e1 3c
       0.026461244 -0.0005135841 0.010052357 0.027473295
000090 40 b7 14 3c 3b 3e 38 bc 35 c7 9f 3c 79 1d 1e 3d
       0.009076893 -0.011245306 0.019504169 0.038602326
0000a0 2c 9d 3c bc 2a b8 11 ba 0a 41 36 3b 42 3c a6 bb
       -0.011512082 -0.00055587536 0.0027809762 -0.0050731013
0000b0 0e ba e7 bb 7e 3f 37 3d ab 45 e4 bb 15 b4 3c bc
       -0.00707174 0.044738285 -0.006966313 -0.011517544
0000c0 00 dc c7 bc b9 78 9f 3c ee 77 94 3c 2c 55 6a 3c
       -0.024396896 0.019466745 0.018123593 0.014302533
0000d0 a7 59 85 3d a9 ef f7 bb b7 d6 38 3d 8f 7b 5d 3d
       0.065112405 -0.0075664115 0.045126643 0.054072913
0000e0 b9 56 fa bb e1 d2 97 3c 8d c9 81 3c e5 ee 46 bc
       -0.0076397327 0.018533172 0.015843177 -0.012141918
0000f0 ef f9 99 bc b2 3c 73 bc 7d 63 9f 3c aa 5e 55 3d
       -0.018795935 -0.014846014 0.01945662 0.05209223
000100 7d a5 1f 3c e9 f5 ff 3c 65 9c 09 3d 72 4e 1a bc
       0.009744045 0.031245189 0.033596415 -0.009418117
000110 af 6c b7 3c 26 83 13 bd cc ae 09 3d 25 57 23 3b
       0.022390692 -0.036013745 0.033613965 0.0024923768
000120 0a be c9 3c f7 2d 62 3c b9 7d 16 3c 6d 25 45 3a
       0.02462675 0.013804904 0.009185248 0.00075205305
000130 fc 13 af ba b1 78 80 bc ee 3c dc 3c 7a ee b4 3c
       -0.0013357396 -0.01568255 0.026884522 0.02208637
000140 e0 9b 8f 3c 91 80 4d 39 d4 71 95 bb b4 2a ca ba
       0.017530382 0.00019598218 -0.0045606885 -0.0015424103
000150 35 68 24 3d 1b d0 19 3c a0 67 9d bc 53 b0 7d 3c
       0.040138442 0.009387995 -0.019214451 0.0154839335
000160 e5 80 73 3d ef 85 91 3c c4 a5 1f 3c 2d 90 e1 bb
       0.059449095 0.01776406 0.009744111 -0.006883642
000170 0e ae ed 3b 2f 4d 38 3c cf 21 8e 3b 12 18 1a 3c
       0.007253415 0.011248871 0.0043375264 0.009405153
000180 65 ae 09 bc b7 cc af 3b d8 d8 f9 bc 7a 65 a0 3c
       -0.008403395 0.00536498 -0.030498907 0.019579638
000190 47 ae 92 3c 19 98 17 3c 8c 16 d2 3c 7d 10 eb 3b
       0.017905368 0.0092525715 0.025645517 0.0071735964
0001a0 0b 2c 83 bc d5 4b 56 bc 53 bb 9b 3c 95 ba 0f 3d
       -0.016012212 -0.013079603 0.019010222 0.035090048
0001b0 73 1f c7 bb 13 21 aa 3c 6d 60 40 3c 2c d7 4b bc
       -0.006076747 0.020767724 0.01174174 -0.012441438
0001c0 12 65 39 3c f5 15 5e 3c 16 62 54 3c 76 77 3f bc
       0.011315601 0.01355504 0.012962839 -0.011686197
0001d0 80 ba db bc e5 2d ec 3c aa b1 ea 3c d3 c9 3f 3b
       -0.026822329 0.028830478 0.02864917 0.0029264584
0001e0 ef ef 37 3b 8e 04 1f ba e4 13 1f bc 62 52 b3 3c
       0.0028066596 -0.00060660474 -0.009709332 0.02188987
0001f0 07 15 be 3c 33 0b 45 3c b4 a4 70 bc ca 07 cd bb
       0.023203386 0.012026596 -0.014687706 -0.006257032

network_body._body_endoder.seq_layers.0.weight f4 [128, 179]
000000 ac 7d b7 3d dc 3e 8d 3d c5 45 cb 3d ac 00 fd bc
       0.08959517 0.06896755 0.09925417 -0.03088411
000010 b9 95 82 3d 1b b5 84 bd e3 8f e5 bd cd 07 a9 bd
       0.063762136 -0.064798556 -0.11209085 -0.08253441
000020 90 1f 21 bd cf 76 c3 3c 80 e2 1a bb 88 28 1e 3d
       -0.03933674 0.023860363 -0.002363354 0.038612872
000030 9b 2a 4d 3d 4b f3 46 3e ff 47 c5 bd c0 b0 36 bd
       0.05008946 0.19428746 -0.09632873 -0.044602156
000040 b5 65 7d bc 54 16 67 3d e6 56 8f bd fb 8c 2f bc
       -0.015466143 0.056417778 -0.069989964 -0.010714765
000050 9b a4 3e 3e 76 dd 86 bd ed 08 2c 3c d5 03 c7 3c
       0.1861748 -0.06585209 0.010500175 0.02429382
000060 41 0e 97 bd b2 2e 83 bc 96 e9 6d 3d ec 90 72 bc
       -0.073757656 -0.016013477 0.058084093 -0.01480506
000070 48 89 5c 3e d1 67 36 3e 52 56 1f 3e a0 0e 45 3c
       0.21536744 0.1781304 0.15560272 0.012027413
000080 71 9c 60 bd ee 0a 63 3d 3f ac 44 bc 5e a2 9a 3c
       -0.054836694 0.055430345 -0.012003957 0.01887625
000090 17 1b de 3c f5 3c c4 3d 69 ac 26 be 14 89 e3 bd
       0.027112527 0.09581939 -0.16276707 -0.1111013
0000a0 d2 a6 db 3d 52 02 40 be 86 95 ef 3d 3e b2 2d 3d
       0.10725178 -0.18750885 0.11698441 0.042406313
0000b0 49 8c 03 be ca 74 14 3d 66 78 f1 3c 1b ce 3c bd
       -0.12846483 0.03624419 0.029476356 -0.046094995
0000c0 e7 ba fd 3d 1c 05 72 3b 35 c0 96 3d 7a 5c 0e bd
       0.123891644 0.0036929315 0.07360879 -0.03475616
0000d0 ec 8b 39 3e 98 f7 fc bb c5 d6 35 3d 15 4d f7 bd
       0.18119782 -0.007719945 0.044394273 -0.12075249
0000e0 03 e0 b2 3c c3 b7 c8 bc cf 4f 06 3e 13 d2 31 bd
       0.021835333 -0.024501687 0.13116382 -0.043413233
0000f0 5a e5 c7 3d 84 e8 69 bd 35 e6 0f bd 41 43 4c 3d
       0.09760542 -0.05710651 -0.035131652 0.049868826
000100 44 64 24 bd fa 4f 0c bd ad a0 3d be a0 09 c1 bd
       -0.040134683 -0.03425596 -0.18518324 -0.09425664
000110 47 56 10 bd e3 6f ec 3d 9b c4 29 3e 6e e2 bf bd
       -0.03523853 0.11544778 0.16578905 -0.0936936
000120 79 1b 6e 3d 11 30 93 3c ea d3 ba bd 0d cd 88 bd
       0.05813167 0.017967256 -0.09122451 -0.06679735
000130 b5 99 8a 3c 39 8a da bd cc fd cb bb 35 4a 9b 3d
       0.016918996 -0.10670895 -0.0062253233 0.07582513
000140 b0 ee 60 bd c2 55 ca 3d 15 52 43 be 2f 5d 72 bd
       -0.05491513 0.09879638 -0.1907428 -0.059170898
000150 81 c6 96 bd ab bd 92 bc 8e 84 f0 3c 8f 50 9e bb
       -0.0736208 -0.017912706 0.029360082 -0.0048313807
000160 72 cc 67 3d bb 04 8b 3d ea db a6 3d ad 40 01 bd
       0.05659146 0.06788012 0.08147414 -0.03155582
000170 62 c3 d5 3d 6e f7 36 3e 40 3b c3 3c 92 a8 bf 3d
       0.10437657 0.17867824 0.023831964 0.09358324
000180 58 9c be bc 55 5f b3 bd 78 38 7d 3e 1b 4e f0 3d
       -0.02326791 -0.087584175 0.24728572 0.117336474
000190 2f 9d 9a bd 5d 6b ad bd 1e 00 51 3d e5 78 a0 bc
       -0.07549512 -0.084677435 0.051025502 -0.019588897
0001a0 51 a9 50 bd bc 86 2b 3d e4 52 f4 bc ec 67 80 bd
       -0.050942723 0.04187654 -0.029824682 -0.062698215
0001b0 5d 42 87 bd e6 74 40 3e be 69 78 3c 05 0d 15 bb
       -0.06604455 0.18794593 0.01516193 -0.0022743356
0001c0 a6 2f 7c bc 2f 3a 63 bc 82 d3 7f bd 7f dd 6e bd
       -0.01539222 -0.0138688525 -0.06245757 -0.058316704
0001d0 79 19 40 3c b4 c3 bd bc 2f 18 1c be b3 c4 db bb
       0.011724823 -0.023164608 -0.152436 -0.006706798
0001e0 a5 71 2b 3d 55 81 ad bd a7 87 06 be a6 2f 84 3c
       0.041856427 -0.08471934 -0.13137685 0.016136002
0001f0 95 6c 0b bc e8 56 a7 bc 67 5a 55 be 13 6c bb 3d
       -0.008509775 -0.020427182 -0.20835267 0.09151473
000200 f1 6f d1 3d 98 d9 a3 bd 0b bd 52 3e e2 a6 95 3d
       0.10226429 -0.08000487 0.20579927 0.07307221
000210 9f 44 c3 3c 5c 96 9b 3d 72 48 68 bd 0f 45 a0 3a
       0.023836432 0.07597038 -0.056709714 0.0012227612
000220 88 7b fe 3d 76 06 6a bd 36 b0 ce bd 79 7d c1 bc
       0.124259055 -0.057135068 -0.10092203 -0.0236194
000230 9a df fc bd 73 17 28 bd b6 4b 23 bb e5 4a f5 3c
       -0.12347336 -0.041037988 -0.0024916953 0.029942939
000240 02 eb 90 3d f0 4c 9d 3b 6c a2 ad 3d 69 5e fc 3d
       0.07076074 0.0048004314 0.08478245 0.12322695
000250 ff 87 0a be 4d 7c c5 ba 5f a8 b0 ba 09 19 e9 bd
       -0.13528441 -0.0015066952 -0.0013477913 -0.11381728
000260 f2 13 3f be 30 5f 89 be 67 d8 ca bc 7a 4d 0b 3e
       -0.18659952 -0.26830435 -0.024761392 0.13603774
000270 a9 a7 82 3d 5b 79 80 bd 98 7b 95 3d 42 c4 8c 3d
       0.06379635 -0.06273147 0.07298964 0.06873371
000280 f2 13 97 bd 78 df 88 3d 6f 7e a7 bd 13 c1 ee bc
       -0.07376851 0.06683248 -0.08178412 -0.0291448
000290 2d c9 b5 3c 20 ae 71 3d 14 ee 5e 3b 1f b8 f9 3d
       0.022190655 0.05900395 0.0034016417 0.121933214
0002a0 11 ab 4c 3d 95 e4 c8 3d f2 d5 be bc dd ec 08 bd
       0.04996783 0.098092236 -0.023295376 -0.033429015
0002b0 68 cc 96 3e 1d 83 ee bc 75 21 67 3e a7 c0 bf bc
       0.29452825 -0.029115254 0.22571357 -0.023407293
0002c0 85 ac db bc 95 58 b1 3d 5f c4 93 bd 08 73 03 3e
       -0.026815662 0.08659474 -0.07215189 0.1283685
0002d0 56 29 0f 3d 3f a3 13 3c 65 28 68 bd 73 f0 05 bd
       0.03495153 0.009011089 -0.05667915 -0.032700013
0002e0 1f a0 90 bc b1 aa 45 bd df 43 e5 3d 5f 40 23 3d
       -0.017654477 -0.048258487 0.11194586 0.03985631
0002f0 f3 10 0f be fe 98 2a bc 36 46 67 3c 13 ba 97 3d
       -0.1397131 -0.010412453 0.014115861 0.07408538
000300 07 5b 9b bd b2 79 0e bc af 7d b7 3d c9 19 b7 3d
       -0.075857215 -0.008696007 0.08959519 0.08940465
000310 35 6b 1a 3c 23 dd ec 3d 86 3a f2 3d 79 9d 03 be
       0.009424974 0.11565616 0.11827569 -0.1285304
000320 6f 53 c8 bd 61 d6 3a bd 25 83 2a 3d db 04 d1 3d
       -0.09781539 -0.045614604 0.041628975 0.10206004
000330 3f c5 df 3c c7 8a 67 3d c4 09 c4 bd 4b a0 16 be
       0.027315734 0.056528833 -0.09572175 -0.14709584
000340 07 4e b7 3b 26 92 f2 bd 16 95 49 3c 72 98 88 3d
       0.0055940184 -0.11844282 0.012303611 0.06669702
000350 bd e7 40 3d 07 a5 3d be 91 d7 1e be 1a 3b 09 3b
       0.047096003 -0.18519984 -0.1551192 0.0020939768
000360 d0 a1 c1 bc 40 ec ce bc f3 19 a5 3d f9 4e 30 3e
       -0.023636729 -0.025259137 0.0806159 0.17217626
000370 0f 09 35 bd 53 ac fb bd 18 3e 0a 3e 61 2b 3b 3e
       -0.044198092 -0.122887276 0.1350025 0.18278266
000380 90 50 20 3e b6 84 28 bd d4 96 aa 3d ca 7b 00 3e
       0.15655732 -0.041142188 0.083295494 0.12547222
000390 90 02 db 3d 8f 68 f3 bb 2a 7c 0b 3e 53 a5 70 3c
       0.10693848 -0.007428236 0.13621584 0.014687854
0003a0 65 ed 7f 3d 84 87 dd bd 6b a8 53 bd ae c9 72 3d
       0.062482256 -0.10816863 -0.051674288 0.059274368
0003b0 06 12 cc 3d 8b 7e b4 bd f4 ed df 3d 99 fd 90 bc
       0.09964375 -0.08813199 0.10934058 -0.01769905
0003c0 27 f3 75 bd 21 3a 81 bd dc 7e 67 3d 7b f3 d1 3c
       -0.06004634 -0.06309915 0.056517467 0.025628796
0003d0 1b 5e c4 3d 34 4c 37 3c 91 1d 07 3e 2f e9 33 be
       0.09588262 0.011187602 0.13194872 -0.17569421
0003e0 71 f6 b6 3c 2d c4 d9 bd c2 68 8a bd 5a 93 49 3e
       0.02233431 -0.10633121 -0.06758262 0.19685116
0003f0 19 70 e5 3d 57 4b 83 3d 57 16 b1 3c 06 11 8d 3d
       0.112030216 0.06410854 0.021617098 0.068880126

network_body._body_endoder.seq_layers.2.bias f4 [128]
000000 90 bd 99 3b bb 43 88 bd 6d 61 09 bd 55 1d c6 3c
       0.004691787 -0.066535436 -0.033540178 0.024183908
000010 78 e6 bf 3c 12 94 92 3c 06 b5 f6 39 71 c1 38 3c
       0.023425326 0.017892871 0.0004705565 0.011276589
000020 6a 80 80 3c 1c a9 41 3d 24 4c 3f 3c ae bd 9d bc
       0.015686233 0.047280416 0.011675868 -0.019255485
000030 6f 4c 1d 3b 5c f8 9e 3c 4a 35 82 bc 7f fe 1e 3c
       0.0024001857 0.019405536 -0.01589455 0.009704231
000040 1b aa e7 3b 8e d8 40 3c b7 b7 5d 3c 43 4f a0 bb
       0.0070698387 0.011770381 0.013532571 -0.0048922612
000050 16 e9 53 3c 17 64 8e 3c f8 30 0b bc 1e 3d c3 3a
       0.01293399 0.017381711 -0.008495562 0.0014895534
000060 10 0d aa bb 3a 3d 03 3c a4 51 88 3c ad 2a 48 3d
       -0.0051895455 0.008010203 0.016640492 0.048868824
000070 23 5d a5 3b 58 d6 a1 3c 13 e7 ad 3c 12 ed 01 bd
       0.005046503 0.019755527 0.021228349 -0.03172023
000080 19 72 bd bc 48 9d e4 3b d8 74 77 bb db 05 dd bb
       -0.023125695 0.006976757 -0.0037758853 -0.006745083
000090 75 cd 25 bc 7f 28 81 3c 6b 4e c0 bb b7 01 a1 bb
       -0.010119786 0.01576638 -0.005868723 -0.0049135345
0000a0 66 1a 88 3b 4f a1 ff bc 20 dc e4 bb d1 6c 7b 3b
       0.0041535376 -0.031204848 -0.0069842488 0.003836442
0000b0 89 d3 6b 3c 9d 17 c0 3c 6c ef 98 bc 3a f9 d8 3c
       0.014393696 0.02344876 -0.018668853 0.026486028
0000c0 60 c9 f5 bc 58 dc fb ba 9c d9 11 3c 48 4e 03 3b
       -0.03000325 -0.0019215448 0.00890198 0.0020035673
0000d0 65 55 75 3c 7d ae 8f 3b 1d be 49 bc c7 fe 2a 3d
       0.014973973 0.0043848143 -0.012313393 0.04174688
0000e0 24 b5 12 bd dd e7 b1 3c d8 e1 24 bc 4d 5c 46 3c
       -0.03581728 0.021717006 -0.010063611 0.012106967
0000f0 6c 8b 35 bc a9 f1 8e 3b a7 86 72 3c dc 36 d9 3c
       -0.011080604 0.004362304 0.014802611 0.026515417
000100 91 27 e9 3c 86 7b ec ba 09 5f 7d bc 15 71 a3 3a
       0.02846125 -0.0018042184 -0.015464553 0.0012469614
000110 26 b8 c6 bb 4e ef a1 bc eb 05 cb 3c 09 89 8c bc
       -0.0060644327 -0.01976743 0.024783095 -0.017155187
000120 5c ea f4 3b 85 73 02 3b 0b f6 65 3c 0d 52 97 3b
       0.007474227 0.001990528 0.014035712 0.0046179355
000130 c9 56 b7 3b 64 8a 0f 3c 23 0f 89 3c 0f b1 09 bc
       0.0055950624 0.008761022 0.01673085 -0.00840403
000140 19 1e 40 3d d7 3f a3 3c 45 04 4c bc 35 61 49 3c
       0.046903703 0.019927902 -0.01245219 0.012291242
000150 4d 94 a9 3c ff 16 fe 3c 76 af 6b bc ea fe 17 3c
       0.020700598 0.031016825 -0.014385095 0.009277085
000160 91 4d 12 bb 16 78 2d 3c 1d 71 97 3c 92 53 02 bc
       -0.0022324065 0.010587713 0.018486554 -0.007954495
000170 46 6d 8c 3c 12 fd 36 3d 5d 0c 28 bb 56 61 1e bb
       0.01714195 0.04467494 -0.0025642135 -0.0024166903
000180 22 ae 22 3d 1e f2 e1 3c 7d af ab 3c ff 99 a7 3c
       0.039716847 0.02758127 0.020957703 0.020459173
000190 23 97 68 3c 11 cc a9 3c 93 4b 91 bc b7 fd b6 3c
       0.01419619 0.02072719 -0.017736232 0.022337778
0001a0 f9 b4 40 3a 98 66 13 3c d0 c7 2d bc ac 59 a8 3c
       0.0007351186 0.008996628 -0.010606721 0.020550571
0001b0 a2 c5 ae 3c eb 6f 1c 3d fe 4e 56 3c 74 74 61 bc
       0.021334473 0.03819267 0.013080357 -0.013760675
0001c0 c5 55 e8 bb ec db 33 bd 60 ab 9f bc 98 58 c4 3b
       -0.0070903026 -0.043910906 -0.019490898 0.0059920065
0001d0 bb 71 c7 3c 8f ab cf 3c 04 48 ef bc 1d 94 96 3c
       0.024346223 0.02535036 -0.029209144 0.018381173
0001e0 d7 14 e5 bb 74 6b de bc bd ba 09 3d e8 17 9c 3c
       -0.0069910097 -0.027150847 0.033625353 0.019054368
0001f0 76 85 aa ba 1e 6f 93 3c 73 68 09 bc 41 4f 95 3c
       -0.0013009745 0.01799732 -0.008386719 0.018226268

network_body._body_endoder.seq_layers.2.weight f4 [128, 128]
000000 e9 a8 27 3e bd 9b 9f 3d 29 44 24 3e b3 a4 47 be
       0.16373028 0.077933766 0.16041626 -0.19496422
000010 03 b9 fb 3b 4b 9f ae 3c c9 ea a6 3c 72 b7 1c 3e
       0.007681967 0.021316191 0.020375626 0.15304354
000020 35 a4 1c 3e ee b2 fe 3c 8b 4f e2 bc 7d 1b 38 be
       0.15297015 0.03109118 -0.02762582 -0.17979236
000030 06 fd 4a be 45 fb e1 bc 50 5c f0 bd ce 1d ea 3d
       -0.19823083 -0.027585635 -0.11736357 0.11431466
000040 68 d0 5a bd 7d 27 80 be 15 65 ad 3d 40 d0 59 3e
       -0.053421408 -0.25030127 0.084665455 0.21270847
000050 4e aa c0 bd 5f a2 68 bd 9f 64 96 3d e8 69 4f 3c
       -0.09407483 -0.056795474 0.07343411 0.012659527
000060 b8 e6 44 3d 78 c6 b2 ba 0e ce ce 3d b2 08 f0 3c
       0.048071593 -0.001363947 0.100978956 0.029301021
000070 57 8b 92 bd bb 90 f5 3d c9 0c df 3d 60 e1 3b be
       -0.07155483 0.11990496 0.108911105 -0.18347692
000080 82 dd f1 3d 9d 97 40 bb 04 4b 53 3d bb 8e 21 be
       0.118098274 -0.0029387244 0.051585212 -0.15777104
000090 39 b9 07 3b 5e 76 8d 3d 23 ea 4c 3e d1 03 c1 3d
       0.0020709767 0.069073424 0.20011191 0.09424556
0000a0 18 4c 10 3d 89 6e c4 3c 07 08 b3 3d 82 0e 9c 3c
       0.03522882 0.023978489 0.087417655 0.019049887
0000b0 95 a3 7c bd dc ad 1d 3e 56 c8 09 be fd c7 8c bc
       -0.06167944 0.15398353 -0.13455328 -0.017185206
0000c0 ed 66 fc bd 11 57 06 ba 36 95 06 be b2 25 b4 bd
       -0.12324319 -0.0005124668 -0.13142857 -0.08796252
0000d0 48 16 11 3d 46 1f 72 bd 63 ef 6f bc 69 bb fa bc
       0.03542164 -0.059111856 -0.014644477 -0.030606942
0000e0 19 5a 13 3e 02 2b a3 3d 8c 4f 24 3d ec 15 4f bd
       0.14389838 0.079671875 0.040114924 -0.050558016
0000f0 97 1b 8c bd 66 df 3d 3e 96 91 6b 3d df 3b 69 be
       -0.068412 0.18542251 0.05751189 -0.22776745
000100 c0 14 c7 bc 03 c0 32 3c 03 53 d0 bd 46 e1 e9 3d
       -0.024301887 0.010910037 -0.10172083 0.114199206
000110 9e 9a 1b 3e f5 db 34 bd 14 0f 60 bd c9 af 4e 3e
       0.151957 -0.04415508 -0.05470188 0.20184244
000120 f9 23 59 3d 9a 59 ed 3d 11 5f f8 3d 38 c5 2b 3e
       0.05301282 0.11589356 0.121275075 0.16774452
000130 ad f2 4d bd 40 92 b8 bd 09 b8 0a be f8 9a ce 3d
       -0.05028026 -0.0901227 -0.13546766 0.10088152
000140 1d b2 d1 3d 18 95 a2 3d 48 2a 63 3d 04 46 10 bd
       0.102390505 0.079385936 0.055460244 -0.035223022
000150 b2 f9 c1 3c b3 a6 50 3d 1d df cd bd 27 bd ce bd
       0.023678634 0.050940227 -0.10052321 -0.10094672
000160 22 14 29 3c e4 bc e9 ba d5 41 bb bc a9 67 36 be
       0.010319741 -0.0017832783 -0.02285854 -0.1781298
000170 ff 16 cb 3d 06 e5 53 bd b2 9c 15 be 35 d3 4f 3e
       0.099164955 -0.051732086 -0.14610556 0.20295413
000180 cc 59 fd bc 0e a3 aa 3d 1d ca ec 3d 09 b2 97 bd
       -0.030926608 0.083318815 0.115619875 -0.074070044
000190 dd b9 49 bc 15 73 81 3c 48 1c 64 bb d8 b3 94 3c
       -0.01231238 0.015801946 -0.0034806896 0.018152162
0001a0 9b 0d 51 3d b3 52 cb bd e7 3b 27 bd e0 38 4a 3c
       0.051038366 -0.09927883 -0.04082861 0.012342662
0001b0 c2 75 4a bd 65 be 1e 3d fe f8 99 bd e6 81 19 3d
       -0.04942871 0.038755793 -0.075181946 0.037477396
0001c0 e2 e9 00 bb 41 74 df bb af c7 c7 bd 2a 31 0f 3d
       -0.0019670655 -0.0068192785 -0.097548835 0.034958996
0001d0 64 be 0b bd 0d fc ba 3b 73 8c 38 3e b2 ad 8e bc
       -0.034117118 0.0057063163 0.18022327 -0.017416809
0001e0 94 6b 43 3e 26 28 c6 3b 86 5d 16 3e 6f d9 e4 3d
       0.19084007 0.0060472665 0.14684114 0.11174285
0001f0 30 a2 99 bd a6 8a 7e bd ac 71 40 bd 37 6a b0 bb
       -0.07501638 -0.062143944 -0.046983406 -0.0053837555
000200 24 a8 73 be f7 8f a7 bc 66 d1 2a 3d 94 a5 f5 bd
       -0.2379461 -0.02045439 0.041703604 -0.11994472
000210 8b 25 d7 bd 0f 7a 81 bd 22 24 72 3d 16 81 06 3d
       -0.10505208 -0.06322109 0.05911649 0.03283795
000220 fb ab f0 3d 72 14 ae bd ad a0 2a be 2f 80 dd 3d
       0.11751553 -0.084999934 -0.16662855 0.10815465
000230 fd 68 64 bd 75 af 44 bc 14 0e d0 3d a5 6b 1e be
       -0.055764187 -0.012004723 0.10158935 -0.1547075
000240 71 b7 bf bd 39 6f 31 bd 21 95 8e bd 9d ee 20 be
       -0.093611605 -0.04331896 -0.06962038 -0.15716024
000250 52 0c a0 3c 39 de 91 bd 2d 63 7e bd 53 27 25 bc
       0.019537125 -0.07122464 -0.0621063 -0.010080176
000260 07 e0 bc 3d 7a ef 82 bd cb eb 20 3d 67 6f 31 3e
       0.09222417 -0.06393333 0.03928737 0.17327653
000270 7a cb db bc 88 c5 a8 bc ea f2 06 3d 56 b1 0b be
       -0.026830424 -0.020602003 0.032946505 -0.13641867
000280 65 2d 0f 3c c7 ef 1a bd 8a 6d 83 bd b6 ed 8d 3c
       0.00873885 -0.037826326 -0.06417377 0.017325263
000290 9a 8d 81 bd c7 d9 03 be cf 3c a7 3c 72 4d 38 3d
       -0.063258365 -0.12876044 0.020414738 0.044995733
0002a0 38 b0 35 bc 25 e9 4e 3d 0c fb 65 3d 94 c4 b8 3d
       -0.011089377 0.050515313 0.05614762 0.09021869
0002b0 48 b9 33 3d 39 38 1a be 26 8d 56 3d 18 d3 04 bd
       0.04387787 -0.1506051 0.052380703 -0.032427877
0002c0 c7 b9 a2 bd 42 62 5e be 08 7f bb 3d 58 77 99 bd
       -0.079455905 -0.2171717 0.09155089 -0.07493466
0002d0 95 d6 e6 3c 23 c2 22 3e 69 dd f9 bc d6 02 0f bd
       0.028178493 0.1589437 -0.030501084 -0.034914814
0002e0 0e 75 05 bd 5c 16 97 ba d6 9f 77 bd 10 5b 10 bd
       -0.032582335 -0.0011527049 -0.060455166 -0.035243094
0002f0 34 a5 f6 bd be b4 24 be 7f da 02 be 24 92 73 bd
       -0.12043229 -0.16084573 -0.12778662 -0.059465542
000300 ef 53 b5 bd 3a 9a 90 3e 99 0b 89 bd 6c 6e 6d be
       -0.088539 0.28242666 -0.06691665 -0.23186654
000310 af 45 9f bc 9c 8d 95 bd b4 ff 43 be fb e8 2b bd
       -0.019442407 -0.073024005 -0.19140512 -0.041970234
000320 e2 5b 0f 3d 23 c4 be 3c 2a ec 7e be 92 ff 34 3d
       0.034999736 0.023286885 -0.24894777 0.044189043
000330 a9 93 7c bd 7c e0 99 3c 73 2b 2b bb 30 c6 8a bc
       -0.061664257 0.0187838 -0.0026118427 -0.016940206
000340 f9 14 2d 3e a8 b7 0c be 2d 78 39 3c bc 2b 90 bc
       0.16902532 -0.13741934 0.011320156 -0.01759898
000350 0b fe 11 be f7 2b 9e 3d 08 c6 20 be 37 a6 14 3e
       -0.14257066 0.077232294 -0.15700543 0.14516531
000360 f6 e9 ee 3d 9c ed 1f bc 89 c7 8f bc ca 37 2e bd
       0.11665718 -0.00976124 -0.0175512 -0.042533673
000370 83 b4 06 bd 42 18 29 be f1 27 a7 3d d6 cf 31 bc
       -0.032886993 -0.1651316 0.08161915 -0.010852775
000380 d9 a1 c4 3d 5b 86 03 be 4d f0 1e be 54 d3 5d bd
       0.096011825 -0.12844221 -0.15521355 -0.054156616
000390 33 85 d7 bd c1 2a 1b be 3d 2d 85 3d d9 a1 88 3c
       -0.105234526 -0.15153028 0.06502769 0.016678737
0003a0 2b 3f d7 bd 5c 49 32 be 3a 25 b6 3d 72 46 b6 b8
       -0.10510095 -0.17410797 0.08893819 -8.691558e-05
0003b0 ee 58 42 3c 9e 47 9d bd d9 33 dc 3a 03 7b 00 3d
       0.011862023 -0.076796755 0.001680012 0.031367313
0003c0 f8 6f 82 be 0e f5 4b 3c 14 6b 36 be 68 8c f1 3d
       -0.2547605 0.012448562 -0.17814285 0.117943585
0003d0 20 8c 08 3b 44 af 32 bd 0d 1f 49 bd 77 ac a1 bd
       0.0020835474 -0.043624178 -0.049101878 -0.07894223
0003e0 8b d6 1c 3e 42 6f 2a 3d 99 bd 28 be 90 89 8c 3b
       0.15316217 0.04161001 -0.16478576 0.0042888597
0003f0 1a ae e3 bd ec 7a c5 3c e1 fe a2 3d 5e 20 12 bd
       -0.111171916 0.024106465 0.079587705 -0.0356754
