results/HideAndSeek5_2/Hide/Hide-9999984.pt (torch, 972639 bytes, 36 tensors)

network_body._body_endoder.seq_layers.0.weight f4 [128, 179]
000000 c8 87 b3 3d dc 3e 8d 3d 74 fb d2 3d b2 a5 fa bc
       0.087661326 0.06896755 0.10301867 -0.030596588
000010 13 53 81 3d 1b b5 84 bd 5a f7 e2 bd 12 b1 a6 bd
       0.06314673 -0.064798556 -0.11082335 -0.08139242
000020 ad c2 1d bd cf 76 c3 3c 85 5b 7e bb bb 00 1b 3d
       -0.038515735 0.023860363 -0.0038811874 0.037842494
000030 f0 29 48 3d 4b f3 46 3e f9 c6 c7 bd 56 45 36 bd
       0.04886812 0.19428746 -0.09754748 -0.044499718
000040 02 d4 be bb 54 16 67 3d 07 8f 91 bd 66 73 3b bc
       -0.005823613 0.056417778 -0.071073584 -0.011441087
000050 69 c5 3e 3e 76 dd 86 bd fa 12 22 3c 60 9e c7 3c
       0.18629993 -0.06585209 0.00989222 0.024367511
000060 9e 41 83 bd b2 2e 83 bc 3a ef 7d 3d c8 e0 6f bc
       -0.06409 -0.016013477 0.061995722 -0.014640994
000070 55 b4 5f 3e d1 67 36 3e 8e 2f 19 3e 3c e0 2d 3c
       0.21846135 0.1781304 0.14959547 0.010612544
000080 65 b1 4a bd ee 0a 63 3d 23 96 69 bc 1a 4c 8f 3c
       -0.049485583 0.055430345 -0.014256987 0.017492343
000090 df 35 ea 3c f5 3c c4 3d 3b 9d 23 be fb 6d e3 bd
       0.02859014 0.09581939 -0.15977947 -0.111049615
0000a0 ef 59 e5 3d 52 02 40 be fb 05 f3 3d 3f 05 2b 3d
       0.11198794 -0.18750885 0.11866375 0.04175305
0000b0 40 8c ff bd ca 74 14 3d d1 7f e2 3c 2a 4e 43 bd
       -0.124779224 0.03624419 0.027648838 -0.047681965
0000c0 e3 a3 f8 3d 1c 05 72 3b 8e 78 98 3d c5 70 12 bd
       0.12140634 0.0036929315 0.07444869 -0.035752077
0000d0 39 b0 3a 3e 98 f7 fc bb 4e 57 2c 3d b8 cd f8 bd
       0.18231286 -0.007719945 0.042075448 -0.12148613
0000e0 7a 71 9c 3c c3 b7 c8 bc 7a 88 03 3e 83 ae 39 bd
       0.019097079 -0.024501687 0.1284503 -0.045332443
0000f0 da 0a d2 3d 84 e8 69 bd 7a 63 17 bd 6b 7d 46 3d
       0.10255976 -0.05710651 -0.036960103 0.04845945
000100 b1 8e 2c bd fa 4f 0c bd 85 42 3d be 77 59 c1 bd
       -0.04212827 -0.03425596 -0.18482406 -0.09440892
000110 e8 26 08 bd e3 6f ec 3d 87 57 27 3e 85 73 c1 bd
       -0.03324023 0.11544778 0.16341983 -0.09445862
000120 fd 20 73 3d 11 30 93 3c ff 5d b5 bd b2 b3 87 bd
       0.059357632 0.017967256 -0.08855819 -0.06626071
000130 bd 78 d5 3c 39 8a da bd f1 d6 63 bb d8 b3 9a 3d
       0.026058549 -0.10670895 -0.0034765566 0.07553834
000140 2d 90 5f bd c2 55 ca 3d 5d 23 42 be 89 40 6e bd
       -0.054580856 0.09879638 -0.18958803 -0.058167014
000150 7d e7 8e bd ab bd 92 bc 61 64 0a 3d 8b 6f 89 bb
       -0.06977747 -0.017912706 0.033787135 -0.004194205
000160 25 da 76 3d bb 04 8b 3d a2 e0 a5 3d 54 6b fb bc
       0.060266633 0.06788012 0.08099486 -0.030690826
000170 1e 92 d2 3d 6e f7 36 3e ee c4 e0 3c 0a 4d c4 3d
       0.10281776 0.17867824 0.027437653 0.095850065
000180 3d ac b6 bc 55 5f b3 bd fc d3 7f 3e d7 90 f3 3d
       -0.022298926 -0.087584175 0.2498321 0.118928604
000190 c8 e1 99 bd 5d 6b ad bd 77 7e 5c 3d 4c 86 93 bc
       -0.075137675 -0.084677435 0.053831544 -0.018008374
0001a0 81 ae 3b bd bc 86 2b 3d 83 1d 03 bd 47 6f 80 bd
       -0.045820717 0.04187654 -0.032010566 -0.062712245
0001b0 7a ee 87 bd e6 74 40 3e 60 a7 6d 3c fe a3 fe ba
       -0.06637283 0.18794593 0.014505237 -0.0019427536
0001c0 25 b7 0e bc 2f 3a 63 bc 15 f9 6e bd ef 3b 6c bd
       -0.008710657 -0.0138688525 -0.058343012 -0.057674345
0001d0 dd d8 4d 3c b4 c3 bd bc cb c0 21 be fa 82 07 bc
       0.012563911 -0.023164608 -0.15796201 -0.008270973
0001e0 ce 85 4e 3d 55 81 ad bd cc 06 05 be b3 65 7e 3c
       0.050420575 -0.08471934 -0.12990874 0.015527177
0001f0 ac 42 11 bc e8 56 a7 bc c7 53 5b be b6 62 b8 3d
       -0.0088659935 -0.020427182 -0.21418677 0.090032026
000200 56 10 e3 3d 98 d9 a3 bd 58 53 4e 3e 09 aa 92 3d
       0.110871 -0.08000487 0.2014898 0.07161338
000210 27 53 b7 3c 5c 96 9b 3d 80 09 68 bd 27 ff e9 3a
       0.022378517 0.07597038 -0.056649685 0.001785253
000220 4c a8 fa 3d 76 06 6a bd 8e b5 c2 bd bc 67 ae bc
       0.12239131 -0.057135068 -0.09507285 -0.021289699
000230 00 45 00 be 73 17 28 bd 03 40 08 bc 24 bc e7 3c
       -0.12526321 -0.041037988 -0.008316043 0.028287955
000240 d5 4d 92 3d f0 4c 9d 3b 41 0d ad 3d 81 b5 fe 3d
       0.071437515 0.0048004314 0.084497936 0.12436963
000250 f0 f0 08 be 4d 7c c5 ba 65 5e 8b ba 3f a3 e3 bd
       -0.1337316 -0.0015066952 -0.001063299 -0.11115121
000260 9f bc 3a be 30 5f 89 be 6e 2f c3 bc 3d 97 08 3e
       -0.18236016 -0.26830435 -0.023826327 0.13338943
000270 17 4e 82 3d 5b 79 80 bd 9a 10 95 3d a8 26 8e 3d
       0.06362551 -0.06273147 0.07278557 0.06940967
000280 bb 19 93 bd 78 df 88 3d f8 ed 9d bd 48 ef db bc
       -0.07182642 0.06683248 -0.077114046 -0.026847497
000290 5b a0 b9 3c 20 ae 71 3d 29 eb 36 3a 94 b6 f9 3d
       0.022659471 0.05900395 0.00069777906 0.12193027
0002a0 81 c7 4e 3d 4d ee c9 3d cf fd ba bc dd ec 08 bd
       0.05048323 0.098599054 -0.022826103 -0.033429015
0002b0 51 d8 97 3e 1d 83 ee bc f5 a0 69 3e ea b1 ad bc
       0.29657224 -0.029115254 0.22815306 -0.021203
0002c0 fa 6e d7 bc 58 a3 af 3d 89 ad 8b bd 03 e6 02 3e
       -0.026298035 0.08576077 -0.068202086 0.12783055
0002d0 56 29 0f 3d 38 93 02 3c c1 e4 6e bd 59 bd 06 bd
       0.03495153 0.00796967 -0.058323625 -0.03289542
0002e0 1f a0 90 bc 46 89 58 bd 51 cc dc 3d 89 a6 2f 3d
       -0.017654477 -0.05286529 0.10781158 0.04288343
0002f0 f3 10 0f be 7d f7 04 bc ac 07 65 3c 17 1a 96 3d
       -0.1397131 -0.008115646 0.01397888 0.07329195
000300 07 5b 9b bd ae 2b 33 bc 5e 42 af 3d 38 b7 bc 3d
       -0.075857215 -0.010935707 0.085575804 0.09214634
000310 35 6b 1a 3c b5 34 ee 3d 4b cb ef 3d e2 d9 03 be
       0.009424974 0.11631147 0.11708697 -0.12876084
000320 6f 53 c8 bd e0 67 3e bd 85 06 21 3d 4f d9 c7 3d
       -0.09781539 -0.04648578 0.039312858 0.09758245
000330 3f c5 df 3c c3 18 66 3d 38 50 c7 bd fb 96 18 be
       0.027315734 0.05617596 -0.097320974 -0.14901344
000340 07 4e b7 3b e1 c8 ea bd 36 02 4d 3c f4 bf 7c 3d
       0.0055940184 -0.11464096 0.012512734 0.0617065
000350 bd e7 40 3d 8c 28 3e be 56 ec 1e be b4 e4 25 3b
       0.047096003 -0.18570155 -0.15519843 0.002531332
000360 d0 a1 c1 bc a6 d1 d0 bc d9 cf a5 3d 7a 06 30 3e
       -0.023636729 -0.025490593 0.080962844 0.1718997
000370 0f 09 35 bd 76 bf 02 be 02 aa 09 3e f8 d7 39 3e
       -0.044198092 -0.12768349 0.13443759 0.18148792
000380 90 50 20 3e d9 63 2b bd c3 2e a6 3d 4f 95 02 3e
       0.15655732 -0.04184327 0.08114388 0.12752269
000390 90 02 db 3d 7b 47 c8 bb 72 18 0b 3e cd cf 97 3c
       0.10693848 -0.0061120368 0.13583544 0.018531704
0003a0 65 ed 7f 3d 4d 7f dd bd a6 5c 5e bd 2c ca 7b 3d
       0.062482256 -0.10815296 -0.054287575 0.061472103
0003b0 06 12 cc 3d e8 c0 b2 bd 56 47 df 3d 9c ec aa bc
       0.09964375 -0.087282 0.10902278 -0.020864777
0003c0 27 f3 75 bd b3 f4 83 bd ef 2a 61 3d f2 e5 d0 3c
       -0.06004634 -0.06443157 0.054972585 0.025500271
0003d0 1b 5e c4 3d d7 79 21 3c b7 fa 05 3e 18 27 32 be
       0.09588262 0.009855709 0.13083921 -0.17397726
0003e0 71 f6 b6 3c 0a 1e d0 bd 4f cf 8b bd 4d b5 4a 3e
       0.02233431 -0.101619795 -0.0682665 0.19795723
0003f0 19 70 e5 3d 28 a9 79 3d de 9e a3 3c 5d a5 85 3d
       0.112030216 0.060952336 0.019973215 0.06525681

network_body._body_endoder.seq_layers.0.bias f4 [128]
000000 33 b4 65 3c 8c 3a 85 bc b0 9b f0 3c c3 41 d8 3c
       0.014020014 -0.016263269 0.029371113 0.026398545
000010 1a 8a f3 3c 7c 30 6e bc a1 23 e0 3a b0 b4 e4 bb
       0.029728938 -0.014537927 0.0017100462 -0.0069795474
000020 7e 1f 89 bc fc cc 75 3c 56 1f 21 3c 13 87 c9 39
       -0.01673865 0.015002485 0.009834131 0.00038438346
000030 15 09 51 3d 81 60 c8 bc be c7 51 bd 28 29 08 3d
       0.051034052 -0.02446008 -0.05121588 0.033242375
000040 8c 83 b4 3c c4 4a c9 3c 68 d6 c5 ba b0 69 fd b9
       0.022035383 0.024571784 -0.0015093805 -0.00048334664
000050 b1 16 9c 3c fa 6f cc 3c b1 46 0e 3d b7 fe f3 3b
       0.019053789 0.024955738 0.034735385 0.007446136
000060 af d3 51 3c 97 76 1f bc 2c 70 a0 bb f8 e9 d2 bc
       0.012806817 -0.009732864 -0.0048961844 -0.02574633
000070 39 fc 6e 3c 6b bf c0 3c 58 c9 c6 bb 1b 06 46 3c
       0.014586502 0.023528775 -0.0060664825 0.012086417
000080 44 e3 ea 3c 0f 73 18 ba d4 c9 41 3c 94 9b d7 3c
       0.028672822 -0.0005815485 0.011827905 0.026319303
000090 53 7b 22 3c 06 1d 5c bc 12 08 b1 3c 4b 23 1d 3d
       0.009917098 -0.013434654 0.021610294 0.038363736
0000a0 f8 38 5b bc 96 ab 3a 39 55 95 43 3b fe 72 1c bb
       -0.013380282 0.00017802263 0.0029843647 -0.0023872252
0000b0 2f d2 a0 bb f1 04 32 3d 7c 2f 83 bb 35 7d 54 bc
       -0.0049078683 0.043461744 -0.0040034633 -0.012969305
0000c0 6c 0d c5 bc fc 02 9b 3c b2 e9 ab 3c 8f b8 3d 3c
       -0.024054252 0.018922321 0.020985458 0.011579647
0000d0 10 ae 89 3d 6c 44 29 bc da 61 42 3d 3c 15 57 3d
       0.06722653 -0.010331254 0.0474566 0.052510485
0000e0 a5 f2 0f bc bb 55 aa 3c 45 d4 9b 3c d0 9e 37 bc
       -0.008785878 0.020792833 0.019022116 -0.011207297
0000f0 39 07 81 bc e7 9d 6a bc 02 d4 8c 3c 1c ac 53 3d
       -0.015750514 -0.014319873 0.017190937 0.05167781
000100 ac d4 0a 3c 80 b4 f7 3c 4e 0a 05 3d 99 8c 0c bc
       0.0084735565 0.030237436 0.03248053 -0.008578443
000110 f5 da af 3c 27 3b 12 bd 62 52 09 3d 29 08 84 3b
       0.021466712 -0.035700943 0.033525832 0.004029293
000120 34 fb c1 3c a2 95 57 3c b3 4a 25 3c c7 40 8b 3a
       0.023679353 0.013158234 0.01008861 0.0010624164
000130 85 9d 9d ba 44 f4 84 bc 0e e6 d7 3c 48 b0 b9 3c
       -0.0012025094 -0.016229756 0.026354816 0.022667065
000140 fb 60 98 3c 0f 91 b6 b9 fb 6f 97 bb 85 38 c1 ba
       0.018600931 -0.00034821822 -0.0046215034 -0.0014741576
000150 50 7a 24 3d 77 06 43 3c 4f cc b0 bc dc 74 7b 3c
       0.04015571 0.011903397 -0.021581797 0.015347686
000160 6e c9 7e 3d 5b 90 9d 3c ce 8b 57 3c ec cc 03 bc
       0.062203817 0.019233873 0.013155891 -0.008044463
000170 30 09 db 3b a6 75 0f 3c 94 7d 24 3b b6 e6 0d 3c
       0.006684445 0.008756077 0.0025099264 0.008660963
000180 86 56 bd bb 34 0b c8 3b 5d c4 e9 bc 30 88 ad 3c
       -0.0057781367 0.006104851 -0.028536016 0.021183103
000190 42 05 89 3c 0c 8c 40 3c 8a b7 c9 3c 4b e0 f1 3b
       0.01672614 0.01175214 0.024623651 0.007381474
0001a0 7a b2 84 bc a7 c1 3b bc 56 4e a6 3c 3c 1e 09 3d
       -0.016198386 -0.011459745 0.020301025 0.0334761
0001b0 04 5e b7 bb 86 1b b2 3c 88 73 39 3c 40 6c 42 bc
       -0.0055959243 0.02174164 0.011319049 -0.011866629
0001c0 e3 ed 29 3c a1 ce 52 3c c0 ef 6a 3c 7b a1 44 bc
       0.010371658 0.012866647 0.014339387 -0.012001391
0001d0 73 9c d5 bc 9f 24 cf 3c 8b 81 f1 3c 2b 3b 7f 3b
       -0.026075577 0.025286017 0.029480716 0.003894518
0001e0 b3 cd 0d 3b ad 2a 9c 3a b4 e0 db bb af 56 b6 3c
       0.00216375 0.0011914574 -0.0067101363 0.02225813
0001f0 74 dd bf 3c 3c ac 33 3c 55 2b 86 bc 4b d7 92 bb
       0.023421027 0.010966357 -0.016378084 -0.0044812313

network_body._body_endoder.seq_layers.2.weight f4 [128, 128]
000000 b7 07 28 3e cc 4d 9f 3d 9b 0a 26 3e a6 ab 45 be
       0.16409193 0.077785105 0.16214983 -0.1930376
000010 1f 76 fb 3b 2b 2b ac 3c dd f3 9e 3c b8 49 1c 3e
       0.0076739932 0.021016678 0.019403392 0.15262496
000020 2e 38 1e 3e 37 62 02 3d 79 e6 eb bc 56 d8 38 be
       0.15451118 0.031831946 -0.028796421 -0.18051276
000030 35 32 47 be b6 a1 e6 bc 78 13 f5 bd 7b 38 f1 3d
       -0.19452746 -0.028153282 -0.11966604 0.11778351
000040 b8 1d 58 bd c6 80 80 be fb bd b4 3d b3 95 5e 3e
       -0.052762717 -0.25098246 0.088252984 0.21736793
000050 56 91 bb bd 1b 91 67 bd db 18 9f 3d d8 cb 6e 3c
       -0.0915858 -0.056534868 0.07768413 0.014574967
000060 8c 11 4e 3d bb 83 c9 ba 3d 9b d1 3d 50 1a eb 3c
       0.050309703 -0.0015374342 0.102346875 0.02869907
000070 82 42 8e bd 43 ae f5 3d ce 77 e0 3d 66 cd 3c be
       -0.06946279 0.119961284 0.10960351 -0.18437728
000080 e9 c9 f2 3d 9a 9b 24 ba 65 92 55 3d 30 3f 22 be
       0.118549176 -0.000627929 0.052141566 -0.15844417
000090 7e 8a 8b 3a 29 5c 8a 3d 6d a7 4f 3e 2c 57 c3 3d
       0.0010646132 0.067558594 0.20278712 0.09538111
0000a0 61 f8 08 3d e7 b8 c5 3c 2d 50 b2 3d 25 ee ac 3c
       0.033439998 0.02413602 0.087066986 0.02110965
0000b0 9f 2c 86 bd 0d af 1d 3e 13 f6 09 be 7b c1 8d bc
       -0.065514795 0.15398808 -0.13472776 -0.017304173
0000c0 50 50 00 be 76 04 8d ba ae e4 02 be 2a e5 b4 bd
       -0.12530637 -0.0010758776 -0.12782547 -0.08832772
0000d0 0d 12 22 3d a2 3f 80 bd c9 fb 30 bc 01 36 00 bd
       0.039567996 -0.06262137 -0.010802218 -0.031301502
0000e0 14 15 13 3e 5b 55 ab 3d fb 4f 33 3d 39 1f 51 bd
       0.1436351 0.0836589 0.043777447 -0.051055167
0000f0 c0 29 8b bd ae 00 3d 3e 63 fc 6a 3d ab a6 69 be
       -0.067950726 0.1845729 0.0573696 -0.22817485
000100 59 9a c7 bc f5 87 2a 3c 41 d0 cc bd e7 d9 e7 3d
       -0.02436559 0.010408391 -0.10000659 0.113208584
000110 e3 cc 1b 3e 68 8e 30 bd 4c 1c 5d bd e8 e8 52 3e
       0.15214877 -0.04310456 -0.053982064 0.20596659
000120 ab 89 57 3d 06 d0 ec 3d 88 34 f9 3d 12 09 2b 3e
       0.052621525 0.11563115 0.12168223 0.16702679
000130 ae 6c 5e bd 93 c1 b9 bd 96 31 0a be 6b ba cd 3d
       -0.054302864 -0.090701245 -0.13495478 0.10045322
000140 c6 92 d5 3d c0 e4 a0 3d 80 80 60 3d fa d8 10 bd
       0.104283854 0.078561306 0.054810047 -0.035363175
000150 55 51 c1 3c 83 b3 5a 3d e0 f7 ce bd 62 18 d1 bd
       0.023598352 0.053393852 -0.10105872 -0.10209729
000160 a9 23 5f 3c f1 5e a6 ba 7d 13 ab bc 10 e5 35 be
       0.013619342 -0.001269309 -0.020883316 -0.17763162
000170 56 26 ca 3d 78 0d 56 bd a7 f5 15 be 22 7e 4e 3e
       0.09870593 -0.05225894 -0.1464449 0.20165303
000180 d9 ad 00 bd 28 d0 ad 3d 92 e4 ee 3d eb c8 9a bd
       -0.031415794 0.08486968 0.1166469 -0.07557853
000190 dc 81 52 bc 81 d7 9a 3c 1a 59 7c bb bd f8 83 3c
       -0.012848344 0.018901588 -0.0038505257 0.016109819
0001a0 6e a8 42 3d fa 83 c3 bd 4f 05 2a bd ab 10 48 3c
       0.04752391 -0.09546657 -0.04150897 0.012211005
0001b0 88 0d 4f bd a0 54 1e 3d 23 5f 9a bd c7 e5 13 3d
       -0.050550014 0.038654923 -0.07537677 0.036107805
0001c0 00 01 ea ba 48 c1 09 bc 4e bf c7 bd 03 71 0c 3d
       -0.0017853081 -0.008407898 -0.09753285 0.034287464
0001d0 a6 c1 0b bd 44 3f c4 3b e1 28 39 3e b9 7a 8e bc
       -0.034120224 0.005988987 0.18082 -0.017392503
0001e0 ff 9f 42 3e f5 50 12 3c 0e ad 17 3e f9 0f e5 3d
       0.19006346 0.0089304345 0.14812109 0.11184687
0001f0 93 d7 96 bd 1e ab 7e bd 0d 7c 42 bd c0 52 10 bb
       -0.07365336 -0.06217491 -0.047481585 -0.002202198
000200 07 fd 72 be 37 50 a0 bc 0d df 26 3d 0e 85 f3 bd
       -0.23729335 -0.0195695 0.04074006 -0.118906125
000210 10 a7 cf bd 2f 6e 83 bd 72 8c 69 3d df 46 e5 3c
       -0.101392865 -0.064175 0.057018705 0.027987896
000220 ff 4a ee 3d 66 d4 ab bd af 0d 2c be b8 4e d8 3d
       0.11635398 -0.08390121 -0.16802095 0.105618894
000230 d0 5f 66 bd 84 d5 53 bc fc ea cc 3d d2 a6 22 be
       -0.056243718 -0.012929324 0.10005757 -0.1588395
000240 fc 98 c4 bd 69 f2 28 bd 80 48 93 bd 1c f4 26 be
       -0.09599492 -0.041246805 -0.07191563 -0.16304058
000250 a6 30 79 3c 01 d7 8e bd 94 14 82 bd 06 64 0e bc
       0.015209353 -0.069746025 -0.06351581 -0.00869084
000260 6f 7d b7 3d 45 ca 81 bd 57 60 0e 3d a5 88 2f 3e
       0.089594714 -0.06337408 0.034759846 0.1714197
000270 cf e3 05 bd af 45 a0 bc 3c c3 ff 3c a9 2d 0a be
       -0.03268796 -0.019564478 0.031221025 -0.1349398
000280 7d 3b a5 3b 76 55 1b bd 66 da 86 bd c4 92 7e 3c
       0.005042492 -0.0379233 -0.06584625 0.015537921
000290 07 c8 87 bd 2a 9c 06 be 08 95 8e 3c 4f 8a 28 3d
       -0.06629949 -0.1314551 0.017405048 0.041147526
0002a0 e2 85 50 bc 06 28 4f 3d fa 26 68 3d b2 26 b6 3d
       -0.012727233 0.05057528 0.056677796 0.08894099
0002b0 ea 81 2d 3d 55 e2 19 be 4b e9 4b 3d 76 2a 08 bd
       0.042360224 -0.15027745 0.049783032 -0.03324362
0002c0 57 06 a1 bd 73 d9 5b be 79 52 af 3d dd c9 9c bd
       -0.07862537 -0.21469669 0.08560652 -0.0765569
0002d0 cb 62 d9 3c f3 49 20 3e 8b 5c 0c bd 96 47 16 bd
       0.026536366 0.1565321 -0.034267943 -0.036689363
0002e0 3b 04 0a bd 88 4b b1 bb 62 b8 88 bd 55 4a 17 bd
       -0.03369544 -0.0054106154 -0.06675793 -0.036936123
0002f0 59 62 fb bd bb 6e 26 be 63 81 01 be f4 65 7b bd
       -0.12274618 -0.16253178 -0.12647013 -0.061376527
000300 39 80 b5 bd 70 e8 8f 3e 9e 7f 89 bd f8 58 70 be
       -0.08862347 0.28107023 -0.06713794 -0.23471439
000310 d6 19 9b bc e9 5d 93 bd 04 48 42 be 3e 6f 39 bd
       -0.018933218 -0.07195646 -0.18972784 -0.045272104
000320 96 17 0c 3d 5d f9 bc 3c b2 14 80 be d8 80 3e 3d
       0.03420218 0.023068124 -0.2501579 0.046509594
000330 44 f9 81 bd e8 4e 89 3c 79 6a 3c 3a d9 d8 83 bc
       -0.06346372 0.016761258 0.00071874965 -0.016094612
000340 ef 69 2c 3e f3 a3 0a be 69 29 39 3c 28 b3 8b bc
       0.16837285 -0.13539104 0.011301377 -0.017053202
000350 e5 6c 10 be 4b 33 97 3d 9a 5a 20 be 45 09 19 3e
       -0.1410404 0.0738283 -0.15659562 0.14944942
000360 33 c5 ef 3d e4 a7 40 bc 58 b8 a4 bc f6 14 2c bd
       0.11707535 -0.011758778 -0.020107433 -0.042012177
000370 6e e8 fe bc 4a fa 28 be a9 77 a7 3d a8 fe 0c bc
       -0.03111669 -0.16501728 0.0817712 -0.008605637
000380 c9 aa bd 3d 21 dd 06 be e8 4a 23 be bd 43 6a bd
       0.0926109 -0.13170291 -0.15946543 -0.057193507
000390 f2 bb d4 bd 86 6d 1c be 97 eb 85 3d a1 fa 8c 3c
       -0.1038741 -0.15276155 0.06539076 0.017209353
0003a0 f4 3d d7 bd 1c 90 36 be 45 f8 bc 3d 56 29 8e 3a
       -0.105098635 -0.17828411 0.09227041 0.0010846059
0003b0 05 83 3d 3c 1c 91 9b bd ae f8 30 b9 5e a9 fc 3c
       0.011566882 -0.07596037 -0.00016877308 0.03084248
0003c0 48 50 81 be 4e 0d 7e 3c 9e 7d 33 be 8c d0 f5 3d
       -0.25256562 0.015506102 -0.17528388 0.12002668
0003d0 0a ec 46 b9 71 be 43 bd ec ca 49 bd 1f 8c a5 bd
       -0.00018970683 -0.04778904 -0.049265787 -0.080833666
0003e0 4b 92 1d 3e 58 b7 23 3d b2 94 2a be 50 22 87 3b
       0.15387838 0.039969772 -0.16658285 0.0041239634
0003f0 52 90 e5 bd 9c 7c cf 3c 57 eb 99 3d 9a e8 21 bd
       -0.112091675 0.025327973 0.07515591 -0.039528467

network_body._body_endoder.seq_layers.2.bias f4 [128]
000000 eb 9f d0 3b 5c 6a 88 bd a3 90 0e bd c9 1d dd 3c
       0.00636672 -0.066609114 -0.034805905 0.026991742
000010 53 e7 c8 3c be 6d 96 3c ac 98 58 3a bf cd 3c 3c
       0.024524366 0.018362876 0.0008262496 0.011523663
000020 22 f6 8b 3c 70 e8 4c 3d 22 db 55 3c 01 65 92 bc
       0.017085139 0.050026357 0.013052734 -0.017870428
000030 4c f2 65 3b bc 02 a2 3c ef 3f 84 bc 77 f4 38 3c
       0.0035087047 0.019776694 -0.016143767 0.011288754
000040 49 33 07 3c 6c 3f 5c 3c 86 9b 67 3c eb 56 8a bb
       0.008251973 0.013442855 0.014136201 -0.004221787
000050 be 8e 4a 3c 1a 80 9d 3c c4 31 c5 bb 7c 64 13 3b
       0.012363134 0.019226123 -0.0060178954 0.0022490313
000060 8d 6b d5 bb 58 24 00 3c bd e8 95 3c e4 eb 4a 3d
       -0.006513065 0.007821165 0.018299455 0.04954137
000070 c2 5d 9c 3b 33 7d 9b 3c 9b fa be 3c 67 4a 00 bd
       0.004771919 0.018980598 0.023312857 -0.031320956
000080 8b 92 c3 bc 45 71 d8 3b 75 45 34 bb 03 6d c7 bb
       -0.023873588 0.0066052997 -0.002750722 -0.0060859933
000090 1d e4 f3 bb da e3 7b 3c e3 11 87 bb e5 b5 a5 bb
       -0.0074429647 0.015374148 -0.0041220053 -0.005057084
0000a0 e0 48 64 3b bb de f7 bc 40 5e ac bb e8 0a da 3b
       0.0034833476 -0.030257573 -0.005260259 0.006654132
0000b0 c6 a2 71 3c 79 65 c7 3c ef 08 9d bc 5a 37 df 3c
       0.014748281 0.024340378 -0.019169299 0.027248073
0000c0 12 0d e2 bc 65 40 64 3a ab 9c 29 3c 46 fa 89 3b
       -0.027594123 0.00087071053 0.010352294 0.004210743
0000d0 eb 2b 6c 3c 69 14 ca 3b 37 2c 43 bc 68 ef 36 3d
       0.014414768 0.006166984 -0.011912397 0.04466191
0000e0 bc 13 0f bd 5a e2 bf 3c 0c de 0a bc d5 77 31 3c
       -0.03493093 0.023423363 -0.008475792 0.010831793
0000f0 99 9a 24 bc 98 e2 7f 3b ee 93 94 3c c0 e1 e9 3c
       -0.010046625 0.0039044973 0.018136945 0.028550029
000100 a1 cd e7 3c a5 b6 ae ba 2e 10 4c bc 37 f8 2c 3b
       0.028296294 -0.0013329579 -0.012455029 0.0026393065
000110 d6 8f 7d bb 63 2e 99 bc 0f be cd 3c ee 58 8f bc
       -0.003869047 -0.018698877 0.025115041 -0.01749846
000120 f5 00 e7 3b a6 c7 0e 3b e7 39 82 3c 93 3f b2 3b
       0.0070496746 0.002178648 0.01589675 0.0054397075
000130 22 b5 08 3c e6 1b 38 3c ce ab a2 3c eb 10 08 bc
       0.008343967 0.01123712 0.019857313 -0.008304815
000140 35 ea 4c 3d eb bc b1 3c 4e 09 57 bc 14 14 4c 3c
       0.050028045 0.021696528 -0.013124777 0.012455959
000150 cd ec ae 3c 8b 57 ff 3c da 52 61 bc c4 b4 1c 3c
       0.02135315 0.031169673 -0.0137526635 0.009564582
000160 8c 4c 49 bb 5e 9a 2d 3c 9e 8a 97 3c ab ea 06 bc
       -0.0030715792 0.010595886 0.018498715 -0.00823466
000170 d0 08 8b 3c cb 56 43 3d e3 09 0f bb 11 e6 7b bb
       0.016971976 0.047690194 -0.0021825961 -0.003843669
000180 47 e9 2d 3d ec db f7 3c ec 84 a6 3c d8 db a0 3c
       0.0424588 0.030256234 0.020327054 0.01963608
000190 27 64 89 3c 37 c5 b0 3c 87 8f 86 bc 4a 68 c1 3c
       0.01677139 0.021578414 -0.016425861 0.0236093
0001a0 80 11 80 3a 35 6f 28 3c 1d 2a 28 bc 6d f0 a5 3c
       0.000977084 0.01028042 -0.010263947 0.020256246
0001b0 34 4e ad 3c ea 43 1d 3d da db 45 3c a9 d6 47 bc
       0.021155454 0.038394846 0.0120763425 -0.012197175
0001c0 96 e7 84 bb fe 2e 39 bd 12 d7 93 bc 24 61 02 3c
       -0.0040559275 -0.04521083 -0.01804689 0.00795773
0001d0 92 0b d6 3c cd 54 e9 3c 0c 7d e7 bc 60 60 9a 3c
       0.026128564 0.028482819 -0.02825787 0.018844783
0001e0 b0 b9 d7 bb 18 eb d6 bc ec a0 0c 3d 51 5e b5 3c
       -0.006583415 -0.026235148 0.034333155 0.0221397
0001f0 24 7d 4a bb 84 e1 9c 3c 3d 60 08 bc 2b b4 8e 3c
       -0.0030897344 0.019150503 -0.008323726 0.017419895

action_model._continuous_distribution.log_sigma f4 [1, 3]
000000 38 68 f1 be 90 0e ae be 8f 1c 02 bf
       -0.47149825 -0.33995485 -0.50824827

action_model._continuous_distribution.mu.weight f4 [3, 128]
000000 e0 7e 08 bd 55 9f 27 3d 04 cf 30 3c ad 30 ac bd
       -0.033324122 0.040923435 0.010791544 -0.08407722
000010 83 7e 41 3d 6e bc b7 3c 2b 33 ab 3c d7 92 2d bd
       0.04723979 0.022428717 0.020898422 -0.042376366
000020 18 ff 83 bd 13 48 a8 bd 62 29 37 bd 05 e4 34 bd
       -0.0644514 -0.08216872 -0.0447172 -0.04416277
000030 9c 7e 5c 3c 00 55 06 bd 28 80 1d 3d ee 4d ec bc
       0.01345792 -0.032795906 0.038452297 -0.028845754
000040 22 c4 a0 bc 6d c8 ca bc 5b 47 3f bb 4b 0b 15 bd
       -0.019624773 -0.024753774 -0.0029186818 -0.036387723
000050 20 0e 98 3c af 79 06 bd c0 aa 72 3d 99 5a 21 bd
       0.018561423 -0.03283089 0.05924487 -0.03939304
000060 a8 db b7 3c 36 63 32 3d 44 20 7b bd af dd ae 3c
       0.022443607 0.043551646 -0.061310068 0.021345941
000070 e7 42 9b 3c bb 52 93 3d 40 85 a4 bd 7b e3 9a 3c
       0.0189528 0.07193514 -0.08033228 0.0189073
000080 5a 5d 08 3c 8d a1 fa bb 70 20 d3 3c ad 7d 89 bc
       0.008323038 -0.007648653 0.025772303 -0.01678356
000090 d3 e6 38 3d 57 07 01 bd cb cf d9 bb af 18 85 3c
       0.045142006 -0.03150114 -0.0066470853 0.016247122
0000a0 c2 8d da 3c 45 c7 7e 3c 5a 59 b7 bc 8a ee 87 bd
       0.026678924 0.015550439 -0.022381473 -0.066372946
0000b0 e2 ed 92 3c d3 b1 76 bd 45 65 af 3c d4 b0 cf bb
       0.017935697 -0.06022818 0.021410594 -0.006338218
0000c0 94 0e 67 bb 4f 04 03 bd 6b c1 9c bb 4a 2a 7a bd
       -0.0035256492 -0.03198653 -0.0047837994 -0.061075486
0000d0 c4 c7 28 bc 20 af 46 3d 34 91 1b 3c b4 2a 97 bd
       -0.010301534 0.048506856 0.009495068 -0.07381192
0000e0 75 ce 4d 3b 21 d0 6d 3b 04 e4 20 3b 85 a0 0d 3d
       0.0031403576 0.0036287385 0.002454997 0.03457691
0000f0 cc 8d 05 3d af 15 09 bc 06 e3 28 bd 3b ec 51 bd
       0.03260593 -0.008366986 -0.04123213 -0.051250678
000100 8e 11 21 3d 6e dd 80 3a 54 7e 20 3d 66 60 44 bd
       0.039323382 0.0009831616 0.039182976 -0.047943495
000110 c0 3d bb bc f1 d5 0f 3c 05 20 46 3d 82 cf 87 3c
       -0.022856593 0.008779035 0.04837038 0.01657844
000120 c9 66 be 3c 73 d6 3c 3d 60 a1 36 bd 53 b7 9d 3c
       0.023242371 0.046102952 -0.044587493 0.019252455
000130 c9 7b a8 bc e4 9f b5 bd 52 3e c0 3c da 16 f1 3c
       -0.020566838 -0.08868387 0.023467217 0.029429842
000140 8f ad be bd cf bc 63 bd df 1e 2d 3d be 1a bb 3c
       -0.093104474 -0.055599984 0.04226577 0.0228399
000150 85 d2 76 3c 96 90 10 3d 50 41 81 bc 4e f6 69 3c
       0.01506484 0.035294138 -0.015778214 0.014279915
000160 5e 1d a9 3c 0a 62 e1 3c 20 6c 6c 3d 2d b4 a8 3c
       0.020643886 0.027512569 0.057720304 0.020593727
000170 53 5e 07 3d ce 23 d5 bd a6 06 41 3d 20 81 5d 3d
       0.03304894 -0.1040722 0.04712548 0.05407822
000180 67 5c 63 bd e5 16 cd bd 8d 6b 4f 3d 0b 9e 2e 3d
       -0.055508044 -0.100141324 0.050639678 0.04263119
000190 57 22 b7 bd 12 43 49 3d 94 a2 f4 3b 00 ac 06 bd
       -0.08942097 0.04913623 0.00746567 -0.032878876
0001a0 e2 30 2a bd 60 d4 7c 3c 94 2d 96 3c cb 3b ac bb
       -0.041550525 0.0154314935 0.01833228 -0.0052561513
0001b0 55 67 06 bb 9d 84 20 3d 01 c9 80 3d 4a b5 0d 3d
       -0.0020508368 0.03918897 0.062883385 0.03459672
0001c0 3e 84 54 bd b9 92 db 3c 2b 61 17 3d d6 99 33 bd
       -0.05188393 0.026803361 0.0369579 -0.04384788
0001d0 21 fe 8d bd 46 9a bb bd 5f f6 60 bc fe a7 1d 3d
       -0.06933237 -0.09160285 -0.013730614 0.038490288
0001e0 00 92 d4 3c 7e 4f ed 3c cc a6 64 3c 63 a1 26 3d
       0.025948524 0.028968569 0.013955783 0.040681254
0001f0 a3 9e 0e 3d 7f 36 79 3d b3 40 79 bc 0a 7c 4e 3d
       0.034819257 0.060842987 -0.015213179 0.05041126
000200 41 3e af bd 10 a1 39 bc ba 3c d7 bb 6f bd fa bd
       -0.08556796 -0.011329904 -0.0065685185 -0.12243163
000210 49 58 30 3d c8 47 b2 3d 52 b5 00 bb 57 db 4c bd
       0.043052945 0.087050974 -0.0019639325 -0.050013866
000220 5e c4 ac 3b 80 83 d8 bc 86 d7 14 3d ad 79 dc bd
       0.005272432 -0.026429892 0.03633835 -0.10765395
000230 e3 ff 41 3c bb 26 8c 38 37 f4 9d bc c8 79 8f bd
       0.011840793 6.682934e-05 -0.01928149 -0.0700565
000240 36 cd 0e 3d 31 93 84 3d 77 e7 49 3d 8f 65 ee bd
       0.034863673 0.06473387 0.049293008 -0.116404645
000250 b6 47 b5 3c f0 a4 63 3b 6c 71 78 3c 37 f3 4a bd
       0.022128921 0.0034735762 0.015163761 -0.049548354
000260 1f 43 9d ba 33 02 22 3d a6 49 3d 3c 71 6c 9e bd
       -0.0011998153 0.03955288 0.011553204 -0.07735527
000270 c7 01 22 bd 11 6d 25 3c 4b 39 36 bd 57 73 1c 3d
       -0.039552476 0.010096804 -0.044488233 0.038195934
000280 bf 6d 5c bc cc be a2 bd 90 b4 83 3d 38 20 bc 3c
       -0.0134539 -0.07946548 0.06430924 0.022964582
000290 50 30 70 3d 8c 04 7b 3c d2 cc 19 3d b2 b2 b1 3c
       0.058639824 0.015320908 0.037548847 0.021691654
0002a0 d9 cb 1f bd 90 97 d6 bc b3 ff 8e bc 2a 82 e1 bd
       -0.039012764 -0.026195318 -0.017455911 -0.11011155
0002b0 a2 e5 80 3d 9d 77 b3 3a d4 f1 8d 3b b5 0b be 3d
       0.06293799 0.0013692264 0.0043318067 0.09279577
0002c0 7a 60 21 bd cc b1 c7 bd b3 81 d9 3c 86 aa a6 ba
       -0.039398648 -0.09750709 0.026551103 -0.0012715615
0002d0 e0 0e 9c bd 28 79 7c 3d f2 9f 8a bc 20 60 5a bd
       -0.07620025 0.06163898 -0.016921971 -0.05331433
0002e0 bd 0b 29 3c 17 9d 8d bc 36 08 24 3d 94 19 dd bc
       0.01031774 -0.01728682 0.040046893 -0.026989736
0002f0 fd 89 a2 bc 19 35 44 bd 9e 63 65 bd 5f 19 a0 3c
       -0.019841189 -0.0479022 -0.056003205 0.019543348
000300 0a 99 7e 3d 94 81 09 3d 62 87 e0 3c 22 49 2b bc
       0.06215767 0.03357084 0.027408306 -0.010454448
000310 f6 b8 08 be a4 a9 ed 3c 48 fc 99 bd 7f 4e 50 bd
       -0.13351807 0.029011555 -0.07518822 -0.05085611
000320 ab 7e 36 3d ba 7b 4e 3c e8 ba 4e 3d 6b 21 b4 bc
       0.044554394 0.012602741 0.050471216 -0.021988591
000330 16 a1 03 be ea f1 c8 bb 78 f3 83 3d 14 4f f6 bc
       -0.12854418 -0.006132354 0.06442922 -0.030067004
000340 44 8e fe bd e8 b7 a8 3c 7c c7 ac 3b 6f 6a a3 bd
       -0.12429479 0.020595506 0.005272804 -0.07979285
000350 4d 22 84 3d 74 2c 72 3d 8b 42 6e bd 5f 5e 95 3c
       0.06451855 0.059124425 -0.05816893 0.018233476
000360 d3 1b af bc d4 b9 4f 3a 2c 90 2c 3c 56 68 da 3c
       -0.021375572 0.0007924114 0.01053242 0.02666108
000370 88 b5 69 bd de 8d b0 bd f4 ab c2 bb ea a4 a5 bc
       -0.057057887 -0.08620809 -0.0059409086 -0.020220239
000380 8a 42 5f bd 44 e2 8c bd 63 97 88 bd 57 9b 90 3c
       -0.054506816 -0.06879094 -0.066695 0.017652197
000390 c8 cf 53 bd 7b 9f a6 3d fd 2f a3 3a 3f 4a ed bd
       -0.051711828 0.08135887 0.0012450215 -0.11586427
0003a0 18 84 83 bd d1 11 74 3d 22 64 2b bc f1 6d 2a 3b
       -0.06421679 0.059587304 -0.010460885 0.0026005472
0003b0 a7 dc d3 3d ea 96 9b ba 50 a7 3f 3d 3a d3 08 3d
       0.103448205 -0.0011870537 0.04679042 0.033404566
0003c0 83 15 8c bd ff f8 40 3d 9f 8c 6e bc 20 f1 80 bc
       -0.068400405 0.04711246 -0.014559894 -0.015739977
0003d0 05 d2 71 3c c5 70 04 be 79 8e 31 bc e4 9c ad 3c
       0.014759545 -0.12933643 -0.010837191 0.021192975
0003e0 ab d0 f7 3c 03 bd 98 3b c1 18 a1 3d dd f4 20 3d
       0.030250868 0.004661204 0.078660496 0.03929602
0003f0 aa 2c 63 bd f5 11 6e 3d 4e 5a 4c bc e3 9c 55 3d
       -0.055462517 0.058122594 -0.012472702 0.052151572

action_model._continuous_distribution.mu.bias f4 [3]
000000 56 70 19 bc cd 74 8b 3c 7a 65 2f bb
       -0.009365162 0.017023468 -0.0026763366

exp_avg f4 [128, 179]
000000 a5 f8 1c 39 00 00 00 00 e2 6b 14 3a 89 ca 57 3a
       0.00014969947 0.0 0.0005661828 0.0008231779
000010 18 1c bd 38 00 00 00 00 d4 51 ce b7 61 cb 13 3a
       9.017455e-05 0.0 -2.4595218e-05 0.0005637911
000020 14 e5 32 39 00 00 00 00 af b2 b2 37 70 08 2d 3a
       0.00017060741 0.0 2.130246e-05 0.00066006836
000030 4b c0 80 b8 00 00 00 00 52 a5 13 38 43 e5 c1 39
       -6.139333e-05 0.0 3.5201498e-05 0.00036982642
000040 8b d8 b2 38 00 00 00 00 ca 57 5b b7 5f 2e 3c 3a
       8.528036e-05 0.0 -1.3073857e-05 0.00071785407
000050 7e c8 45 36 00 00 00 00 36 71 03 39 11 d0 96 39
       2.947199e-06 0.0 0.00012535308 0.0002876525
000060 eb 2f 18 39 00 00 00 00 b5 08 bd 39 8f c0 68 3a
       0.000145137 0.0 0.00036055376 0.0008878791
000070 aa cb 27 35 00 00 00 00 13 4c cd 37 4a 5f 7b 39
       6.250872e-07 0.0 2.447333e-05 0.00023972723
000080 51 24 00 38 00 00 00 00 33 58 a4 39 79 6a 61 3a
       3.05514e-05 0.0 0.0003134623 0.00085989345
000090 7f 7c 10 b6 00 00 00 00 77 65 e6 35 32 46 2d 39
       -2.1530138e-06 0.0 1.7165866e-06 0.00016524715
0000a0 c7 1f 11 38 00 00 00 00 db 27 3b b9 df 8e 17 3a
       3.460029e-05 0.0 -0.00017848557 0.00057814823
0000b0 57 a3 bd b8 00 00 00 00 28 2f 84 39 c8 7b 5d 3a
       -9.042647e-05 0.0 0.00025212136 0.0008448926
0000c0 79 07 8f b5 00 00 00 00 51 8a 9a 39 da e2 4d 3a
       -1.0656505e-06 0.0 0.00029476223 0.0007853933
0000d0 d9 f2 d4 39 00 00 00 00 96 c9 88 39 9d 3a 51 3a
       0.00040616727 0.0 0.00026090135 0.00079814513
0000e0 93 9d 62 38 00 00 00 00 aa 99 4a 39 10 89 21 3a
       5.402935e-05 0.0 0.00019321466 0.00061620865
0000f0 8d c9 5b 39 00 00 00 00 ae 6d 28 39 9b 9d 45 3a
       0.00020960551 0.0 0.00016062587 0.00075384387
000100 0b 58 eb b6 00 00 00 00 ed d8 83 38 11 3c 0c 3a
       -7.0137953e-06 0.0 6.286972e-05 0.0005349527
000110 4c 7c 26 38 00 00 00 00 87 68 60 b9 b5 72 20 3a
       3.9693245e-05 0.0 -0.00021401244 0.00061206083
000120 37 76 b9 b3 00 00 00 00 c3 7f f4 36 1d e0 3e 39
       -8.636237e-08 0.0 7.28664e-06 0.000182033
000130 db 74 b5 38 00 00 00 00 de 73 05 b9 4e 89 25 3a
       8.6525186e-05 0.0 -0.00012727032 0.00063147105
000140 42 39 a5 36 00 00 00 00 89 7b 2f 37 ea 1c 29 39
       4.924049e-06 0.0 1.0459576e-05 0.00016127867
000150 c5 e8 6a 38 00 00 00 00 f0 10 8b b8 d2 e3 2d 3a
       5.600673e-05 0.0 -6.631191e-05 0.0006633374
000160 63 af 30 39 00 00 00 00 e6 d2 94 39 01 3f 33 3a
       0.00016850005 0.0 0.0002838589 0.00068376964
000170 ee 66 93 38 00 00 00 00 f1 27 84 39 8b 78 31 3a
       7.0286784e-05 0.0 0.0002520676 0.00067699765
000180 3b d3 19 38 00 00 00 00 b5 aa 66 39 37 3d 2f 3a
       3.6674766e-05 0.0 0.00021998103 0.0006684842
000190 54 02 ca b7 00 00 00 00 a4 6a 72 b8 02 11 d7 39
       -2.408136e-05 0.0 -5.7796613e-05 0.00041020667
0001a0 a4 1f 22 39 00 00 00 00 b2 9c 50 b6 82 20 15 3a
       0.00015461311 0.0 -3.1085624e-06 0.0005688743
0001b0 f0 95 67 37 00 00 00 00 72 95 0d 39 4e 71 f7 39
       1.3803583e-05 0.0 0.0001350248 0.0004719593
0001c0 f7 12 6c 39 00 00 00 00 51 b1 96 38 ee a9 2e 3a
       0.00022513779 0.0 7.185585e-05 0.0006662895
0001d0 ac bd f8 34 00 00 00 00 74 59 41 39 a7 df e9 39
       4.6331604e-07 0.0 0.00018439238 0.00044607857
0001e0 cc f8 57 b8 00 00 00 00 94 27 00 39 f3 82 35 3a
       -5.1491705e-05 0.0 0.00012221775 0.0006924115
0001f0 39 2c af b6 00 00 00 00 44 5c 8d 38 3a 78 c2 39
       -5.2205546e-06 0.0 6.74059e-05 0.0003709214
000200 c4 90 48 b8 00 00 00 00 f6 49 15 b9 92 21 15 3a
       -4.781854e-05 0.0 -0.000142373 0.00056889013
000210 53 e8 5a b3 00 00 00 00 8a d7 05 b9 e7 0f 00 39
       -5.0968378e-08 0.0 -0.00012764163 0.00012212955
000220 c6 57 b5 35 00 00 00 00 3d ae 57 b9 a4 40 55 39
       1.3511096e-06 0.0 -0.00020568907 0.00020337343
000230 56 be 34 31 00 00 00 00 9c 95 c6 37 4d 30 59 b8
       2.630164e-09 0.0 2.3673107e-05 -5.1781815e-05
000240 f1 d0 03 b6 00 00 00 00 b5 bd 6b b8 b0 5c 83 38
       -1.964214e-06 0.0 -5.6205045e-05 6.263831e-05
000250 c5 34 85 36 00 00 00 00 84 73 b3 b8 12 90 88 b9
       3.969852e-06 0.0 -8.5569016e-05 -0.00026047282
000260 9e ac 83 35 00 00 00 00 f1 42 c4 b8 b5 91 1c 39
       9.810499e-07 0.0 -9.358477e-05 0.000149316
000270 00 41 b1 b6 00 00 00 00 c7 fd c1 b8 ab 76 62 39
       -5.282578e-06 0.0 -9.250227e-05 0.00021597247
000280 85 30 f4 b5 00 00 00 00 8b 42 90 b9 b1 f8 02 39
       -1.8193538e-06 0.0 -0.000275154 0.00012490411
000290 1a bb 64 b5 00 00 00 00 b1 5b 83 36 8d f0 3b 39
       -8.520889e-07 0.0 3.9147785e-06 0.00017923322
0002a0 68 42 75 3c ba 5b 48 3a 51 93 d5 bb 00 00 00 00
       0.014969446 0.0007643063 -0.0065178056 0.0
0002b0 b9 5b c4 39 00 00 00 00 7c 7d 1a b9 89 50 23 3b
       0.00037452372 0.0 -0.00014733331 0.002491983
0002c0 fd 11 49 3a 3b 65 11 3b 90 6a 0d 3a 9a c5 cd b5
       0.0007670222 0.0022185582 0.0005394602 -1.53312e-06
0002d0 00 00 00 00 84 cb c9 b8 5f ba a8 b8 4b 1e 27 35
       0.0 -9.6223346e-05 -8.0455786e-05 6.225643e-07
0002e0 00 00 00 00 12 c2 83 b8 59 72 ae b8 f7 fd 61 38
       0.0 -6.282715e-05 -8.3182655e-05 5.3880703e-05
0002f0 00 00 00 00 78 8c ad 38 7b d9 61 b7 5d 60 a1 36
       0.0 8.275447e-05 -1.3461681e-05 4.809392e-06
000300 00 00 00 00 ce 77 5a b8 10 7b b8 b8 75 93 ad 37
       0.0 -5.2086827e-05 -8.796726e-05 2.0691872e-05
000310 00 00 00 00 90 c0 83 38 97 e1 10 b7 00 3d ba 34
       0.0 6.282434e-05 -8.635593e-06 3.4689583e-07
000320 00 00 00 00 0b 80 f2 37 0b eb ee b7 0b 58 fc b8
       0.0 2.8908273e-05 -2.8481261e-05 -0.00012032696
000330 00 00 00 00 5e ab 4b b8 d0 02 9a b8 65 ed eb b4
       0.0 -4.855857e-05 -7.343816e-05 -4.3944888e-07
000340 00 00 00 00 82 ad 23 38 91 e0 45 b8 c9 29 76 b7
       0.0 3.902382e-05 -4.7177604e-05 -1.46724715e-05
000350 00 00 00 00 7a 3c 36 b9 76 90 ce b8 74 7d 9f 36
       0.0 -0.00017379402 -9.8497534e-05 4.753174e-06
000360 00 00 00 00 1d df 3f 36 fe dc 15 b8 5a 80 1c b7
       0.0 2.8591087e-06 -3.5730183e-05 -9.328209e-06
000370 00 00 00 00 c9 75 19 39 b1 72 71 38 69 82 db 37
       0.0 0.00014635095 5.7565692e-05 2.6167561e-05
000380 00 00 00 00 17 16 60 b8 62 9e 42 b9 4c fa b4 36
       0.0 -5.3426334e-05 -0.00018560284 5.3935564e-06
000390 00 00 00 00 e0 b0 37 35 ab 16 0c b9 b4 b4 1f b9
       0.0 6.84302e-07 -0.00013359885 -0.00015230739
0003a0 00 00 00 00 1f 8b 11 b8 00 c3 df b8 8a e5 05 b7
       0.0 -3.470026e-05 -0.0001066979 -7.9808615e-06
0003b0 00 00 00 00 fa 49 67 38 a4 9c e1 b8 78 f9 d7 b7
       0.0 5.5143588e-05 -0.00010758013 -2.5746165e-05
0003c0 00 00 00 00 32 fa b5 b8 69 dc c7 b8 3c 19 d2 34
       0.0 -8.677355e-05 -9.530114e-05 3.9133909e-07
0003d0 00 00 00 00 36 b1 20 b8 69 02 1e b9 3c f4 0b 38
       0.0 -3.8312013e-05 -0.00015068952 3.3367643e-05
0003e0 00 00 00 00 cf 4b ae 38 1e 91 d2 36 ed ba 5f 32
       0.0 8.311087e-05 6.2753816e-06 1.302281e-08
0003f0 00 00 00 00 90 03 86 b7 a1 ba 62 35 df b5 e9 b7
       0.0 -1.5975704e-05 8.446314e-07 -2.7860455e-05

exp_avg_sq f4 [128, 179]
000000 dc fc a5 33 00 00 00 00 16 bb 1d 35 46 2b 9c 35
       7.729406e-08 0.0 5.8759304e-07 1.16355e-06
000010 ad 0a 8e 33 00 00 00 00 59 6d 05 35 94 2e 82 35
       6.614332e-08 0.0 4.970548e-07 9.699311e-07
000020 45 3c 96 33 00 00 00 00 de 6d 13 35 04 bd ab 35
       6.995882e-08 0.0 5.4921645e-07 1.2795504e-06
000030 c8 79 16 33 00 00 00 00 4f 8f e2 34 a1 0b 56 35
       3.5035356e-08 0.0 4.220005e-07 7.9738135e-07
000040 71 0b c6 33 00 00 00 00 b2 71 cf 34 de b1 b0 35
       9.222175e-08 0.0 3.863948e-07 1.3164788e-06
000050 2f 6d 8a 32 00 00 00 00 d2 bb 7c 34 ee 05 13 35
       1.6114965e-08 0.0 2.3537658e-07 5.4770396e-07
000060 e6 37 c0 33 00 00 00 00 59 9e b0 34 08 89 bc 35
       8.9508646e-08 0.0 3.2897768e-07 1.4046973e-06
000070 5b 23 76 32 00 00 00 00 22 8f 0c 34 82 1b c5 34
       1.43271235e-08 0.0 1.3090587e-07 3.6714124e-07
000080 ac 11 94 33 00 00 00 00 1b 17 8f 34 a6 e8 bc 35
       6.8950015e-08 0.0 2.6652637e-07 1.4074801e-06
000090 c4 b0 f5 31 00 00 00 00 73 a5 47 33 7e ba 7d 34
       7.1505344e-09 0.0 4.6483773e-08 2.3630307e-07
0000a0 44 20 45 33 00 00 00 00 f6 a4 97 34 30 9e bd 35
       4.5896982e-08 0.0 2.8245967e-07 1.4127636e-06
0000b0 30 c6 7f 33 00 00 00 00 f1 90 1a 35 14 06 a2 35
       5.9552065e-08 0.0 5.758039e-07 1.207171e-06
0000c0 ec 1a 35 33 00 00 00 00 ef 89 1d 35 4d 12 92 35
       4.2166832e-08 0.0 5.868778e-07 1.0883174e-06
0000d0 61 50 c8 33 00 00 00 00 80 a9 f8 34 fc 4c aa 35
       9.3278466e-08 0.0 4.6316927e-07 1.2688392e-06
0000e0 ee 02 27 33 00 00 00 00 60 53 05 35 5b a7 6c 35
       3.8885382e-08 0.0 4.966769e-07 8.8160385e-07
0000f0 46 0c a7 33 00 00 00 00 b2 cb c7 34 68 b9 ac 35
       7.778776e-08 0.0 3.7214846e-07 1.2868959e-06
000100 08 ae 9b 32 00 00 00 00 b2 85 63 34 7a 07 13 35
       1.8123515e-08 0.0 2.118966e-07 5.477265e-07
000110 a7 09 9b 33 00 00 00 00 f1 64 a9 34 e6 50 b8 35
       7.219506e-08 0.0 3.1552148e-07 1.3732613e-06
000120 9e 6f 54 32 00 00 00 00 f4 4e b9 33 b3 8e bb 34
       1.2365403e-08 0.0 8.629095e-08 3.4935292e-07
000130 f7 ce cc 33 00 00 00 00 c5 a7 84 34 6c 44 b5 35
       9.537137e-08 0.0 2.4708984e-07 1.3505464e-06
000140 c9 82 e0 31 00 00 00 00 dd 38 20 33 4a ca 7b 34
       6.5341266e-09 0.0 3.730462e-08 2.3449789e-07
000150 64 d2 6d 33 00 00 00 00 83 75 8d 34 54 48 b7 35
       5.537221e-08 0.0 2.6348798e-07 1.3655613e-06
000160 4c 2a 92 33 00 00 00 00 c4 2a 28 35 35 0a a9 35
       6.8063486e-08 0.0 6.264711e-07 1.2594452e-06
000170 fa 46 63 33 00 00 00 00 b4 c6 1a 35 c7 57 91 35
       5.291711e-08 0.0 5.765862e-07 1.0828888e-06
000180 8f 64 9e 33 00 00 00 00 66 73 0d 35 1d 1d b0 35
       7.37574e-08 0.0 5.269452e-07 1.3121495e-06
000190 68 8e f3 32 00 00 00 00 da 52 eb 34 d8 fe 5f 35
       2.8353682e-08 0.0 4.3832443e-07 8.344482e-07
0001a0 0e 60 e2 33 00 00 00 00 8b bf bc 34 87 b9 ac 35
       1.0541417e-07 0.0 3.5157095e-07 1.2868994e-06
0001b0 a2 cc 88 32 00 00 00 00 63 42 7b 34 cc 71 13 35
       1.592554e-08 0.0 2.3400348e-07 5.4927364e-07
0001c0 87 4c a1 33 00 00 00 00 2b ce 98 34 44 a3 b4 35
       7.511067e-08 0.0 2.8462213e-07 1.3458562e-06
0001d0 f1 0b 3e 32 00 00 00 00 41 c9 e2 33 31 7a bc 34
       1.1062171e-08 0.0 1.0560553e-07 3.5106635e-07
0001e0 74 9e c1 33 00 00 00 00 5c 99 8b 34 7e ab b8 35
       9.016085e-08 0.0 2.600235e-07 1.3758979e-06
0001f0 96 3b ba 31 00 00 00 00 fd ab 1f 33 af fa 7b 34
       5.4200866e-09 0.0 3.7176495e-08 2.3467395e-07
000200 95 a4 a0 33 00 00 00 00 0e 16 8d 34 a7 73 b8 35
       7.480518e-08 0.0 2.6279344e-07 1.3742728e-06
000210 f6 d3 1d 31 00 00 00 00 04 97 0d 35 b7 5d 75 35
       2.2966993e-09 0.0 5.274635e-07 9.1405985e-07
000220 f4 48 15 32 00 00 00 00 0c 3b cf 34 5e 08 96 35
       8.689529e-09 0.0 3.8599717e-07 1.1178306e-06
000230 29 58 f8 30 00 00 00 00 9c 9c 8a 33 a4 ab a2 34
       1.8069432e-09 0.0 6.454613e-08 3.0299736e-07
000240 86 0a 54 31 00 00 00 00 ea 0f 23 35 87 bd 85 35
       3.0856042e-09 0.0 6.074539e-07 9.964432e-07
000250 0e 0a 61 31 00 00 00 00 60 69 bd 34 b0 18 8b 35
       3.2747525e-09 0.0 3.5280664e-07 1.0363492e-06
000260 0d d0 26 31 00 00 00 00 2f 3c 68 33 f7 af b8 34
       2.4274442e-09 0.0 5.4071446e-08 3.4400702e-07
000270 f3 58 92 31 00 00 00 00 5e d5 29 35 e8 f8 85 35
       4.2592716e-09 0.0 6.3267896e-07 9.981713e-07
000280 bf 3c 8a 31 00 00 00 00 23 9b a3 34 9a 34 8b 35
       4.0232346e-09 0.0 3.0473993e-07 1.0371616e-06
000290 c9 5e 10 31 00 00 00 00 a2 d8 7c 33 07 ef ae 34
       2.1008637e-09 0.0 5.887035e-08 3.258394e-07
0002a0 0d 9e fe 39 4d d1 fe 35 56 6f 13 3a 00 00 00 00
       0.00048564412 1.8985389e-06 0.00056241953 0.0
0002b0 58 97 12 36 00 00 00 00 2e 83 f3 35 49 72 1e 39
       2.184379e-06 0.0 1.8143089e-06 0.00015110629
0002c0 a4 02 fb 35 f5 61 cd 39 01 df ee 34 42 08 f3 31
       1.8701726e-06 0.0003917363 4.449321e-07 7.0731696e-09
0002d0 00 00 00 00 06 8f 22 34 f6 46 a6 34 c7 42 93 31
       0.0 1.5139457e-07 3.097154e-07 4.285855e-09
0002e0 00 00 00 00 6f 5e 24 34 ce 99 91 34 1f 74 91 31
       0.0 1.5308045e-07 2.7120262e-07 4.233257e-09
0002f0 00 00 00 00 7a 7d 1b 34 1c 7a b3 34 40 40 a7 31
       0.0 1.4481148e-07 3.3430194e-07 4.867644e-09
000300 00 00 00 00 48 0f 1e 34 4e 98 85 34 b4 c9 a4 31
       0.0 1.4720456e-07 2.4883997e-07 4.795959e-09
000310 00 00 00 00 f5 16 db 33 18 93 b7 34 d8 c0 b4 31
       0.0 1.0202158e-07 3.419343e-07 5.2606133e-09
000320 00 00 00 00 c2 7b c7 33 97 b3 45 34 42 f5 fd 31
       0.0 9.289171e-08 1.8412389e-07 7.3911517e-09
000330 00 00 00 00 09 f5 aa 33 22 45 c9 34 a3 43 6e 31
       0.0 7.9608135e-08 3.7489468e-07 3.4672005e-09
000340 00 00 00 00 61 27 86 33 c9 ea 12 34 40 15 31 32
       0.0 6.247024e-08 1.3682724e-07 1.0307588e-08
000350 00 00 00 00 0d 06 93 33 0c e4 d0 34 40 9a 6f 31
       0.0 6.8463216e-08 3.8908945e-07 3.4866758e-09
000360 00 00 00 00 af 2d 17 33 3e 7f d5 33 fd 21 a2 31
       0.0 3.5198976e-08 9.9417306e-08 4.7186846e-09
000370 00 00 00 00 18 bf 95 33 06 f8 e1 34 8c ac d1 31
       0.0 6.973113e-08 4.2089977e-07 6.102317e-09
000380 00 00 00 00 76 91 26 34 63 70 aa 34 a9 68 0b 32
       0.0 1.5512873e-07 3.174674e-07 8.114662e-09
000390 00 00 00 00 32 4b 31 34 d7 7d a0 34 7c d4 04 32
       0.0 1.6511765e-07 2.9893883e-07 7.731725e-09
0003a0 00 00 00 00 8a 30 e6 33 0e 17 a9 34 0d 24 09 32
       0.0 1.0719039e-07 3.1495478e-07 7.9826465e-09
0003b0 00 00 00 00 b0 1d 24 34 2a 7a 8e 34 3c 1d c0 31
       0.0 1.528449e-07 2.6538447e-07 5.591259e-09
0003c0 00 00 00 00 0d 42 c0 33 eb 49 b5 34 aa 95 ac 31
       0.0 8.952711e-08 3.376766e-07 5.0228737e-09
0003d0 00 00 00 00 37 b6 e7 33 b0 b1 5c 34 66 27 8f 31
       0.0 1.07899204e-07 2.0553739e-07 4.166327e-09
0003e0 00 00 00 00 45 5d a4 33 ae 5f c4 34 8d ea 6c 31
       0.0 7.653811e-08 3.657746e-07 3.4475847e-09
0003f0 00 00 00 00 c4 c4 a6 33 b9 2c 2b 34 9d 2a d0 31
       0.0 7.765769e-08 1.5941886e-07 6.0584413e-09

exp_avg f4 [128]
000000 a5 65 8d 3a 04 c9 90 b9 bf 22 a2 b9 3b c2 9e b9
       0.0010787739 -0.0002761559 -0.00030924936 -0.0003028082
000010 dc 5e c2 3a f0 8b 8b ba d6 62 04 b8 9d 87 ab b9
       0.0014829296 -0.0010646563 -3.15633e-05 -0.000327167
000020 e6 4a 46 39 2b 79 90 ba 9c c4 f3 39 3e 2d 90 39
       0.00018910653 -0.0011022439 0.00046495057 0.00027499528
000030 1c ed 90 3a bc f7 00 b9 3b 92 2e b7 4a ff a4 39
       0.0011056992 -0.0001229932 -1.0405255e-05 0.00031470723
000040 65 ed 48 3a a1 5b 4e bb f4 9e d2 3a 08 3a 96 3a
       0.0007664769 -0.003148772 0.00160691 0.0011461386
000050 19 e2 91 3a b1 c9 91 ba 97 08 24 3b de 9e 5d b9
       0.0011130004 -0.0011122731 0.0025029534 -0.00021135385
000060 d9 07 c3 39 39 ae 58 39 0c b1 f0 b9 f9 30 40 3a
       0.00037199145 0.00020664268 -0.00045908277 0.0007331516
000070 31 3a 73 39 46 6a 15 bb ab b4 62 3a 98 62 28 ba
       0.00023195964 -0.002279894 0.00086481374 -0.0006423383
000080 c6 42 ef 39 a1 a2 09 3a 7f 0c 8e 3a 55 b8 ae ba
       0.00045635382 0.0005250369 0.0010837464 -0.0013330082
000090 84 e7 0d 39 b2 4c ae b9 da 16 9f 3a 5e 40 80 ba
       0.00013533054 -0.0003324501 0.0012137548 -0.0009784808
0000a0 34 81 27 b8 d9 ca b5 3a 0e 3f cf 39 b3 85 89 39
       -3.9936232e-05 0.0013869657 0.00039529096 0.0002623029
0000b0 19 a6 71 38 27 f1 07 bb cd ef 30 3a 50 ae 65 39
       5.7613568e-05 -0.0020743103 0.00067496 0.00021904078
0000c0 47 ff 05 b8 4b 73 9b b9 20 26 19 3a 16 d1 e2 37
       -3.1947417e-05 -0.00029649804 0.0005842168 2.7038663e-05
0000d0 0a 53 ab b9 a9 22 16 37 60 80 0b 3b 27 35 e4 ba
       -0.0003267753 8.948767e-06 0.0021286234 -0.001741086
0000e0 b7 7f b8 b9 44 5b d6 39 95 2f e1 3a 0c 72 be b7
       -0.0003519037 0.0004088526 0.0017180318 -2.2702872e-05
0000f0 76 f7 1a 3a 1c 95 ad 39 af 14 04 bb 52 5f 36 ba
       0.00059115083 0.00033108226 -0.002015393 -0.0006956953
000100 cd 07 41 b9 06 ea 8f ba 66 fe e6 ba 97 47 96 38
       -0.0001840882 -0.0010979779 -0.0017623424 7.165892e-05
000110 68 bd 2d ba 68 03 19 38 35 83 79 ba e7 af a2 3a
       -0.000662765 3.6481215e-05 -0.00095181476 0.0012412042
000120 62 18 e8 b9 63 28 20 ba 4a fb 3e 3a e9 b1 5b ba
       -0.00044268655 -0.0006109534 0.000728537 -0.00083806977
000130 4f d9 5d 39 3e f0 1a b9 5d 97 7e 38 1f 6a cc 3a
       0.00021157156 -0.00014776082 6.0699287e-05 0.0015595591
000140 81 11 09 3b 44 cd 85 3a 1a b7 65 b9 33 71 f1 ba
       0.0020914974 0.0010208269 -0.00021907352 -0.0018420577
000150 e5 48 b1 ba 9b 89 18 3a 25 32 24 3a 28 10 dc 39
       -0.0013525753 0.00058188447 0.00062635756 0.00041973707
000160 4e e5 a6 3a 6a b6 aa b9 30 10 03 3a 66 ea 7a 39
       0.0012733133 -0.00032560836 0.00049996655 0.00023929178
000170 0c 39 89 ba 93 7c 6e ba 78 38 34 bb 59 a3 83 3a
       -0.0010469272 -0.00090975425 -0.0027499478 0.0010043188
000180 37 db 76 3a 34 b6 df 39 de e7 ee b8 19 19 8e b8
       0.0009416821 0.00042669626 -0.00011391913 -6.7757624e-05
000190 30 56 a0 b9 93 60 3e 3a de 71 bd 39 72 48 8a b9
       -0.00030581793 0.00072623155 0.00036133727 -0.00026375387
0001a0 a9 f6 22 b9 d4 59 88 b9 7f 25 aa b8 c3 5b a0 ba
       -0.00015541412 -0.0002600687 -8.113216e-05 -0.0012234378
0001b0 c1 2d b6 39 f0 6e 45 b9 04 0f a8 ba 65 5c 02 ba
       0.00034747834 -0.00018828711 -0.0012821858 -0.00049728743
0001c0 e0 77 2b ba 12 54 a5 b9 af 65 b3 b9 5c 01 e9 b9
       -0.0006540995 -0.0003153389 -0.000342173 -0.00044442236
0001d0 66 99 a4 b9 63 f4 f7 ba 78 c2 0c bb f7 ef c9 b9
       -0.00031394808 -0.0018917437 -0.0021478217 -0.00038516495
0001e0 c7 f9 ac b9 5b ae f4 38 b8 9a 8c 3a 65 50 26 3b
       -0.00032992495 0.00011667303 0.0010727262 0.0025377509
0001f0 df 50 e1 3a ce 3d 32 bb 50 0d 5e b8 e1 d7 22 3a
       0.0017190239 -0.0027197483 -5.2941323e-05 0.0006211978

exp_avg_sq f4 [128]
000000 c2 19 7f 36 87 c9 b5 35 54 3b 3d 36 19 40 69 36
       3.8012954e-06 1.3544203e-06 2.8197728e-06 3.4757015e-06
000010 ac 43 56 36 4c 7d 75 36 69 d4 67 35 40 f4 2d 35
       3.1927875e-06 3.6580777e-06 8.6363303e-07 6.480295e-07
000020 9e 2d 28 34 ec ef be 36 8c d8 a8 35 58 79 2d 36
       1.5662815e-07 5.690372e-06 1.2579999e-06 2.584964e-06
000030 75 d6 16 37 02 44 41 34 07 82 1e 33 61 41 c4 36
       8.990629e-06 1.7999267e-07 3.69055e-08 5.8488663e-06
000040 63 69 a6 35 f1 e9 72 37 74 c8 3d 36 fc bf 05 36
       1.2398635e-06 1.4478793e-05 2.8279874e-06 1.9930294e-06
000050 00 0d a2 36 13 7c 99 36 cb d9 02 37 da f8 19 35
       4.8294896e-06 4.5741995e-06 7.799313e-06 5.735907e-07
000060 3e 97 a7 35 55 68 1c 35 66 2c 84 35 7a 60 e6 35
       1.2486487e-06 5.826635e-07 9.847688e-07 1.7164414e-06
000070 a2 84 18 36 c6 f1 58 36 3f 50 b1 35 dc 47 df 36
       2.2726967e-06 3.2327239e-06 1.3210882e-06 6.6542834e-06
000080 c3 33 d9 35 20 d5 19 35 02 76 5b 36 08 c1 00 36
       1.6182825e-06 5.730708e-07 3.2702233e-06 1.9185845e-06
000090 08 cb 18 37 4f f7 ba 34 0b 15 e2 36 d6 f2 3d 36
       9.107178e-06 3.482514e-07 6.7377746e-06 2.8304544e-06
0000a0 bc cc 74 33 43 67 b2 36 39 71 43 37 2d 91 88 35
       5.6996882e-08 5.3168346e-06 1.1649267e-05 1.0175041e-06
0000b0 8c 91 fd 33 2a b0 82 36 25 01 12 36 af 76 c0 34
       1.18077054e-07 3.89481e-06 2.1756362e-06 3.584914e-07
0000c0 b0 d4 7b 33 5e 50 b8 36 9f b4 e1 35 4b a2 bf 34
       5.863393e-08 5.4929833e-06 1.6816374e-06 3.5694606e-07
0000d0 6a 7e c3 36 67 fe ee 33 44 da 36 37 a1 05 26 36
       5.8261694e-06 1.1129014e-07 1.0898864e-05 2.4739204e-06
0000e0 e3 1e 5b 35 16 e8 b6 36 2c 8e 2a 36 83 38 be 35
       8.1628804e-07 5.451041e-06 2.541473e-06 1.417255e-06
0000f0 21 9d 8d 35 3f d2 dd 34 86 b9 5d 36 7b 5e de 36
       1.0551049e-06 4.1317432e-07 3.3039555e-06 6.6271145e-06
000100 d9 42 55 36 66 d0 38 36 1f ce 6c 36 73 a2 89 36
       3.1778384e-06 2.753944e-06 3.5286719e-06 4.1018297e-06
000110 d2 b2 48 36 1a ca 0c 33 78 33 8b 36 fe ba 06 37
       2.990641e-06 3.27801e-08 4.1485146e-06 8.03056e-06
000120 7b bc 17 36 92 69 83 35 4f 86 cf 35 ff c8 b8 36
       2.2610463e-06 9.790986e-07 1.5461791e-06 5.5070263e-06
000130 e3 70 4c 35 b7 d4 e4 34 15 ce e0 35 27 67 04 37
       7.6160194e-07 4.262308e-07 1.6749278e-06 7.89183e-06
000140 25 d4 a1 36 97 bb 0d 36 38 e2 02 35 f2 55 6b 36
       4.822871e-06 2.111983e-06 4.8757965e-07 3.5067756e-06
000150 fd a3 32 36 0a 12 86 36 33 b0 9e 35 46 0b d4 35
       2.661952e-06 3.995611e-06 1.1823198e-06 1.5798512e-06
000160 d2 1f 5f 36 3b 98 0a 36 c9 21 af 35 79 05 27 34
       3.3248111e-06 2.0652212e-06 1.3048349e-06 1.5555078e-07
000170 a8 e4 67 35 ab 46 a4 35 73 9a 24 37 fd 2d dd 35
       8.6386945e-07 1.2239519e-06 9.811122e-06 1.6479167e-06
000180 01 cc fb 35 47 d6 8a 36 45 e0 a8 34 4d b0 7a 35
       1.876033e-06 4.1376657e-06 3.1455616e-07 9.338881e-07
000190 ca 54 aa 35 2c e4 47 35 db 47 0b 37 c5 01 b1 35
       1.2690664e-06 7.446531e-07 8.301776e-06 1.3188043e-06
0001a0 50 98 92 33 0d d2 7c 35 04 db 1c 36 f6 d8 19 36
       6.82636e-08 9.418298e-07 2.3373295e-06 2.2925065e-06
0001b0 e0 23 7e 35 16 dd 7c 36 9c af 19 37 15 99 a5 35
       9.467458e-07 3.7679615e-06 9.160398e-06 1.2338011e-06
0001c0 00 ac e9 35 2d d1 4b 36 ce ea 97 36 d4 8f 16 35
       1.7409911e-06 3.0371114e-06 4.5274855e-06 5.608865e-07
0001d0 63 03 dd 35 5c 8d 4a 36 d4 d3 fb 36 cd 0d ae 34
       1.6466769e-06 3.0182628e-06 7.505043e-06 3.2420067e-07
0001e0 5b 43 1c 35 5d b1 fa 35 a8 b1 aa 35 5d 2e 13 37
       5.8212544e-07 1.8678071e-06 1.2717692e-06 8.772678e-06
0001f0 26 72 6c 36 0e 15 bf 37 21 3a df 35 5f 32 22 36
       3.5233184e-06 2.2778779e-05 1.6631712e-06 2.41692e-06
