results/HideAndSeek5_2/Hide/Hide-8999959.onnx (onnx, 161813 bytes, 7 tensors)

action_model._continuous_distribution.log_sigma f4 [1, 3]
00000000: 05e0 f0be dee9 abbe dcc9 01bf
-0.47045913 -0.33576864 -0.5069864

action_model._continuous_distribution.mu.bias f4 [3]
00000000: 1daf 08bc ba9f 853c 3638 21bb
-0.0083425315 0.016311515 -0.0024600155

action_model._continuous_distribution.mu.weight f4 [3, 128]
00000000: 35fb ffbc 237f 233d 407e 353c c506 aebd
00000010: 0f72 403d cac2 be3c e0ed af3c ce53 30bd
00000020: 3766 83bd d8b7 a7bd 1b0c 33bd 0861 2bbd
00000030: d3b7 3f3c 6dbb 08bd 48b1 213d 0c93 e2bc
00000040: ccb3 a6bc e70a c8bc 62b9 13bb 6876 10bd
00000050: 2671 9f3c 9a3d 03bd 4b81 6f3d 5321 1cbd
00000060: ab47 c03c c64a 323d e313 80bd e4b1 a53c
00000070: b9cc b03c 054d 953d e409 a9bd 83c5 933c
00000080: 11e7 fd3b 69ad febb 54cd e63c 96d4 86bc
00000090: 5ac0 3f3d c31b 08bd 8bf7 e5bb 3847 963c
000000a0: a049 e93c 94a0 6a3c 5ac0 b1bc c241 8abd
000000b0: 8903 9f3c 976e 78bd cb8e ad3c 44a2 b0bb
000000c0: 50e9 20bb 35ab 08bd aca0 c1bb e9e1 75bd
000000d0: 2b32 f7bb 9547 423d e682 033c 6a42 9abd
000000e0: 4ce3 c43a ee27 2a3b 5da1 133b 4c42 183d
000000f0: 9bc1 f73c 0e2a d7bb 36d7 2bbd 646b 55bd
00000100: ebf8 223d 59d0 ad39 3ffe 1d3d 867a 45bd
00000110: 09de acbc b007 ff3b 4a6d 4d3d c793 943c
00000120: 5e49 c93c 56a3 413d 2edc 33bd faeb 9d3c
00000130: c206 aebc a055 b2bd 3935 b63c b278 fa3c
00000140: 19a9 bdbd 2358 64bd 71d5 2f3d 4cca c43c
00000150: 23f3 7e3c 9dc6 103d 78d0 7dbc 0307 683c
00000160: d0be 993c b2c9 e13c 3815 713d e5f6 af3c
00000170: a606 0a3d c29d d6bd 940c 403d 1660 6d3d
00000180: d4e4 63bd 04a4 cdbd d267 553d d941 303d
00000190: 3ecf b8bd 9573 4b3d ec4f ed3b 1605 ffbc
000001a0: b67e 2bbd 5dc8 7e3c 79b0 ad3c 19d5 99bb
000001b0: b29f 9bb9 1bbb 223d e164 823d c016 103d
000001c0: df52 57bd 5dc9 d33c 68b4 113d 5edf 2ebd
000001d0: 60b2 8ebd a66e bcbd 887a 64bc 5165 183d
000001e0: bf0b db3c b58f e73c 4553 683c bd8b 223d
000001f0: b677 123d 675d 793d e1a9 7bbc f675 4e3d
00000200: f66e afbd 1be1 39bc 87f2 eabb d3b9 f5bd
00000210: 5fd4 283d 933c b03d 1ba7 22bb c10e 4fbd
00000220: dd21 c73b 584e c8bc c744 163d 3f2e dabd
00000230: 7aa7 4c3c 6b2e d839 19c7 a9bc 83dc 8cbd
00000240: 0b46 0c3d c7e1 833d d9df 483d c13e eebd
00000250: 6110 a23c 0ef7 2b3b a250 573c 57c8 43bd
00000260: b34f 1ebb 2b56 1c3d f9c0 653c e966 9bbd
00000270: 0787 26bd 2eaa 0f3c 93bd 2dbd 9bf1 1b3d
00000280: e7f2 67bc 428d a3bd 2b42 833d a51a c63c
00000290: 7a6a 6e3d 8848 833c 2f1f 153d 1ae0 ac3c
000002a0: 8f75 21bd fb16 d0bc 6f00 84bc a67f dcbd
000002b0: 7f2d 803d 5172 953a 49a4 453b d73a bc3d
000002c0: 7db8 1bbd 5839 c3bd 5bef e03c bd22 943a
000002d0: 5501 9ebd 6eb9 763d 13b5 80bc c85b 50bd
000002e0: 57c7 3a3c 5c61 7abc 0d06 1f3d e809 e6bc
000002f0: c23e 9ebc 0bd2 48bd fbd7 61bd d594 ab3c
00000300: b30b 7a3d 5136 0a3d cc53 dc3c 67c6 19bc
00000310: 82df 08be 4ca0 ea3c b86e 9abd 7d72 53bd
00000320: f3b7 323d b2b0 443c f2e0 523d 91fe b3bc
00000330: cb45 01be b3b9 9cbb b77b 7d3d b327 eebc
00000340: c461 fdbd c4e0 b73c ccda 993b aa68 a3bd
00000350: 6b87 813d 9372 6d3d f5ec 72bd 1b61 843c
00000360: 23d5 a4bc 9690 daba cc11 213c be42 d53c
00000370: 1531 6abd d15d abbd a6d6 02bc 988e afbc
00000380: 35bb 58bd a02a 88bd a1f9 88bd 1702 873c
00000390: 5e26 4abd 2102 a33d c000 333a e8ac e7bd
000003a0: 102c 83bd 2d67 6e3d b81b 2ebc ab59 193a
000003b0: c2e7 d33d 8875 65bb a34d 3a3d dce0 083d
000003c0: 09cf 86bd 2f18 413d b722 69bc 726d 75bc
000003d0: 2603 883c b469 03be 86b5 37bc fb1b a23c
000003e0: 4c1d f13c 8729 963b c25c 9e3d 5314 183d
000003f0: 1f86 68bd 1429 653d ee6c 5abc 14c8 503d
-0.031247715 0.03991617 0.011077464 -0.08497385 0.046983775 0.023286242 0.021475732 -0.043048672
-0.0641598 -0.08189362 -0.043712717 -0.041840583 0.011701542 -0.03338187 0.03947571 -0.027658008
-0.020349406 -0.024419261 -0.0022540917 -0.03526917 0.019463133 -0.03204117 0.058472913 -0.038117718
0.023471674 0.04352834 -0.06253793 0.020226426 0.021581994 0.07290081 -0.082538396 0.018038517
0.0077484925 -0.007772137 0.02817408 -0.01645879 0.0468143 -0.0332296 -0.007018035 0.018344507
0.02847749 0.014320511 -0.021698166 -0.067508236 0.019410865 -0.06065234 0.021186253 -0.0053904373
-0.0024553128 -0.0333664 -0.005909046 -0.060029898 -0.0075438223 0.047431547 0.008026814 -0.07532199
0.0015021353 0.0025963741 0.00225266 0.0371726 0.030243685 -0.0065662926 -0.041953288 -0.05210437
0.039788168 0.00033152362 0.038572546 -0.04821255 -0.021101968 0.007782899 0.050153054 0.018136872
0.024571117 0.04727491 -0.04391115 0.019277561 -0.021243457 -0.08707738 0.022242175 0.03057513
-0.092607684 -0.055748116 0.042928163 0.024022244 0.015560898 0.035345662 -0.015491597 0.014161828
0.018767744 0.027561996 0.058858126 0.021480033 0.033697747 -0.10479309 0.046886995 0.057952963
-0.05563815 -0.10041049 0.052100964 0.043031547 -0.09023903 0.049670774 0.0072421934 -0.031130355
-0.041868888 0.0155507 0.021202313 -0.0046945927 -0.00029682886 0.03972922 0.063668974 0.035177946
-0.052569266 0.025852853 0.03557244 -0.04269349 -0.06967616 -0.09200792 -0.013945229 0.037205998
0.026739 0.028266767 0.014180009 0.039684046 0.035758696 0.06088009 -0.0153603265 0.050405465
-0.08566086 -0.011345173 -0.007170025 -0.11998334 0.041218158 0.086053036 -0.002481884 -0.05055118
0.006077035 -0.02445142 0.036686685 -0.10653352 0.012491101 0.00041233315 -0.02072482 -0.06877997
0.034246486 0.06439548 0.049041603 -0.11633063 0.0197832 0.0026239785 0.013141783 -0.04779848
-0.002415639 0.038168114 0.014023059 -0.07587988 -0.040656116 0.008768601 -0.04241712 0.03807221
-0.0141570335 -0.07985927 0.06409105 0.024182627 0.058207013 0.016025797 0.036406692 0.021102954
-0.039418753 -0.025401583 -0.016113488 -0.107665345 0.06258678 0.0011401867 0.0030157736 0.0919091
-0.03801774 -0.09532422 0.027457884 0.0011301857 -0.07715098 0.060235433 -0.015711343 -0.05086878
0.011400065 -0.015282001 0.03882413 -0.028080896 -0.019317035 -0.049028438 -0.055137616 0.020944992
0.061046313 0.033743206 0.026895426 -0.009385682 -0.13366511 0.028640889 -0.07540649 -0.051622856
0.04363246 0.012005018 0.051484056 -0.021971973 -0.1262428 -0.0047828793 0.06188556 -0.029071664
-0.12372163 0.022446044 0.004695272 -0.079789475 0.06324657 0.057970595 -0.05930801 0.016159585
-0.020121163 -0.001667517 0.009830903 0.026032802 -0.057175715 -0.083675034 -0.0079857465 -0.021430299
-0.05291291 -0.06648755 -0.06688238 0.016480489 -0.049352996 0.079593904 0.000682842 -0.11312276
-0.06404889 0.058203865 -0.010626726 0.00058498484 0.10346939 -0.003501268 0.045484196 0.033417568
-0.065824576 0.047142204 -0.014229468 -0.014979707 0.016603064 -0.12833291 -0.011212712 0.019788733
0.029432915 0.004582587 0.07732536 0.037128758 -0.056768533 0.05594738 -0.013331635 0.05097206

network_body._body_endoder.seq_layers.0.bias f4 [128]
00000000: ef20 5e3c c67d 76bc 2a67 fa3c dc8d d03c
00000010: a170 f53c 4a78 6dbc 2a73 d73a ddc7 f7bb
00000020: d941 92bc 5f86 753c 6df2 263c a32f 4f3a
00000030: c073 4a3d 6453 c4bc df78 4fbd e1a8 053d
00000040: 85e6 9f3c bd8f ca3c 43b6 1fbb cd99 aeba
00000050: d74c 903c dea9 d13c c46c 073d 1e72 e33b
00000060: 7350 473c 71de 13bc 38f2 a7bb 11f7 d0bc
00000070: 95a2 673c 902e c53c e335 c3bb 4d71 4e3c
00000080: 60fc e73c 7435 1dba 519d 303c 13ea d83c
00000090: ee04 203c 6e29 4bbc 7d4c a73c bd78 213d
000000a0: 7eb9 69bc cecc 1cba 02fa 353b 90c3 21bb
000000b0: 5994 ddbb 31c6 363d e05d 87bb 6ad1 41bc
000000c0: 4572 d1bc f70b a03c fc7e a53c c150 323c
000000d0: e9d4 873d 44b2 22bc ab60 3d3d 7382 5c3d
000000e0: bc35 0ebc 21a8 a13c 31fb 933c b3af 44bc
000000f0: 6815 8dbc 694c 73bc 22f9 953c 1e33 523d
00000100: 34d0 0f3c 4275 f83c 1d3e 063d ffad 0dbc
00000110: f1ea ba3c 27c4 11bd 9bb7 093d aef1 4c3b
00000120: a666 c93c 2247 6f3c f8ea 2b3c 418d a63a
00000130: 6d26 bbba d933 88bc e341 d93c 21f5 b73c
00000140: 73e2 973c aeaf 373a 49c3 62bb 1356 80ba
00000150: c32b 273d 49f7 253c 5b31 abbc d3b3 823c
00000160: d298 783d 32a6 973c 9569 433c beb5 13bc
00000170: 3bb3 d63b f18c 163c b1fe 463b 436f 1b3c
00000180: 0150 c6bb 3d38 cb3b 67d4 ecbc cee4 a83c
00000190: ed08 963c d8fd 2d3c b001 ca3c b298 0e3c
000001a0: 95a5 80bc a7fe 54bc 5292 a03c bcdd 0f3d
000001b0: f8c3 babb f6ce ab3c a6e5 353c ffbb 40bc
000001c0: af72 2d3c 892a 5d3c 2bbc 6d3c eeef 21bc
000001d0: 1ec7 d5bc cf74 dd3c a46f f03c ee86 7e3b
000001e0: 6a0e 823b 8556 2cb9 3d85 fcbb 0fa5 b23c
000001f0: 9e8b c43c 54b7 353c f0a1 84bc f1b2 b2bb
0.013557657 -0.015044635 0.03056677 0.025458269 0.029960932 -0.014494011 0.001643752 -0.0075616674
-0.017853664 0.01498565 0.010189635 0.0007903522 0.049426794 -0.023965545 -0.05065238 0.03263176
0.0195191 0.024726743 -0.002437011 -0.0013320983 0.017614765 0.025593694 0.03306271 0.006941094
0.012165177 -0.009025202 -0.0051253103 -0.025508435 0.014137884 0.024070054 -0.0059573515 0.012600255
0.028318584 -0.000599704 0.010779695 0.026478803 0.0097668 -0.012400014 0.020422215 0.039421786
-0.014265416 -0.0005981446 0.0027767424 -0.0024683215 -0.006762069 0.044622604 -0.004131064 -0.011829713
-0.025567183 0.019536955 0.020202152 0.010883511 0.06632406 -0.009930197 0.046234768 0.053835344
-0.008679803 0.01973349 0.018064113 -0.012004781 -0.017222121 -0.014849761 0.018307272 0.05131828
0.008777667 0.03032935 0.03277408 -0.008647441 0.022817107 -0.035587456 0.033622365 0.0031271982
0.02458508 0.014604362 0.010493033 0.0012706892 -0.001427842 -0.016626285 0.026520675 0.022455754
0.018540597 0.00070070743 -0.0034601262 -0.0009791277 0.04081322 0.010129758 -0.020897558 0.015954887
0.060692616 0.018511865 0.011927028 -0.009015499 0.0065521277 0.0091888765 0.003036421 0.009486976
-0.0060520177 0.0062017725 -0.028909875 0.020616915 0.018314803 0.010619603 0.024659008 0.008703398
-0.015703956 -0.013000167 0.019601021 0.03512357 -0.005699631 0.02097271 0.011102116 -0.011763572
0.010586425 0.013498911 0.014510195 -0.009883864 -0.026095923 0.027033238 0.02935011 0.0038837749
0.0039690034 -0.0001643543 -0.007706313 0.021807222 0.023992356 0.011091072 -0.016190499 -0.0054534604

network_body._body_endoder.seq_layers.0.weight f4 [128, 179]
00000000: eaa9 b43d dc3e 8d3d 6bdc cd3d 7cf9 febc
00000010: 5fc8 803d 1bb5 84bd 67a1 e6bd ba36 a9bd
00000020: 1e8a 23bd cf76 c33c ec8c 58bb e1a5 1a3d
00000030: c1d5 433d 4bf3 463e 2493 c9bd 746d 39bd
00000040: 423a 0dbc 5416 673d 3ae8 91bd 1407 45bc
00000050: 13ca 3f3e 76dd 86bd 3dd4 4b3c c161 ce3c
00000060: d213 87bd b22e 83bc 306a 733d 9b41 80bc
00000070: 9ca1 613e d167 363e 9187 1c3e a065 393c
00000080: bd5e 50bd ee0a 633d 5638 6ebc 8609 893c
00000090: b1c2 d83c f53c c43d 55b8 22be 731f e5bd
000000a0: 998d e03d 5202 40be f355 ef3d 0b07 273d
000000b0: 7e7a 00be ca74 143d 9210 de3c d95f 44bd
000000c0: 4df1 f83d 1c05 723b 1f86 963d 9750 12bd
000000d0: b239 3a3e 98f7 fcbb 319a 223d 0640 fbbd
000000e0: cd1b b23c c3b7 c8bc c2db 033e d262 36bd
000000f0: 77bc d13d 84e8 69bd dfbf 14bd 8e78 453d
00000100: 1865 25bd fa4f 0cbd 64c9 3fbe 4e9e c2bd
00000110: 67c2 0fbd e36f ec3d 0520 283e 14f5 c1bd
00000120: 9417 713d 1130 933c ff2a b9bd 3d2b 89bd
00000130: eee6 bd3c 398a dabd ee5f 35bb ff6e 993d
00000140: ffc2 66bd c255 ca3d 1501 42be 83c3 73bd
00000150: c7ba 91bd abbd 92bc 44a6 003d 8873 b8bb
00000160: bb15 7e3d bb04 8b3d cccb a13d f8f9 03bd
00000170: 176d d83d 6ef7 363e 7e82 b13c f138 be3d
00000180: 3982 babc 555f b3bd 6b11 7e3e aef3 f03d
00000190: b28c 9ebd 5d6b adbd dfd9 533d 7147 a6bc
000001a0: e879 42bd bc86 2b3d d1b1 01bd 5dbc 81bd
000001b0: 5ad7 8cbd e674 403e 01e4 6b3c bb26 38bb
000001c0: 333d 40bc 2f3a 63bc fa64 6fbd a444 6ebd
000001d0: 09fc 6b3c b4c3 bdbc ee03 1ebe 2f6e 07bc
000001e0: 5e34 473d 5581 adbd 40db 05be 342e 783c
000001f0: 1af3 f0bb e856 a7bc 4c00 59be cba7 b63d
00000200: d75a de3d 98d9 a3bd 7a43 503e acd0 923d
00000210: 7e79 b93c 5c96 9b3d b59a 6cbd 2fb4 0e3b
00000220: 4898 fa3d 7606 6abd ee2c c6bd ef53 b6bc
00000230: 95ad ffbd 7317 28bd 0687 cabb 36d4 e93c
00000240: 811a 933d f04c 9d3b efab ae3d bea7 fd3d
00000250: d184 0abe 4d7c c5ba bd80 61bb 76ff e5bd
00000260: d422 3bbe 305f 89be ddda bdbc 4e5d 0a3e
00000270: 1106 843d 5b79 80bd 6545 953d e573 8d3d
00000280: 099a 91bd 78df 883d 3bbd a0bd 2ed3 e0bc
00000290: 72ee c33c 20ae 713d 2fbe 3c3b b152 f93d
000002a0: 9eb2 4c3d 9fee c83d e9a0 c1bc ddec 08bd
000002b0: db8b 973e 1d83 eebc 9745 663e c78a afbc
000002c0: fd80 dbbc 4fed ad3d c4ca 8ebd 518d 033e
000002d0: 5629 0f3d 2925 343c aa18 67bd 3546 06bd
000002e0: 1fa0 90bc 41d6 49bd 6cf4 e13d 1e74 253d
000002f0: f310 0fbe 1ae5 fabb 4543 773c 788c 963d
00000300: 075b 9bbd a8ad 02bc 5a2f b43d bd58 ba3d
00000310: 356b 1a3c ed17 ed3d 9d51 f23d e06a 04be
00000320: 6f53 c8bd 975a 42bd a2da 223d 3ef5 c63d
00000330: 3fc5 df3c a4ff 6a3d f780 c4bd b617 19be
00000340: 074e b73b 17e5 edbd 4cff 583c 46bd 7d3d
00000350: bde7 403d dec3 3cbe 62bc 1dbe 9f0f 5b3b
00000360: d0a1 c1bc bdc4 cbbc 8a1b aa3d 679f 303e
00000370: 0f09 35bd 404a 00be 08f5 0a3e 979f 393e
00000380: 9050 203e 4484 1ebd 6252 aa3d a1b3 033e
00000390: 9002 db3d 82ee 8fbb df2f 0c3e a80f 723c
000003a0: 65ed 7f3d f777 dabd b7b2 57bd 940c 713d
000003b0: 0612 cc3d 7456 aebd e787 e13d 1204 a9bc
000003c0: 27f3 75bd fea1 83bd d949 653d ed45 c63c
000003d0: 1b5e c43d 2b71 503c 0d90 073e 1c8a 32be
000003e0: 71f6 b63c e63e d3bd 7906 8abd 2e14 4b3e
000003f0: 1970 e53d f4cb 823d 294f b13c 6ca8 873d
0.08821471 0.06896755 0.10051807 -0.031124823 0.06288218 -0.064798556 -0.11261254 -0.082623914
-0.03992664 0.023860363 -0.003304298 0.03775585 0.047811273 0.19428746 -0.09842518 -0.0452704
-0.008619847 0.056417778 -0.07124372 -0.012025613 0.18729429 -0.06585209 0.012440738 0.025193097
-0.06595577 -0.016013477 0.05942744 -0.015656283 0.22034305 0.1781304 0.1528609 0.011315733
-0.0508716 0.055430345 -0.014539799 0.016728174 0.026460024 0.09581939 -0.1589063 -0.11187639
0.109645076 -0.18750885 0.116863154 0.0407782 -0.12546727 0.03624419 0.02710751 -0.04794297
0.121553995 0.0036929315 0.073498 -0.035721388 0.18186072 -0.007719945 0.03969783 -0.12268071
0.021741772 -0.024501687 0.128768 -0.044527836 0.10241025 -0.05710651 -0.036315795 0.048210673
-0.040379614 -0.03425596 -0.18729168 -0.095028505 -0.035097506 0.11544778 0.16418464 -0.09470573
0.058860376 0.017967256 -0.09041404 -0.066977 0.023181405 -0.10670895 -0.0027675587 0.07491874
-0.056338307 0.09879638 -0.18945725 -0.059512626 -0.07115703 -0.017912706 0.031408563 -0.005629007
0.062032443 0.06788012 0.07900199 -0.03222081 0.10567682 0.17867824 0.021668669 0.092882045
-0.022767173 -0.087584175 0.24811332 0.11765228 -0.07741679 -0.084677435 0.05172145 -0.020297738
-0.04747954 0.04187654 -0.03166372 -0.063347556 -0.068770126 0.18794593 0.014397622 -0.0028099257
-0.011733341 -0.0138688525 -0.058445908 -0.05817093 0.014403352 -0.023164608 -0.15431187 -0.008266016
0.048633926 -0.08471934 -0.13071918 0.015147734 -0.0073531987 -0.020427182 -0.2119152 0.08918723
0.1085717 -0.08000487 0.2033824 0.07168707 0.02264094 0.07597038 -0.057764728 0.0021774878
0.122360766 -0.057135068 -0.096765384 -0.02225682 -0.1248428 -0.041037988 -0.006180647 0.028543573
0.071827896 0.0048004314 0.085288875 0.1238551 -0.13527228 -0.0015066952 -0.003440901 -0.11230366
-0.18275005 -0.26830435 -0.023175651 0.13512155 0.064464696 -0.06273147 0.072886266 0.06906871
-0.07109458 0.06683248 -0.07848593 -0.027444448 0.02391741 0.05900395 0.0028799882 0.12173975
0.04997503 0.09811138 -0.023636298 -0.033429015 0.2959889 -0.029115254 0.22487484 -0.021428479
-0.026794905 0.08492529 -0.06972268 0.12846877 0.03495153 0.010995188 -0.056420006 -0.0327818
-0.017654477 -0.049276594 0.11032948 0.04039394 -0.1397131 -0.0076567056 0.015091722 0.07351011
-0.075857215 -0.007975973 0.08798094 0.09098957 0.009424974 0.11576829 0.11831973 -0.12931395
-0.09781539 -0.047449674 0.039759286 0.09714745 0.027315734 0.057372704 -0.095949106 -0.14950451
0.0055940184 -0.11615961 0.013244461 0.061948083 0.047096003 -0.18434092 -0.15403894 0.003342606
-0.023636729 -0.024874086 0.08306034 0.17248307 -0.044198092 -0.12528324 0.13570035 0.18127285
0.15655732 -0.038700357 0.083164945 0.12861492 0.10693848 -0.004392446 0.13690136 0.014774241
0.062482256 -0.10667413 -0.05266067 0.058849886 0.09964375 -0.085125834 0.110122494 -0.020631824
-0.06004634 -0.06427382 0.05597863 0.024203265 0.09588262 0.012722294 0.13238545 -0.17435497
0.02233431 -0.10314731 -0.06739516 0.19831917 0.112030216 0.06386557 0.021644192 0.06623921

network_body._body_endoder.seq_layers.2.bias f4 [128]
00000000: 77f7 cb3b 3c5f 8bbd 2f8c 09bd 6a58 d83c
00000010: 8ed6 c43c 9c7a 903c ccdb 493a f09d 3e3c
00000020: 94aa 873c d809 483d 283c 423c a101 92bc
00000030: 2e4e 703b 3062 a03c 8033 6fbc cb59 2f3c
00000040: 6cb8 fe3b 75e8 513c 3463 593c 0e8c 60bb
00000050: e75f 483c 607e 913c e5d0 cdbb bc28 c53a
00000060: 467d bfbb 5e79 043c 2288 8e3c 29ab 4a3d
00000070: 703c de3b 8a4e a83c d691 bd3c ddcf 01bd
00000080: 6c4f bebc 4206 cf3b f96e 6abb 77ac ecbb
00000090: 14fb 03bc 27e3 813c 8102 9dbb 07d4 b1bb
000000a0: 7c1a 923b 6e66 fbbc 14e0 c6bb 1b2d be3b
000000b0: 4475 683c 3585 c53c 439c 95bc 84a7 db3c
000000c0: 7dc6 e0bc 55cb 79b9 aceb 1f3c f0e3 313b
000000d0: 52f2 7b3c bde6 a33b ef08 3fbc 5875 343d
000000e0: 4740 12bd 120f bd3c e8e0 1bbc bf2d 573c
000000f0: 8d2c 3abc f3e5 973b 6b1e 8c3c 6583 ea3c
00000100: 64fc e53c b2de 4aba 4102 67bc bcc8 fa3a
00000110: 9139 4dbb 8319 9fbc d5b5 da3c 935d 83bc
00000120: b032 df3b 01c7 0d3b 775e 773c ce36 923b
00000130: 6363 fe3b 67ae 1a3c 4bfd 963c 2ba4 00bc
00000140: 2f77 493d b89b ab3c a26f 4ebc d724 613c
00000150: da38 a83c 4926 fd3c d6ec 60bc 0d2b 143c
00000160: 6849 5cbb 02f9 2e3c a3e4 9a3c 763a f2bb
00000170: 402c 943c 0d0f 403d 362e fdba 17c3 71ba
00000180: 7826 293d 4f0d f23c 32a7 b43c 05bb a63c
00000190: af39 863c 5133 ac3c ff42 92bc 849b bb3c
000001a0: e431 0c3a bf2f 1b3c 71b3 1bbc e2c1 a03c
000001b0: 0d23 a83c 296b 1d3d bd4a 523c 7c30 49bc
000001c0: 06c2 98bb d214 39bd 3b3e a9bc 99d8 e23b
000001d0: 40f3 cd3c 0819 e83c 107c efbc 70d7 9e3c
000001e0: 53cc e2bb e808 d0bc 1f77 093d 4861 a63c
000001f0: a14b 9eba ae1c 973c be6b 0cbc ff52 903c
0.0062245685 -0.06805274 -0.033580955 0.026409347 0.024028089 0.01763659 0.0007700294 0.011634335
0.01656083 0.048837513 0.011855163 -0.017823042 0.0036667692 0.01957807 -0.014599681 0.010702561
0.0077734496 0.01281177 0.013268281 -0.0034263167 0.012229896 0.017760456 -0.0062810057 0.0015042047
-0.005843791 0.008085577 0.017398898 0.049479637 0.006782107 0.020545263 0.023140829 -0.031692374
-0.02323123 0.0063178847 -0.0035771711 -0.007222708 -0.008055467 0.015855385 -0.0047915583 -0.005426887
0.0044587236 -0.03068849 -0.0060691927 0.005803717 0.014188115 0.02411137 -0.018262988 0.026813276
-0.027438397 -0.00023822238 0.009760778 0.0027143918 0.015377598 0.0050018714 -0.011659845 0.04405722
-0.03570583 0.023078475 -0.009514071 0.013133465 -0.011363161 0.0046355664 0.017104348 0.028627107
0.02807445 -0.00077388727 -0.0140996585 0.001913331 -0.003131483 -0.019421345 0.026698032 -0.01603583
0.0068114623 0.0021633508 0.015098206 0.0044620996 0.0077633127 0.009440995 0.018431326 -0.007851641
0.049185928 0.020948276 -0.0125998575 0.013741693 0.020534921 0.030902045 -0.013728341 0.009043467
-0.003361309 0.010679485 0.01890785 -0.007392223 0.018087506 0.046889354 -0.001931614 -0.0009222491
0.041296452 0.029547362 0.022052381 0.02035285 0.016384928 0.021020563 -0.017854212 0.022901304
0.00053480105 0.009471833 -0.009503231 0.0196237 0.020524526 0.038432274 0.012835202 -0.012279626
-0.0046618013 -0.04518587 -0.020659557 0.006922793 0.025140405 0.028332248 -0.029233962 0.019389838
-0.00692133 -0.025394872 0.03356087 0.02031006 -0.0012076983 0.018446293 -0.00857061 0.0176177

network_body._body_endoder.seq_layers.2.weight f4 [128, 128]
00000000: 3c5d 283e 811a a03d 9018 253e 29a6 46be
00000010: d3ad 023c 57d4 b03c 5b35 9b3c 6214 1b3e
00000020: 25e0 1d3e 6fda 033d 741b ecbc 76e9 38be
00000030: f685 48be 9a98 e4bc 3b49 f3bd b090 ee3d
00000040: 945d 59bd ba8e 80be 5510 b13d 33b4 5d3e
00000050: 67c2 bdbd 5c82 65bd a190 9b3d 32fe 633c
00000060: 22f3 473d ec95 89ba 2d04 d03d 2bf3 e93c
00000070: 66a4 8ebd ac69 f63d 9173 dd3d 3d86 3cbe
00000080: c53b f33d d79f 80ba b97f 543d 338a 21be
00000090: cdc3 cd3a 25ce 8b3d 8a25 4e3e b7ff c13d
000000a0: d3fc 093d ebb2 c83c 3092 b33d 2a48 a03c
000000b0: bac8 83bd f8f0 1d3e 3964 09be 090b 88bc
000000c0: 7481 fdbd 2d97 89ba f61f 04be e04b b4bd
000000d0: d3f1 1b3d 75b9 7dbd 5767 54bc aebb fcbc
000000e0: ca06 133e 5798 a83d 0e3a 323d 4b12 4dbd
000000f0: 0f5f 89bd 967d 3d3e 70f2 6b3d d83a 69be
00000100: 1783 c3bc 484c 2c3c 5c52 cdbd e3c9 ea3d
00000110: 32f2 1b3e d2cb 2ebd 08fd 5bbd 5282 513e
00000120: bc47 543d ff5c ed3d 9113 f93d 8f98 2b3e
00000130: ac6c 5bbd 872f b9bd 12cc 09be 8194 cd3d
00000140: 3578 d53d 05a0 a03d 7493 623d bec7 11bd
00000150: 12a2 c23c 5852 553d 56ba cdbd d3f0 d0bd
00000160: 119a 543c eb1b 92ba 6646 adbc d02d 35be
00000170: 9454 ca3d 2be0 55bd 7898 15be 73b3 4e3e
00000180: 6cab 00bd c5a5 ab3d bd08 f03d 828e 99bd
00000190: b307 5abc 8d1d 893c 4722 53bb 9b41 803c
000001a0: 8a3f 443d f7fb c5bd 7fc6 28bd 4c05 4a3c
000001b0: 4c98 4dbd 9ff0 1d3d f087 99bd a9b9 163d
000001c0: 266a 9aba 73e4 0dbc dca0 c8bd eaab 0a3d
000001d0: 2742 0abd 401f bf3b 041a 393e 9920 91bc
000001e0: 11b8 413e 7ee1 d03b 8f18 173e e131 e43d
000001f0: d6f5 97bd 5c75 7dbd d149 42bd 4ffc 2fbb
00000200: dce2 74be f132 a3bc 44c2 253d 6aed f7bd
00000210: 9224 d6bd 1a99 83bd a011 6d3d f6ba f23c
00000220: 1985 f13d f912 afbd 1738 2dbe f348 da3d
00000230: e915 69bd c66e 43bc 5da2 cf3d 9b21 22be
00000240: d303 c7bd fd9a 31bd 7aaa 94bd 2b03 24be
00000250: 80d6 793c 700c 91bd 8066 82bd 537c 26bc
00000260: 22f9 b73d 8f89 82bd 63e2 0e3d b62b 313e
00000270: 6677 f3bc ca1e acbc ebe5 fe3c e64d 0cbe
00000280: 11f9 923b b92a 1dbd 7995 87bd c905 853c
00000290: 3c55 84bd c6ff 03be aff4 863c 4b3b 2f3d
000002a0: a48e 33bc f5e9 4a3d 7971 653d d0f2 b53d
000002b0: bd4b 313d 4401 1bbe 31f5 4e3d ade4 04bd
000002c0: 03ef 9dbd 121a 5ebe 9714 b53d 4961 9abd
000002d0: dd9e d83c cf38 223e d46e 0abd f122 15bd
000002e0: b298 07bd 7cd1 a9bb 71ac 84bd 0f2f 0fbd
000002f0: 8938 f8bd a09b 25be 1ecd 02be edbe 79bd
00000300: cea6 b6bd b6d4 8f3e 1db1 8bbd f799 6ebe
00000310: 49e9 9ebc b4d5 90bd abca 42be ceb6 35bd
00000320: 624b 053d 4dc6 bd3c 555c 80be 2baa 373d
00000330: ebab 7ebd 1487 943c bfa5 d2ba eef5 94bc
00000340: 0fe9 2b3e 56a1 0dbe a853 4e3c 31be 9abc
00000350: 38ce 11be 2529 973d 6719 21be a634 153e
00000360: 99b3 ee3d 7b95 3cbc 3778 a6bc 23eb 2cbd
00000370: e320 07bd 1751 2abe f588 a53d fa94 3abc
00000380: 7ae9 c03d adfd 06be ab33 20be 1417 61bd
00000390: 67cb d8bd c0b3 1bbe 5288 843d bddc 863c
000003a0: 55e3 d3bd 933a 35be 3ca0 b83d 1161 c1b9
000003b0: 0a0e 493c de40 a1bd 391f 5c39 8eee 013d
000003c0: c5b3 82be 5883 493c 81f7 36be fa23 f23d
000003d0: a866 a439 1155 3dbd 067b 4ebd 5603 a0bd
000003e0: cf97 1b3e c02f 253d c2fd 28be 13e1 193b
000003f0: 8ca4 e6bd 0543 c13c 65b0 9d3d 1356 1ebd
0.16441816 0.07817555 0.16122651 -0.19399323 0.007976013 0.021585627 0.01894634 0.15144494
0.15417536 0.032190736 -0.028821684 -0.18057808 -0.19582352 -0.027904797 -0.11879202 0.11648691
-0.05306776 -0.25108892 0.08645693 0.21650772 -0.09265595 -0.056032524 0.07595945 0.013915585
0.048815854 -0.0010496951 0.101570465 0.028558334 -0.0696495 0.12031874 0.10813058 -0.18410583
0.118766345 -0.0009813261 0.05187962 -0.15775375 0.0015698612 0.06826428 0.20131508 0.09472602
0.033688378 0.024499377 0.087681174 0.01956566 -0.0643477 0.15423954 -0.13417138 -0.016606824
-0.12378207 -0.0010497324 -0.12902817 -0.088035345 0.03807242 -0.061944444 -0.012964091 -0.030851211
0.14358059 0.082321815 0.043512397 -0.050066274 -0.06707584 0.18504938 0.057604253 -0.22776353
-0.02386622 0.010516234 -0.100254744 0.11464288 0.15229109 -0.042674847 -0.053708106 0.2045987
0.051826224 0.11590003 0.12161935 0.16757415 -0.053570434 -0.09042268 -0.13456753 0.100380905
0.10423318 0.07843021 0.055316404 -0.03559088 0.023758922 0.052080482 -0.100453064 -0.102021836
0.012976185 -0.0011147236 -0.021151733 -0.17693257 0.09879413 -0.052215736 -0.14608943 0.20185642
-0.03141348 0.083812274 0.11720417 -0.07497884 -0.0133075 0.016737724 -0.0032216476 0.015656283
0.047912158 -0.09667199 -0.041204926 0.012330364 -0.05019407 0.038559552 -0.07496631 0.036798153
-0.0011780902 -0.008660424 -0.097963065 0.033855356 -0.033754494 0.0058325827 0.1807633 -0.01771574
0.18917872 0.006374537 0.14755462 0.11142326 -0.07419936 -0.0618795 -0.047433678 -0.0026853269
-0.23914665 -0.019921752 0.04046847 -0.1210583 -0.10456194 -0.06425686 0.057878137 0.029630166
0.117929645 -0.085485406 -0.16915928 0.10658445 -0.05690566 -0.011928266 0.1013839 -0.15833132
-0.09717526 -0.0433607 -0.07259078 -0.16016833 0.015248895 -0.070824504 -0.063672066 -0.010161477
0.08983065 -0.063738935 0.034883868 0.1730183 -0.02972002 -0.021010775 0.031115493 -0.13701591
0.0044852574 -0.03837082 -0.066203065 0.01623811 -0.0646157 -0.12890539 0.016474096 0.042781156
-0.010959301 0.049539525 0.05601642 0.088842034 0.04328512 -0.15137202 0.0505268 -0.032444645
-0.077116035 -0.21689633 0.08841818 -0.07538087 0.02644294 0.15841983 -0.0337971 -0.036410276
-0.033104606 -0.005182443 -0.06478203 -0.034956988 -0.12120158 -0.16172647 -0.12773558 -0.060973097
-0.08918534 0.28091973 -0.06820891 -0.2330092 -0.019398348 -0.07072011 -0.19022624 -0.04436379
0.032542594 0.023165846 -0.25070444 0.04484002 -0.062175673 0.018130817 -0.0016071125 -0.018183675
0.16788124 -0.13831076 0.012593187 -0.018889518 -0.14238822 0.073808946 -0.15732346 0.14570865
0.11655349 -0.011510248 -0.020320995 -0.04221643 -0.032990348 -0.16632496 0.08082763 -0.011388058
0.09419532 -0.13182707 -0.1564471 -0.05495365 -0.10585671 -0.15205288 0.064713135 0.016462678
-0.103460945 -0.17698126 0.09014937 -0.0003688415 0.012271414 -0.078737006 0.00020992466 0.031721644
-0.25527778 0.012299381 -0.17867853 0.11823268 0.00031357002 -0.046223704 -0.050410293 -0.07813136
0.15194629 0.04032874 -0.16503051 0.0023480102 -0.112618536 0.023591528 0.0769966 -0.038656306
